PytorchLearning/learn1/vggmodel/vgg_9.pth (torch, 587335 bytes, 10 tensors)

weight f4 [32, 3, 5, 5]
0.112306654 -0.104823336 -0.058790687 -0.035484217 -0.08715997 -0.0058059907 0.025717 -0.026450103
-0.070705146 0.091533214 0.11467345 -0.002735952 -0.013712306 0.06334351 -0.047310434 -0.09966777
0.07148716 -0.098139755 0.106780194 0.09656039 -0.06874286 0.053709358 0.050878096 0.110487275
-0.060743846 -0.04605576 -0.03566569 0.09827742 0.036781464 -0.10771738 0.06337554 -0.009025081
-0.09903111 -0.07661102 0.083881 -0.021646872 -0.08605389 0.04495276 -0.08272569 0.07782503
0.03735451 0.09002833 0.07413751 0.08281075 -0.035858642 -0.030266818 0.05600613 0.11140494
-0.06677617 -0.039531123 0.000115384566 0.028495377 -0.0791249 -0.038211375 -0.038185414 0.021815948
0.10163153 -0.0044168346 0.10459492 0.06402661 -0.027467638 0.07508903 -0.066067226 -0.10607115
0.031057645 0.11707271 0.082862966 -0.03141945 0.008340903 0.11750665 0.000694659 0.12243166
0.03920015 0.033846635 0.043807015 -0.050104566 0.11186528 0.032634012 -0.033471633 0.042869974
0.065306455 -0.05781728 -0.06438198 0.0792346 -0.08907121 0.013162169 -0.0084723905 -0.08270901
-0.081986286 -0.0019629428 0.018965857 0.111811414 0.042978615 -0.112479374 -0.008345931 -0.024898222
0.07063846 -0.09920671 0.06352102 -0.06927548 -0.028659133 -0.06579555 0.07174528 -0.11722192
0.017035168 -0.060142152 0.0038341521 0.08572512 -0.123810954 -0.074232884 0.053317882 -0.03788784
-0.08441109 -0.016444925 -0.08958834 0.08264869 0.10855699 -0.021704944 0.003957199 0.026121067
-0.106915615 0.080185056 0.06485105 -0.08221377 0.034682877 -0.12355743 -0.10585697 -0.09716997
0.03439094 0.02938147 -0.09535298 -0.015116832 0.06861108 -0.09486476 -0.11429058 0.09975468
0.030884327 -0.04403527 0.079186134 -0.109298594 -0.004736216 0.08591296 -0.009109088 -0.074662626
-0.023345876 -0.064126045 -0.0021619492 0.08884709 -0.027163524 0.07920198 -0.053803436 -0.10104544
0.090938315 -0.04511138 -0.0059067784 -0.098857105 -0.11356851 -0.08037931 -0.1075495 -0.07661211
-0.061138064 0.0999456 -0.002600824 0.0040422156 0.037403394 0.034705 0.0036114044 0.019991986
-0.077790014 -0.09278721 0.08939682 0.021293586 -0.058350313 0.083168 0.093708195 -0.04248387
0.016951244 0.1018907 -0.054489855 0.015732836 0.05960008 0.10012647 0.08026642 -0.045450725
-0.038084887 -0.11331687 -0.06140994 -0.100958586 0.056459256 0.014485736 0.07296977 -0.08855212
0.045459647 -0.06174578 0.098703384 -0.052317064 0.074087344 -0.047079455 0.07596634 0.095278665
0.09894941 -0.039034102 -0.007055115 0.005891188 0.12128055 0.10676918 -0.04223647 0.10500992
-0.08027666 0.025075158 0.005907883 0.06347645 -0.06062054 0.038288422 0.048677247 0.09258173
0.11089166 0.070918806 0.07435548 0.01758045 0.034566075 0.11045343 0.020337038 0.09022002
-0.009897582 -0.089249946 0.08477171 0.025573904 -0.104783624 0.045374956 -0.07614132 -0.028133435
-0.04278103 0.027361572 -0.08339269 -0.0816989 0.022216115 -0.064995244 -0.032294877 -0.11081752
-0.080220915 0.04498658 0.095794715 0.08352583 0.11263391 -0.029547147 0.04958552 0.08875807
0.038934316 0.07316351 0.050330315 0.030923959 -0.09317562 0.10412652 0.10236751 0.109099865
00000000: 0801 e63d 9ead d6bd 81ce 70bd e657 11bd
00000010: ed80 b2bd 2e40 bebb 75ac d23c e3ad d8bc
00000020: dccd 90bd c475 bb3d ead9 ea3d a84d 33bb
00000030: 94a9 60bc 3eba 813d 96c8 41bd 9e1e ccbd
00000040: dc67 923d 7ffd c8bd 93af da3d 74c1 c53d
00000050: 0ec9 8cbd 58fe 5b3d 8d65 503d 2747 e23d
00000060: 8ace 78bd f7a4 3cbd 3016 12bd ac45 c93d
00000070: 29a8 163d ee9a dcbd 09cb 813d efdd 13bc
00000080: d3d0 cabd 3de6 9cbd cdc9 ab3d c854 b1bc
00000090: 063d b0bd 6320 383d 166c a9bd bb62 9f3d
000000a0: 0b01 193d c660 b83d 68d5 973d af98 a93d
000000b0: 83e0 12bd 1ef2 f7bc af66 653d 4628 e43d
000000c0: f2c1 88bd 63eb 21bd 9efa f138 236f e93c
000000d0: 3c0c a2bd 8883 1cbd 4f68 1cbd 5cb7 b23c
000000e0: 3124 d03d 18bb 90bb dd35 d63d 6220 833d
000000f0: d003 e1bc 47c8 993d 414e 87bd d53b d9bd
00000100: 9a6c fe3c d1c3 ef3d 0fb4 a93d aeb1 00bd
00000110: 48a8 083c 54a7 f03d c719 363a 73bd fa3d
00000120: 5690 203d c5a2 0a3d fc6e 333d 723a 4dbd
00000130: a019 e53d 3eab 053d 8d19 09bd 6d98 2f3d
00000140: 64bf 853d d0d1 6cbd b3da 83bd c045 a23d
00000150: f76a b6bd 23a6 573c c8cf 0abc 5763 a9bd
00000160: 6de8 a7bd b7a4 00bb 495e 9b3c 62fd e43d
00000170: 580a 303d 965b e6bd 5fbd 08bc 5bf7 cbbc
00000180: e6aa 903d e32c cbbd 4f17 823d 4ee0 8dbd
00000190: 8fc6 eabc d1bf 86bd 30ef 923d 0c12 f0bd
000001a0: 568d 8b3c 9e57 76bd 6646 7b3b a790 af3d
000001b0: 9990 fdbd 6907 98bd da63 5a3d 4830 1bbd
000001c0: b9df acbd 82b7 86bc 177a b7bd b743 a93d
000001d0: 2153 de3d 91ce b1bc 64ab 813b d9fb d53c
000001e0: 93f6 dabd 1038 a43d a1d0 843d b15f a8bd
000001f0: a20f 0e3d ae0b fdbd 8acb d8bd 0d01 c7bd
00000200: 84dd 0c3d 69b1 f03c 6c48 c3bd 97ac 77bc
00000210: f783 8c3d 7548 c2bd 2e11 eabd 2f4c cc3d
00000220: 2101 fd3c 545e 34bd 572c a23d f1d7 dfbd
00000230: 4232 9bbb 22f3 af3d 493e 15bc b8e8 98bd
00000240: da3f bfbc 8454 83bd 7daf 0dbb 77f5 b53d
00000250: 0a86 debc a634 a23d fe60 5cbd e9f0 cebd
00000260: de3d ba3d b6c6 38bd a68d c1bb 9875 cabd
00000270: 9b96 e8bd e89d a4bd ea42 dcbd cfe6 9cbd
00000280: e86b 7abd 47b0 cc3d 9672 2abb 9074 843b
00000290: 4d34 193d d526 0e3d 50ad 6c3b 3cc6 a33c
000002a0: 5f50 9fbd 3907 bebd ae15 b73d e36f ae3c
000002b0: bd00 6fbd fc53 aa3d 15ea bf3d 9103 2ebd
000002c0: 56dd 8a3c 12ac d03d c130 5fbd 26e2 803c
000002d0: 371f 743d 1b0f cd3d b962 a43d 8a2a 3abd
000002e0: e6fe 1bbd ad12 e8bd fd88 7bbd 60c3 cebd
000002f0: d241 673d 9555 6d3c 2d71 953d d05a b5bd
00000300: e533 3a3d 25e9 7cbd 0025 ca3d 6b4a 56bd
00000310: 1bbb 973d 63d6 40bd 3e94 9b3d 7621 c33d
00000320: fda5 ca3d 39e2 1fbd 982e e7bb de0a c13b
00000330: f061 f83d cda9 da3d 2600 2dbd 710f d73d
00000340: 1768 a4bd 6b6a cd3c ea96 c13b f1ff 813d
00000350: 3e4d 78bd 52d4 1c3d cb61 473d 7d9b bd3d
00000360: 2b1b e33d e13d 913d b047 983d e004 903c
00000370: 2895 0d3d 6835 e23d dc99 a63c 46c5 b83d
00000380: 7829 22bc adc8 b6bd ca9c ad3d 5d80 d13c
00000390: cc98 d6bd 17db 393d fbef 9bbd 1778 e6bc
000003a0: 293b 2fbd 6025 e03c c9c9 aabd c151 a7bd
000003b0: 92fe b53c 3a1c 85bd a247 04bd 4cf4 e2bd
000003c0: dd4a a4bd d943 383d 0530 c43d 970f ab3d
000003d0: 9bac e63d dc0c f2bc 301a 4b3d cac6 b53d
000003e0: 9779 1f3d c0d6 953d 2927 4e3d 3e54 fd3c
000003f0: dcd2 bebd 4940 d53d 0fa6 d13d c06f df3d

bias f4 [32]
0.07804357 0.054816376 4.246534e-05 -0.024577921 0.08204342 0.08564161 -0.02893855 0.120625846
-0.07853695 0.12275857 0.08880093 -0.0728704 -0.0065210075 0.028011056 0.13188645 0.021689063
0.06332439 -0.08545687 0.029041322 0.087618195 0.074288465 0.014731346 0.07802749 0.122226514
-0.09498967 -0.04411928 0.059257906 -0.061091475 -0.051031347 0.017092194 -0.11728497 0.09828098
00000000: 4fd5 9f3d 2387 603d d01c 3238 a357 c9bc
00000010: 6106 a83d de64 af3d 8a10 edbc af0a f73d
00000020: fbd7 a0bd d868 fb3d 43dd b53d 143d 95bd
00000030: 2dae d5bb 7177 e53c 3e0d 073e 43ad b13c
00000040: 38b0 813d 0304 afbd 11e8 ed3c 2b71 b33d
00000050: 8d24 983d be5b 713c e0cc 9f3d e551 fa3d
00000060: f289 c2bd 6bb6 34bd 6bb8 723d 0e3b 7abd
00000070: 3f06 51bd ee04 8c3c 1a33 f0bd 8a47 c93d

weight f4 [32, 32, 5, 5]
-0.019908914 -0.03315812 0.0047538597 0.033235103 -0.028402483 -0.03332598 -0.003132724 0.019190706
-0.018638276 0.020665843 -0.016957784 0.022817107 -0.03670412 0.010902309 -0.031411227 -0.015557366
-0.024966903 -0.0011420215 0.015974795 -0.0075897556 0.024037365 0.008213242 -0.031980168 -0.014137977
-0.0024203782 -0.0308804 -0.02558655 0.0018943142 -0.02871887 0.03100977 0.0015582916 -0.019745627
-0.031913295 0.023543 0.017645044 0.0062103546 -0.011431573 -0.034117207 0.01563857 0.009675629
-0.030888436 -0.0022121419 -0.0042691636 -0.01115875 0.021590704 -0.030049367 0.016873593 -0.0011005618
-0.012278399 -0.018379908 -0.0040716715 -0.033083618 0.024068566 -0.009459173 0.03390874 -0.030311134
0.010716056 0.032672733 -0.022442183 0.03048618 -0.0044471375 0.028976366 0.029450463 0.028631493
0.031427473 0.0021529768 0.017971054 -0.031619478 -0.0040133107 -0.030598417 0.029551703 0.002161651
-0.0022961993 -0.008175988 0.030860817 -0.033523105 -0.018172203 -0.0009506332 -0.03376265 0.029468605
0.012297255 -0.011002127 0.0017754213 -0.029421316 0.023956394 0.00061040005 -0.03160246 0.02614778
-0.022286555 -0.017402323 0.005966844 -0.011414375 -0.0033807915 0.011847865 -0.010036406 -0.03199054
-0.029874925 -0.024432112 -0.008592801 -0.028781887 -0.018474018 -0.03147662 1.5901094e-05 -0.014675334
-0.0025336258 0.009234717 -0.008591173 0.016001245 0.009290622 -0.03262296 -0.019815637 -0.029224647
-0.03936006 0.0055169053 0.00889279 0.01274466 0.0067946473 -0.036430128 0.019531187 0.013208003
0.00891912 0.014723433 0.0028017054 0.019976905 0.00079733593 -0.017618196 -0.03183706 0.00067343767
0.012010463 0.0054284995 -0.030855736 0.022440681 -0.006838308 0.018485963 0.014691996 -0.03439764
0.0064835898 -0.03561192 -0.029649682 -0.000953971 -0.033335835 -0.031300757 -0.0130081875 0.023845501
0.0141960215 0.01392317 0.016771799 -0.015642868 0.0022330985 0.03091086 -0.001170477 0.010680457
-0.009089134 -0.0061023044 0.011616129 0.030469792 0.004027249 -0.0056902873 -0.025170684 -0.002177609
0.028724689 0.019036453 0.011206617 0.015429599 -0.026995813 0.027709827 0.028951004 -0.025532618
0.008270971 -0.022145832 0.0061780247 0.019553283 0.0035510252 -0.019870289 0.0116277775 0.025733586
0.01711958 -0.011641247 -0.019383334 0.02953118 0.023780143 -0.010723813 0.00029365436 0.002349254
0.026028598 0.022197997 -0.03321461 -0.010514991 0.028000876 -0.0015724639 -0.021629889 -0.034134556
-0.003424216 0.032577805 -0.023285106 0.0057252175 -0.027620656 0.0127895735 0.01642707 -0.020491954
0.021732984 -0.016777106 0.031522516 0.013612901 0.008693464 0.032038227 0.005459324 0.0014981931
-0.008092544 0.010188865 0.010476586 0.032719534 0.002392991 -0.009565662 0.017871838 -0.00017652508
0.03489703 0.024454182 0.0064651994 0.0016775051 -0.021439858 0.035448812 0.023331845 0.038717274
0.015012005 -0.005049643 -0.028100068 0.004321066 -0.028195534 0.022118874 -0.041562088 -0.026817994
-0.015723178 0.019659748 0.02540142 -0.011182013 0.008860452 -0.035710093 -0.023724223 -0.035925586
0.01630528 -0.023051552 -0.0009983433 -0.0022513403 -0.01581581 0.022070952 -0.037842304 -0.03337961
-0.013343645 -0.019638535 -0.038293045 -0.031000793 -0.026324648 0.015223615 0.015439555 0.011885077
00000000: 0518 a3bc cfd0 07bd 44c6 9b3b 8821 083d
00000010: 53ac e8bc d380 08bd 634e 4dbb d435 9d3c
00000020: 4caf 98bc 6a4b a93c 0deb 8abc f1ea ba3c
00000030: 0f57 16bd 999f 323c 0fa9 00bd 53e4 7ebc
00000040: 6487 ccbc e2af 95ba 93dd 823c 7cb3 f8bb
00000050: 02ea c43c d590 063c a3fd 02bd f9a2 67bc
00000060: 359f 1ebb e5f8 fcbc e29a d1bc a34a f83a
00000070: d643 ebbc 3408 fe3c 973f cc3a 95c1 a1bc
00000080: 84b7 02bd 40dd c03c 578c 903c 3b80 cb3b
00000090: 7e4b 3bbc 7cbe 0bbd 751c 803c 8886 1e3c
000000a0: bf09 fdbc 95f9 10bb 57e4 8bbb 31d3 36bc
000000b0: fdde b03c 172a f6bc 7d3a 8a3c ba40 90ba
000000c0: 572b 49bc 7691 96bc a86b 85bb b082 07bd
000000d0: 712b c53c a6fa 1abc e4e3 0a3d 0e4f f8bc
000000e0: 6692 2f3c d8d3 053d abd8 b7bc 27be f93c
000000f0: 4bb9 91bb d85f ed3c 1942 f13c 988c ea3c
00000100: 18ba 003d f518 0d3b 0838 933c 6d83 01bd
00000110: 1782 83bb 88a9 fabc 6a16 f23c 7caa 0d3b
00000120: d57b 16bb 94f4 05bc d3cf fc3c 864f 09bd
00000130: dfdd 94bc ea33 79ba b44a 0abd 2568 f13c
00000140: 6d7a 493c 4442 34bc 41b5 e83a f904 f1bc
00000150: 3340 c43c 4103 203a 9571 01bd de33 d63c
00000160: 4b92 b6bc 518f 8ebc 8485 c33b 5c03 3bbc
00000170: 4590 5dbb 8c1d 423c bd6f 24bc 8308 03bd
00000180: 42bc f4bc da25 c8bc d2c8 0cbc fec7 ebbc
00000190: d356 97bc a1ed 00bd 5763 8537 d070 70bc
000001a0: 300b 26bb 364d 173c fec1 0cbc 0b15 833c
000001b0: b137 183c a79f 05bd 6754 a2bc 8768 efbc
000001c0: 0438 21bd 28c7 b43b 11b3 113c face 503c
000001d0: a2a5 de3b c237 15bd deff 9f3c 6166 583c
000001e0: 8021 123c 8e3a 713c d19c 373b 9ba6 a33c
000001f0: 4f04 513a 0954 90bc 9467 02bd a389 303a
00000200: 88c7 443c 8ee1 b13b 2bc5 fcbc 85d5 b73c
00000210: e313 e0bb e06f 973c b3b6 703c 8ae4 0cbd
00000220: 4b74 d43b cedd 11bd e4e3 f2bc e913 7aba
00000230: 288b 08bd 3935 00bd 4b20 55bc a457 c33c
00000240: 6e96 683c 021e 643c 0365 893c 7925 80bc
00000250: 2d59 123b c638 fd3c b16a 99ba 15fd 2e3c
00000260: 97ea 14bc d7f5 c7bb 9451 3e3c c99b f93c
00000270: 03f7 833b 9775 babb c032 cebc 37b6 0ebb
00000280: 0a50 eb3c 56f2 9b3c f59b 373c 6ecc 7c3c
00000290: 5326 ddbc b8ff e23c a82a ed3c c829 d1bc
000002a0: f782 073c 2d6b b5bc 0771 ca3b 352e a03c
000002b0: 51b8 683b 04c7 a2bc 6f82 3e3c 3ecf d23c
000002c0: 5d3e 8c3c eeba 3ebc ccc9 9ebc 60eb f13c
000002d0: 93ce c23c efb2 2fbc 9ff5 9939 f1f5 193b
000002e0: ed39 d53c 93d8 b53c 0b0c 08bd 1247 2cbc
000002f0: 1862 e53c 221b ceba 2a31 b1bc add0 0bbd
00000300: d068 60bb 4e70 053d 68c0 bebc 9b9a bb3b
00000310: b744 e2bc 5c8b 513c 1092 863c bede a7bc
00000320: 5f09 b23c 2470 89bc c11d 013d a508 5f3c
00000330: 086f 0e3c 843a 033d 21e4 b23b 055f c43a
00000340: 9796 04bc 32ef 263c fda5 2b3c eb04 063d
00000350: bad3 1c3b 4bb9 1cbc f667 923c 9719 39b9
00000360: 30f0 0e3d 2354 c83c 06da d33b bbdf db3a
00000370: a4a2 afbc c632 113d 6d22 bf3c 0196 1e3d
00000380: eaf4 753c 7a77 a5bb 1d32 e6bc bb97 8d3b
00000390: 52fa e6bc a432 b53c 023d 2abd 69b1 dbbc
000003a0: e5cd 80bc 7b0d a13c a416 d03c c334 37bc
000003b0: 6e2b 113c bf44 12bd 4d59 c2bc b526 13bd
000003c0: a792 853c 9cd6 bcbc d8da 82ba 398b 13bb
000003d0: 2890 81bc 24ce b43c 8800 1bbd 0fb9 08bd
000003e0: 4e9f 5abc fee0 a0bc 2bd9 1cbd 60f5 fdbc
000003f0: caa6 d7bc 786c 793c 30f6 7c3c a0b9 423c

bias f4 [32]
-0.018848257 -0.024877537 -0.007671372 -0.025547309 0.013001513 -0.009629694 -0.016478112 -0.011146003
0.0124753965 0.004770543 -0.005665215 -0.020532923 0.030588357 -0.013051253 -0.018396096 -0.005683533
0.039464414 -0.023540666 -0.014306435 -0.005382003 0.031285457 -0.032059778 0.017482078 -0.011048447
-0.0023751264 -0.026741536 -0.015775887 0.02225507 0.030119035 -0.022231502 0.032788347 0.02866066
00000000: a967 9abc facb cbbc 2260 fbbb 9748 d1bc
00000010: 4c04 553c ddc5 1dbc 1bfd 86bc ba9d 36bc
00000020: 9b65 4c3c 3752 9c3b 45a3 b9bb a934 a8bc
00000030: 6f94 fa3c ecd4 55bc 69b3 96bc ee3c babb
00000040: 70a5 213d 5bd8 c0bc 8a65 6abc 835b b0bb
00000050: 2e25 003d 1d51 03bd 9336 8f3c 8c04 35bc
00000060: 02a8 1bbb 1111 dbbc 6f3c 81bc 4450 b63c
00000070: 32bc f63c d71e b6bc 134d 063d c3c9 ea3c

weight f4 [64, 32, 5, 5]
-0.0086530065 0.01562456 -0.01652256 0.008180531 0.015540585 -0.016356016 0.0017244426 0.005209313
0.00087197684 0.002492598 -0.01017342 0.019070942 -0.015677722 0.03280554 0.03612243 -0.031127421
0.014556953 -0.012630063 -0.03096626 -0.00043378165 -0.0021366687 0.013160853 -0.009553162 0.018472023
-0.027557414 0.0039713853 -0.009967269 0.038706046 0.012969547 0.012950947 0.008276301 -0.02935312
0.008147939 0.014523464 0.008998808 -0.027112126 -0.03749144 -0.022345126 0.006311405 -0.004132066
0.03220508 0.0062843505 -0.022745904 -0.005452261 0.020232135 0.022484472 -0.023370918 -0.035501007
0.031326357 0.01803759 0.018969234 0.029950947 -0.018142195 0.004351079 0.029541563 -0.0049325433
-0.02053133 -0.011901575 -0.020653548 0.030013038 0.021260213 0.01780005 -0.028989976 -0.028556801
0.02350348 -0.025226185 0.00913422 0.03070147 -0.017414186 0.023165425 -0.0049120495 0.0074403924
0.017403323 0.001491031 -0.034008354 0.021560937 0.020524364 -0.022939956 -0.024692435 0.020492276
0.00420385 -0.026978534 0.010179966 0.031811617 -0.0083203865 0.0037924896 0.013287948 0.036665656
0.00128425 0.025764875 0.019445894 0.020385072 -0.03210844 -0.0244648 0.014757095 -0.030933239
0.01795938 0.028236562 0.005457772 -0.012698704 0.0014793903 -0.0003294059 0.024899732 0.01279666
-0.0016164207 0.013680101 0.01766652 0.018973505 0.026932554 0.02791556 -0.016579002 -0.019373922
0.02470787 -0.01129175 0.010729618 -0.034473415 0.0073699504 -0.028715339 -0.03389207 -0.0045453976
0.0072339396 -0.021790897 0.028567474 0.0049113585 0.016057966 -0.02636147 -0.02914274 -0.037151672
-0.032266084 -0.023384701 -0.013135764 -0.03175751 0.025905773 0.017689724 -0.007996612 -0.022587638
0.008826269 -0.026548991 0.024159582 -0.0052246973 -0.017646633 0.012432501 -0.027096767 0.03207719
-0.036844112 -0.03136383 0.031705357 0.023233922 -0.020942306 -0.013527933 -0.014196633 0.03472384
0.021291273 0.022483466 -0.006711204 0.001277027 0.02556537 0.027721586 0.027152227 0.032085925
0.017598528 0.042971354 0.036228906 0.026646197 0.03832246 -0.004086551 -0.0039108205 0.019060293
0.031049488 0.029227633 0.012449512 0.013954234 -0.020385863 0.03553403 -0.02584252 -0.0005535921
0.00040184695 0.008512505 -0.025938706 0.007778286 0.03795512 -0.014922046 -0.01932104 0.004736758
-0.023372084 0.012648558 0.026399763 -0.0059772166 -0.010879965 -0.016800389 -0.009349997 -0.022740899
-0.0065130466 -0.002034788 0.017297292 -0.034095507 -0.028650967 0.034147114 0.0010086088 -0.00029406694
-0.0023553967 0.037265554 -0.0014055993 0.03948726 -0.0043733083 0.018058656 -0.023778655 -0.023717444
0.03704081 -0.014081604 0.030493692 -0.013147879 0.037429746 0.026615536 0.0037865485 -0.0024826913
0.020250537 -0.0154086305 -0.020154566 0.007996453 -0.019904137 0.026390864 -0.010653525 -0.026254859
-0.0052148527 -0.009348149 -0.009888698 0.028732365 0.023188962 -0.017541317 0.034728777 -0.022686332
-0.008804983 -0.031541474 -0.010187803 0.011766273 -0.026373876 0.027525952 0.0012308025 0.034953576
-0.026403718 0.0007428071 -0.0070242076 0.002987484 0.029945321 0.012600447 -0.029684307 -0.014730747
0.016121684 -0.001020707 0.011605462 -0.02061662 0.03112942 0.00013411514 -0.010076002 0.00070585817
00000000: 57c5 0dbc 28fe 7f3c 525a 87bc a207 063c
00000010: f09d 7e3c 0dfd 85bc b106 e23a e2b2 aa3b
00000020: 6095 643a db5a 233b 6bae 26bc aa3a 9c3c
00000030: 916e 80bc 1a5f 063d 1df5 133d effe febc
00000040: 4980 6e3c 53ee 4ebc f4ac fdbc 306d e3b9
00000050: 5a07 0cbb 9ea0 573c de84 1cbc a452 973c
00000060: 16c0 e1bc 6522 823b c24d 23bc 3b8a 1e3d
00000070: 397e 543c 3530 543c 5399 073c f475 f0bc
00000080: ef7e 053c d3f3 6d3c bd6f 133c 401a debc
00000090: a090 19bd 200d b7bc e7cf ce3b 4866 87bb
000000a0: 79e9 033d f4ec cd3b 9e55 babc e1a8 b2bb
000000b0: ddbd a53c 5b31 b83c 5e74 bfbc 8169 11bd
000000c0: 1150 003d 91c3 933c 5e65 9b3c b05b f53c
000000d0: f19e 94bc 7f93 8e3b 2601 f23c 2ca1 a1bb
000000e0: 5231 a8bc d3fe 42bc a131 a9bc e7dd f53c
000000f0: e629 ae3c 69d1 913c 637c edbc f4ef e9bc
00000100: 5f8a c03c 25a7 cebc b2a7 153c a681 fb3c
00000110: 32a8 8ebc 6bc5 bd3c 42f5 a0bb 89ce f33b
00000120: 6a91 8e3c b36e c33a 584c 0bbd 90a0 b03c
00000130: b622 a83c 93ec bbbc ca47 cabc 6bdf a73c
00000140: 73c0 893b 1602 ddbc dfc9 263c e64c 023d
00000150: 3b52 08bc 6b8b 783b b2b5 593c ba2e 163d
00000160: 4754 a83a dc10 d33c ff4c 9f3c 98fe a63c
00000170: 2484 03bd 676a c8bc bec7 713c b467 fdbc
00000180: 8d1f 933c 5d50 e73c 1cd7 b23b 3a0e 50bc
00000190: 1ae8 c13a 1db4 acb9 86fa cb3c 15a9 513c
000001a0: 14de d3ba 8122 603c 61b9 903c 536e 9b3c
000001b0: a9a1 dc3c 2caf e43c b0d0 87bc 0fb6 9ebc
000001c0: 2968 ca3c 0801 39bc 48cb 2f3c ff33 0dbd
000001d0: a07f f13b 6e3c ebbc 69d2 0abd 8ff1 94bb
000001e0: af0a ed3b d382 b2bc 5606 ea3c 76ef a03b
000001f0: ff8b 833c 02f4 d7bc c1bc eebc 5a2c 18bd
00000200: 7129 04bd 4691 bfbc 6337 57bc 2a14 02bd
00000210: 5838 d43c 0aea 903c 3904 03bc b609 b9bc
00000220: 0e9c 103c 457d d9bc 51ea c53c f033 abbb
00000230: ac8f 90bc b0b1 4b3c 0afa ddbc 5f63 033d
00000240: dae9 16bd 5c77 00bd 7add 013d 1155 be3c
00000250: 338f abbc 43a4 5dbc ff98 68bc 963a 0e3d
00000260: 096b ae3c 3f2f b83c a9e9 dbbb ea61 a73a
00000270: 786e d13c 6118 e33c 596e de3c 886c 033d
00000280: ca2a 903c bb02 303d c364 143d 2049 da3c
00000290: 03f8 1c3d 79e8 85bb 5726 80bb 5524 9c3c
000002a0: 7f5b fe3c ca6e ef3c 0af9 4b3c 4da0 643c
000002b0: 4100 a7bc 228c 113d b1b3 d3bc f01e 11ba
000002c0: fcae d239 0978 0b3c 697d d4bc fee0 fe3b
000002d0: d476 1b3d 997b 74bc 2847 9ebc ce36 9b3b
000002e0: d076 bfbc e63b 4f3c 5144 d83c 87dc c3bb
000002f0: e141 32bc f8a0 89bc bb30 19bc 1f4b babc
00000300: 656b d5bb 145a 05bb 0db3 8d3c bba7 0bbd
00000310: 6fb5 eabc d8dd 0b3d 4c33 843a ff2c 9ab9
00000320: 005d 1abb c4a3 183d 163c b8ba 65bd 213d
00000330: f84d 8fbb bfef 933c 74cb c2bc 164b c2bc
00000340: 1bb8 173d 87b6 66bc e8cd f93c 346a 57bc
00000350: ef4f 193d d308 da3c be27 783b a6b4 22bb
00000360: 74e4 a53c 7b74 7cbc 301b a5bc 8e03 033c
00000370: 000e a3bc a731 d83c 1f8c 2ebc 6e14 d7bc
00000380: 5be1 aabb fb28 19bc 3504 22bc 2360 eb3c
00000390: c7f6 bd3c cfb2 8fbc c33f 0e3d b0d8 b9bc
000003a0: c742 10bc a231 01bd beea 26bc 53c7 403c
000003b0: 070e d8bc 1b7e e13c e152 a13a 7b2b 0f3d
000003c0: 9c4c d8bc f1b8 423a 532b e6bb aac9 433b
000003d0: e44f f53c 1b72 4e3c 812c f3bc 3b59 71bc
000003e0: 9f11 843c 3ec9 85ba d624 3e3c 30e4 a8bc
000003f0: 2003 ff3c 42a1 0c39 d115 25bc 5709 393a

bias f4 [64]
-0.038589466 -0.037416894 0.011547433 -0.009068245 -0.023633149 0.024948768 -0.0026175329 0.034067333
0.010237472 -0.008242133 -0.010584728 0.02017947 -0.0066371677 -0.032645646 -0.037084233 0.035987303
-0.019949041 0.019517925 -0.03430804 -0.019499237 0.025988938 -0.026331604 0.031817555 0.015035229
0.030342229 -0.00365549 0.02746206 0.010454338 -0.017839706 0.0235417 0.029532442 0.014858619
-0.022258392 0.0024561654 -0.022830931 0.0011977021 -0.008292158 -0.023111438 -0.03653893 0.039223857
0.034071088 -0.015391365 0.0445016 -0.0057834075 -0.015956467 0.014625494 0.03551034 -0.015112574
0.028704422 0.022470932 -0.01735958 -0.014443131 0.004770881 -0.0013072288 0.009890643 0.0262806
0.031842254 -0.022708336 0.013940605 -0.01679104 -0.009727862 -0.009948065 -0.007783685 0.013848714
00000000: fd0f 1ebd 7542 19bd 7231 3d3c fa92 14bc
00000010: 4e9a c1bc 5c61 cc3c ea8a 2bbb 308a 0b3d
00000020: 12bb 273c 030a 07bc 916b 2dbc 6a4f a53c
00000030: 997c d9bb 71b7 05bd a3e5 17bd 6c67 133d
00000040: 2c6c a3bc 0ee4 9f3c 9686 0cbd ddbc 9fbc
00000050: c1e6 d43c 60b5 d7bc 2053 023d 5256 763c
00000060: 4490 f83c f290 6fbb 1df8 e03c ac48 2b3c
00000070: 9324 92bc 86da c03c 05ee f13c 9171 733c
00000080: 3b57 b6bc 9ef7 203b ef07 bbbc 37fc 9c3a
00000090: d5db 07bc 3354 bdbc d8a9 15bd 32a9 203d
000000a0: 208e 0b3d 102c 7cbc 4f47 363d bd82 bdbb
000000b0: 23b7 82bc c59f 6f3c 4a73 113d bb9a 77bc
000000c0: 8925 eb3c f614 b83c ae35 8ebc e2a2 6cbc
000000d0: 0d55 9c3b 5257 abba 5d0c 223c 6a4a d73c
000000e0: 066d 023d d506 babc 2367 643c 5d8d 89bc
000000f0: 9c61 1fbc 35fd 22bc 480e ffbb b7e5 623c

weight f4 [64, 1024]
-0.018403802 0.0029550942 -0.01642103 -0.0052228435 -0.018105978 -0.0049794377 -0.022472618 -0.026594706
-0.010831985 0.007212041 -0.029782115 0.027865639 -0.028684733 0.004431858 0.023497555 -0.005123379
0.005284964 -0.020776166 0.008542328 -0.021079352 -0.02752156 0.011026185 0.014842143 0.015387344
0.008820412 -0.030216735 -0.009954254 0.013188666 -0.021911379 0.01497087 0.013231978 0.011590841
-0.01127739 0.02658939 -0.022534331 0.012855898 0.011961878 -0.020445267 0.026006352 0.009596838
-0.010703641 -0.013741165 -0.011917684 -0.013344578 -0.018413084 -0.027708104 0.019501382 0.023780521
0.014881704 -0.01901341 0.022633964 -0.028840428 0.02029755 0.007987314 -0.007901868 0.029999595
0.021786677 0.02118912 -0.025058363 -0.0046004504 0.01335325 0.0178261 0.011392389 0.03389174
0.02682837 0.0048279837 -0.0062795966 0.022911169 -0.01229957 -0.025508985 -0.012417779 -0.01547399
0.0003623919 -0.010159155 -0.00950311 0.010655616 0.013915069 -0.0265434 -0.027239356 -0.023798773
-0.0032250541 -0.006383757 0.007031241 0.017345292 -0.02634913 0.023961514 0.02526664 -0.01465131
0.0249811 -0.0008918643 -0.004793603 0.02432479 0.003497635 0.024613973 -0.009900042 -0.009491557
-0.023706876 -0.0011519721 -0.02494794 -0.015885007 -0.02541912 0.028455326 0.015224925 0.0039206725
-0.028232858 0.02337702 0.030490004 0.008411228 -0.029296532 -0.021713546 -0.022277279 0.026069358
-0.009482997 -0.016269857 -0.021534652 9.3901595e-05 0.018881183 0.027347276 -0.020850638 0.02358602
-0.011531853 -0.018550294 -0.022612015 -0.026491344 0.031746 -0.022225799 0.008536828 0.024498368
0.003389195 0.026273765 -0.012129979 0.0035847353 -0.004483002 -0.010768387 0.02456124 -0.017345559
0.02025366 -0.025703946 0.014149821 -0.016649848 0.025939237 -0.014515079 0.01729564 0.006337857
0.031724293 0.021628868 -0.008477018 -0.013135988 0.003910476 -0.015395608 -0.0017857307 0.032450866
0.0075587058 0.0026400958 -0.0068685403 -0.020262795 0.027053433 0.0046634423 -0.02120899 0.023409529
0.014080685 0.025443636 0.007904813 -0.00792186 -0.012772934 -0.02537119 -0.009409003 0.026061853
-0.00786892 0.015022199 0.019601153 0.006386696 -0.025741521 -0.0008000535 -0.01737977 0.011837157
-0.010735227 0.01123152 -0.021247271 0.015179174 0.027340412 0.008488984 0.026965385 0.021125605
-0.022457061 0.025762644 0.03621506 0.020846631 -0.02140844 0.011429586 0.026734155 0.007320061
-0.016908087 0.026664639 0.028834414 -0.004757497 -0.025527162 -0.014528426 -0.015441686 -0.0171248
-0.019117475 -0.0014682449 -0.01437212 -0.031016327 0.0061219973 0.0019070982 -0.02369898 -0.0055723805
0.013893261 -0.024180492 0.0006179429 -0.0050630057 -0.023766235 0.015898965 -0.014237255 0.022699863
-0.020858312 0.010688791 0.003959543 -0.008262582 0.0023169538 -0.013759444 -0.0020116183 0.028560683
-0.021499826 -0.014510138 -0.02586018 -0.0224605 0.023128934 0.020322667 -0.019677605 -0.02604244
0.02602186 -0.016936336 0.025012651 -0.0021862925 0.018598342 -0.009606329 0.011608711 0.02319333
-0.020921502 0.020504944 0.028833156 0.009334858 0.006730085 -0.02161084 -0.010845574 0.008726398
-0.0030141587 -0.02476334 -0.023932932 -0.0039144945 -0.0028495106 0.025306247 0.012341548 -0.01879397
00000000: 92c3 96bc 41aa 413b 6585 86bc 6324 abbb
00000010: fd52 94bc 8d2a a3bb 7f18 b8bc 24dd d9bc
00000020: a378 31bc fc52 ec3b 9ff9 f3bc 7b46 e43c
00000030: 3ffc eabc 1f39 913b f27d c03c 05e2 a7bb
00000040: 7e2d ad3b c732 aabc 1ff5 0b3c 9bae acbc
00000050: e574 e1bc 2ca7 343c 762c 733c 331b 7c3c
00000060: 7d83 103c 1689 f7bc 2b17 23bc 4615 583c
00000070: 7e7f b3bc 6148 753c f0ca 583c 83e7 3d3c
00000080: cdc4 38bc fed1 d93c eb99 b8bc 8ba1 523c
00000090: c1fb 433c d57c a7bc 460b d53c 0e3c 1d3c
000000a0: 535e 2fbc a022 61bc 6442 43bc 38a3 5abc
000000b0: 09d7 96bc 1bfc e2bc 5dc1 9f3c 5ecf c23c
000000c0: 64d2 733c 03c2 9bbc dd6a b93c c342 ecbc
000000d0: 0c47 a63c 39dd 023c d676 01bc b6c1 f53c
000000e0: f979 b23c ce94 ad3c 3247 cdbc 60bf 96bb
000000f0: 97c7 5a3c 0b08 923c 25a7 3a3c 11d2 0a3d
00000100: 2bc7 db3c 1034 9e3b 13c5 cdbb 34b0 bb3c
00000110: 2384 49bc 38f8 d0bc f173 4bbc 9e86 7dbc
00000120: 6bff bd39 9672 26bc efb2 1bbc e594 2e3c
00000130: 08fc 633c 8b71 d9bc 1225 dfbc a5f5 c2bc
00000140: 6e5b 53bb d62e d1bb 5366 e63b b717 8e3c
00000150: 21da d7bc f04a c43c fcfb ce3c 0c0c 70bc
00000160: 2aa5 cc3c 00cc 69ba a813 9dbb c844 c73c
00000170: 9438 653b 3ea3 c93c c933 22bc 7a82 1bbc
00000180: ec34 c2bc c5fd 96ba 9f5f ccbc 4621 82bc
00000190: c23b d0bc 251b e93c f771 793c fc78 803b
000001a0: 9848 e7bc 2a81 bf3c 2cc6 f93c 3fcf 093c
000001b0: 48ff efbc 9be0 b1bc d77e b6bc 688f d53c
000001c0: 925e 1bbc 5d48 85bc 7069 b0bc 09ed c438
000001d0: b6ac 9a3c 6507 e03c f5ce aabc 7837 c13c
000001e0: 19f0 3cbc c9f6 97bc d53c b9bc 6004 d9bc
000001f0: 1808 023d e112 b6bc 0dde 0b3c cdb0 c83c
00000200: 421d 5e3b 143c d73c d2bc 46bc e1ed 6a3b
00000210: 25e6 92bb e36d 30bc a734 c93c 4618 8ebc
00000220: 01eb a53c 1591 d2bc a7d4 673c 4365 88bc
00000230: 867e d43c a7d0 6dbc 96af 8d3c ccad cf3b
00000240: 55f1 013d 062f b13c 31e3 0abc 5438 57bc
00000250: 7323 803b dc3d 7cbc 2e0f eaba 33eb 043d
00000260: 05af f73b 7505 2d3b 7e11 e1bb 29fe a5bc
00000270: 299f dd3c cacf 983b 7abe adbc 57c5 bf3c
00000280: acb2 663c 2c6f d03c 3083 013c b0ca 01bc
00000290: 9145 51bc 3ed7 cfbc 3828 1abc ab7f d53c
000002a0: a5ec 00bc ab1f 763c 9992 a03c 7d47 d13b
000002b0: e2df d2bc aeba 51ba 0560 8ebc a3f0 413c
000002c0: cee2 2fbc 6904 383c c20e aebc 12b2 783c
000002d0: 00f9 df3c 6115 0b3c 83e6 dc3c 9b0f ad3c
000002e0: dff7 b7bc 2e0c d33c 3e56 143d 8ec6 aa3c
000002f0: c160 afbc 2943 3b3c 9601 db3c 1fdd ef3b
00000300: d482 8abc cd6f da3c 2636 ec3c c7e4 9bbb
00000310: 571e d1bc a308 6ebc 20ff 7cbc 4f49 8cbc
00000320: 409c 9cbc 2072 c0ba 0a79 6bbc f415 febc
00000330: 099b c83b 99f7 f93a 5d24 c2bc 8498 b6bb
00000340: 8fa0 633c 2b16 c6bc 72fd 213a 92e7 a5bb
00000350: 68b1 c2bc 8c3e 823c 6043 69bc 10f5 b93c
00000360: 0ddf aabc 0a20 2f3c 0ebf 813b c85f 07bc
00000370: 09d8 173b 4a6f 61bc 5bd5 03bb 18f8 e93c
00000380: 6720 b0bc eebb 6dbc bad8 d3bc 15ff b7bc
00000390: e478 bd3c b97b a63c ee32 a1bc f556 d5bc
000003a0: cc2b d53c 12be 8abc 55e7 cc3c e747 0fbb
000003b0: 8d5b 983c dd63 1dbc 7732 3e3c f0ff bd3c
000003c0: 9263 abbc fcf9 a73c 8333 ec3c 3bf1 183c
000003d0: 0b88 dc3b 3709 b1bc a2b1 31bc 2bf9 0e3c
000003e0: 3189 45bb 7ddc cabc ff0e c4bc 2945 80bb
000003f0: dbbe 3abb 0c4f cf3c 3434 4a3c d0f5 99bc

bias f4 [64]
-0.024424652 -0.006630405 0.012841546 -0.008219625 0.013913484 0.0379596 -0.035050042 -0.013392426
0.0068828957 0.014312682 -0.008365607 0.008899133 0.031726763 -0.031478163 0.004204623 0.00018065092
0.0066443896 0.002388382 0.019565228 -0.03728555 -0.022618372 0.022409841 0.014797908 0.0072793025
0.008027468 -0.00640401 0.0056955265 -0.0012269688 -0.007998104 -0.010208251 0.0010766247 0.017870931
0.030546248 -0.019393835 -0.0076018013 -0.035578743 -0.0063340613 -0.030191801 0.028886445 0.026883654
0.015932351 -0.010391692 -0.023390999 0.019959994 0.0023941023 0.019624833 0.02544267 -0.020821514
0.005078661 0.0274058 -0.036085248 0.02557863 -0.0028853347 -0.030764107 -0.011113698 -0.018789914
0.0038655996 -0.015296709 -0.012746245 -0.032961115 0.04146644 -0.024233015 -0.02968973 0.004782882
00000000: 3516 c8bc de43 d9bb 5965 523c 9bab 06bc
00000010: 62f5 633c 877b 1b3d a290 0fbd e86b 5bbc
00000020: ea89 e13b bd7f 6a3c e60f 09bc abcd 113c
00000030: ecf3 013d 3fef 00bd efc6 893b 1d6d 3d39
00000040: 2eb9 d93b 6786 1c3b 4247 a03c bcb8 18bd
00000050: 2a4a b9bc d894 b73c ed72 723c 3787 ee3b
00000060: a485 033c bbd8 d1bb 8aa1 ba3b 3ed2 a0ba
00000070: 7b0a 03bc 8240 27bc 881d 8d3a 0f66 923c
00000080: 203c fa3c d2df 9ebc 8818 f9bb 04bb 11bd
00000090: f58d cfbb cc54 f7bc 44a3 ec3c 1c3b dc3c
000000a0: 9084 823c ea41 2abc 7b9e bfbc 2483 a33c
000000b0: 5fe6 1c3b 42c4 a03c 256d d03c e191 aabc
000000c0: e56a a63b 2182 e03c 20ce 13bd 468a d13c
000000d0: e217 3dbb 0205 fcbc 3a16 36bc 4eed 99bc
000000e0: 0056 7d3b 0c9f 7abc a0d5 50bc 3c02 07bd
000000f0: b7d8 293d 5184 c6bc e037 f3bc b9b9 9c3b

weight f4 [10, 64]
0.010687689 -0.1243502 0.11409507 -0.0647144 -0.053327117 -0.06842695 -0.052161194 0.043901958
0.010040148 0.13478501 -0.0011933831 -0.15022877 0.034228694 0.044156697 -0.0431714 0.070521764
-0.072314754 0.05581504 0.104448 0.11386163 0.0094969515 -0.060618266 0.13254595 0.041017827
-0.013634873 -0.06011505 -0.06658831 -0.01952063 0.032592203 0.044750895 -0.035485007 0.080507144
-0.0017236006 0.09155411 0.05939617 0.09084765 0.1320849 -0.036989193 0.08925407 -0.12495487
-0.033843916 -0.053839415 0.09431694 0.02594276 -0.14594086 -0.0517836 0.036628023 -0.089676335
-0.05261337 -0.07388997 0.032142688 0.09127706 -0.08703574 0.013800691 0.0063432762 -0.06786599
-0.067176014 -0.12887792 -0.12599212 0.11062156 -0.120584965 0.10044693 0.08205446 0.13115726
-0.05782985 0.092282824 -0.09856416 -0.11784454 -0.0715177 0.08998068 -0.06363391 -0.13710622
-0.06893707 -0.022334183 0.111037105 0.118383795 -0.024336033 0.011006673 -0.12159234 -0.06287949
-0.06615895 -0.061169766 0.06602928 -0.02206162 0.020859076 -0.08299995 -0.106999174 0.020921938
0.113305114 -0.037870042 0.031326395 -0.074665405 0.15536013 -0.06759913 0.09307725 0.083527036
0.0060453834 0.036187958 0.14623949 -0.058610305 -0.0801522 0.046927225 0.12103173 -0.118905514
0.10114112 -0.011235369 -0.035832483 0.06214916 -0.09876601 -0.13390945 -0.08780011 0.07322875
0.012601686 0.078616306 -0.1341783 0.12737027 -0.114451885 -0.048574384 -0.11124923 0.042005125
0.06753149 0.055838108 0.005175151 -0.04926531 0.0895912 0.10464689 0.12255415 -0.09246372
0.090851575 0.047759417 0.10293304 0.03367827 -0.07961382 -0.078846194 -0.020569585 -0.0930288
-0.050058324 0.12044692 -0.13002798 0.057669718 0.11307126 -0.09363003 -0.101889305 0.060603842
0.028643794 -0.015596585 -0.12706597 -0.04565424 0.08826774 -0.087632924 0.025786191 0.006372533
-0.12048992 -0.08525673 0.12525287 0.07280196 -0.12166342 -0.10220109 -0.13093816 -0.09732937
0.038504098 0.05689278 -0.036981624 0.046608992 0.07630462 -0.13421467 0.10425201 0.022367079
-0.046150677 -0.1179948 -0.0053497353 0.044606842 0.022928044 0.10275028 -0.117727585 -0.12344043
-0.0310991 -0.064878955 0.012078384 0.11017063 0.05657027 0.004845892 -0.097148106 0.052468654
-0.0005075848 0.04280683 0.11656716 0.12942897 0.027699627 0.057499908 -0.004735717 0.11283337
0.06736582 0.073189475 -0.10435874 -0.1047982 -0.086965196 0.07222429 0.09852607 0.0547308
-0.11517995 0.0379015 0.06929712 0.03218031 -0.0009872124 -0.12534362 0.05915509 0.06502105
0.13428108 0.019663984 0.033557422 0.09807695 -0.04064746 0.094566904 0.081375115 0.019843189
-0.109570295 0.008869664 0.10525756 -0.076873824 -0.04061518 0.102657974 -0.09581415 0.09896856
-0.1239092 0.12340064 -0.08712659 -0.041613374 -0.050389096 -0.023408882 0.07408923 0.0024030954
-0.026934508 0.0878987 0.110365026 0.004304769 0.13309667 0.03377897 -0.030966908 -0.11149288
0.0672601 -0.015883444 0.07990936 0.13185295 -0.08791203 -0.010344149 0.0064355447 -0.06105255
0.0064259525 0.006062092 -0.03987551 -0.059170194 -0.008326433 -0.08427353 -0.0025977504 0.10544699
00000000: 6b1b 2f3c 51ab febd adaa e93d fc88 84bd
00000010: 896d 5abd 6e23 8cbd faa6 55bd 8ad2 333d
00000020: 6f7f 243c 1505 0a3e 4b6b 9cba 92d5 19be
00000030: 6333 0c3d a7dd 343d 7ed4 30bd b76d 903d
00000040: c219 94bd 509e 643d d5e8 d53d 4930 e93d
00000050: 1a99 1b3c dc4a 78bd 20ba 073e 4f02 283d
00000060: cd64 5fbc 333b 76bd 745f 88bd bae9 9fbc
00000070: 677f 053d b74c 373d ba58 11bd eee0 a43d
00000080: 70ea e1ba b980 bb3d 6649 733d 550e ba3d
00000090: 4441 073e fb81 17bd d6ca b63d 57e8 ffbd
000000a0: eb9f 0abd b886 5cbd 3d29 c13d e985 d43c
000000b0: 8571 15be 0a1b 54bd 4407 163d 3aa8 b7bd
000000c0: 1e81 57bd a053 97bd 0da8 033d 78ef ba3d
000000d0: cb3f b2bd 4b1c 623c 42db cf3b 53fd 8abd
000000e0: 9493 89bd 93f8 03be 1404 01be 8e8d e23d
000000f0: 40f5 f6bd 1fb7 cd3d 2b0c a83d 174e 063e
00000100: fede 6cbd c7fe bc3d 02dc c9bd 7a58 f1bd
00000110: df77 92bd ca47 b83d 7f52 82bd 9365 0cbe
00000120: e12e 8dbd 2df6 b6bc 6c67 e33d 3473 f23d
00000130: 5c5c c7bc 5555 343c 6805 f9bd f6c6 80bd
00000140: 587e 87bd 268d 7abd 5c3a 873d 92ba b4bc
00000150: a7e0 aa3c e1fb a9bd 6222 dbbd 7c64 ab3c
00000160: 830c e83d 9e1d 1bbd 1b50 003d 2dea 98bd
00000170: ba16 1f3e 6a71 8abd 499f be3d 3910 ab3d
00000180: 5a18 c63b d339 143d cebf 153e 5c11 70bd
00000190: d626 a4bd c336 403d 7cdf f73d bc84 f3bd
000001a0: 1323 cf3d 8e14 38bc 15c5 12bd 1e90 7e3d
000001b0: d545 cabd 8f1f 09be 8bd0 b3bd f4f8 953d
000001c0: 4d77 4e3c 9601 a13d 0966 09be 5a6d 023e
000001d0: c065 eabd eff5 46bd a3d6 e3bd 910d 2c3d
000001e0: f34d 8a3d 80b6 643d 5094 a93b 6cca 49bd
000001f0: 977b b73d 1c51 d63d acfd fa3d 9e5d bdbd
00000200: 6410 ba3d 619f 433d 8fce d23d 3af2 093d
00000210: 920c a3bd 1d7a a1bd 8c81 a8bc e285 bebd
00000220: f509 4dbd e0ac f63d 0e26 05be 1537 6c3d
00000230: e891 e73d 1ac1 bfbd 57ab d0bd bc3b 783d
00000240: 64a6 ea3c d288 7fbc 951d 02be f1ff 3abd
00000250: b8c5 b43d e478 b3bd 903d d33c aed0 d03b
00000260: 6bc3 f6bd 159b aebd 4a42 003e 3219 953d
00000270: ac2a f9bd ce4e d1bd a714 06be 9f54 c7bd
00000280: 79b6 1d3d 6708 693d 0b7a 17bd 12e9 3e3d
00000290: 9945 9c3d 926f 09be 1482 d53d 2a3b b73c
000002a0: 7e08 3dbd 42a7 f1bd d54c afbb aab5 363d
000002b0: 98d3 bb3c bd6e d23d 291b f1bd 56ce fcbd
000002c0: 8ac3 febc 42df 84bd 6ae4 453c 24a1 e13d
000002d0: 3ab6 673d 4aca 9e3b 96f5 c6bd 5fe9 563d
000002e0: 700f 05ba 3756 2f3d c3ba ee3d 0789 043e
000002f0: 54ea e23c 0685 6b3d 132e 9bbb 2f15 e73d
00000300: 17f7 893d 5de4 953d 09ba d5bd 70a0 d6bd
00000310: cf1a b2bd 54ea 933d 09c8 c93d 672d 603d
00000320: 77e3 ebbd 9a3e 1b3d a6eb 8d3d 80cf 033d
00000330: 5a65 81ba 145a 00be 9c4c 723d c229 853d
00000340: fb80 093e 5d16 a13c 8273 093d 91dc c83d
00000350: f37d 26bd 4bac c13d ffa7 a63d 2f8e a23c
00000360: 6466 e0bd 1152 113c 4791 d73d 0670 9dbd
00000370: 1a5c 26bd 583e d23d 363a c4bd 07b0 ca3d
00000380: 1bc4 fdbd 7ab9 fc3d 6d6f b2bd c972 2abd
00000390: cc64 4ebd fcc3 bfbc 18bc 973d 407d 1d3b
000003a0: c2a5 dcbc 3c04 b43d 0f07 e23d 050f 8d3b
000003b0: 7e4a 083e d15b 0a3d 50ae fdbc 6156 e4bd
000003c0: aabf 893d ff1d 82bc 85a7 a33d 7604 073e
000003d0: 390b b4bd 817a 29bc 43e1 d23b 3d12 7abd
000003e0: cc90 d23b 83a4 c63b 8154 23bd 725c 72bd
000003f0: 976b 08bc 9a97 acbd 053f 2abb 97f4 d73d

bias f4 [10]
-0.10068834 -0.081316285 -0.03970966 0.07056117 -0.010614239 0.035364844 -0.06432077 -0.08492939
7.223529e-05 -0.096164174
00000000: b035 cebd 2789 a6bd 99a6 22bd 6082 903d
00000010: 58e7 2dbc bada 103d 9cba 83bd 76ef adbd
00000020: 077d 9738 b9f1 c4bd
