PytorchLearning/learn1/vggmodel/vgg_4.pth (torch, 587335 bytes, 10 tensors)

weight f4 [32, 3, 5, 5]
000000 21 bc ea 3d 92 ad d3 bd fe fa 6b bd 69 43 0d bd
       0.11461664 -0.1033584 -0.05761241 -0.034488115
000010 bf ef b0 bd e4 ea c9 bb f5 ff c7 3c 82 5e ea bc
       -0.08639478 -0.0061620343 0.024414042 -0.028609518
000020 f0 32 95 bd 8f 0a b8 3d d0 7b e4 3d 08 e4 d7 bb
       -0.07285106 0.08986389 0.11156428 -0.0065884627
000030 07 f7 96 bc 2b 40 70 3d 44 f7 51 bd 6b ee d7 bd
       -0.018428339 0.058654945 -0.0512612 -0.105435215
000040 e3 f5 85 3d bc 9f d6 bd 30 f3 cc 3d e8 ea b8 3d
       0.0654104 -0.10479686 0.10007322 0.0902918
000050 a0 3a 9a bd 05 2d 41 3d f0 67 35 3d 66 2d d4 3d
       -0.07530713 0.047162075 0.044288576 0.103602216
000060 77 4e 8a bd 1b 99 33 bd f4 80 0d bd ef f5 ca 3d
       -0.06753247 -0.043847185 -0.034546807 0.09910189
000070 5b 7a 19 3d 58 94 db bd 77 27 81 3d dc 59 2c bc
       0.037470203 -0.10721654 0.063063554 -0.010519471
000080 e6 a1 cf bd 2c 9a a1 bd a3 1a a8 3d 80 19 c6 bc
       -0.101383016 -0.07890734 0.082082056 -0.024182081
000090 70 6e b7 bd 61 48 26 3d 75 24 b2 bd 00 23 98 3d
       -0.08956611 0.04059637 -0.0869836 0.07428551
0000a0 fa a2 05 3d 30 90 ad 3d b7 f7 8b 3d 2c e5 9d 3d
       0.03262613 0.08474767 0.06834357 0.07709727
0000b0 9e 74 28 bd 7f 14 10 bd 99 69 50 3d 1f c0 d9 3d
       -0.04112684 -0.035175797 0.050881956 0.10632347
0000c0 73 7e 93 bd c3 1a 37 bd 72 8e ee b8 9b 51 df 3c
       -0.07201853 -0.044703256 -0.00011375257 0.027260592
0000d0 41 17 a5 bd 81 ad 22 bd b4 fd 22 bd 85 18 9a 3c
       -0.08061076 -0.039716247 -0.03979273 0.01881052
0000e0 51 b6 c7 3d b7 3f 19 bc b4 6d cc 3d bd 0e 75 3d
       0.09751571 -0.00935357 0.09981862 0.05982851
0000f0 c3 f8 04 bd c8 bc 8d 3d ce 00 95 bd 18 8f e6 bd
       -0.0324638 0.06920773 -0.07275544 -0.11257762
000100 65 9f cf 3c 73 72 e1 3d 60 7d 9a 3d f0 0e 21 bd
       0.02534456 0.110081576 0.07543445 -0.039320886
000110 50 88 1a 3a 83 cf e1 3d d0 b6 ca bb e7 7d ec 3d
       0.0005894946 0.11025908 -0.0061863437 0.115474515
000120 a7 6a 04 3d 2c 20 dc 3c 0c 54 17 3d e5 bc 4b bd
       0.032328274 0.02687081 0.036945388 -0.04974069
000130 16 61 e5 3d 25 74 04 3d a6 c7 07 bd 22 49 2e 3d
       0.11200158 0.032337327 -0.033149384 0.042550214
000140 18 32 88 3d bb 74 67 bd 79 b2 80 bd 2c 19 a8 3d
       0.066501796 -0.056507807 -0.06284041 0.08207926
000150 39 cd b0 bd b5 aa 5e 3c 2c 03 fb bb a1 79 a4 bd
       -0.08632893 0.013590504 -0.00766029 -0.080310114
000160 45 d2 9f bd 8b 47 eb 3a 32 f4 93 3c 5c 12 e2 3d
       -0.078037776 0.0017950399 0.018060777 0.11038658
000170 81 bb 31 3d ce 87 e1 bd 56 ee d5 bb 4f 88 d4 bc
       0.04339171 -0.11012231 -0.006528656 -0.025943903
000180 d3 db 8c 3d 48 cf cc bd 4b 9f 83 3d 64 b3 8d bd
       0.06877866 -0.10000473 0.06426867 -0.06918982
000190 f5 09 b1 bc a1 ac 70 bd a0 71 a0 3d 01 9f e1 bd
       -0.021611193 -0.05875838 0.07834172 -0.11016656
0001a0 05 18 bf 3c e9 55 5a bd c5 00 33 3c 25 8c be 3d
       0.023326883 -0.053304587 0.010925476 0.09304074
0001b0 db 22 ec bd d0 f3 86 bd 12 1f 70 3d 51 63 03 bd
       -0.11530086 -0.06589472 0.05862338 -0.032077137
0001c0 57 c3 9d bd 15 1b fb bb 1d 00 a6 bd 93 95 af 3d
       -0.07703274 -0.0076631405 -0.0810549 0.08573451
0001d0 e2 d9 e3 3d 4e de 8c bc 2b 4f 27 3c 1e 1d 02 3d
       0.11125542 -0.017195847 0.010211746 0.03176605
0001e0 01 9d d6 bd da 3c a7 3d 00 f2 89 3d 01 90 a0 bd
       -0.10479165 0.081659034 0.06735611 -0.078399666
0001f0 06 db 1a 3d f4 88 ef bd dc 58 cb bd d8 a3 ba bd
       0.037806533 -0.116960436 -0.09929058 -0.09113282
000200 46 09 27 3d 7a 2e 0f 3d 2a 89 b6 bd c6 cc 0d bc
       0.04078033 0.034956433 -0.08912881 -0.008654779
000210 81 fe 99 3d 5f a1 b2 bd d4 ef da bd bd 40 d6 3d
       0.07519246 -0.08722185 -0.10690275 0.104615666
000220 79 8d 14 3d 95 4b 18 bd 0d ca b2 3d 1e f4 cf bd
       0.03626773 -0.037181456 0.087299444 -0.101539835
000230 2f 0f 14 bb d9 57 b4 3d 5b a0 aa bb be 93 8d bd
       -0.0022592058 0.08805818 -0.005207104 -0.06912945
000240 de 9d 97 bc 52 3f 80 bd 35 8d a1 ba 2c ed b9 3d
       -0.018507894 -0.062620774 -0.0012325408 0.0907844
000250 a0 69 c4 bc 69 35 a7 3d 8a 51 3f bd ba e6 bf bd
       -0.023976147 0.08164484 -0.04670862 -0.093701795
000260 ee 33 cd 3d ab 24 21 bd a5 d5 61 3a 85 e7 b8 bd
       0.100196704 -0.03934161 0.00086149044 -0.09028534
000270 1c 70 d4 bd 24 15 8f bd e6 7c cd bd d8 3a 8c bd
       -0.10372946 -0.06986454 -0.10033588 -0.06847161
000280 c5 19 60 bd 5f cf db 3d 00 cc 42 3b ce 23 15 3c
       -0.054712076 0.10732912 0.0029723644 0.009102775
000290 b8 2e 31 3d d4 0a 1a 3d 0f 04 c0 3b 11 bb a3 3c
       0.043257445 0.037607983 0.005859859 0.019986661
0002a0 45 d7 9b bd 2c 0e b8 bd e2 11 b7 3d b9 ee a7 3c
       -0.07609419 -0.08987078 0.08938958 0.020499574
0002b0 3a d7 7d bd f9 61 a8 3d 06 a4 bf 3d cd bc 1b bd
       -0.061972834 0.08221812 0.09357457 -0.03802185
0002c0 11 d1 b0 3c 55 84 de 3d 02 9f 51 bd d1 1c a4 3c
       0.021584066 0.10865084 -0.051177032 0.020033272
0002d0 74 81 87 3d 37 fd dc 3d 69 06 b6 3d 3f de 23 bd
       0.06616488 0.107904844 0.088879414 -0.040006872
0002e0 48 6b 01 bd 05 ce db bd ff f4 5e bd c6 4e c4 bd
       -0.031596452 -0.107326545 -0.054432865 -0.09585337
0002f0 b0 39 79 3d f6 3e a1 3c 44 35 9e 3d 47 63 ae bd
       0.06084603 0.019683342 0.07725003 -0.085150294
000300 1b 08 3e 3d 34 fa 72 bd 1e aa d1 3d 29 c9 48 bd
       0.04639445 -0.059320644 0.102375254 -0.049019966
000310 90 cb 9b 3d 5a f0 44 bd ef 3f 9f 3d 00 c4 c8 3d
       0.07607186 -0.04808078 0.07775866 0.09803009
000320 54 73 b6 3d 68 97 48 bd 86 b9 72 bc 7c a2 a1 bb
       0.08908716 -0.048972517 -0.01481474 -0.0049326997
000330 70 9d e4 3d e3 f1 c9 3d b9 65 4a bd a6 39 ca 3d
       0.11162841 0.09860589 -0.049413417 0.09874277
000340 e5 f7 b6 bd b5 1e 8d 3c f4 4a 67 bb 68 b1 60 3d
       -0.08934001 0.017226556 -0.0035292478 0.054856688
000350 d1 61 91 bd 3a e0 e0 3c be d9 1e 3d c3 9d a7 3d
       -0.07098735 0.02745067 0.038781874 0.081843875
000360 3c 13 cb 3d 93 d3 68 3d a9 78 7d 3d 03 27 d3 3b
       0.09915778 0.056842398 0.06188265 0.0064438595
000370 c9 bd c2 3c 16 58 c9 3d 0a fb ae 3b b1 f7 9f 3d
       0.023772137 0.09831254 0.005339985 0.07810915
000380 1c d4 ab bc c3 2b b2 bd d5 e0 b0 3d fa 55 d6 3c
       -0.020975165 -0.08699753 0.08636633 0.026164044
000390 48 b2 d5 bd 73 64 3d 3d 18 bf 9b bd 42 f9 e9 bc
       -0.10434395 0.046238374 -0.076048076 -0.028561238
0003a0 7f ee 32 bd 60 c1 d5 3c de 8f ad bd 8e f6 a8 bd
       -0.04368448 0.026093185 -0.08474706 -0.082501516
0003b0 db 19 b0 3c 13 fb 86 bd b0 df 08 bd b8 7d e5 bd
       0.021496704 -0.06590857 -0.03341645 -0.112056196
0003c0 dc 20 a6 bd 09 59 36 3d bd db c2 3d e5 61 a9 3d
       -0.08111736 0.044518504 0.09514568 0.08270625
0003d0 08 06 e5 3d 30 54 f7 bc db a2 49 3d e7 e2 b4 3d
       0.11182791 -0.03019151 0.049227577 0.08832341
0003e0 54 c4 1c 3d dd 84 94 3d e7 b4 46 3d 10 97 e6 3c
       0.03827317 0.07251904 0.048512366 0.028148204
0003f0 89 93 c6 bd d6 73 cd 3d b7 d3 ca 3d f1 de d7 3d
       -0.09696109 0.100318596 0.09903663 0.105405696

bias f4 [32]
000000 67 ee 9e 3d 90 28 43 3d db fb 6e 3c c4 1a a5 bc
       0.077603154 0.047646105 0.014586414 -0.020154364
000010 d6 16 94 3d 77 8a 92 3d 7c be ff bc 45 52 e7 3d
       0.07230918 0.07155316 -0.03121876 0.112949885
000020 1c c4 89 bd 60 ae e1 3d 8f fb 97 3d 7a 0d 88 bd
       -0.06726858 0.110195875 0.07421028 -0.066431955
000030 a1 be 65 3b 71 52 c0 3c 08 6a e4 3d 3f d6 a9 3c
       0.003505625 0.023476811 0.11153036 0.020732043
000040 5d 07 85 3d 2e b9 a5 bd 57 13 b6 3c 87 6d ae 3d
       0.06495545 -0.08091961 0.022226019 0.085169844
000050 a6 6a 93 3d 75 54 c4 3c 62 79 8c 3d 7e f0 d9 3d
       0.07198076 0.023966054 0.068590894 0.10641573
000060 f5 8b c2 bd e9 9f 2a bd 62 83 5e 3d 4e f3 71 bd
       -0.09499351 -0.04165641 0.054324515 -0.059069924
000070 9b fd 5b bd 70 b0 9f 3c 49 07 da bd 4a 2f b2 3d
       -0.053708654 0.019493312 -0.10645921 0.08700426

weight f4 [32, 32, 5, 5]
000000 6f 5f 9b bc 9e 9b 05 bd f2 65 be 3b ca ea 0b 3d
       -0.018966405 -0.03261911 0.0058104927 0.03415946
000010 56 e3 e2 bc 64 22 02 bd d9 c8 e4 ba b1 1c ac 3c
       -0.027696293 -0.03177108 -0.0017454877 0.021009775
000020 97 a1 8d bc 5f 1d b2 3c b1 14 74 bc 6e fd ca 3c
       -0.017288966 0.02174252 -0.014897511 0.024779048
000030 f9 b9 0e bd 21 f8 51 3c e6 4f f8 bc 48 7e 66 bc
       -0.034845326 0.012815506 -0.030311536 -0.014068194
000040 2d eb c2 bc d4 ae f7 34 96 4a 8f 3c 45 0a e4 bb
       -0.023793781 4.613454e-07 0.01749162 -0.006959232
000050 2f 7d cb 3c 7b a4 10 3c 97 44 fe bc 9c 6b 55 bc
       0.024839966 0.008828278 -0.031038566 -0.013026144
000060 de 96 de ba 5e 27 f1 bc 7c ae c3 bc 86 67 7a 3b
       -0.0016982218 -0.029437717 -0.023886912 0.0038208677
000070 0f b9 da bc 87 aa 08 3d 12 85 2e 3b 1b 60 98 bc
       -0.026699571 0.033365753 0.002662961 -0.018600514
000080 3b 60 f9 bc d7 53 d1 3c 06 8e 9f 3c 6a d4 dc 3b
       -0.030441394 0.025552673 0.019476902 0.006739189
000090 8d 3e 35 bc bf aa 07 bd 03 3f 8e 3c 11 9c 33 3c
       -0.011062277 -0.03312182 0.01736403 0.010962502
0000a0 f2 83 fb bc e0 be 06 bb 14 65 6a bb d7 02 24 bc
       -0.030702565 -0.0020560548 -0.0035765814 -0.010010443
0000b0 21 4c bc 3c de 74 f6 bc 89 9e 8c 3c be 28 28 ba
       0.02298552 -0.030085023 0.01716544 -0.00064147625
0000c0 b1 a5 39 bc dd 72 8a bc d9 87 97 bb 99 df 0a bd
       -0.011331008 -0.016900474 -0.0046243486 -0.033904646
0000d0 93 e8 be 3c 74 9d 25 bc f6 c6 07 3d 10 9f fb bc
       0.02330426 -0.0101083405 0.03314873 -0.030715495
0000e0 5f 54 28 3c 09 b9 03 3d 97 5a ba bc 95 82 f3 3c
       0.010274022 0.032158885 -0.022748275 0.029725352
0000f0 33 6f a0 bb 77 24 e8 3c c6 80 eb 3c 08 7a e6 3c
       -0.0048960685 0.0283377 0.028747927 0.02813436
000100 9b 7d f7 3c ac 3e b4 3a c3 69 8a 3c da fb 04 bd
       0.03021126 0.0013751588 0.016896134 -0.032466747
000110 45 c9 9b bb 25 37 02 bd 3b 83 e5 3c 59 ad f4 39
       -0.004754218 -0.03179087 0.028016677 0.0004666846
000120 1a e9 71 bb c8 51 19 bc 9c 4c f1 3c 1f 2e 05 bd
       -0.003691262 -0.009357877 0.029455476 -0.032514688
000130 7d f9 8d bc 67 a4 57 38 29 f9 06 bd 6f f2 f5 3c
       -0.01733088 5.1413106e-05 -0.03295246 0.030022828
000140 40 45 63 3c be 00 1d bc 13 03 5f 3b 4d e5 e7 bc
       0.013871491 -0.0095826965 0.0034028932 -0.028307581
000150 1b 30 ca 3c 99 fb 1f 3b b2 2a f7 bc 29 26 e4 3c
       0.024681142 0.0024411438 -0.030171726 0.027850227
000160 e2 f6 ad bc 93 77 8a bc c2 33 f3 3b 90 51 2a bc
       -0.021235887 -0.01690272 0.0074219415 -0.010395423
000170 80 f8 00 bb 76 bb 55 3c 9a 64 1e bc 15 2c 00 bd
       -0.0019679368 0.013045182 -0.00966754 -0.03129204
000180 71 87 f0 bc a5 c7 c0 bc a9 8b fe bb 9d f8 e9 bc
       -0.029361458 -0.023532698 -0.0077681136 -0.02856093
000190 b5 52 83 bc 39 c3 ef bc 8e a1 16 3b 98 51 4a bc
       -0.016030649 -0.029267894 0.0022984478 -0.012348555
0001a0 b0 59 2d ba a4 86 41 3c e5 09 cd bb ee 37 98 3c
       -0.0006612791 0.011811886 -0.006257283 0.018581357
0001b0 55 77 43 3c 97 53 fb bc 7c 1f 89 bc 43 12 d6 bc
       0.011930306 -0.030679507 -0.016738646 -0.026131755
0001c0 03 24 15 bd a5 08 0c 3c 9a 8c 3a 3c 22 74 7e 3c
       -0.036411297 0.008546983 0.011386061 0.015530618
0001d0 73 1c 23 3c 73 a1 0a bd d6 cf b5 3c 00 07 80 3c
       0.009955513 -0.033845376 0.02219383 0.015628338
0001e0 3f 4c 3e 3c 3a bd 8f 3c 8d 2e af 3b ba 96 b7 3c
       0.011614858 0.017546285 0.0053461255 0.02241074
0001f0 06 35 45 3b 1e b9 73 bc 32 00 ed bc 86 1f 78 3b
       0.003009142 -0.014875678 -0.028930757 0.0037860586
000200 08 41 72 3c fa 58 02 3c 28 97 e5 bc 40 d2 d2 3c
       0.0147860125 0.007955784 -0.028026178 0.02573502
000210 83 a3 71 bb 8b 03 ae 3c de 07 8e 3c c3 1b 01 bd
       -0.0036871142 0.021241924 0.017337736 -0.031520616
000220 0f 9c 22 3c 81 c0 05 bd 06 c6 dc bc 9b 27 e7 3a
       0.009924903 -0.03265429 -0.026949894 0.0017635705
000230 30 6c fc bc 5e 23 e8 bc dc 45 2b bc 82 26 d6 3c
       -0.030813307 -0.028337177 -0.0104536675 0.026141409
000240 b7 ba 88 3c 4c ca 84 3c bb 9f 9e 3c 09 8b 57 bc
       0.016690595 0.016209744 0.019363275 -0.013155707
000250 7c dc 8e 3b 1c c7 08 3d 9e 40 e0 ba d2 00 2a 3c
       0.00435978 0.03339301 -0.0017109101 0.010376172
000260 7f 29 18 bc 1c 8c c9 bb dd aa 3f 3c 35 7a f0 3c
       -0.009287237 -0.0061507355 0.011698452 0.029355148
000270 de c4 4f 3b 80 cc d4 bb 03 a2 d4 bc da b5 16 bb
       0.0031703035 -0.006494105 -0.02595616 -0.0022996576
000280 e4 9b e0 3c 62 f4 93 3c 43 45 23 3c c5 2d 6f 3c
       0.027418084 0.018060867 0.009965244 0.014598315
000290 3f 4d de bc 81 0b db 3c 31 6e e7 3c cd 52 d7 bc
       -0.027136443 0.026738884 0.028250786 -0.0262846
0002a0 17 b6 fe 3b 7b 06 b5 bc 8f 56 c2 3b 21 55 9f 3c
       0.0077731716 -0.022097817 0.0059307287 0.019449772
0002b0 d8 d7 68 3b 31 d1 a2 bc 42 65 44 3c 77 45 e1 3c
       0.0035529044 -0.01987514 0.011987032 0.027498944
0002c0 40 6f 9c 3c 50 bf 1c bc f1 80 8e bc 38 ff 00 3d
       0.019096017 -0.009567097 -0.017395468 0.031493396
0002d0 db ee d5 3c b5 ad 05 bc 55 3b 34 3b 10 de 94 3b
       0.026114872 -0.008159091 0.0027501185 0.0045430735
0002e0 37 93 e6 3c af 4b cc 3c 3f 15 f9 bc 07 99 00 bc
       0.02814637 0.024938432 -0.030405639 -0.007848985
0002f0 39 0e f9 3c 82 7d 32 3a d7 79 9e bc 68 06 03 bd
       0.03040229 0.0006808863 -0.019345207 -0.03198853
000300 4a cf a8 ba b4 8c 0d 3d 8b 05 b0 bc 45 00 fa 3b
       -0.001287916 0.034558013 -0.021487018 0.0076294267
000310 01 cf d2 bc f4 78 70 3c 39 eb 96 3c 9c 3c 98 bc
       -0.025733473 0.014677275 0.01842271 -0.018583588
000320 b0 f4 99 3c e0 58 9f bc ba 2c ef 3c 62 5e 3e 3c
       0.018793434 -0.019451559 0.029196132 0.011619182
000330 fd b2 e1 3b d0 6e e8 3c e9 2c 16 3b 65 9c c5 ba
       0.006887792 0.028373152 0.0022914952 -0.0015076516
000340 1f ef 2f bc 91 51 02 3c 42 b9 c1 3b 13 07 ec 3c
       -0.010738163 0.007954017 0.005911977 0.028811967
000350 32 41 ca ba eb 2b 56 bc d0 a0 76 3c 1b 29 95 bb
       -0.0015430807 -0.013071994 0.015052989 -0.0045520193
000360 26 24 ff 3c aa e7 a7 3c 89 d0 50 3b 2f 02 87 ba
       0.031145167 0.020496208 0.0031862578 -0.0010300333
000370 be 71 d1 bc 62 ec 01 3d 75 b7 9f 3c 11 4d 11 3d
       -0.025566932 0.031719573 0.019496659 0.035473887
000380 87 5a 4a 3c f3 8e ae ba 2a 79 ca bc 5d 23 f3 3b
       0.012350685 -0.0013317749 -0.024715979 0.007419987
000390 4b c2 cd bc 8c 3a ce 3c 5a 89 17 bd 28 d7 b9 bc
       -0.02511706 0.025174402 -0.036996223 -0.022685602
0003a0 21 4a 44 bc 71 f3 c2 3c 9e b6 ec 3c 0c df b4 bb
       -0.011980564 0.023797723 0.028895672 -0.0055197533
0003b0 5d d5 63 3c 6b 74 fb bc 55 58 98 bc 93 65 02 bd
       0.01390585 -0.03069516 -0.018596807 -0.03183515
0003c0 64 0a b3 3c bb 36 96 bc 2b 8c 87 3b 9a 6c 2d 3b
       0.02185554 -0.018336644 0.0041365824 0.0026462437
0003d0 2b 41 42 bc 17 6c e0 3c 95 b7 07 bd a3 85 e8 bc
       -0.011856358 0.027395291 -0.03313406 -0.028384035
0003e0 b9 cf 09 bc b8 9e 7e bc 74 ca 0d bd 37 ed de bc
       -0.008411341 -0.015540771 -0.034616902 -0.027212722
0003f0 37 1d ba bc b6 cc 98 3c fb ac 98 3c ec 07 84 3c
       -0.022719009 0.018652301 0.018637171 0.016117059

bias f4 [32]
000000 5a 9e 49 bc ca 6c f0 bc 28 7c 07 bc 52 0c d0 bc
       -0.01230582 -0.02934875 -0.008269347 -0.0253965
000010 33 3e 31 3c fd c2 59 bc 72 97 16 bc d4 f4 19 bc
       0.010818052 -0.013291118 -0.009191381 -0.0093967505
000020 67 86 72 3c b0 2e 71 3c a4 65 ac bb 5f 48 55 bc
       0.014802552 0.014720604 -0.00526114 -0.013017743
000030 d1 6d d5 3c fb 44 95 bc 74 b4 60 bc 4e c2 c2 bb
       0.026053341 -0.018221369 -0.013714898 -0.005943573
000040 c4 c9 fe 3c 82 b7 ec bc f0 33 9d bc 1a 72 f8 bb
       0.031102069 -0.028896097 -0.019189805 -0.0075819613
000050 77 ba e2 3c 1f 51 e9 bc a0 47 20 3c 80 87 57 bc
       0.027676804 -0.028481064 0.009782702 -0.013154864
000060 2a ea b8 3a aa 4d c3 bc 5a 41 7b bc 6a 02 cc 3c
       0.0014107872 -0.023840744 -0.015335405 0.024903495
000070 8d 45 ec 3c 49 c1 c5 bc 82 66 95 3c 31 a0 d1 3c
       0.028841758 -0.024140017 0.018237356 0.02558908

weight f4 [64, 32, 5, 5]
000000 62 4b 10 bc f8 88 6d 3c ba 8e 8a bc df 77 ef 3b
       -0.008807035 0.014497988 -0.01691376 0.007307991
000010 2a f6 64 3c ea 62 8a bc 5a af dd b9 3d ee 69 3b
       0.013974706 -0.016892869 -0.00042283052 0.003569498
000020 3c 59 6c ba 9d a8 91 b9 1e c4 20 bc d9 0e 97 3c
       -0.00090159825 -0.00027782182 -0.009812383 0.018439697
000030 00 3a 85 bc 1c 5e 03 3d 01 85 0f 3d 92 46 ff bc
       -0.016263008 0.03207217 0.03503895 -0.03116158
000040 32 bf 62 3c f5 cd 59 bc 63 0a 03 bd e4 e9 a9 ba
       0.01383953 -0.013293733 -0.031992327 -0.0012963382
000050 9c b2 5a bb 3c 66 3f 3c b3 1f 2f bc ec 21 8f 3c
       -0.003337062 0.011682089 -0.01068871 0.01747223
000060 5d d1 ec bc 70 97 be b8 f5 10 6e bc 40 db 06 3d
       -0.028908426 -9.0881134e-05 -0.01453041 0.032923937
000070 e7 4b 06 3c 7b 8c 0b 3c 40 78 c7 3b f5 81 02 bd
       0.0081968075 0.00851738 0.006087333 -0.031862218
000080 8a 37 99 3b fd 71 40 3c 9f 7f e8 3b 9f 93 c8 bc
       0.00467581 0.011745927 0.0070952917 -0.024484454
000090 3e 68 0d bd ba 61 9c bc 5f 74 1e 3c 5d a4 e9 38
       -0.03452324 -0.019089568 0.0096713 0.00011140921
0000a0 75 26 05 3d 76 3b e3 3b 81 94 b6 bc 01 66 90 bb
       0.03250738 0.0069345785 -0.022287609 -0.004406691
0000b0 49 f3 ac 3c 9e b6 b9 3c e9 0e b4 bc 4f 19 0b bd
       0.021112101 0.022670086 -0.021979766 -0.033959683
0000c0 e7 16 06 3d 5e ae 9a 3c 11 b5 8b 3c 45 a6 e1 3c
       0.032736685 0.018881973 0.017054113 0.027545104
0000d0 b4 f0 a9 bc bb b6 7a 3b ad eb f3 3c 26 5b b5 bb
       -0.020744659 0.0038255889 0.029775465 -0.0055345474
0000e0 1e 73 ae bc be c5 4d bc e1 0e a1 bc 70 f3 ff 3c
       -0.021295127 -0.012559352 -0.019660415 0.03124401
0000f0 35 0d a5 3c 46 98 86 3c a4 ec f6 bc bc 12 e8 bc
       0.0201479 0.016430032 -0.030142136 -0.028329246
000100 8b e4 bd 3c c4 74 db bc e1 2e ec 3b 2e f6 ea 3c
       0.023180267 -0.026789077 0.007207737 0.02868184
000110 17 19 98 bc 2e 65 b0 3c fa 7f a1 bb 22 27 e2 3b
       -0.018566651 0.021532621 -0.004928586 0.0069016377
000120 c8 c2 8b 3c 41 d8 c3 3a e0 2e 0c bd aa db a7 3c
       0.017060652 0.0014941768 -0.03422439 0.020490486
000130 a8 8a 9c 3c b7 7f c9 bc d1 9b cf bc 79 d7 a7 3c
       0.019109085 -0.024597032 -0.025342854 0.020488488
000140 f0 93 53 3b 44 67 e4 bc 6a 36 12 3c 2a 80 01 3d
       0.0032284223 -0.027881272 0.008924106 0.031616367
000150 54 de 00 bc c9 8c 9c 3a 69 94 33 3c 1c 42 0c 3d
       -0.007865507 0.0011943813 0.010960677 0.034242734
000160 20 04 22 ba 3f 81 c7 3c e3 c9 90 3c 05 18 99 3c
       -0.0006180424 0.024353622 0.017674392 0.018688211
000170 bd 0a 0d bd cb 15 d8 bc 8f 11 54 3c b0 05 fe bc
       -0.03443407 -0.02637758 0.012943639 -0.031008571
000180 36 16 90 3c 23 48 e3 3c 67 8d a9 3b 07 44 51 bc
       0.017588716 0.027744358 0.005174327 -0.012772567
000190 63 a0 83 3b 6b 90 35 3b a9 44 e8 3c 9e 49 7c 3c
       0.0040169223 0.0027704488 0.028353052 0.015398411
0001a0 88 2c ce 39 91 3a 67 3c ce 19 97 3c 66 ed a2 3c
       0.0003932456 0.014113084 0.018444922 0.019888591
0001b0 36 46 dd 3c b5 ac e2 3c ce a9 8c bc 42 1f a3 bc
       0.027011018 0.027670244 -0.017170813 -0.019912366
0001c0 5e 50 ca 3c 01 82 49 bc 37 2f 21 3c 4b a4 08 bd
       0.024696525 -0.012299062 0.009837917 -0.033359807
0001d0 f7 ad 0c 3c 87 87 de bc 7b b5 06 bd 94 9d 4b bb
       0.008586398 -0.027164234 -0.032887917 -0.0031069266
0001e0 16 07 05 3c d5 79 ac bc b5 b6 f0 3c 5e a8 b8 3b
       0.008119365 -0.021054188 0.029383997 0.0056353053
0001f0 b5 85 8c 3c 1a 70 c6 bc 50 1e dc bc 1d 0c 0b bd
       0.0171536 -0.024223376 -0.026869923 -0.0339471
000200 03 48 e8 bc c0 e6 a0 bc d5 e4 36 bc e9 b6 f5 bc
       -0.02835465 -0.01964128 -0.011162956 -0.029994445
000210 5f af e6 3c c5 10 ac 3c 94 a6 bb bb cc 8d af bc
       0.028159795 0.02100409 -0.005726645 -0.021429919
000220 ae 21 25 3c 71 0d cb bc 4e 8d dc 3c 31 e5 80 bb
       0.010078831 -0.024786683 0.026922848 -0.0039335717
000230 20 ad 88 bc 83 8d 5d 3c ac 95 d2 bc 6c f4 08 3d
       -0.016684115 0.013522509 -0.025706135 0.033436224
000240 ec 13 13 bd f5 89 f4 bc 56 cf 04 3d ac 6c c6 3c
       -0.03590767 -0.02985094 0.032424293 0.02422174
000250 07 f9 a2 bc 46 a6 4b bc ec 71 85 bc 73 ce 05 3d
       -0.019894136 -0.012429779 -0.016289674 0.03266759
000260 49 b3 9c 3c 14 5b aa 3c 37 66 05 bc 1c 22 a1 bb
       0.019128459 0.020795383 -0.008142046 -0.004917396
000270 e9 d0 97 3c fb 4b a2 3c 87 4e a2 3c 42 c4 cf 3c
       0.018532233 0.019811621 0.019812835 0.025362138
000280 1b e8 40 3c 81 63 14 3d 94 01 ec 3c 14 76 9e 3c
       0.011774088 0.036227707 0.028809346 0.019343413
000290 b6 cf 01 3d 6f e2 b1 bb fb f3 b8 bb 9c 5d 85 3c
       0.03169223 -0.0054286043 -0.005644319 0.016279988
0002a0 ce 82 e5 3c 5b 44 dc 3c f5 5b 37 3c a2 59 49 3c
       0.028016474 0.026888063 0.011191358 0.0122894365
0002b0 1b 4e ba bc ff 41 09 3d f2 2b e2 bc 54 2b b2 ba
       -0.022742322 0.033510204 -0.027608845 -0.0013593235
0002c0 e3 3f 8e ba cf 15 f0 3b c0 8b de bc ad 16 cb 3b
       -0.001085278 0.0073268185 -0.027166247 0.0061977715
0002d0 01 e5 12 3d fe b1 96 bc c5 ee b9 bc 8e 34 c8 3a
       0.035862926 -0.01839542 -0.022696862 0.0015274452
0002e0 60 8e dd bc 7e a9 3c 3c 0b 93 ca 3c 5a 0e fb bb
       -0.027045429 0.011515019 0.024728319 -0.007661623
0002f0 4b cc 4a bc d3 29 94 bc 54 46 14 bc e2 bf bd bc
       -0.012377809 -0.01808635 -0.009049971 -0.023162786
000300 9a 3c ed bb 8d da 25 bb 13 04 8d 3c b8 53 0d bd
       -0.0072398903 -0.0025307268 0.017213857 -0.03450367
000310 7e 44 f2 bc ab 29 08 3d 72 fe 5d 3a 05 23 42 ba
       -0.029573675 0.033242863 0.0008468396 -0.0007405731
000320 eb f7 e5 bb 52 cf 03 3d 75 be df bb b0 a3 08 3d
       -0.0070180795 0.032180138 -0.006828124 0.03335923
000330 7f 89 22 bc 2c 57 52 3c 60 cb f3 bc 30 4f f6 bc
       -0.009920477 0.012838166 -0.029760063 -0.030067056
000340 77 b0 f5 3c 6f a0 a5 bc a7 72 ea 3c b3 ff 7d bc
       0.029991372 -0.020218102 0.028619124 -0.015502858
000350 fd 35 0d 3d 93 54 be 3c cf 14 09 3b 30 5e 57 bb
       0.034475315 0.023233688 0.0020916944 -0.0032862537
000360 d5 5d 9a 3c 57 e8 8e bc b8 5e b6 bc 57 4b dc 3b
       0.01884357 -0.017444773 -0.022261962 0.0067228484
000370 81 a3 ac bc 18 94 d5 3c ca 48 34 bc 00 b0 dd bc
       -0.021074058 0.026071593 -0.011003682 -0.027061462
000380 6b 52 c7 bb bf 65 3b bc 02 fe 41 bc bb cf dc 3c
       -0.006082823 -0.011437832 -0.011840345 0.026954522
000390 cc db b8 3c cd 2c 8b bc d1 10 0a 3d d5 17 c0 bc
       0.022565745 -0.016989136 0.033707444 -0.023448864
0003a0 b4 18 1a bc b7 cf fc bc a3 cb 0b bc 17 e2 13 3c
       -0.009405304 -0.030860765 -0.0085324375 0.009026072
0003b0 50 42 f2 bc 03 1b c9 3c 25 cd 56 ba 81 9d 07 3d
       -0.029572636 0.024549013 -0.0008194021 0.03310919
0003c0 6c 81 f8 bc 0e 8d 5e bb b0 1e 3e bc e5 1c 9e ba
       -0.03033515 -0.0033958587 -0.011603996 -0.0012063055
0003d0 01 09 d5 3c a6 9b 2d 3c 15 4b 02 bd 48 73 8f bc
       0.02600527 0.0105961915 -0.031809885 -0.017511025
0003e0 22 ff 58 3c 01 7d 65 bb 25 92 24 3c 90 ad b8 bc
       0.013244422 -0.0035017135 0.010044609 -0.022543699
0003f0 e8 19 ee 3c bb fd 87 ba b9 41 33 bc a8 ca d7 38
       0.029065087 -0.00103753 -0.0109409625 0.000102897466

bias f4 [64]
000000 ad ef 0e bd 90 bb 08 bd 04 7b 13 3c e1 47 3d bc
       -0.03489654 -0.033382 0.009001497 -0.011552782
000010 9c da b2 bc f6 de c7 3c 7c a9 30 bb 45 9b 05 3d
       -0.021832757 0.024398308 -0.002695649 0.03261878
000020 78 25 79 3b a5 8d 2f bc 80 8e 63 bc ab 55 92 3c
       0.0038016718 -0.010714923 -0.013888955 0.017863115
000030 68 42 e6 bb d5 05 d9 bc e3 4e 0f bd 81 c3 15 3d
       -0.007026959 -0.026492039 -0.03498734 0.0365634
000040 49 a9 8b bc e1 8d 91 3c 2a 5e 04 bd 94 3c b3 bc
       -0.017048495 0.017767848 -0.032316364 -0.021879472
000050 ee af d7 3c f2 88 d6 bc 60 27 ea 3c 31 5a 5e 3c
       0.026329007 -0.026188347 0.028583229 0.013571308
000060 ef 73 ee 3c cd 94 d3 bb f8 29 c9 3c 8a 30 45 3c
       0.029108016 -0.0064569474 0.024556145 0.012035498
000070 cc b3 b1 bc a4 72 a9 3c fb ab f9 3c 57 92 6b 3c
       -0.02169218 0.020684548 0.030477514 0.014378152
000080 49 c7 e8 bc 3d 21 04 3c b9 fb af bc 7a b5 f7 ba
       -0.028415339 0.008064565 -0.021482335 -0.0018898689
000090 dc 7e 22 bc ac 55 c0 bc 19 75 0d bd 80 f9 09 3d
       -0.009917941 -0.023478352 -0.0345355 0.033685207
0000a0 c5 7e 0c 3d 26 3a 9c bc 4a 57 22 3d d5 1d 9e bb
       0.034300584 -0.019070696 0.039634027 -0.0048253336
0000b0 50 6d ae bc 88 86 33 3c 51 20 10 3d 59 de 7a bc
       -0.021292359 0.010957368 0.03518707 -0.015311801
0000c0 af a6 ce 3c 93 c6 bc 3c c5 62 94 bc 9b 2b 4f bc
       0.025225965 0.023043906 -0.018113503 -0.012644674
0000d0 ab 5d e7 3b d7 09 77 bb f2 27 02 3c 98 c6 e3 3c
       0.0070607266 -0.0037695074 0.007944094 0.027804658
0000e0 6b 0e 02 3d b5 b1 c0 bc 66 92 40 3c f7 35 6f bc
       0.03175203 -0.023522237 0.011753654 -0.014600269
0000f0 4d 82 33 bc ce a9 f6 bb d0 22 1f bc 1c 23 70 3c
       -0.010956359 -0.0075275665 -0.00971289 0.014656808

weight f4 [64, 1024]
000000 98 c2 8f bc 9f 56 87 3b 7a 77 7b bc 7e 2f a6 bb
       -0.017548844 0.004130199 -0.01534831 -0.0050715795
000010 b1 3f 86 bc a1 0d d8 ba c8 11 9e bc 12 dc c9 bc
       -0.016387792 -0.0016483554 -0.019295588 -0.02464107
000020 4a 69 19 bc 32 a3 05 3c ca 30 e9 bc 14 97 ed 3c
       -0.009363482 0.008156585 -0.028465647 0.029002704
000030 31 5c d4 bc a9 81 0e 3c a5 c8 e6 3c df 68 14 bb
       -0.025922867 0.008697906 0.028171847 -0.0022645516
000040 d2 8a c0 3b 8c 45 9c bc c6 ff 25 3c ad 92 a8 bc
       0.0058759237 -0.019076131 0.010131782 -0.020577753
000050 42 c8 d5 bc 6a 14 5f 3c 00 f0 86 3c 94 5b 7e 3c
       -0.026096467 0.013615707 0.016471863 0.015524764
000060 78 6c 25 3c d5 41 ee bc 4e c2 11 bc 8a d4 62 3c
       0.010096662 -0.029084126 -0.0088964235 0.013844619
000070 9b d9 a0 bc c6 87 99 3c 33 04 79 3c 7b bc 3e 3c
       -0.019635012 0.0187415 0.015198755 0.011641617
000080 7f ec 4a bc 1e b5 d3 3c cf cd c7 bc ca 5e 4b 3c
       -0.012385487 0.0258432 -0.02439013 0.012412736
000090 84 ac 2a 3c cf 1a c3 bc 18 f6 ae 3c 16 91 e6 3b
       0.0104171075 -0.023816494 0.021357581 0.0070363386
0000a0 8d ad 53 bc bc 1e 82 bc b3 7c 67 bc c7 ab 6c bc
       -0.012919796 -0.015883796 -0.014128852 -0.014445252
0000b0 ad 16 9e bc 01 a5 e8 bc d4 9f 9e 3c 12 aa bd 3c
       -0.019297922 -0.028398992 0.019363321 0.023152385
0000c0 55 75 67 3c 8a a5 a6 bc 41 a5 aa 3c d2 16 f9 bc
       0.014127095 -0.020342607 0.020830752 -0.03040639
0000d0 11 d0 a7 3c 4f fb 03 3c 60 23 00 bc eb 09 f2 3c
       0.020484956 0.008055522 -0.007820934 0.029545745
0000e0 b3 11 b6 3c 30 23 a8 3c d6 17 d6 bc 21 bc aa bb
       0.022225237 0.020524591 -0.026134413 -0.005210415
0000f0 1a 99 5f 3c 49 1e 85 3c 9a 12 15 3c e3 eb 05 3d
       0.013647342 0.016249793 0.009098673 0.032695662
000100 c8 74 d6 3c bd b0 b2 3b 1d 32 ad bb 15 55 c1 3c
       0.026178733 0.0054531978 -0.005285515 0.02360014
000110 ea f3 49 bc 98 7e cf bc cb c7 5a bc cd 58 82 bc
       -0.01232622 -0.02532892 -0.013353298 -0.015911484
000120 dc 6f c7 3a bd 1f 08 bc 0e 5c 32 bc 05 80 1a 3c
       0.0015215832 -0.008308348 -0.010886205 0.009429936
000130 3f 05 68 3c 4d a0 cc bc 32 9f d6 bc 73 62 bb bc
       0.014161407 -0.024978781 -0.026198957 -0.022874093
000140 ee a0 2c bb 79 23 cf bb a9 e2 01 3c 3d cb 8f 3c
       -0.0026341039 -0.0063213673 0.007927575 0.017552966
000150 c3 58 d6 bc ea a8 be 3c 5c c6 ca 3c 62 dd 5c bc
       -0.026165372 0.023273904 0.024752788 -0.013480516
000160 8b 72 dd 3c a4 7b 4d 3a c3 cd 25 bb 59 2d db 3c
       0.027032157 0.0007838553 -0.0025299645 0.026755022
000170 ee 9d 9c 3b 51 e1 df 3c 1b 90 01 bc d5 a9 07 bc
       0.004779569 0.027329119 -0.007907893 -0.008280237
000180 68 7b c6 bc 31 ab 19 bb 57 7d d7 bc d3 fb 87 bc
       -0.024228767 -0.0023447985 -0.026304884 -0.016599571
000190 c0 4e cc bc e8 d0 de 3c ce f4 5a 3c 7a 67 9f 3b
       -0.024939895 0.027199224 0.01336403 0.0048646303
0001a0 4e bf e8 bc 27 dc aa 3c ae 87 e3 3c 38 0e 06 3c
       -0.028411534 0.02085693 0.027774658 0.008182101
0001b0 ca 00 f1 bc c5 03 b1 bc 91 99 ae bc 7d b8 dc 3c
       -0.029419322 -0.021608243 -0.02131346 0.02694344
0001c0 d4 d9 08 bc 6e a5 7f bc a1 20 a5 bc 19 0b ff 39
       -0.0083527155 -0.015603406 -0.02015716 0.00048645659
0001d0 b5 bd 90 3c d9 3a cd 3c a4 92 ac bc 80 9b c3 3c
       0.017668584 0.025052475 -0.021066017 0.02387786
0001e0 52 ba 2c bc 71 d6 82 bc a7 2e 9c bc 95 73 c5 bc
       -0.010542469 -0.015971394 -0.019065214 -0.024102965
0001f0 90 95 fe 3c eb 86 b0 bc a4 81 18 3c ec f4 d6 3c
       0.031077176 -0.021548709 0.0093082525 0.026239835
000200 63 e0 45 3b 30 ce d9 3c fa ef 4c bc 92 41 80 3b
       0.003019356 0.026587576 -0.012508387 0.0039140666
000210 af eb 45 bb 4e 5c 3b bc 4c 18 ca 3c 87 75 7f bc
       -0.0030200293 -0.011435581 0.024669789 -0.015591986
000220 5b 31 aa 3c 2f ec e1 bc b5 ac 5e 3c 2b 7c 67 bc
       0.020775488 -0.027578441 0.013590981 -0.014128725
000230 c6 a9 e7 3c bb 98 46 bc d3 e7 ae 3c 8e 90 f7 3b
       0.028279196 -0.012121375 0.021350777 0.007555074
000240 89 61 fe 3c 37 e6 a4 3c 67 f5 1b bc 39 9e 5d bc
       0.031052368 0.020129306 -0.009518958 -0.013526493
000250 12 57 15 3b d0 f6 99 bc f6 a0 ae bb 50 21 fc 3c
       0.0022787494 -0.018794447 -0.0053292466 0.030777603
000260 bc cf 10 3c d6 cf e3 3b 0f cc 92 bb 02 26 9b bc
       0.00883859 0.006952266 -0.004479892 -0.018939022
000270 9a ec df 3c 2b 8d 8d 3b ce 32 b5 bc d7 4b b6 3c
       0.0273345 0.004319807 -0.022118952 0.02225296
000280 f7 d1 73 3c 73 b5 d4 3c 91 cd 0b 3c 5b 93 f2 bb
       0.0148816025 0.025965428 0.008532898 -0.00740282
000290 ac 65 28 bc 27 ff d4 bc 1c e0 26 bc e2 38 e3 3c
       -0.010278147 -0.026000572 -0.010185268 0.027737085
0002a0 dc d3 b5 bb e7 08 4c 3c 7d 02 84 3c 1f 8b f8 3b
       -0.0055489372 0.012453294 0.016114468 0.007584944
0002b0 ad 94 c6 bc 8d 5c 25 3a 2d b8 72 bc 63 47 47 3c
       -0.024240816 0.00063080416 -0.014814419 0.012163016
0002c0 c5 e9 42 bc dc a7 1c 3c fa 21 c1 bc 58 28 57 3c
       -0.011896555 0.009561505 -0.023575772 0.013132177
0002d0 44 b7 d8 3c e9 24 e6 3b 88 99 ca 3c 0b 1b 99 3c
       0.026454575 0.007023443 0.024731413 0.018689653
0002e0 ba f1 b8 bc 7e dd bb 3c b3 dc 04 3d 3e ff 97 3c
       -0.022576202 0.022932764 0.032437038 0.018554326
0002f0 03 f1 b6 bc 46 8c 14 3c dd 23 c3 3c 58 dc df 3b
       -0.02233172 0.009066647 0.023820812 0.006831687
000300 a6 ef 86 bc 7f 2d dd 3c 28 59 ed 3c 1e 07 81 bb
       -0.016471695 0.026999233 0.028973177 -0.003937616
000310 13 70 d1 bc 29 cf 77 bc 3a 23 83 bc e5 dd 85 bc
       -0.025566136 -0.015125074 -0.016008008 -0.01634116
000320 ff f1 94 bc 6f 56 c2 b9 1d b0 66 bc f8 fb fd bc
       -0.018181799 -0.00037066962 -0.014080075 -0.031003937
000330 3e 44 cc 3b 87 3c 29 3b 18 32 bb bc 86 84 93 bb
       0.006233721 0.002582343 -0.022851035 -0.004501882
000340 f5 56 4c 3c f2 9c ce bc ed 12 27 b9 5c 92 b6 bb
       0.012471904 -0.025221322 -0.00015933411 -0.0055716466
000350 f4 8c ba bc 67 c3 8e 3c c7 38 4a bc 6c 73 bd 3c
       -0.02277229 0.01742716 -0.012342638 0.023126327
000360 ad 37 9c bc 3d e1 5c 3c ce 01 b6 3b f5 8f ee bb
       -0.019069517 0.013481435 0.0055544144 -0.0072803446
000370 ed 3f 46 3b 54 51 5e bc 22 6b 16 bb 3f 28 e7 3c
       0.0030250505 -0.013569195 -0.002295204 0.028217433
000380 f9 ca b2 bc ce 3a 6c bc 3d db d7 bc 00 98 c3 bc
       -0.0218253 -0.014418317 -0.026349658 -0.02387619
000390 18 40 cc 3c 18 ff bf 3c bd e5 87 bc f0 90 cc bc
       0.024932906 0.023437068 -0.01658904 -0.024971455
0003a0 0e fe eb 3c 84 ba 53 bc 75 ef ea 3c 54 71 a4 ba
       0.028807666 -0.012922887 0.028678635 -0.0012545981
0003b0 94 ec a9 3c f1 6d fc bb d8 6e 4b 3c 06 02 bb 3c
       0.020742692 -0.0077035357 0.012416564 0.022828113
0003c0 86 2c b9 bc c5 45 95 3c a7 da df 3c 89 ec f8 3b
       -0.022604238 0.018221745 0.027325941 0.0075965566
0003d0 62 a9 ed 3b 66 62 a9 bc ce df 40 bc 2e 8e d4 3b
       0.007252858 -0.020676803 -0.011772109 0.0064866757
0003e0 9d 31 92 bb b4 d3 d9 bc 99 03 c7 bc 02 82 aa bb
       -0.004461481 -0.026590206 -0.024293708 -0.0052034864
0003f0 88 e9 c5 bb cb 4a b4 3c 74 f1 40 3c 56 35 9d bc
       -0.006039802 0.02200832 0.011776317 -0.019190472

bias f4 [64]
000000 9f ff c9 bc 5c 01 3b bc 40 4e 81 3c 87 22 16 bc
       -0.024658022 -0.011413898 0.015784383 -0.009163505
000010 be 05 3c 3c 7c 72 0b 3d 8a 00 00 bd bf d8 3b bc
       0.011475978 0.034044728 -0.031250514 -0.0114652505
000020 e8 61 a9 3b 81 64 99 3c 5b b8 18 bc 9c 3a 91 3b
       0.005169142 0.018724682 -0.0093212975 0.0044320356
000030 7e 6d 0a 3d 13 17 07 bd a4 92 18 3c 9f 9a 83 3a
       0.033795826 -0.03298099 0.009312306 0.0010040588
000040 27 eb 90 3b bb a1 c0 3b a7 bb af 3c c0 8a 03 bd
       0.0044225636 0.005878655 0.021451784 -0.032114744
000050 1a eb af bc 1b 85 c3 3c 67 c1 a1 3c c7 5d b7 3b
       -0.02147441 0.02386718 0.019745542 0.005595896
000060 d3 e4 fa 3b db b7 a0 bb 03 24 5b 3b b2 be 16 ba
       0.0076566725 -0.00490473 0.0033438213 -0.0005750462
000070 af 4c 42 bc 2c 61 9e bb 95 88 54 39 49 de 92 3c
       -0.011859103 -0.004833361 0.00020268776 0.01792826
000080 72 71 e5 3c d3 8e a0 bc ec cc 12 bc 0d 14 f1 bc
       0.028008197 -0.019599354 -0.00895999 -0.029428506
000090 e0 c0 80 bb 72 36 f1 bc 65 6b f2 3c fe 2d db 3c
       -0.0039292425 -0.029444907 0.029592225 0.02675533
0000a0 af d5 5a 3c 72 a5 47 bc c1 d4 a8 bc 3f a6 9e 3c
       0.01335661 -0.012185441 -0.020609261 0.019366382
0000b0 05 f8 2d 3b 14 d0 9f 3c 20 e9 c9 3c c0 a7 9c bc
       0.0026545536 0.0195084 0.024647295 -0.019122958
0000c0 73 1a 83 3b 53 8f a3 3c a7 6b 00 bd 80 01 c7 3c
       0.0040009557 0.019965803 -0.031352665 0.024292707
0000d0 b2 8e 07 bb 39 cc e0 bc 7f c4 f6 bb c2 a8 a0 bc
       -0.0020684418 -0.027441131 -0.0075307484 -0.01961172
0000e0 bd 4d fc 3a 8e 1e 68 bc 09 25 86 bc e2 68 e9 bc
       0.0019249242 -0.014167441 -0.016375082 -0.028492395
0000f0 7e 98 16 3d 72 a5 d7 bc 91 66 cc bc c5 7f 1c 3c
       0.03676652 -0.026324008 -0.024951251 0.009551947

weight f4 [10, 64]
000000 9c 0f 69 3c d3 17 dd bd 98 94 b3 3d 44 c1 81 bd
       0.014224913 -0.1079556 0.087685764 -0.063356906
000010 1b 32 0e bd b0 23 64 bd 25 d5 78 bd 0a 0f 10 3d
       -0.034715753 -0.055698097 -0.060750145 0.035170592
000020 ad 4a e1 3b 60 0c f4 3d 07 12 1f 3b 21 ab 04 be
       0.006875357 0.11916423 0.002427222 -0.12955905
000030 02 c5 39 3d 64 3d 17 3d 19 fa 4a bd e9 7a 84 3d
       0.045353897 0.03692378 -0.049554918 0.06468756
000040 05 8b 44 bd 0d 9a 3d 3d 0a 8a ca 3d 3e a5 c6 3d
       -0.04798414 0.046289492 0.0988961 0.09699486
000050 ad 80 8e 3c 8b 7b 8e bd dc b1 ee 3d 6a cd 4d 3d
       0.017395342 -0.06957158 0.11655018 0.050244726
000060 2e 21 f1 bc 2c f5 8e bd 4e f9 81 bd f3 bc d8 bc
       -0.029434767 -0.069803566 -0.06346379 -0.026457286
000070 9d 34 01 3d d4 57 16 3d 76 41 05 bd 3e 24 a8 3d
       0.031544317 0.036704853 -0.03253313 0.08210038
000080 7c 1d dd ba 24 e0 ac 3d 60 9f 4f 3d 11 56 97 3d
       -0.0016869749 0.08441189 0.0506891 0.07389463
000090 5d 66 f4 3d 72 29 19 bd c9 ff ab 3d d2 c2 d5 bd
       0.11933587 -0.03739304 0.083983965 -0.1043755
0000a0 80 bd 0b bd 29 40 f4 bc ff 27 aa 3d 8d 81 00 3d
       -0.03411627 -0.02981575 0.0830841 0.03137355
0000b0 85 c9 02 be 80 04 3e bd 92 d4 d0 3c b3 ca b0 bd
       -0.12772186 -0.04639101 0.025491986 -0.08632412
0000c0 a7 ae 48 bd c9 cc 7f bd e6 58 94 3c 45 8e c0 3d
       -0.048994686 -0.062451158 0.018108796 0.09402136
0000d0 01 e3 9d bd c6 8a 22 3b f9 b8 44 3a 4a be 97 bd
       -0.07709313 0.0024801954 0.000750437 -0.07409342
0000e0 5f 3c 79 bd e8 3a f9 bd a2 3a e2 bd f0 88 be 3d
       -0.06084859 -0.121694386 -0.110463396 0.093034625
0000f0 98 ee cc bd f0 05 a3 3d 56 ed 80 3d 4b f2 e5 3d
       -0.10006446 0.07960117 0.06295268 0.11227854
000100 4f 96 5b bd a0 75 9d 3d f3 f9 ab bd 27 e5 da bd
       -0.053610142 0.07688451 -0.083972834 -0.106882386
000110 5a 3f a1 bd 83 3b b0 3d 71 ea 81 bd 4b 94 ee bd
       -0.078734115 0.08605101 -0.06343544 -0.116493784
000120 17 0c 54 bd a3 ab 5c ba 20 c3 ab 3d f2 56 d9 3d
       -0.051769342 -0.000841791 0.083868265 0.106122866
000130 17 53 8b bc 36 ea e5 3b e7 3f e0 bd 14 2f 52 bd
       -0.017007394 0.0070164455 -0.109496884 -0.05131443
000140 d8 50 7b bd 58 6a 50 bd 56 20 72 3d d3 f9 ca bc
       -0.061356395 -0.050882667 0.05911287 -0.024777329
000150 46 93 f4 3c 40 6c 98 bd 24 22 ba bd b2 48 c4 3c
       0.029855382 -0.07442522 -0.09088543 0.023960445
000160 4f 04 bb 3d ce a3 34 bd ca 4f 09 3d 67 b1 7b bd
       0.09131681 -0.04410153 0.03352336 -0.06144848
000170 95 72 03 3e a6 74 82 bd 1b db a4 3d b7 b0 9f 3d
       0.12836678 -0.06369905 0.080496036 0.077973776
000180 ae 34 4b 3b 98 77 16 3d d8 f8 05 3e 27 03 22 bd
       0.0031006741 0.036735147 0.13083208 -0.039553788
000190 0c 61 64 bd 10 70 05 3d b0 e2 e7 3d 64 ca ef bd
       -0.055756614 0.032577574 0.11322534 -0.11708525
0001a0 32 77 af 3d f8 bf 00 bc b2 e6 0a bd d6 4c 59 3d
       0.085676566 -0.007858269 -0.033911414 0.053051792
0001b0 41 51 c0 bd 80 0f 00 be e6 2e a0 bd ac 1b 5e 3d
       -0.09390498 -0.12505913 -0.07821445 0.05422561
0001c0 7c d4 17 3c a2 38 67 3d 99 67 ec bd d5 58 f8 3d
       0.009266969 0.056450494 -0.11543197 0.12126318
0001d0 3f 9a c9 bd c9 05 32 bd 46 92 d4 bd 6c 4c 22 3d
       -0.09843873 -0.04346255 -0.10379462 0.039623663
0001e0 24 94 4d 3d 4c 16 28 3d c4 a7 41 bb c8 43 0a bd
       0.050190106 0.04103689 -0.002954946 -0.033756047
0001f0 d3 f1 99 3d 9e 15 d0 3d ce d9 e3 3d b0 ef 84 bd
       0.075168274 0.10160373 0.11125527 -0.06491029
000200 6c 48 bb 3d 85 97 54 3d 52 a9 c2 3d 21 3f 0b 3d
       0.09144673 0.051902313 0.095049515 0.03399575
000210 28 ec a7 bd 63 6a 98 bd a0 ec 8c bc 62 4e b7 bd
       -0.0819934 -0.07442167 -0.017202675 -0.08950497
000220 df 5f 5d bd 72 d9 e8 3d e6 30 f7 bd c5 c6 80 3d
       -0.054046508 0.113695994 -0.120698735 0.06287912
000230 47 97 d6 3d 1c f4 b9 bd ad 30 de bd 27 6f 5c 3d
       0.104780726 -0.09079763 -0.10849128 0.05381694
000240 9c b5 c3 3c 4c 52 82 bc 20 02 f9 bd d2 c7 19 bd
       0.023890309 -0.015908383 -0.121586084 -0.03754408
000250 53 f5 b7 3d 41 1e af bd ce 73 a1 3c 0d 8c d0 3b
       0.08982339 -0.08550692 0.01970854 0.0063643516
000260 35 06 e7 bd cf c8 9f bd df 9b ee 3d 8c ee 87 3d
       -0.11280481 -0.07801973 0.11650824 0.06637296
000270 b4 19 df bd 50 e6 b9 bd 41 e7 f8 bd 90 57 bd bd
       -0.10893574 -0.09077132 -0.12153483 -0.09245217
000280 77 ee f6 3c 1c 53 59 3d 85 ba 04 bd f5 54 2a 3d
       0.030143006 0.053057775 -0.03240444 0.041584928
000290 76 9e 86 3d 94 63 fd bd ad 6f dc 3d 58 9d a6 3c
       0.06573193 -0.12372509 0.10763488 0.0203387
0002a0 0e 25 33 bd fc 5f ea bd a2 6c 64 bb 11 b4 31 3d
       -0.04373651 -0.11444089 -0.003485479 0.043384615
0002b0 41 22 be 3c 6c c4 be 3d cf fe fe bd 2a 65 d0 bd
       0.023209693 0.09314808 -0.12450945 -0.101755455
0002c0 c1 b9 01 bd b3 d5 70 bd 91 0f 04 3c f5 88 e6 3d
       -0.03167129 -0.05879755 0.008060352 0.11256591
0002d0 f7 50 35 3d 4f 54 a7 3b 1a 4b bd bd 54 ed 50 3d
       0.044266667 0.005106486 -0.0924284 0.051007584
0002e0 a5 62 d0 3b 47 8f 46 3d 31 99 e4 3d 75 9f fd 3d
       0.0063594156 0.048476484 0.111620314 0.1238393
0002f0 47 f1 03 3d 77 c7 4d 3d 7d a9 8b 3b ba 1a dc 3d
       0.032212522 0.050239053 0.004262148 0.10747285
000300 31 38 86 3d b9 18 8e 3d 32 9d c8 bd 13 44 da bd
       0.065536864 0.06938309 -0.097956076 -0.106575154
000310 d0 9a b2 bd 9f 2a 97 3d b2 65 c6 3d 6b 27 59 3d
       -0.087209344 0.07381176 0.096873656 0.053016108
000320 80 6e e4 bd 49 c4 1c 3d 41 d8 85 3d b3 59 e2 3c
       -0.11153889 0.03827313 0.06535388 0.027630663
000330 23 85 ca ba 68 a7 f9 bd 1b 70 7d 3d f5 95 8e 3d
       -0.0015451055 -0.12190133 0.06187449 0.06962196
000340 5d 68 06 3e e7 8a 89 3c c5 99 15 3d 86 0d c8 3d
       0.13125749 0.016789867 0.0365236 0.097682044
000350 8b 57 33 bd 8a 68 c3 3d 54 e4 aa 3d 55 62 c6 3c
       -0.04378466 0.095414236 0.083443314 0.02421681
000360 26 fb d9 bd 2b ca 05 3b d5 f6 da 3d be 05 99 bd
       -0.10643606 0.002041469 0.10691611 -0.07471798
000370 fa d0 30 bd f8 45 c7 3d 13 f9 c6 bd 2e f7 c9 3d
       -0.043168046 0.09730142 -0.09715476 0.09861599
000380 ed 60 ee bd 28 07 f7 3d 02 31 b1 bd f8 54 15 bd
       -0.11639581 0.12061912 -0.086519256 -0.036457986
000390 25 c7 34 bd 41 7a e7 bc ba 23 93 3d 6e 48 fa ba
       -0.04413523 -0.028256537 0.07184549 -0.0019095072
0003a0 de f4 e3 bc c1 7a a8 3d b2 94 db 3d d5 9a 10 3b
       -0.027826723 0.082265384 0.10721721 0.0022064943
0003b0 d1 d5 04 3e 3c 7b 10 3d 9d ec c4 bc f4 86 ed bd
       0.1297219 0.035273775 -0.024038607 -0.11598006
0003c0 94 5d 7d 3d 94 54 81 bc 0c f7 a1 3d c3 22 03 3e
       0.06185682 -0.0157874 0.079084486 0.1280623
0003d0 d6 89 ba bd 92 7e f3 bb 6f 7a 4d 3c 56 48 82 bd
       -0.09108321 -0.00743086 0.0125413975 -0.06361453
0003e0 55 46 2c 3b c1 f6 37 3b 90 c5 1a bd 34 60 64 bd
       0.0026287038 0.002807066 -0.037786067 -0.05575581
0003f0 cb 56 4e bc f6 42 a5 bd a3 a5 3e 3b d5 13 d8 3d
       -0.012593935 -0.080694124 0.0029090426 0.10550658

bias f4 [10]
000000 4d fd 9e bd fb 27 cf bd 77 99 35 bd aa a3 8f 3d
       -0.07763157 -0.101150475 -0.04433581 0.07013638
000010 ec 86 99 bc 16 7a 65 3d 04 f6 9c bd ca 4c ac bd
       -0.018741094 0.056024633 -0.07664111 -0.08413084
000020 90 64 81 3c 6a 78 e3 bd
       0.015795022 -0.111069515
