PytorchLearning/learn1/vggmodel/vgg_2.pth (torch, 587335 bytes, 10 tensors)

weight f4 [32, 3, 5, 5]
0	0x3dea65a7	0.1144517
1	0xbdd48a33	-0.10377922
2	0xbd6e0962	-0.058114417
3	0xbd0fa21e	-0.035066716
4	0xbdb26da9	-0.08712322
5	0xbbdad544	-0.0066782553
6	0x3cc1476a	0.023593623
7	0xbcf21ede	-0.029555734
8	0xbd973620	-0.073833704
9	0x3db5dedc	0.08880398
10	0x3de2c9c9	0.11073644
11	0xbbfb7c47	-0.007674727
12	0xbca0c3b1	-0.019624563
13	0x3d6b328e	0.05742126
14	0xbd573aab	-0.052546185
15	0xbdda26b5	-0.10651914
16	0x3d835fc7	0.064147525
17	0xbdd956f1	-0.10612286
18	0x3dca2696	0.09870641
19	0x3db5fdea	0.08886321
20	0xbd9c7aa7	-0.076405816
21	0x3d3c117d	0.045915116
22	0x3d305314	0.04304798
23	0x3dd1886a	0.10231097
24	0xbd8d23f6	-0.06891625
25	0xbd3559e9	-0.044275198
26	0xbd10497c	-0.03522633
27	0x3dc96ea4	0.09835556
28	0x3d1636e0	0.036673427
29	0xbddd77e5	-0.10813884
30	0x3d7ee609	0.062231097
31	0xbc3f3f07	-0.011672742
32	0xbdd23b5c	-0.10265228
33	0xbda439c8	-0.080188334
34	0x3da5614f	0.08075201
35	0xbccf598f	-0.02531126
36	0xbdba5291	-0.090977795
37	0x3d20154d	0.039082814
38	0xbdb547a6	-0.088515565
39	0x3d94f5c4	0.072734386
40	0x3d002392	0.031283922
41	0x3daa64a2	0.083199754
42	0x3d88ad5d	0.066736914
43	0x3d9a8bef	0.075462215
44	0xbd2f498e	-0.042794757
45	0xbd1572f3	-0.036486577
46	0x3d4a50f0	0.049393594
47	0x3dd6b7cc	0.10484275
48	0xbd969ab1	-0.07353724
49	0xbd3d98e0	-0.04628837
50	0xba4ac44c	-0.0007734939
51	0x3cd89a3b	0.02644073
52	0xbda6e592	-0.08149256
53	0xbd266f0a	-0.04063324
54	0xbd27350a	-0.040822066
55	0x3c90afe7	0.017662002
56	0x3dc4e058	0.09613103
57	0xbc31ac42	-0.010844292
58	0x3dc96162	0.098330274
59	0x3d6ec7ca	0.058296002
60	0xbd0acb6d	-0.03388541
61	0x3d8a6911	0.06758321
62	0xbd988595	-0.07447354
63	0xbdea16a1	-0.11430097
64	0x3cc16ca2	0.02361137
65	0x3dde2c26	0.108482644
66	0x3d96f118	0.07370204
67	0xbd28603b	-0.041107398
68	0xba9ecd68	-0.0012115659
69	0x3dde1353	0.108435296
70	0xbbfc5295	-0.007700274
71	0x3de92d3a	0.113855794
72	0x3cfba97b	0.030720463
73	0x3ccec8fc	0.025242321
74	0x3d1068d2	0.035256214
75	0xbd463269	-0.04838792
76	0x3de81b11	0.113332875
77	0x3d09c381	0.033633713
78	0xbd02418a	-0.031800784
79	0x3d339671	0.043844644
80	0x3d8b1e4b	0.06792887
81	0xbd618dd4	-0.0550669
82	0xbd7b3dc2	-0.061338194
83	0x3dab7df1	0.08373631
84	0xbdad637a	-0.08466239
85	0x3c75d0c5	0.015003388
86	0xbbca9d6d	-0.0061833174
87	0xbda0fcb2	-0.07860698
88	0xbd9be6b8	-0.076123655
89	0x3b73926c	0.0037166132
90	0x3c9dfc73	0.019285416
91	0x3de4741e	0.1115496
92	0x3d377fed	0.044799734
93	0xbdde1f0a	-0.10845764
94	0xbba052aa	-0.004892667
95	0xbccc4eff	-0.024940012
96	0x3d8ea8d9	0.06965799
97	0xbdcac257	-0.09900349
98	0x3d86166b	0.06547245
99	0xbd8b569f	-0.06803631
100	0xbc9ca61f	-0.019122181
101	0xbd66973c	-0.056296572
102	0x3da56125	0.080751695
103	0xbddca8c5	-0.10774378
104	0x3cd25d69	0.025679307
105	0xbd5007c7	-0.050788667
106	0x3c5c24aa	0.013436476
107	0x3dc3c76d	0.09559522
108	0xbde6a5b8	-0.11262077
109	0xbd8176e9	-0.063215084
110	0x3d7a794e	0.06115084
111	0xbcf1a7df	-0.029498992
112	0xbd980de2	-0.07424523
113	0xbb9a1fb4	-0.0047034863
114	0xbd9ff148	-0.078096926
115	0x3db446b5	0.08802549
116	0x3de86638	0.11347622
117	0xbc71b6a9	-0.014753022
118	0x3c52b35a	0.012860144
119	0x3d0cc978	0.034371823
120	0xbdd26ccb	-0.10274657
121	0x3dab28dc	0.08357403
122	0x3d8e0edd	0.06936429
123	0xbd9c2694	-0.07624546
124	0x3d236a6f	0.039896425
125	0xbde9c4b0	-0.11414468
126	0xbdc5a252	-0.09650101
127	0xbdb50aa2	-0.08839919
128	0x3d322c08	0.043499023
129	0x3d19fe42	0.037595995
130	0xbdb0c78e	-0.08631812
131	0xbbbf856f	-0.005844764
132	0x3d9fd308	0.07803923
133	0xbdac9b1a	-0.08428021
134	0xbdd4f0a0	-0.10397458
135	0x3ddc3c1f	0.10753655
136	0x3d20ce36	0.039259158
137	0xbd0b35ac	-0.033986732
138	0x3db9a147	0.09063964
139	0xbdc925bf	-0.098216526
140	0x39c556a9	0.00037639335
141	0x3db9aa08	0.09065634
142	0xbb1c7ec3	-0.0023879267
143	0xbd876ca2	-0.06612517
144	0xbc7ed86a	-0.015554527
145	0xbd76b7ca	-0.06023387
146	0x3a8b99c2	0.0010650682
147	0x3dbed463	0.09317853
148	0xbcafaf37	-0.021445854
149	0x3dac40f3	0.084108256
150	0xbd3ba2ee	-0.04580968
151	0xbdbe1a9b	-0.09282418
152	0x3dcfa1dd	0.10138295
153	0xbd1d8fce	-0.03846722
154	0x3aeafc6f	0.0017928014
155	0xbdb61528	-0.08890754
156	0xbdd17c74	-0.10228816
157	0xbd8bcdc4	-0.06826356
158	0xbdcad2c7	-0.09903484
159	0xbd89764f	-0.06712019
160	0xbd5a5fc9	-0.053314004
161	0x3ddec2f3	0.10877027
162	0x3b8e89fe	0.004349946
163	0x3c2bed93	0.010493654
164	0x3d36fe35	0.044676024
165	0x3d211c8a	0.039333858
166	0x3bf4337a	0.0074524255
167	0x3cafd372	0.02146313
168	0xbd9864c1	-0.07441092
169	0xbdb4935b	-0.08817168
170	0x3dbb349f	0.09140896
171	0x3cb751e1	0.02237791
172	0xbd76d952	-0.060265847
173	0x3dac8cb7	0.08425277
174	0x3dc3bf20	0.095579386
175	0xbd2301f0	-0.03979677
176	0x3ca1cbec	0.019750558
177	0x3ddb61a8	0.10711986
178	0xbd5912dc	-0.0529965
179	0x3c95abc0	0.018270373
180	0x3d84df6e	0.06487928
181	0x3dda6699	0.106641
182	0x3db3bebc	0.08776614
183	0xbd298785	-0.041389007
184	0xbd06d99f	-0.032922383
185	0xbdde709c	-0.10861322
186	0xbd6446eb	-0.055731695
187	0xbdc71e91	-0.09722627
188	0x3d73b764	0.059501067
189	0x3c96895e	0.018376049
190	0x3d9c79f3	0.076404475
191	0xbdb08b8e	-0.08620368
192	0x3d392ed1	0.045210663
193	0xbd76f21c	-0.060289487
194	0x3dcfbf5d	0.101439215
195	0xbd4a60e4	-0.04940881
196	0x3d9a84a9	0.07544834
197	0xbd483cfd	-0.048886288
198	0x3d9e4aa9	0.07729084
199	0x3dc7ca90	0.097554326
200	0x3da90204	0.082523376
201	0xbd640da2	-0.055677064
202	0xbcadd3b2	-0.021219108
203	0xbc3d9099	-0.011570119
204	0x3dd73ab1	0.10509241
205	0x3dbd7733	0.09251251
206	0xbd639375	-0.055560548
207	0x3dbdf66b	0.09275516
208	0xbdc3b0e0	-0.095552206
209	0x3c360f3b	0.01111203
210	0xbc20ed17	-0.009822152
211	0x3d46a34e	0.048495583
212	0xbd9e89d7	-0.077411346
213	0x3cac84e6	0.021059465
214	0x3d04f893	0.03246362
215	0x3d9bbf12	0.07604803
216	0x3dbeb305	0.09311489
217	0x3d4f9952	0.050683327
218	0x3d650a21	0.055917863
219	0x3a0d4b6f	0.00053899636
220	0x3c97d32f	0.018533317
221	0x3dbe11ea	0.092807606
222	0xb9aba860	-0.0003274111
223	0x3d94fc68	0.07274705
224	0xbcd79c9f	-0.0263198
225	0xbdb4a3f4	-0.08820334
226	0x3dae1b28	0.085012734
227	0x3cca057f	0.024660824
228	0xbdd8738b	-0.10568913
229	0x3d380cbb	0.044934016
230	0xbd9f2698	-0.07771033
231	0xbcf8ddf5	-0.030379275
232	0xbd3ac22d	-0.045595337
233	0x3cc6dead	0.024276102
234	0xbdb1683d	-0.0866246
235	0xbdac12ea	-0.08402045
236	0x3ca2e856	0.019886177
237	0xbd8a624a	-0.067570284
238	0xbd0f2bcd	-0.03495388
239	0xbde8c421	-0.113655336
240	0xbda8f568	-0.082499325
241	0x3d308531	0.04309577
242	0x3dbfe722	0.09370257
243	0x3da6ba25	0.08140973
244	0x3de24208	0.11047751
245	0xbd0014ce	-0.03126984
246	0x3d450257	0.048097935
247	0x3db29319	0.08719463
248	0x3d189ecc	0.037260816
249	0x3d925221	0.07144571
250	0x3d3e4ace	0.046458058
251	0x3cd42d5e	0.025900539
252	0xbdcb7c18	-0.099357784
253	0x3dc8e6db	0.09809657
254	0x3dc660b4	0.096864134
255	0x3dd2a4db	0.1028535

bias f4 [32]
0	0x3d9e9912	0.077440396
1	0x3d3ccab7	0.04609176
2	0x3cb990c5	0.02265204
3	0xbc9a75d9	-0.018855022
4	0x3d8dbb01	0.06920434
5	0x3d841e14	0.064510494
6	0xbcfe6b74	-0.031057097
7	0x3de35b8a	0.11101444
8	0xbd805c63	-0.06267621
9	0x3dd793f1	0.105262645
10	0x3d8ca9f0	0.068683505
11	0xbd807b20	-0.06273484
12	0x3c2ba6c7	0.010476775
13	0x3caee2d8	0.021348402
14	0x3dd26cb9	0.102746435
15	0x3ca190b4	0.01972232
16	0x3d8a8e27	0.06765395
17	0xbda0ba83	-0.07848074
18	0x3c99357c	0.018702261
19	0x3dacaf39	0.084318586
20	0x3d950283	0.0727587
21	0x3cfaad73	0.030600285
22	0x3d82c64a	0.06385477
23	0x3dcb5a83	0.09929373
24	0xbdc51604	-0.0962334
25	0xbd235775	-0.039878327
26	0x3d5afdb2	0.0534646
27	0xbd5e8a36	-0.054331027
28	0xbd5b8631	-0.05359477
29	0x3cb93991	0.022610458
30	0xbdccf462	-0.1000755
31	0x3da938e4	0.08262804

weight f4 [32, 32, 5, 5]
0	0xbc959b3f	-0.018262504
1	0xbd0311a8	-0.03199926
2	0x3bd76a1b	0.006573928
3	0x3d0ea633	0.03482647
4	0xbcde5d55	-0.027144114
5	0xbcfd67c0	-0.03093326
6	0xba752a69	-0.0009352328
7	0x3cb4126d	0.021981442
8	0xbc8691c5	-0.01642693
9	0x3cb7d74d	0.02244153
10	0xbc68d742	-0.014211478
11	0x3cd0671b	0.02543979
12	0xbd0be2d3	-0.034151863
13	0x3c5cd7c2	0.013479175
14	0xbcf4d9aa	-0.029888947
15	0xbc590772	-0.013246404
16	0xbcbcbf61	-0.023040475
17	0x3a49884f	0.0007687853
18	0x3c95faa3	0.01830799
19	0xbbd0d386	-0.006372872
20	0x3cd025cc	0.025408648
21	0x3c1a3721	0.009412558
22	0xbcf8be89	-0.030364292
23	0xbc4abea7	-0.012374557
24	0xba9dc0c6	-0.00120356
25	0xbceff920	-0.029293597
26	0xbcc1cb2b	-0.023656448
27	0x3b8b1aa2	0.0042451182
28	0xbcd6765c	-0.026179485
29	0x3d0ac5a3	0.033879887
30	0x3b2ad71d	0.002606816
31	0xbc9894a7	-0.01862557
32	0xbcf80b5a	-0.03027885
33	0x3cd40875	0.025882939
34	0x3ca20a01	0.01978016
35	0x3bd42c1e	0.0064749857
36	0xbc3a6026	-0.011375463
37	0xbd080327	-0.03320613
38	0x3c8f312b	0.0174795
39	0x3c33ec7a	0.010981673
40	0xbcfd039e	-0.030885514
41	0xbb16d251	-0.0023013542
42	0xbb6bf582	-0.0036004488
43	0xbc22c461	-0.009934516
44	0x3cbd3865	0.02309818
45	0xbcf9e020	-0.030502379
46	0x3c89a156	0.016800564
47	0xba5a3808	-0.00083243893
48	0xbc3a2540	-0.01136142
49	0xbc89e250	-0.016831547
50	0xbb903370	-0.004400663
51	0xbd0a3577	-0.033742394
52	0x3cc04ec5	0.02347506
53	0xbc23bc2c	-0.009993594
54	0x3d07ee14	0.033186033
55	0xbcf8ce56	-0.030371826
56	0x3c2de206	0.01061297
57	0x3d053f87	0.032531288
58	0xbcb74df2	-0.022376034
59	0x3cf5379f	0.029933749
60	0xbb977dda	-0.004623157
61	0x3ce9e9c4	0.028553851
62	0x3ced6ff0	0.02898404
63	0x3ce861c7	0.028366936
64	0x3cf795b1	0.030222746
65	0x3ad9e831	0.0016624985
66	0x3c8c824e	0.017151978
67	0xbd03ac9b	-0.03214703
68	0xbb92fca5	-0.004485684
69	0xbd01c57b	-0.031682473
70	0x3ce4dced	0.027937377
71	0x39d175d9	0.0003995139
72	0xbb72c524	-0.0037043775
73	0xbc19a955	-0.009378751
74	0x3cefeed5	0.029288689
75	0xbd01e9f0	-0.03171724
76	0xbc880e31	-0.01660833
77	0x3a40aaec	0.0007349688
78	0xbd04b131	-0.032395545
79	0x3cf96bb2	0.030446861
80	0x3c733733	0.0148447035
81	0xbc0de0a8	-0.008659519
82	0x3b8e187f	0.0043364163
83	0xbce195a5	-0.027537176
84	0x3ccedc50	0.025251538
85	0x3b604c83	0.0034225292
86	0xbcf01d22	-0.029310767
87	0x3ceb2a96	0.02870683
88	0xbca8675b	-0.020557096
89	0xbc86ae44	-0.016440518
90	0x3c09ac60	0.008402914
91	0xbc1c1c67	-0.009528256
92	0xba90a3bf	-0.0011035128
93	0x3c629f80	0.013831973
94	0xbc15a4cf	-0.009133532
95	0xbcfb0d50	-0.030645996
96	0xbceb924c	-0.028756283
97	0xbcbc0c5b	-0.02295511
98	0xbbedcf3e	-0.007257371
99	0xbce786bb	-0.028262487
100	0xbc767d72	-0.015044557
101	0xbce7e5b3	-0.028307771
102	0x3b53281a	0.0032219947
103	0xbc3c4bcd	-0.011492682
104	0x386c23db	5.6300178e-05
105	0x3c530c76	0.012881389
106	0xbbabb915	-0.0052405694
107	0x3ca07b36	0.019590002
108	0x3c52d109	0.012867221
109	0xbcf4d07a	-0.029884566
110	0xbc7ec674	-0.015550245
111	0xbccc5cb7	-0.024946554
112	0xbd109ad6	-0.035303913
113	0x3c1d43f4	0.009598721
114	0x3c48c8f7	0.012254945
115	0x3c88545b	0.016641786
116	0x3c3714af	0.011174365
117	0xbd06245a	-0.03274951
118	0x3cbe0e8d	0.023200298
119	0x3c874303	0.016511446
120	0x3c5124d0	0.012765124
121	0x3c994af1	0.018712493
122	0x3bd2829e	0.006424262
123	0x3cbf7fc3	0.023376351
124	0x3b7d59cf	0.0038658266
125	0xbc63040c	-0.013855945
126	0xbce4dcff	-0.02793741
127	0x3b9b06f8	0.0047310553
128	0x3c808fd5	0.015693584
129	0x3c0faf7b	0.008769865
130	0xbcddc562	-0.027071659
131	0x3cdaf0e2	0.02672619
132	0xbb38179b	-0.0028090242
133	0x3cb48fed	0.022041285
134	0x3c9413a4	0.018075772
135	0xbcfb498d	-0.03067472
136	0x3c315bd4	0.010825116
137	0xbd02d0a6	-0.031937264
138	0xbcd797ec	-0.02631756
139	0x3b18c989	0.0023313484
140	0xbcf4d220	-0.029885352
141	0xbce08f8d	-0.0274122
142	0xbc1f4687	-0.009721405
143	0x3cdb666b	0.026782235
144	0x3c8db3ac	0.017297588
145	0x3c8b326f	0.016991822
146	0x3ca4b2d3	0.020104801
147	0xbc4d52d1	-0.012531952
148	0x3ba01320	0.0048850924
149	0x3d0b05a5	0.03394093
150	0xbb1d198f	-0.0023971533
151	0x3c1eb3f4	0.009686459
152	0xbc2239c0	-0.009901464
153	0xbbdb553b	-0.00669351
154	0x3c38fcc7	0.011290736
155	0x3cea1b9d	0.02857762
156	0x3b1cd466	0.002393031
157	0xbbed4043	-0.0072403266
158	0xbcda881d	-0.026676232
159	0xbb39d88a	-0.0028357827
160	0x3cdb1e64	0.02674789
161	0x3c8e572b	0.01737555
162	0x3c178df6	0.009250155
163	0x3c64ef4e	0.01397307
164	0xbce1c353	-0.027558958
165	0x3cd54954	0.026035942
166	0x3ce13165	0.027489373
167	0xbcdd7df3	-0.027037596
168	0x3be93e3e	0.0071180156
169	0xbcb8d946	-0.022564542
170	0x3bb40442	0.0054936716
171	0x3c9b4947	0.01895584
172	0x3b4a632d	0.0030881867
173	0xbca63634	-0.020289518
174	0x3c3fe54b	0.011712383
175	0x3ce9e6f4	0.02855251
176	0x3ca4ef33	0.02013359
177	0xbc0d75d9	-0.008634054
178	0xbc87dac7	-0.016583813
179	0x3d044077	0.03228804
180	0x3cdeaa80	0.02718091
181	0xbbe7f377	-0.007078584
182	0x3b725e42	0.0036982452
183	0x3baf71e8	0.005354155
184	0x3cecff76	0.028930407
185	0x3cd41dc6	0.025893103
186	0xbcf1b896	-0.029506963
187	0xbbe87899	-0.0070944545
188	0x3cfe05b6	0.031008583
189	0x3aa283e0	0.0012398921
190	0xbc95938a	-0.018258829
191	0xbcfe1c0b	-0.031019231
192	0xb9f4e345	-0.00046708636
193	0x3d105ca9	0.035244618
194	0xbcaab708	-0.02083923
195	0x3c0c25de	0.00855395
196	0xbccbd6ce	-0.0248827
197	0x3c7bf536	0.015378287
198	0x3c9c30c6	0.019066226
199	0xbc932f57	-0.01796691
200	0x3c899577	0.016794903
201	0xbcb008c6	-0.021488559
202	0x3ce05dda	0.027388502
203	0x3c249178	0.010044448
204	0x3bb59413	0.0055413335
205	0x3cd676e4	0.026179738
206	0x390212da	0.00012404789
207	0xbb650d59	-0.0034950583
208	0xbc4cf228	-0.012508906
209	0x3bd2946b	0.006426384
210	0x3b66c754	0.0035214024
211	0x3cd8b2b4	0.0264524
212	0xbb78b39d	-0.0037948855
213	0xbc77c8e2	-0.015123578
214	0x3c59f0cc	0.013302039
215	0xbbe00d8f	-0.006837554
216	0x3cec592b	0.028851112
217	0x3c95a3d2	0.018266592
218	0x3a9c36ea	0.0011918221
219	0xbb326a21	-0.0027223902
220	0xbce366b0	-0.027758926
221	0x3cf16b24	0.029470034
222	0x3c8e048f	0.017336158
223	0x3d096dd0	0.03355199
224	0x3c2fcf6b	0.010730605
225	0x3a288354	0.0006428261
226	0xbcba1773	-0.02271626
227	0x3c1918d2	0.0093442965
228	0xbcbf888f	-0.023380546
229	0x3cdb11d8	0.026741907
230	0xbd0ea7e9	-0.0348281
231	0xbca7cd07	-0.020483507
232	0xbc224334	-0.009903718
233	0x3cd361bd	0.025803441
234	0x3cfac5a8	0.030611828
235	0xbb53e9fa	-0.0032335506
236	0x3c8463aa	0.016160805
237	0xbce9631c	-0.028489642
238	0xbc872cd0	-0.01650086
239	0xbcf66881	-0.030079128
240	0x3cc5e965	0.024159143
241	0xbc839012	-0.016059909
242	0x3bd32674	0.006443793
243	0x3b9d074c	0.0047921296
244	0xbc246971	-0.010034905
245	0x3cf289fd	0.029606814
246	0xbcfcd78f	-0.030864505
247	0xbcd5e4f6	-0.026110154
248	0xbbcdf349	-0.0062851054
249	0xbc61ca3b	-0.013781126
250	0xbd06b371	-0.032885972
251	0xbcd0596e	-0.025433268
252	0xbcac88ca	-0.02106132
253	0x3ca4f60c	0.020136856
254	0x3ca33cea	0.019926507
255	0x3c92f115	0.017937222

bias f4 [32]
0	0xbc14048a	-0.009034285
1	0xbcef9e77	-0.029250367
2	0xbc011b70	-0.007880077
3	0xbccba133	-0.02485714
4	0x3c0a396b	0.008436541
5	0xbc80121b	-0.015633633
6	0xbb09a0c2	-0.002100036
7	0xbc052b34	-0.008127976
8	0x3c9874f7	0.01861046
9	0x3cab5b68	0.02091761
10	0xbb83f2d5	-0.0040267506
11	0xbc113824	-0.008863483
12	0x3cc71c54	0.0243055
13	0xbc992d97	-0.018698497
14	0xbc1d6b0c	-0.0096080415
15	0xbc0358a6	-0.008016741
16	0x3cd49f82	0.025954966
17	0xbcf837b1	-0.030299993
18	0xbcb551ed	-0.022133792
19	0xbc454c9e	-0.012042193
20	0x3ccb9494	0.024851121
21	0xbcbf8e3e	-0.023383256
22	0x3bb48cde	0.0055099567
23	0xbc7b023e	-0.015320359
24	0x3bab09cc	0.0052196737
25	0xbca522a2	-0.020158116
26	0xbc6f3a1f	-0.0146012595
27	0x3cfc43b4	0.030794002
28	0x3cd7a653	0.026324427
29	0xbccb22a7	-0.024796797
30	0x3c430260	0.011902422
31	0x3cb98712	0.022647414

weight f4 [64, 32, 5, 5]
0	0xbc173f03	-0.009231332
1	0x3c639ce7	0.013892389
2	0xbc8ebd49	-0.017424243
3	0x3be3ddae	0.0069539165
4	0x3c5c5f14	0.013450403
5	0xbc8fb7b5	-0.017543653
6	0xbaab00c6	-0.0013046495
7	0x3b329fab	0.0027255814
8	0xbabdbb4b	-0.0014475373
9	0xba92e3f7	-0.0011206855
10	0xbc2b956e	-0.0104726385
11	0x3c905a40	0.01762116
12	0xbc8c560d	-0.017130876
13	0x3d0047e4	0.03131856
14	0x3d0bf4b1	0.034168903
15	0xbd0218ac	-0.03176181
16	0x3c565f41	0.013084234
17	0xbc6742fb	-0.0141150905
18	0xbd075a7d	-0.03304528
19	0xbb129b15	-0.0022370268
20	0xbb8039f5	-0.003913159
21	0x3c353284	0.011059407
22	0xbc395348	-0.01131136
23	0x3c88f026	0.016716074
24	0xbcf253da	-0.029581
25	0xba5b60e1	-0.0008368623
26	0xbc7a40ac	-0.015274208
27	0x3d039429	0.03212372
28	0x3bfd4b6f	0.0077299397
29	0x3c044c26	0.008074796
30	0x3bb682a3	0.0055697723
31	0xbd047f44	-0.032347932
32	0x3b88e6d1	0.004177906
33	0x3c3bc43a	0.011460358
34	0x3be0ddf6	0.0068623973
35	0xbcc5a74b	-0.024127623
36	0xbd0c09ab	-0.034188908
37	0xbc988f8d	-0.018623138
38	0x3c25e0aa	0.010124365
39	0x3a758e96	0.0009367255
40	0x3d083110	0.033249915
41	0x3bfd918d	0.0077382983
42	0xbcaf3550	-0.021387726
43	0xbb6089c8	-0.0034261812
44	0x3cb4e912	0.022083793
45	0x3cbd201d	0.023086602
46	0xbcaea34d	-0.021318102
47	0xbd07fac5	-0.033198137
48	0x3d0910c8	0.03346327
49	0x3c9e6d36	0.019339185
50	0x3c8a6c12	0.016897235
51	0x3cdfaf71	0.027305337
52	0xbcada857	-0.021198435
53	0x3b73200b	0.0037097957
54	0x3cf4016c	0.029785834
55	0xbba7360e	-0.0051028794
56	0xbcab5f2c	-0.020919405
57	0xbc4a748a	-0.012356887
58	0xbc9dfce2	-0.019285623
59	0x3d01c003	0.031677257
60	0x3caaa2a8	0.020829514
61	0x3c8b8f0a	0.01703598
62	0xbcf2e697	-0.02965097
63	0xbce2a197	-0.027664943
64	0x3cc0a8fa	0.023518074
65	0xbcd71eb9	-0.026259767
66	0x3bfdfe45	0.0077512586
67	0x3cf05bdd	0.029340679
68	0xbc933cbc	-0.017973296
69	0x3cb22306	0.021745216
70	0xbb96b845	-0.0045996034
71	0x3bed38f6	0.0072394563
72	0x3c8f5f3d	0.017501468
73	0x3aeba634	0.001797861
74	0xbd0bf405	-0.034168262
75	0x3ca7a927	0.0204664
76	0x3c9c2eaa	0.01906522
77	0xbccbb79c	-0.024867825
78	0xbcd10bf8	-0.025518402
79	0x3ca74923	0.020420616
80	0x3b607690	0.0034250356
81	0xbce32dc2	-0.02773178
82	0x3c105cbf	0.008811175
83	0x3d014b0d	0.031565715
84	0xbbfda743	-0.0077408864
85	0x3aa369e7	0.0012467474
86	0x3c35cef2	0.011096703
87	0x3d0ced10	0.034405768
88	0xba4f013c	-0.0007896607
89	0x3cc5eda5	0.02416117
90	0x3c9256dc	0.017863683
91	0x3c9bb50d	0.01900723
92	0xbd0bdcde	-0.034146182
93	0xbcd76515	-0.026293317
94	0x3c53b4fb	0.012921567
95	0xbcfc9bd4	-0.030836023
96	0x3c91205c	0.017715625
97	0x3ce510c1	0.02796209
98	0x3baf46dd	0.0053490237
99	0xbc4e39a5	-0.012586986
100	0x3b98c903	0.0046626343
101	0x3b624fa2	0.0034532328
102	0x3cefa9f1	0.029255839
103	0x3c843ced	0.016142333
104	0x3a800318	0.0009766547
105	0x3c68ec7c	0.0142165385
106	0x3c9819d6	0.018567007
107	0x3ca613ff	0.020273207
108	0x3cdfbb9a	0.027311135
109	0x3ce40b61	0.027837457
110	0xbc8f2f59	-0.017478632
111	0xbca570a5	-0.020195315
112	0x3ccb0fc6	0.024787795
113	0xbc4ad4eb	-0.012379865
114	0x3c1f441f	0.009720831
115	0xbd09f146	-0.033677362
116	0x3c07b056	0.008281788
117	0xbcdf624f	-0.027268557
118	0xbd0763b2	-0.03305406
119	0xbb4ab8cd	-0.0030932904
120	0x3c05b311	0.008160369
121	0xbcacc68f	-0.021090774
122	0x3cf158c4	0.029461272
123	0x3bbd1d9f	0.0057713534
124	0x3c8f7893	0.017513549
125	0xbcbe40ef	-0.023224322
126	0xbcd436f6	-0.025905114
127	0xbd0720a7	-0.032990124
128	0xbce03ea5	-0.027373621
129	0xbc987945	-0.018612513
130	0xbc244b81	-0.010027767
131	0xbced8b91	-0.028997215
132	0x3cee2f55	0.029075304
133	0x3cb528b7	0.02211414
134	0xbb9a9329	-0.00471725
135	0xbca6cf02	-0.02036238
136	0x3c36ae73	0.01114999
137	0xbcc1377d	-0.02358603
138	0x3ce7bd4b	0.028288504
139	0xbb4337a9	-0.0029787815
140	0xbc818c57	-0.01581399
141	0x3c6c595a	0.0144256
142	0xbcc9eb46	-0.02464832
143	0x3d0ca82d	0.034340072
144	0xbd103776	-0.03520914
145	0xbceea6cf	-0.029132275
146	0x3d0785f0	0.033086717
147	0x3ccc6a64	0.024953075
148	0xbc9df598	-0.019282147
149	0xbc41a2d9	-0.011818611
150	0xbc8bf1dc	-0.017083101
151	0x3d02b34e	0.03190928
152	0x3c929d21	0.01789719
153	0x3ca29866	0.01984806
154	0xbc12545d	-0.008931247
155	0xbbcb4500	-0.006203294
156	0x3c8d565d	0.017253095
157	0x3c92467d	0.017855877
158	0x3c94328d	0.01809051
159	0x3cc36c8c	0.02385547
160	0x3c29b904	0.010359053
161	0x3d0eafba	0.034835555
162	0x3cdca5fd	0.026934618
163	0x3c90a412	0.01765636
164	0x3cf52c65	0.029928396
165	0xbbd667ad	-0.006543121
166	0xbbde725b	-0.0067885346
167	0x3c6f79c3	0.014616433
168	0x3cd7a8ac	0.026325546
169	0x3ccf7145	0.025322566
170	0x3c2c335f	0.010510295
171	0x3c3cad5a	0.01151594
172	0xbcc4aeff	-0.024009226
173	0x3d047d69	0.032346163
174	0xbcea78ed	-0.028622115
175	0xbaeab970	-0.0017908048
176	0xbae1aec2	-0.001721822
177	0x3bdca9ce	0.0067341095
178	0xbce1e9f7	-0.027577383
179	0x3bbe9020	0.005815521
180	0x3d0f4662	0.03497923
181	0xbca03b10	-0.019559413
182	0xbcc35903	-0.023846155
183	0x3a3b9982	0.00071563583
184	0xbce4e2c7	-0.027940167
185	0x3c2d228c	0.010567319
186	0x3cc22370	0.023698539
187	0xbc100387	-0.0087899035
188	0xbc59d9a3	-0.013296518
189	0xbc9a90c8	-0.018867865
190	0xbc1d27f6	-0.009592047
191	0xbcc36123	-0.02385003
192	0xbc05445e	-0.008133976
193	0xbb5c4dee	-0.0033615786
194	0x3c888621	0.01666552
195	0xbd0f08b0	-0.034920394
196	0xbcf6dbf8	-0.030134186
197	0x3d057b74	0.032588437
198	0x39b49279	0.00034441406
199	0xba96e7f7	-0.0011513223
200	0xbc080e4e	-0.008304192
201	0x3cfd5922	0.03092629
202	0xbc0567f3	-0.008142459
203	0x3d02e82d	0.0319597
204	0xbc3683cf	-0.011139824
205	0x3c37a1ab	0.011207978
206	0xbd006f47	-0.031356122
207	0xbd01f7c9	-0.031730447
208	0x3ce6f324	0.02819211
209	0xbcb2a3a1	-0.02180654
210	0x3cddd0db	0.02707713
211	0xbc8c1056	-0.017097633
212	0x3d0607f8	0.032722443
213	0x3caf03ba	0.021364082
214	0x3a42f07d	0.0007436348
215	0xbb8d885a	-0.004319233
216	0x3c914ecc	0.017737769
217	0xbc99fa1d	-0.018796021
218	0xbcc1a13c	-0.023636453
219	0x3bbe4960	0.005807087
220	0xbcb29f63	-0.021804517
221	0x3cd0c827	0.025486065
222	0xbc407c7f	-0.011748432
223	0xbce48f8b	-0.027900478
224	0xbbdbe4af	-0.006710611
225	0xbc483b57	-0.012221179
226	0xbc4d8b5a	-0.012545431
227	0x3cd3f117	0.025871797
228	0x3cb1cb4f	0.02170339
229	0xbc8f5618	-0.017497107
230	0x3d0a00d1	0.033692185
231	0xbcbfb347	-0.023400916
232	0xbc22647e	-0.0099116545
233	0xbcffb0fc	-0.031212322
234	0xbc0c0c23	-0.0085478155
235	0x3c13e624	0.009027038
236	0xbcf2ca9c	-0.029637627
237	0x3cc5822f	0.024109928
238	0xba9bb129	-0.0011878359
239	0x3d05d783	0.03267623
240	0xbcfb1d5d	-0.03065365
241	0xbb6eef50	-0.003645856
242	0xbc477637	-0.012174181
243	0xbafc78d4	-0.0019262084
244	0x3ccd4ca0	0.025060952
245	0x3c28196f	0.01025997
246	0xbd0386a8	-0.03211084
247	0xbc94e678	-0.018176302
248	0x3c4a2994	0.012339015
249	0xbb95f049	-0.0045757634
250	0x3c205f15	0.009788294
251	0xbcbbb84d	-0.02291503
252	0x3cea857c	0.028628103
253	0xbaa970cb	-0.0012927292
254	0xbc36981b	-0.011144663
255	0xb6e16a12	-6.7178707e-06

bias f4 [64]
0	0xbcf96749	-0.030444758
1	0xbceff2d1	-0.029290589
2	0x3bd4593c	0.006480364
3	0xbc4c0d3e	-0.012454329
4	0xbca2b8cd	-0.01986351
5	0x3cce9d1f	0.025221406
6	0xbb44c3f9	-0.0030024035
7	0x3d014919	0.031563852
8	0x3a0806c9	0.00051889993
9	0xbc389603	-0.011266234
10	0xbc93f974	-0.018063284
11	0x3c6addc8	0.014335103
12	0xbbf096dd	-0.007342203
13	0xbcb239b4	-0.02175603
14	0xbcff4fad	-0.031165922
15	0x3d0d0191	0.034425322
16	0xbc6e2925	-0.014536177
17	0x3c82c4ac	0.015962921
18	0xbd013f1d	-0.03155433
19	0xbcc46abe	-0.02397668
20	0x3cd8d3af	0.026468126
21	0xbccce641	-0.025012137
22	0x3ce7fa42	0.028317574
23	0x3c52584b	0.0128384335
24	0x3cee8f91	0.029121192
25	0xbb663525	-0.0035126891
26	0x3ca8963c	0.02057945
27	0x3c5073f3	0.012722957
28	0xbcd51335	-0.026010135
29	0x3c87a601	0.016558649
30	0x3d009518	0.031392187
31	0x3c7a4888	0.015276082
32	0xbcff3b09	-0.03115608
33	0x3c4217e6	0.011846518
34	0xbca08e67	-0.019599153
35	0xbb2d1d20	-0.0026415065
36	0xbc28b51c	-0.010297086
37	0xbcb5078d	-0.022098327
38	0xbcf17ef7	-0.029479487
39	0x3d037bf0	0.032100618
40	0x3d0a1d9f	0.033719655
41	0xbcb8f09d	-0.02257567
42	0x3d1901e2	0.03735531
43	0xbacdf4ba	-0.0015713193
44	0xbcb596be	-0.022166606
45	0x3c177375	0.009243836
46	0x3d087bbf	0.03332114
47	0xbc55591b	-0.013021733
48	0x3cb80ce4	0.022467084
49	0x3cb8bd8e	0.022551324
50	0xbc93f070	-0.018058985
51	0xbc5c1521	-0.013432772
52	0x3c11311d	0.008861807
53	0xbb8db732	-0.004324817
54	0x3bdcde9c	0.0067404043
55	0x3ce14a57	0.027501268
56	0x3d008bac	0.0313832
57	0xbccc8690	-0.024966508
58	0x3c02e1b6	0.007988384
59	0xbc5abf3f	-0.013351261
60	0xbc5a1b71	-0.013312207
61	0xbbe46a18	-0.006970655
62	0xbc2e20c7	-0.010627932
63	0x3c849388	0.01618363

weight f4 [64, 1024]
0	0xbc8a9be6	-0.016920041
1	0x3b9a7c85	0.004714551
2	0xbc71838c	-0.014740836
3	0xbb9bda01	-0.0047562127
4	0xbc819d5f	-0.01582211
5	0xba4c8b40	-0.0007802732
6	0xbc96fbc8	-0.018430606
7	0xbcc54d63	-0.024084752
8	0xbc0c4ada	-0.008562768
9	0x3c1794e8	0.009251811
10	0xbcdf98ab	-0.027294477
11	0x3cf48017	0.029846234
12	0xbcca6680	-0.024707079
13	0x3c2e52bd	0.0106398435
14	0x3cf74f98	0.03018932
15	0xba9981de	-0.0011711677
16	0x3bcdab39	0.006276515
17	0xbc973256	-0.01845662
18	0x3c2e23b2	0.010628628
19	0xbca7ac45	-0.020467887
20	0xbccc9bbc	-0.024976604
21	0x3c7521a1	0.014961631
22	0x3c8ff1a3	0.017571276
23	0x3c803e8d	0.015654827
24	0x3c393f8c	0.011306655
25	0xbce32351	-0.027726801
26	0xbbf80e49	-0.0075700623
27	0x3c6a839d	0.014313606
28	0xbc96ce98	-0.018409058
29	0x3ca72624	0.020403929
30	0x3c855234	0.016274549
31	0x3c4240db	0.011856283
32	0xbc54341f	-0.01295188
33	0x3ccad86b	0.0247614
34	0xbcd226f3	-0.025653338
35	0x3c3e1dba	0.011603767
36	0x3c1da5ba	0.009622032
37	0xbccbd23d	-0.024880523
38	0x3ca4da64	0.020123668
39	0x3bdb1088	0.0066853203
40	0xbc651094	-0.013981003
41	0xbc846e72	-0.016165946
42	0xbc6ab90c	-0.014326345
43	0xbc67b4b8	-0.014142208
44	0xbca467ef	-0.02006909
45	0xbcf01980	-0.029309034
46	0x3c97fb11	0.018552335
47	0x3cb85ce5	0.022505233
48	0x3c67ee78	0.0141559765
49	0xbca74a72	-0.02042124
50	0x3ca978d5	0.0206875
51	0xbcfa87c5	-0.030582318
52	0x3ca76467	0.020433618
53	0x3bf23ee8	0.007392753
54	0xbc0bc6e0	-0.008531302
55	0x3ceadce1	0.028669776
56	0x3cb3929c	0.021920495
57	0x3c9effdd	0.019409114
58	0xbce05065	-0.027382085
59	0xbbd1a144	-0.006397398
60	0x3c58eb27	0.013239658
61	0x3c77fcf9	0.015135997
62	0x3bffc734	0.0078057293
63	0x3d021801	0.031761173
64	0x3cdbe676	0.02684329
65	0x3bce4017	0.006294261
66	0xbb8f4302	-0.0043720016
67	0x3cc6c80f	0.024265317
68	0xbc391a78	-0.011297815
69	0xbcc776fb	-0.024348726
70	0xbc4e8af3	-0.01260637
71	0xbc7bb0d9	-0.015361988
72	0x3b02aff2	0.0019941297
73	0xbbf6936f	-0.0075248997
74	0xbc3096af	-0.010778113
75	0x3c1d20c6	0.009590333
76	0x3c5b20a9	0.013374486
77	0xbcccb9d6	-0.024990957
78	0xbcd6af44	-0.02620662
79	0xbcb8a64f	-0.02254024
80	0xbb2d3c1d	-0.0026433535
81	0xbbcca397	-0.0062450874
82	0x3c054e65	0.0081363665
83	0x3c907fd2	0.017639074
84	0xbcd1384d	-0.025539542
85	0x3cc151a4	0.0235985
86	0x3ccc92c6	0.02497233
87	0xbc5ca3b1	-0.013466761
88	0x3ce71d0c	0.028212093
89	0x3ae7afad	0.0017676257
90	0xbad14867	-0.0015967012
91	0x3cde0d33	0.027105903
92	0x3ba18b44	0.004929932
93	0x3ce364e9	0.027758079
94	0xbbfddee3	-0.0077475174
95	0xbc0645e0	-0.00819537
96	0xbcc70540	-0.024294496
97	0xbb3f4df5	-0.0029190753
98	0xbcdc8132	-0.026917074
99	0xbc8bef80	-0.017081976
100	0xbcd2d9c9	-0.025738614
101	0x3cd38538	0.02582036
102	0x3c42837a	0.011872167
103	0x3b904b0e	0.0044034785
104	0xbcef34b7	-0.029199941
105	0x3ca20965	0.01977987
106	0x3cda4ca6	0.026647877
107	0x3c03e064	0.008049104
108	0xbcf0bb13	-0.029386079
109	0xbcacec50	-0.021108776
110	0xbca83608	-0.020533577
111	0x3ce38368	0.02777262
112	0xbc053a20	-0.008131534
113	0xbc70b501	-0.014691592
114	0xbc9a88bc	-0.018864028
115	0x3ad8055e	0.0016481092
116	0x3c9146bc	0.017733924
117	0x3cd0af0f	0.0254741
118	0xbca2ea3e	-0.019887086
119	0x3ccef62f	0.025263874
120	0xbc27d936	-0.010244658
121	0xbc808624	-0.015688963
122	0xbc983f72	-0.01858494
123	0xbcc2da9a	-0.023785878
124	0x3cf7e27c	0.030259363
125	0xbcb7dc79	-0.022443997
126	0x3c098fbd	0.008396086
127	0x3cd1c553	0.025606787
128	0x3b4114bd	0.0029461824
129	0x3cd7ea50	0.026356846
130	0xbc54a28b	-0.012978206
131	0x3b6bd9ff	0.003598809
132	0xbb758fdc	-0.003746978
133	0xbc4bc99d	-0.012438205
134	0x3cc3993f	0.023876784
135	0xbc7eed89	-0.0155595625
136	0x3ca87b0b	0.020566484
137	0xbce44538	-0.027865037
138	0x3c607cc8	0.013701625
139	0xbc5b3cb6	-0.013381174
140	0x3cf12072	0.029434416
141	0xbc32a942	-0.010904612
142	0x3cb9b412	0.022668872
143	0x3bfe303b	0.0077572144
144	0x3cfdb6d5	0.03097097
145	0x3ca287bf	0.01984012
146	0xbc1e6eb8	-0.009669952
147	0xbc5d73fd	-0.013516423
148	0x3b0bdd20	0.0021341518
149	0xbc9d7a08	-0.019223228
150	0xbbc10bef	-0.005891315
151	0x3cf8c19c	0.030365758
152	0x3c1315e4	0.008977387
153	0x3bf75ca7	0.007548887
154	0xbb9162e8	-0.0044368394
155	0xbc9ca78f	-0.019122867
156	0x3cd702ea	0.026246507
157	0x3b390ce8	0.0028236452
158	0xbcc1fbf8	-0.023679718
159	0x3cae9622	0.021311823
160	0x3c68c3a2	0.014206799
161	0x3ccb1f2e	0.024795141
162	0x3bf0a30f	0.007343657
163	0xbc011398	-0.007878207
164	0xbc323626	-0.010877168
165	0xbce3c800	-0.027805328
166	0xbc44246b	-0.011971573
167	0x3cde42ec	0.02713152
168	0xbba315f9	-0.0049769846
169	0x3c4a678f	0.012353792
170	0x3c821352	0.015878353
171	0x3bffc4c6	0.0078054396
172	0xbcbaba52	-0.022793923
173	0x3b34688a	0.002752813
174	0xbc4de015	-0.012565632
175	0x3c528b87	0.012850649
176	0xbc4036d2	-0.01173182
177	0x3c139192	0.009006875
178	0xbcc6ab15	-0.0242515
179	0x3c4794e3	0.012181493
180	0x3cd69478	0.026193842
181	0x3bc17636	0.0059039844
182	0x3cc0b44c	0.023523472
183	0x3c8ca781	0.017169716
184	0xbcc357a5	-0.023845503
185	0x3ca7a50d	0.020464445
186	0x3cf53221	0.02993113
187	0x3c8a7ccf	0.016905217
188	0xbcbedde2	-0.023299161
189	0x3c01ef03	0.00793052
190	0x3cb9916b	0.022652349
191	0x3bdb1ba0	0.0066866428
192	0xbc8974e6	-0.016779374
193	0x3cd88e79	0.026435124
194	0x3ce8bb62	0.028409664
195	0xbb8419d6	-0.0040314
196	0xbcd010d0	-0.025398642
197	0xbc725a50	-0.01479204
198	0xbc7fe980	-0.015619636
199	0xbc82c7f7	-0.015964491
200	0xbc8fe105	-0.017563352
201	0x3a517773	0.00079905166
202	0xbc5738b1	-0.013136075
203	0xbcf8fc26	-0.030393671
204	0x3bd24272	0.0064166123
205	0x3b5c85fa	0.0033649192
206	0xbcb499f4	-0.022046067
207	0xbb691bad	-0.0035569475
208	0x3c5b05cd	0.013368082
209	0xbcc63188	-0.02419354
210	0x3a79e376	0.00095324905
211	0xbb9b8bb2	-0.0047468776
212	0xbcafb6d8	-0.021449491
213	0x3c9aae5a	0.018881965
214	0xbc310944	-0.010805432
215	0x3cc409cb	0.02393045
216	0xbc9ab460	-0.018884838
217	0x3c61399f	0.013746648
218	0x3bb5cd66	0.005548167
219	0xbbf21360	-0.0073875636
220	0x3b13012a	0.0022431114
221	0xbc711876	-0.014715305
222	0xbb682377	-0.003542153
223	0x3ce1a2dd	0.02754348
224	0xbca5f0b0	-0.02025637
225	0xbc4d1857	-0.01251801
226	0xbcc95ac3	-0.024579411
227	0xbcb98167	-0.022644712
228	0x3cd8e345	0.026475558
229	0x3cd198f5	0.02558563
230	0xbc6986e8	-0.014253356
231	0xbcc06343	-0.023484832
232	0x3cede936	0.029041868
233	0xbc4e3249	-0.012585231
234	0x3cee6fd2	0.029106054
235	0xbac1cc14	-0.0014785551
236	0x3ca0e1b2	0.01963887
237	0xbc129027	-0.008945501
238	0x3c3603a2	0.011109265
239	0x3cb3337a	0.021875132
240	0xbcb9dc0f	-0.02268794
241	0x3c93bc21	0.018034043
242	0x3cdf77fc	0.027278893
243	0x3bec0999	0.0072032926
244	0x3bdc6474	0.006725842
245	0xbcad9daa	-0.021193344
246	0xbc4a9880	-0.01236546
247	0x3bc63b34	0.006049538
248	0xbbd601da	-0.0065309824
249	0xbce89611	-0.02839187
250	0xbcd17dc5	-0.025572667
251	0xbbba955f	-0.005694076
252	0xbbf81667	-0.00757103
253	0x3ca846cd	0.020541573
254	0x3c319f93	0.010841268
255	0xbca162f5	-0.019700507

bias f4 [64]
0	0xbcdfcbe4	-0.027318902
1	0xbc7dadb4	-0.015483309
2	0x3caba284	0.020951517
3	0xbc34aa08	-0.011026867
4	0x3c1c991c	0.0095579885
5	0x3cf0e85d	0.029407674
6	0xbcdcd042	-0.026954774
7	0xbc5b680e	-0.013391508
8	0x3b6bc886	0.0035977676
9	0x3cb386a7	0.021914793
10	0xbbf34d14	-0.00742496
11	0xbb23e137	-0.0025006065
12	0x3d017b3f	0.031611677
13	0xbcfd1087	-0.03089167
14	0x3c462f69	0.012096264
15	0x3b0d4e18	0.002156144
16	0xba1491fe	-0.00056675065
17	0x3c099336	0.008396914
18	0x3cc27fbb	0.023742547
19	0xbcdd0620	-0.02698046
20	0xbcc60391	-0.024171622
21	0x3cccb7c2	0.024989966
22	0x3cbb31d1	0.022850903
23	0x3aa69531	0.0012709257
24	0x3c4dd0f1	0.012562023
25	0xbb433b2a	-0.0029789903
26	0x3ab3e9f6	0.0013726342
27	0xba7ba513	-0.0009599488
28	0xbc350fe1	-0.011051149
29	0xbb4b22ed	-0.003099616
30	0x3380d247	5.998714e-08
31	0x3c84772a	0.016170103
32	0x3cf06e99	0.029349612
33	0xbc9fc51b	-0.019503167
34	0xbbdcebd0	-0.006741978
35	0xbce282aa	-0.027650196
36	0xbb436526	-0.0029814928
37	0xbced2932	-0.028950308
38	0x3cfaeefb	0.030631533
39	0x3cc7b476	0.024378043
40	0x3c656c03	0.014002803
41	0xbc8b384a	-0.016994614
42	0xbc92f402	-0.017938618
43	0x3c98b169	0.018639283
44	0xbaab9cb6	-0.0013092968
45	0x3c9b6eb2	0.018973682
46	0x3ce01771	0.027354928
47	0xbc9659e7	-0.018353416
48	0x3b70b268	0.0036727432
49	0x3c8bef0a	0.017081756
50	0xbce814ab	-0.028330168
51	0x3cbe9d2b	0.023268303
52	0xbb79acba	-0.0038097338
53	0xbcc26d56	-0.023733776
54	0xbbfdad34	-0.0077415947
55	0xbc94b6b4	-0.018153526
56	0x3b0e9bc6	0.0021760329
57	0xbc671a7d	-0.014105436
58	0xbc8c51a9	-0.017128782
59	0xbccaf3c2	-0.024774436
60	0x3d039b6b	0.03213064
61	0xbcbe587b	-0.02323555
62	0xbcadf298	-0.021233842
63	0x3c407f51	0.011749105

weight f4 [10, 64]
0	0x3c97e21a	0.01854043
1	0xbdda5140	-0.106600285
2	0x3d9d5c31	0.076836
3	0xbd82ca99	-0.06386299
4	0xbd01d22b	-0.031694572
5	0xbd489168	-0.048966795
6	0xbd8156c6	-0.06315379
7	0x3d0aad15	0.03385647
8	0x3bf4df2b	0.0074728928
9	0x3df4c320	0.1195128
10	0x3a124c07	0.0005580787
11	0xbdf9ee79	-0.12203688
12	0x3d619f07	0.0550833
13	0x3ce4147a	0.027841795
14	0xbd42a671	-0.047522012
15	0x3d8572e0	0.06516051
16	0xbd152648	-0.03641346
17	0x3d2f3f91	0.04278523
18	0x3dc8f075	0.098114885
19	0x3db8ac33	0.090172194
20	0x3cc947e6	0.024570417
21	0xbd902ae1	-0.070394285
22	0x3de52729	0.1118911
23	0x3d663e1a	0.05621157
24	0xbd1ed07c	-0.038773045
25	0xbd9827bc	-0.07429454
26	0xbd7636d8	-0.060110897
27	0xbccd4a56	-0.02505986
28	0x3cbec0b6	0.023285251
29	0x3d0b0ba6	0.033946656
30	0xbd07f7e5	-0.033195395
31	0x3dac373e	0.08408974
32	0xbb923cac	-0.004462799
33	0x3dadec5a	0.08492346
34	0x3d330199	0.043702696
35	0x3d9380ec	0.07202324
36	0x3df345ab	0.118785225
37	0xbd2dd2d8	-0.042437404
38	0x3da80413	0.08203902
39	0xbdc67266	-0.096897885
40	0xbd2052c8	-0.039141446
41	0xbcb70b19	-0.022344159
42	0x3da109dd	0.078632094
43	0x3cfd4ebb	0.03092133
44	0xbdf40d41	-0.119165905
45	0xbd25d0a3	-0.040482175
46	0x3c89138d	0.016732955
47	0xbdb4b8f9	-0.08824343
48	0xbd43cddb	-0.04780374
49	0xbd858a76	-0.0652055
50	0x3c8347ad	0.016025389
51	0x3dc2abda	0.09505434
52	0xbd92ca54	-0.07167497
53	0xba3a92b6	-0.00071171985
54	0x3ab3775a	0.0013692186
55	0xbd9ddafe	-0.07707785
56	0xbd8237c1	-0.063582905
57	0xbdfa4c11	-0.1222154
58	0xbddb4725	-0.10706929
59	0x3db3f084	0.08786109
60	0xbdbdd9e7	-0.09270077
61	0x3d8c22e8	0.06842595
62	0x3d6f9124	0.058488026
63	0x3de6cfe9	0.112701245
64	0xbd45f698	-0.048330873
65	0x3d9b2013	0.07574477
66	0xbdb4f67d	-0.088360764
67	0xbdd8c44c	-0.10584316
68	0xbda78497	-0.081795864
69	0x3db842d2	0.0899712
70	0xbd8249b0	-0.06361711
71	0xbde7bdc8	-0.11315495
72	0xbd466184	-0.048432842
73	0x3b1cf7c5	0.0023951393
74	0x3d9ef9f4	0.077625185
75	0x3ddd6e01	0.10811997
76	0xbc48c441	-0.012253822
77	0x3ace5319	0.0015741318
78	0xbdde612c	-0.10858378
79	0xbd4b7b32	-0.049678035
80	0xbd6948ef	-0.05695432
81	0xbd537d4b	-0.05163316
82	0x3d6a1af1	0.0571546
83	0xbce586a6	-0.028018307
84	0x3d1108c8	0.035408765
85	0xbd94cb2e	-0.07265316
86	0xbdbb5634	-0.09147301
87	0x3cd9559a	0.026530076
88	0x3dac6c69	0.08419115
89	0xbd3c8fe7	-0.046035673
90	0x3d122311	0.035677973
91	0xbd6b4ddf	-0.05744731
92	0x3df6e7d2	0.12055935
93	0xbd7d34af	-0.06181782
94	0x3da09a75	0.0784196
95	0x3da22056	0.07916324
96	0xba2978bf	-0.0006464831
97	0x3d1df0d5	0.038559753
98	0x3e00bf07	0.12572871
99	0xbd171661	-0.036886577
100	0xbd5757e1	-0.052574042
101	0x3cf1a2f0	0.02949664
102	0x3de61c5c	0.11235878
103	0xbdeb3ab6	-0.114858076
104	0x3da58569	0.080820866
105	0xbb94e744	-0.0045441706
106	0xbd0d9b68	-0.034572035
107	0x3d4a820f	0.04944044
108	0xbdb9ff08	-0.090818465
109	0xbdfbda8d	-0.12297545
110	0xbda67cba	-0.081292585
111	0x3d4e9bce	0.050441556
112	0x3c261e40	0.010139048
113	0x3d516ad3	0.051127266
114	0xbde83c4f	-0.11339628
115	0x3dfc14e2	0.123086706
116	0xbdc04c4e	-0.09389554
117	0xbd33e756	-0.04392179
118	0xbdd0e6d4	-0.10200277
119	0x3d21095b	0.039315563
120	0x3d3d095b	0.0461515
121	0x3d1df498	0.03856334
122	0xbb56b05d	-0.003275893
123	0xbd0b8bf1	-0.034069005
124	0x3d9c117c	0.076205224
125	0x3dc5ca8a	0.09657772
126	0x3ddda05d	0.108216025
127	0xbd74e169	-0.05978528
128	0x3db6c293	0.08923831
129	0x3d560186	0.052247547
130	0x3dc6ad3d	0.09701011
131	0x3d0c945c	0.034321174
132	0xbda4f7cc	-0.08055076
133	0xbd9b3796	-0.075789616
134	0xbc8ad258	-0.016946003
135	0xbdb7c65e	-0.089733824
136	0xbd6235bf	-0.055227038
137	0x3de52754	0.11189142
138	0xbdf1153a	-0.11771627
139	0x3d7d996f	0.061913904
140	0x3dd1ef2b	0.10250696
141	0xbdb2fcac	-0.087395996
142	0xbde05a68	-0.109547436
143	0x3d5924db	0.053013664
144	0x3cae71d8	0.02129452
145	0xbc76acd4	-0.015055854
146	0xbdf6cb7c	-0.1205053
147	0xbd11a99a	-0.035562135
148	0x3db4fe97	0.08837622
149	0xbdb0166a	-0.08598025
150	0x3ca3c13a	0.019989599
151	0x3bb292bf	0.0054496224
152	0xbde00d88	-0.10940081
153	0xbd9ce348	-0.07660538
154	0x3deb29a5	0.114825524
155	0x3d8471d8	0.064670265
156	0xbdd5ad7b	-0.104334794
157	0xbdb93c09	-0.09044654
158	0xbdf52bf9	-0.11971278
159	0xbdbde0bc	-0.0927138
160	0x3cfb9bb6	0.030713897
161	0x3d554d72	0.05207581
162	0xbcf4602c	-0.029831015
163	0x3d2663ce	0.040622525
164	0x3d84bb37	0.06481021
165	0xbdfa1140	-0.122103214
166	0x3dddafbd	0.10824535
167	0x3c9d6cd2	0.019216929
168	0xbd2b454d	-0.041814137
169	0xbded671b	-0.115919314
170	0xbb455c1e	-0.003011472
171	0x3d353744	0.04424216
172	0x3cb3d5e7	0.021952583
173	0x3dbc7990	0.09202874
174	0xbdfe35bb	-0.12412592
175	0xbdc8c6ca	-0.09803541
176	0xbd04b0b0	-0.032395065
177	0xbd6733fb	-0.056446057
178	0x3bf007a2	0.0073251287
179	0x3de4c1f8	0.11169809
180	0x3d2b7bda	0.04186616
181	0x3bcdbaa2	0.006278352
182	0xbdbeff16	-0.093259975
183	0x3d5107d1	0.051032845
184	0x3c147c95	0.009062906
185	0x3d4a8303	0.04944135
186	0x3de3b836	0.1111912
187	0x3dfdb0e5	0.123872556
188	0x3d023474	0.031788304
189	0x3d5308a1	0.0515219
190	0x3bbfd48b	0.0058541945
191	0x3dd7aa20	0.10530496
192	0x3d77b65e	0.060476653
193	0x3d8e0597	0.0693466
194	0xbdbcc48d	-0.092171766
195	0xbddb66a9	-0.1071294
196	0xbdaf9347	-0.08573013
197	0x3d8ff929	0.070299454
198	0x3dc838eb	0.09776481
199	0x3d4f23ce	0.050571255
200	0xbde64922	-0.11244418
201	0x3d12ffb6	0.035888396
202	0x3d8b9bae	0.06816803
203	0x3cbfbfd1	0.023406895
204	0xbbfa7e0c	-0.0076444205
205	0xbdec60cf	-0.11541902
206	0x3d7b66c9	0.06137732
207	0x3d8ddfaf	0.0692743
208	0x3e0153cb	0.1262962
209	0x3c92deec	0.017928563
210	0x3d1d3e8d	0.03838973
211	0x3dcd4c1b	0.100242816
212	0xbd4de38b	-0.05026583
213	0x3dc24bac	0.094870895
214	0x3dae0b21	0.084982164
215	0x3caf6667	0.021411134
216	0xbdcde9b9	-0.10054345
217	0x3b3ddaac	0.002896945
218	0x3dd6ffc1	0.10498
219	0xbd9e8c0f	-0.07741558
220	0xbd199117	-0.037491884
221	0x3dc432e9	0.09580023
222	0xbdc5d8bc	-0.096604794
223	0x3dc4f40b	0.0961686
224	0xbde3a503	-0.11115458
225	0x3df26fc3	0.11837723
226	0xbda92bf1	-0.08260334
227	0xbd15daeb	-0.03658573
228	0xbd3589db	-0.044320922
229	0xbcd5a053	-0.026077425
230	0x3d92c6d7	0.07166832
231	0xbb9a0447	-0.004700217
232	0xbcc7cb42	-0.024388913
233	0x3da21707	0.07914548
234	0x3dde0876	0.108414575
235	0x3b82c064	0.00399022
236	0x3dff2b04	0.124593765
237	0x3d063bd2	0.032771893
238	0xbc873c50	-0.016508251
239	0xbdeb4df7	-0.1148948
240	0x3d79a2a4	0.06094612
241	0xbc4363e5	-0.011925672
242	0x3da16e6d	0.0788239
243	0x3e0099f9	0.12558736
244	0xbdc2b4d2	-0.09507145
245	0xbbbbdae3	-0.0057328804
246	0x3c3d81f6	0.01156663
247	0xbd8227aa	-0.063552216
248	0x3babdb0e	0.005244619
249	0x3b719087	0.0036859827
250	0xbd19116d	-0.037370134
251	0xbd5b1e9d	-0.053495992
252	0xbc857a7f	-0.016293762
253	0xbd984ca0	-0.0743649
254	0x3b84004f	0.004028357
255	0x3dd2fb46	0.10301833

bias f4 [10]
0	0xbd5348a9	-0.051582966
1	0xbddb8c0f	-0.107200734
2	0xbd3b415b	-0.045716625
3	0x3d883d66	0.06652336
4	0xbceef06b	-0.029167375
5	0x3d628cbe	0.055310003
6	0xbdc4cb36	-0.09609072
7	0xbdbc6502	-0.09198953
8	0x3d16f149	0.0368512
9	0xbdde940a	-0.1086808
