PytorchLearning/learn1/vggmodel/vgg_7.pth (torch, 587335 bytes, 10 tensors)

weight f4 [32, 3, 5, 5]
0	0x3de8094e	0.113299
1	0xbdd52ed7	-0.104093246
2	0xbd6e406a	-0.0581669
3	0xbd0f39e6	-0.034967326
4	0xbdb1a502	-0.08674051
5	0xbbcde71c	-0.006283654
6	0x3ccbe5af	0.024889795
7	0xbce2e4e2	-0.02769703
8	0xbd9365fa	-0.07197185
9	0x3db965ff	0.09052657
10	0x3de6b6cc	0.112653345
11	0xbba5f7da	-0.0050649466
12	0xbc8735ce	-0.016505148
13	0x3d7817d1	0.060569588
14	0xbd4b5474	-0.049641088
15	0xbdd35362	-0.103186384
16	0x3d8aee39	0.067837186
17	0xbdd12b76	-0.10213368
18	0x3dd28134	0.1027855
19	0x3dbe2c86	0.09285836
20	0xbd94b6c2	-0.07261421
21	0x3d4c52b6	0.049883567
22	0x3d4088dd	0.047005523
23	0x3dda0999	0.10646362
24	0xbd846f10	-0.06466496
25	0xbd3589be	-0.044320814
26	0xbd0ca6ec	-0.034338877
27	0x3dcbbf25	0.09948567
28	0x3d1b3c93	0.037899565
29	0xbdda7f81	-0.10668851
30	0x3d8291d8	0.06375474
31	0xbc157cd1	-0.009123997
32	0xbdcbe1c1	-0.099551685
33	0xbd9dfbfa	-0.07714076
34	0x3dab35a3	0.0835984
35	0xbcb88a22	-0.022526804
36	0xbdb2ea33	-0.08736076
37	0x3d30ee7e	0.043196194
38	0xbdacec27	-0.0844348
39	0x3d9cb3c4	0.07651475
40	0x3d102009	0.0351868
41	0x3db36e8d	0.0876132
42	0x3d9247ee	0.07142626
43	0x3da42f43	0.08016827
44	0xbd1c972c	-0.038230106
45	0xbd051198	-0.03248748
46	0x3d5c1289	0.053728614
47	0x3ddf84c8	0.10913998
48	0xbd8d9038	-0.06912273
49	0xbd2b4305	-0.04181196
50	0x3a448626	0.00074967963
51	0x3ceb4550	0.028719574
52	0xbda1cda0	-0.07900548
53	0xbd1c3a93	-0.0381418
54	0xbd1c52fe	-0.038165085
55	0x3cac2acf	0.021016506
56	0x3dcd85af	0.10035264
57	0xbbc831ed	-0.0061094672
58	0x3dd2cc89	0.10292918
59	0x3d805071	0.06265343
60	0xbcf0f94e	-0.029415753
61	0x3d94f4d1	0.072732575
62	0xbd8d064f	-0.06885969
63	0xbddecf99	-0.1087944
64	0x3cebae2b	0.028769573
65	0x3de94e76	0.11391918
66	0x3da2d1a7	0.07950144
67	0xbd0f9887	-0.03505757
68	0x3b9cbde2	0.004783378
69	0x3de9f803	0.114242576
70	0xbb1cdd8e	-0.0023935768
71	0x3df468f0	0.11934078
72	0x3d140b90	0.03614384
73	0x3cfb9ade	0.030713495
74	0x3d26eede	0.040755145
75	0xbd4d5f9e	-0.050140016
76	0x3de4b109	0.11166579
77	0x3d03fd41	0.032223944
78	0xbd093adc	-0.0335034
79	0x3d2e0156	0.042481743
80	0x3d86a0d1	0.06573642
81	0xbd6afba0	-0.057368875
82	0xbd82a930	-0.06379926
83	0x3da4e869	0.08052141
84	0xbdb3fd83	-0.08788588
85	0x3c557d8a	0.013030419
86	0xbc0aa67f	-0.008462547
87	0xbda7a1d7	-0.081851654
88	0xbda470f8	-0.080293596
89	0xb9e10254	-0.0004291708
90	0x3c92f7eb	0.017940482
91	0x3de220bc	0.110414
92	0x3d2e6750	0.042578995
93	0xbde507ac	-0.11183104
94	0xbc0388fb	-0.008028264
95	0xbcd44d1a	-0.025915671
96	0x3d8d7b1b	0.06908246
97	0xbdcd2bd4	-0.10018125
98	0x3d81b961	0.06334186
99	0xbd8f10e1	-0.06985641
100	0xbccf24f9	-0.025286185
101	0xbd7fd678	-0.062460393
102	0x3d995012	0.07485975
103	0xbde910fe	-0.11380194
104	0x3ca4124c	0.020028256
105	0xbd68f3de	-0.056873195
106	0x3bebe4e5	0.007198917
107	0x3db6b583	0.08921339
108	0xbdf50ce5	-0.1196535
109	0xbd8fcb2f	-0.07021176
110	0x3d639fd8	0.05557236
111	0xbd111a34	-0.03542538
112	0xbda61ee0	-0.08111358
113	0xbc4aa26d	-0.012367827
114	0xbdaf7ba5	-0.08568505
115	0x3dab2174	0.0835599
116	0x3ddf9058	0.10916203
117	0xbca4d43b	-0.02012073
118	0x3bd515a0	0.006502822
119	0x3ce7ec61	0.028310956
120	0xbdd9e38a	-0.10639103
121	0x3da456b3	0.08024349
122	0x3d861220	0.06546426
123	0xbda5b354	-0.08090845
124	0x3d11b36f	0.03557151
125	0xbdf8a98e	-0.12141715
126	0xbdd49497	-0.10379904
127	0xbdc35a97	-0.09538763
128	0x3d154907	0.036446597
129	0x3cfde784	0.030994184
130	0xbdbf4e59	-0.093411155
131	0xbc56f323	-0.013119492
132	0x3d90ba0a	0.07066734
133	0xbdbccac2	-0.092183605
134	0xbde4e968	-0.11177331
135	0x3dce32a5	0.100682534
136	0x3d0306ac	0.031988785
137	0xbd2cacf5	-0.042157132
138	0x3da785ee	0.08179842
139	0xbddaeccb	-0.10689696
140	0xbbab1268	-0.0052207
141	0x3dae4d73	0.08510866
142	0xbc130f6d	-0.008975846
143	0xbd96bb87	-0.07359987
144	0xbcb9b251	-0.022668036
145	0xbd852d6b	-0.065028034
146	0xbb67e97d	-0.0035386973
147	0x3db438fe	0.08799933
148	0xbcdfd52f	-0.027323334
149	0x3da0ff01	0.07861138
150	0xbd5847bc	-0.052802786
151	0xbdccb879	-0.09996123
152	0x3dbe59c5	0.09294466
153	0xbd37af0c	-0.044844672
154	0xbba5370c	-0.0050419625
155	0xbdc73f80	-0.097289085
156	0xbde42b3c	-0.11141059
157	0xbd9f8a35	-0.07790033
158	0xbdda7c7e	-0.10668276
159	0xbd99f075	-0.07516567
160	0xbd797868	-0.060905844
161	0x3dce2672	0.100659266
162	0xbb399d70	-0.00283226
163	0x3b6c9708	0.0036100764
164	0x3d199776	0.03749796
165	0x3d0791aa	0.0330979
166	0x3ae07dd3	0.0017127342
167	0x3c8a242a	0.016862947
168	0xbda3e310	-0.08002293
169	0xbdc1240f	-0.09430706
170	0x3db0dd0a	0.0863591
171	0x3c92c59a	0.01791649
172	0xbd81956a	-0.063273266
173	0x3da33400	0.079689026
174	0x3db9c81c	0.09071371
175	0xbd24c949	-0.040231023
176	0x3c9dc8da	0.019260813
177	0x3dd784fd	0.105234124
178	0xbd5895ff	-0.052877422
179	0x3c92f2df	0.017938076
180	0x3d80778a	0.062728
181	0x3dd4a564	0.10383108
182	0x3daccbc2	0.08437301
183	0xbd2fbd99	-0.042905424
184	0xbd0ef2e2	-0.0348996
185	0xbde2ccb8	-0.11074203
186	0xbd6edd52	-0.058316536
187	0xbdca71db	-0.098849975
188	0x3d6e9a45	0.05825259
189	0x3c89b68b	0.016810676
190	0x3d98b9de	0.07457326
191	0xbdb2d648	-0.08732277
192	0x3d39b6c0	0.0453403
193	0xbd7a3572	-0.061086126
194	0x3dccf447	0.1000753
195	0xbd51fd40	-0.05126691
196	0x3d98b8fb	0.07457157
197	0xbd458b4e	-0.048228554
198	0x3d9c4acd	0.076314546
199	0x3dc4f262	0.09616543
200	0x3dc931cb	0.098239504
201	0xbd22d6f4	-0.039755777
202	0xbbdc10c3	-0.0067158653
203	0x3b97e224	0.0046351124
204	0x3df72181	0.12066937
205	0x3dda9915	0.10673729
206	0xbd2b0571	-0.041753236
207	0x3dd8f08c	0.10592756
208	0xbda56fed	-0.08077989
209	0x3cceeb8c	0.025258802
210	0x3ba5a151	0.005054631
211	0x3d813e07	0.06310659
212	0xbd7d9a1c	-0.06191455
213	0x3d16a2c3	0.036776315
214	0x3d4378f2	0.047722764
215	0x3dba386d	0.090927936
216	0x3ddeeb99	0.108847804
217	0x3d8a6bd8	0.06758851
218	0x3d932206	0.07184224
219	0x3c81550a	0.01578762
220	0x3d06450c	0.032780692
221	0x3ddd71f0	0.108127475
222	0x3c86b1cb	0.0164422
223	0x3db3ec51	0.08785308
224	0xbc400f35	-0.011722376
225	0xbdb44c95	-0.08803669
226	0x3dafa8f5	0.08577148
227	0x3cd62a7f	0.02614331
228	0xbdd5aa14	-0.104328305
229	0x3d3c80e0	0.046021342
230	0xbd9b5a2e	-0.0758556
231	0xbce54a0d	-0.027989412
232	0xbd2f9560	-0.042867064
233	0x3cdd9f35	0.027053455
234	0xbdab6740	-0.08369303
235	0xbda7f543	-0.08201077
236	0x3cb49a2c	0.022046171
237	0xbd85c1a0	-0.06531072
238	0xbd064aa9	-0.032786045
239	0xbde3ec01	-0.111289985
240	0xbda53257	-0.08066242
241	0x3d37b5bb	0.044851046
242	0x3dc3a35f	0.09552645
243	0x3daa300e	0.08309947
244	0x3de60165	0.11230735
245	0xbcf4e752	-0.029895458
246	0x3d4a9b21	0.04946435
247	0x3db566ba	0.08857484
248	0x3d1e0946	0.038583063
249	0x3d9550e5	0.0729082
250	0x3d4c9cfb	0.049954396
251	0x3cf750f6	0.030189972
252	0xbdc13998	-0.09434813
253	0x3dd2b9f1	0.10289372
254	0x3dcf9376	0.10135548
255	0x3ddd17fb	0.107955895

bias f4 [32]
0	0x3d9fcf0a	0.078031614
1	0x3d58f25b	0.052965503
2	0x3b440912	0.0029912633
3	0xbcc0f51c	-0.023554377
4	0x3da38167	0.07983666
5	0x3da9d026	0.08291654
6	0xbcf1c21f	-0.02951151
7	0x3df49d5f	0.11944079
8	0xbd9bd8c9	-0.07609708
9	0x3df68cef	0.120386
10	0x3daf6c83	0.08565619
11	0xbd92fa2f	-0.07176625
12	0xbb9445e8	-0.004524935
13	0x3cdd0052	0.026977692
14	0x3e02e69f	0.12783287
15	0x3caeb049	0.021324294
16	0x3d8222b3	0.063542746
17	0xbdad5882	-0.08464147
18	0x3ce2a011	0.027664216
19	0x3db1c10d	0.086794
20	0x3d96c1e2	0.07361199
21	0x3c8587bb	0.016300073
22	0x3d9c5134	0.07632676
23	0x3df34c9a	0.11879845
24	0xbdc304c3	-0.095223926
25	0xbd342c99	-0.043987844
26	0x3d6ec073	0.058289003
27	0xbd79c169	-0.060975466
28	0xbd53e1a4	-0.05172886
29	0x3c8e0b14	0.017339267
30	0xbdebe940	-0.11519098
31	0x3dc4b7a1	0.09605337

weight f4 [32, 32, 5, 5]
0	0xbc9f0415	-0.019411126
1	0xbd066c03	-0.03281785
2	0x3bae4984	0.0053188223
3	0x3d0a2f16	0.03373631
4	0xbce586c9	-0.028018372
5	0xbd057543	-0.032582533
6	0xbb2141a9	-0.0024605787
7	0x3ca3e093	0.020004546
8	0xbc940a4c	-0.018071316
9	0x3cace750	0.021106392
10	0xbc82aded	-0.015952075
11	0x3cc2d385	0.023782501
12	0xbd12be40	-0.035825968
13	0x3c4008df	0.011720865
14	0xbcfdb1b6	-0.030968528
15	0xbc731f60	-0.014839023
16	0xbcc7c159	-0.024384188
17	0xba1fb35c	-0.0006092095
18	0x3c87e960	0.016590774
19	0xbbf29602	-0.007403136
20	0x3cc856fa	0.024455536
21	0x3c0b8245	0.008514945
22	0xbd01616f	-0.03158706
23	0xbc610dab	-0.013736169
24	0xbb10bd06	-0.0022085323
25	0xbcf7f1f0	-0.030266732
26	0xbccbacc2	-0.02486265
27	0x3b2fb79e	0.0026812325
28	0xbce44a46	-0.027867448
29	0x3d03379c	0.032035455
30	0x3b07c9f6	0.0020719743
31	0xbc9d9142	-0.019234303
32	0xbd0020f9	-0.031281445
33	0x3cc80375	0.024415711
34	0x3c96fe55	0.018431822
35	0x3bd5a9d8	0.006520491
36	0xbc371b7f	-0.011175989
37	0xbd0988e3	-0.03357781
38	0x3c871c30	0.016492933
39	0x3c28fa9d	0.010313657
40	0xbcfbb6be	-0.030726787
41	0xbb06454f	-0.0020488088
42	0xbb7bce99	-0.0038422702
43	0xbc2bcf22	-0.010486396
44	0x3cb72e99	0.022361087
45	0xbcf5021b	-0.02990823
46	0x3c8c87d5	0.017154614
47	0xba3945a5	-0.0007067568
48	0xbc3e9608	-0.01163245
49	0xbc8f9668	-0.017527774
50	0xbb7c6400	-0.0038511753
51	0xbd06e9ac	-0.03293769
52	0x3cc6991a	0.024242926
53	0xbc17d80f	-0.009267821
54	0x3d0b7679	0.03404853
55	0xbcf6149a	-0.03003912
56	0x3c342e71	0.010997401
57	0x3d06ab75	0.032878358
58	0xbcb60adb	-0.022221973
59	0x3cf9ec74	0.030508257
60	0xbb8a2ee9	-0.004217018
61	0x3ceee48b	0.029161712
62	0x3cf247f8	0.029575333
63	0x3ceb959b	0.02875786
64	0x3cffeb35	0.031240085
65	0x3b0e8778	0.0021748226
66	0x3c92780a	0.017879505
67	0xbd01c0fb	-0.03167818
68	0xbb86bcf3	-0.00411188
69	0xbcfd0f3a	-0.03089105
70	0x3cf009a7	0.029301478
71	0x3af259cf	0.00184899
72	0xbb26a7a8	-0.002542952
73	0xbc09c41c	-0.0084085725
74	0x3cfa48b9	0.030552255
75	0xbd07b4a2	-0.03313125
76	0xbc91dcc7	-0.01780547
77	0xb9f755bd	-0.0004717539
78	0xbd08c9cd	-0.033395577
79	0x3cf379b6	0.029721122
80	0x3c53891b	0.012911106
81	0xbc2ad9bc	-0.0104278885
82	0x3b2037a2	0.0024447222
83	0xbcedda25	-0.029034683
84	0x3cc6266b	0.024188241
85	0x3aad7a8b	0.0013235373
86	0xbcfe29e6	-0.031025838
87	0x3cdc1966	0.02686758
88	0xbcb3bf66	-0.021941852
89	0xbc8dadd3	-0.0172948
90	0x3bd424f5	0.006474132
91	0xbc3552f1	-0.011067138
92	0xbb3b4c61	-0.002857946
93	0x3c474bd0	0.012164071
94	0xbc25460b	-0.0100875
95	0xbd021ef2	-0.031767793
96	0xbcf3824d	-0.029725218
97	0xbcc58fb6	-0.024116378
98	0xbc099663	-0.008397671
99	0xbcec49b0	-0.02884373
100	0xbc91b9a8	-0.017788723
101	0xbcfd5ba9	-0.030927496
102	0x3a1fa075	0.00060892786
103	0xbc667a79	-0.014067286
104	0xbb0b603e	-0.0021267082
105	0x3c239cc7	0.009986109
106	0xbc0258ca	-0.007955739
107	0x3c8949f7	0.016758902
108	0x3c251089	0.010074743
109	0xbd03d263	-0.032183062
110	0xbc9a8d2e	-0.018866148
111	0xbce7a384	-0.028276213
112	0xbd1d8b3d	-0.038462866
113	0x3bd38724	0.006455319
114	0x3c1d0993	0.009584802
115	0x3c5e9656	0.013585648
116	0x3bfe74a4	0.0077653695
117	0xbd12495b	-0.03571449
118	0x3ca641ef	0.020295111
119	0x3c63020d	0.013855469
120	0x3c1eb616	0.009686967
121	0x3c7e60f6	0.015526047
122	0x3b62ee37	0.003462685
123	0x3ca8beb3	0.020598745
124	0x3aab48c2	0.0013067948
125	0xbc8aa6a0	-0.016925156
126	0xbcfe92b8	-0.03107582
127	0x3ac5c10f	0.0015087443
128	0x3c5069ac	0.012720507
129	0x3bc5d314	0.0060371254
130	0xbcf6c510	-0.030123264
131	0x3cbf72d7	0.02337019
132	0xbbc4aafd	-0.0060018287
133	0x3c9d2b54	0.0191857
134	0x3c7ba865	0.015359973
135	0xbd09a2b6	-0.03360244
136	0x3bf6b5e6	0.007529008
137	0xbd0e9601	-0.034811024
138	0xbcecccd7	-0.028906269
139	0xb938e2ee	-0.00017632145
140	0xbd06045b	-0.032718997
141	0xbcf98fe3	-0.030464118
142	0xbc4aa0b3	-0.012367415
143	0x3cc84a2a	0.024449427
144	0x3c7460f2	0.014915692
145	0x3c6d33f5	0.01447772
146	0x3c8f2e7a	0.017478216
147	0xbc75d11d	-0.01500347
148	0x3b365190	0.002781961
149	0x3d01960a	0.03163723
150	0xba979ae0	-0.0011566542
151	0x3c311c96	0.010810038
152	0xbc11f476	-0.008908382
153	0xbbc0aec9	-0.005880211
154	0x3c42ee82	0.011897685
155	0x3cf7cb54	0.030248322
156	0x3b813708	0.003943328
157	0xbbbbbac9	-0.0057290536
158	0xbcce5b9a	-0.025190163
159	0xbaf7d01e	-0.0018906628
160	0x3ce867af	0.028369753
161	0x3c9a9758	0.018870994
162	0x3c33901d	0.010959652
163	0x3c7c397d	0.015394566
164	0xbcdac8e0	-0.026707113
165	0x3ce1c142	0.027557973
166	0x3ced60e5	0.028976867
167	0xbcd0d3b0	-0.025491565
168	0x3c0a6dc3	0.008449021
169	0xbcb1e616	-0.021716159
170	0x3bce2f11	0.006292232
171	0x3ca1fe3e	0.019774552
172	0x3b7cda98	0.003858244
173	0xbc9ff71a	-0.019527007
174	0x3c470875	0.012148012
175	0x3cd68f57	0.026191397
176	0x3c90efcc	0.017692469
177	0xbc34217e	-0.010994313
178	0xbc99d627	-0.018778874
179	0x3cf6e467	0.030138208
180	0x3cc89d10	0.024488956
181	0xbc227421	-0.009915383
182	0x3a8beae6	0.0010674864
183	0x3b439d41	0.002984837
184	0x3cda5ba3	0.026655024
185	0x3cbd9a28	0.023144796
186	0xbd03fa26	-0.032220982
187	0xbc1cabb9	-0.009562426
188	0x3cebe6cd	0.028796578
189	0xba5a239e	-0.00083213474
190	0xbcab5574	-0.02091477
191	0xbd0905b1	-0.033452693
192	0xbb3185f9	-0.002708791
193	0x3d07fbf3	0.033199262
194	0xbcba4402	-0.022737507
195	0x3bcdc699	0.006279778
196	0xbcdda74b	-0.02705731
197	0x3c5b2149	0.013374635
198	0x3c8b8680	0.017031908
199	0xbca31d82	-0.019911531
200	0x3cb05cfd	0.021528715
201	0xbc89e5c9	-0.016833203
202	0x3d014f08	0.03156951
203	0x3c614b1b	0.013750817
204	0x3c124ed2	0.008929925
205	0x3d012f1c	0.031539068
206	0x3baa495a	0.0051967325
207	0x3aa49656	0.0012557011
208	0xbc069692	-0.00821461
209	0x3c287199	0.01028099
210	0x3c1d34d1	0.009595112
211	0x3d03b6fe	0.032156937
212	0x3ae82c94	0.0017713481
213	0xbc240b37	-0.010012439
214	0x3c9183bb	0.01776301
215	0xba836243	-0.0010023791
216	0x3d0ce30a	0.03439621
217	0x3cc32bda	0.023824621
218	0x3bc9557e	0.0061442247
219	0x3ad8430a	0.0016499471
220	0xbcb590ae	-0.022163715
221	0x3d0f2ae8	0.034953028
222	0x3cba6552	0.022753391
223	0x3d1d630b	0.038424533
224	0x3c762cc8	0.015025325
225	0xbb85ec88	-0.0040870346
226	0xbcdfb151	-0.02730623
227	0x3ba3e3e4	0.005001532
228	0xbce117d6	-0.027477186
229	0x3cbaf1e2	0.022820417
230	0xbd24dd6b	-0.040250223
231	0xbcd2d32a	-0.025735456
232	0xbc7283cb	-0.01480193
233	0x3caa5088	0.020790353
234	0x3cd6e539	0.026232349
235	0xbc19c001	-0.009384156
236	0x3c297983	0.010343912
237	0xbd0c2f2a	-0.034224667
238	0xbcb5a6b2	-0.022174213
239	0xbd0eda80	-0.034876347
240	0x3c941926	0.018078398
241	0xbcb1cbc9	-0.021703618
242	0x3a0f87f9	0.00054752786
243	0xba58faee	-0.00082771375
244	0xbc738220	-0.014862567
245	0x3cc22e20	0.023703635
246	0xbd15b79a	-0.03655205
247	0xbd02f10d	-0.031968165
248	0xbc443d8a	-0.011977563
249	0xbc990b25	-0.018682072
250	0xbd198e52	-0.037489243
251	0xbcf7144a	-0.030161042
252	0xbcd14bcd	-0.02554884
253	0x3c82fcc0	0.015989661
254	0x3c83bf34	0.016082384
255	0x3c541537	0.012944511

bias f4 [32]
0	0xbc90ba37	-0.01766692
1	0xbcd54b32	-0.026036832
2	0xbbf2c42f	-0.007408641
3	0xbcce252d	-0.025164211
4	0x3c4948f6	0.012285462
5	0xbc2568f7	-0.010095826
6	0xbc7a7b2b	-0.015288155
7	0xbc334975	-0.0109428065
8	0x3c50a889	0.012735494
9	0x3bd52276	0.006504352
10	0xbbbb232f	-0.0057109813
11	0xbc9db5ea	-0.019251782
12	0x3cf27249	0.029595511
13	0xbc6833be	-0.014172493
14	0xbc8f3267	-0.017480088
15	0xbbb7c6a0	-0.0056083947
16	0x3d1c2f09	0.038130794
17	0xbccb187e	-0.024791952
18	0xbc784d9e	-0.015155224
19	0xbbb888a8	-0.005631525
20	0x3cfb5d2c	0.030684076
21	0xbd009e4d	-0.031400967
22	0x3c85bdf4	0.016325928
23	0xbc3d7840	-0.011564314
24	0xbb047351	-0.0020210335
25	0xbcd578ba	-0.026058543
26	0xbc80b0c3	-0.015709287
27	0x3cb58179	0.022156464
28	0x3cf4af33	0.029868698
29	0xbcb8b4f6	-0.022547226
30	0x3cf7f202	0.030266766
31	0x3ce7619c	0.028244786

weight f4 [64, 32, 5, 5]
0	0xbc07b27a	-0.008282298
1	0x3c7e96d2	0.015538888
2	0xbc8475e4	-0.016169496
3	0x3c0772ff	0.008267163
4	0x3c79b0be	0.0152398925
5	0xbc83423b	-0.016022792
6	0x3aa424d7	0.0012523186
7	0x3ba75bfc	0.005107401
8	0x3a3281fb	0.000680953
9	0x3aeb4388	0.0017949203
10	0xbc18ebb4	-0.00933354
11	0x3c9e91ed	0.019356692
12	0xbc79f0ec	-0.015255194
13	0x3d084cce	0.03327637
14	0x3d14f7f9	0.036369298
15	0xbcfb29e7	-0.030659629
16	0x3c708381	0.0146797905
17	0xbc4aad86	-0.012370473
18	0xbcfad10a	-0.030617256
19	0xb89c16e0	-7.4429205e-05
20	0xbb095672	-0.0020956066
21	0x3c55c880	0.013048291
22	0xbc1ae6dd	-0.009454456
23	0x3c996398	0.018724248
24	0xbce13254	-0.027489819
25	0x3af509f6	0.0018694985
26	0xbc4a57d1	-0.012350039
27	0x3d11f18b	0.035630744
28	0x3c2ad47b	0.010426636
29	0x3c2e9f23	0.010658058
30	0x3be59961	0.0070068096
31	0xbcfccf12	-0.030860458
32	0x3bc7cc62	0.0060973624
33	0x3c53f311	0.0129363695
34	0x3c01c5be	0.007920681
35	0xbcd5aefc	-0.026084416
36	0xbd14ba86	-0.036310695
37	0xbcacdf3b	-0.021102538
38	0x3c0024c9	0.00782127
39	0xbb12a5f1	-0.002237674
40	0x3d045031	0.03230304
41	0x3bd68336	0.0065464033
42	0xbcba514f	-0.02274385
43	0xbbab25ab	-0.005222996
44	0x3ca71444	0.020395406
45	0x3cb5eb97	0.022207065
46	0xbcbd7b24	-0.023130007
47	0xbd10b539	-0.035329077
48	0x3d013934	0.031548694
49	0x3c93ebef	0.018056838
50	0x3c94d95d	0.018170053
51	0x3cec49cc	0.028843783
52	0xbc9eb5f2	-0.019373868
53	0x3b8945f7	0.0041892487
54	0x3cf365ef	0.029711692
55	0xbbaf62e6	-0.005352366
56	0xbcacc5f4	-0.021090485
57	0xbc4c674b	-0.012475799
58	0xbca68d4b	-0.020331046
59	0x3cf90e57	0.030402346
60	0x3ca72d73	0.020407414
61	0x3c8a68b4	0.01689563
62	0xbcf631c2	-0.030053023
63	0xbcebeff7	-0.028800948
64	0x3cbc5fbe	0.022994872
65	0xbcd4c378	-0.025972113
66	0x3c0886a0	0.008332878
67	0x3cf1699b	0.029469302
68	0xbc93ecda	-0.018057276
69	0x3cb66aae	0.022267666
70	0xbba8a5d6	-0.0051467223
71	0x3be8ea3c	0.007108001
72	0x3c8ac373	0.0169389
73	0x3ab5cbe0	0.0013869964
74	0xbd0c424a	-0.034242906
75	0x3cad8f1e	0.021186408
76	0x3ca33e7b	0.019927254
77	0xbcc1e706	-0.02366973
78	0xbccbd0c3	-0.024879819
79	0x3ca8ed0c	0.020620845
80	0x3b756fcc	0.003745067
81	0xbce085b2	-0.0274075
82	0x3c1bfaf7	0.009520284
83	0x3d020502	0.031743057
84	0xbc04a23e	-0.008095322
85	0x3b18bedd	0.0023307123
86	0x3c454cc0	0.012042224
87	0x3d102f74	0.035201505
88	0x39a9c3e1	0.00032380133
89	0x3cccdd16	0.025007766
90	0x3c990c36	0.01868258
91	0x3ca1d636	0.019755464
92	0xbd08344f	-0.03325301
93	0xbccf85ba	-0.02533232
94	0x3c64182a	0.013921777
95	0xbcfe3fe3	-0.031036323
96	0x3c923145	0.01784576
97	0x3ce45e25	0.027876923
98	0x3bae595a	0.00532071
99	0xbc511196	-0.0127605405
100	0x3b1607cf	0.0022892838
101	0x3a56ec50	0.00081986655
102	0x3cd6b693	0.026210105
103	0x3c5f8225	0.013641869
104	0xba6d52f3	-0.0009053193
105	0x3c5e6473	0.013573754
106	0x3c91c6b4	0.017794944
107	0x3c9c89c2	0.019108657
108	0x3cd9d63f	0.026591418
109	0x3ce2256e	0.027605738
110	0xbc8bbfa5	-0.017059157
111	0xbca22d89	-0.019797103
112	0x3cc89681	0.024485828
113	0xbc45dedc	-0.01207706
114	0x3c26e0c9	0.010185429
115	0xbd0c932e	-0.03432005
116	0x3bf7453b	0.0075460947
117	0xbce7aa81	-0.028279545
118	0xbd0a8338	-0.033816546
119	0xbb8681ef	-0.0041048448
120	0x3bf44541	0.007454545
121	0xbcb1887f	-0.021671532
122	0x3ceb8107	0.028748048
123	0x3ba16a50	0.0049260035
124	0x3c8643ac	0.01638969
125	0xbcd4ecd3	-0.025991833
126	0xbceb7b08	-0.02874519
127	0xbd1503d4	-0.036380604
128	0xbcfdf82c	-0.031002127
129	0xbcb6051b	-0.022219231
130	0xbc5353c6	-0.012898391
131	0xbd01aba5	-0.031657834
132	0x3cd598f9	0.02607392
133	0x3c974ebe	0.018470164
134	0xbbfc9dd6	-0.007709245
135	0xbcbb417f	-0.02285838
136	0x3c0db874	0.008649934
137	0xbcdbc84d	-0.02682891
138	0x3cc84ffa	0.024452198
139	0xbbb51507	-0.0055261883
140	0xbc929de3	-0.017897552
141	0x3c496911	0.012293116
142	0xbce0e044	-0.027450688
143	0x3d02b89b	0.031914335
144	0xbd1830df	-0.037155982
145	0xbd008e92	-0.031385966
146	0x3d00af57	0.031417217
147	0x3cbadfda	0.022811819
148	0xbcad35a8	-0.02114375
149	0xbc603364	-0.0136841275
150	0xbc67b2e2	-0.01414177
151	0x3d0eb033	0.034836005
152	0x3cb06f80	0.021537542
153	0x3cbb486c	0.022861682
154	0xbbd1bd91	-0.006400772
155	0xba668379	-0.00087933947
156	0x3cbb9ab1	0.022900911
157	0x3ccaf311	0.024774106
158	0x3cc8218a	0.024430055
159	0x3cf21ef0	0.029555768
160	0x3c8144f1	0.015779944
161	0x3d267215	0.04063614
162	0x3d0a645a	0.03378711
163	0x3cc6e22b	0.024277767
164	0x3d13da5e	0.036096923
165	0xbb68cba8	-0.003552178
166	0xbb69a90a	-0.0035653734
167	0x3c9d3848	0.019191876
168	0x3d0002b4	0.031252578
169	0x3cf1e97d	0.029530281
170	0x3c56aa05	0.013102059
171	0x3c6c0469	0.014405348
172	0xbca3f227	-0.020012928
173	0x3d13ee06	0.03611567
174	0xbccfc1d3	-0.025360977
175	0xba36b707	-0.0006970022
176	0xb7b47cd4	-2.15158e-05
177	0x3c075c4f	0.008261754
178	0xbcd6f7b2	-0.026241157
179	0x3becff1c	0.00723256
180	0x3d18d7ee	0.0373153
181	0xbc84efe7	-0.016227676
182	0xbca8379e	-0.020534333
183	0x3b6baede	0.0035962383
184	0xbccadf77	-0.02476476
185	0x3c4c7c0a	0.012480745
186	0x3cd46d8d	0.025931144
187	0xbbcfe587	-0.0063445005
188	0xbc35e801	-0.011102677
189	0xbc8b2196	-0.016983788
190	0xbc10fada	-0.00884887
191	0xbcb8da23	-0.022564953
192	0xbbcfd2b0	-0.0063422546
193	0xbadc5680	-0.0016810447
194	0x3c915838	0.017742261
195	0xbd0a8cb9	-0.03382561
196	0xbcea8462	-0.028627578
197	0x3d0c6309	0.034274135
198	0x3abc474e	0.0014364512
199	0xb860971f	-5.3546504e-05
200	0xbb822048	-0.0039711334
201	0x3d112b8b	0.035441916
202	0xbb5b0941	-0.0033422264
203	0x3d186491	0.037205283
204	0xbbd0cc71	-0.0063720276
205	0x3c858fea	0.016303975
206	0xbcd490fb	-0.025948038
207	0xbcd46d50	-0.02593103
208	0x3d0d7471	0.034534875
209	0xbc8461d9	-0.016159939
210	0x3cfa3840	0.0305444
211	0xbc5abcf2	-0.013350712
212	0x3d182c5f	0.03715169
213	0x3cd77c3f	0.026304362
214	0x3b866648	0.0041015483
215	0xbaf994b2	-0.0019041507
216	0x3ca83f82	0.020538095
217	0xbc786b5e	-0.015162317
218	0xbca2fbf2	-0.019895528
219	0x3c0a9b90	0.008459941
220	0xbca0353e	-0.019556638
221	0x3cddabf9	0.027059542
222	0xbc215fc5	-0.009849493
223	0xbcd1cf32	-0.025611494
224	0xbb9a1234	-0.004701877
225	0xbc18a172	-0.009315835
226	0xbc2163f7	-0.009850494
227	0x3ced2103	0.028946405
228	0x3cc4041b	0.023927739
229	0xbc875fef	-0.016525237
230	0x3d0f3882	0.034966
231	0xbcb765be	-0.022387382
232	0xbc075e32	-0.008262204
233	0xbcf91071	-0.030403348
234	0xbc11189f	-0.008855968
235	0x3c369a7a	0.0111452285
236	0xbcdecedc	-0.027198248
237	0x3cdc6888	0.026905313
238	0x3a88c155	0.0010433594
239	0x3d0dd482	0.03462649
240	0xbce0f897	-0.027462287
241	0xb9b153b1	-0.00033822426
242	0xbc07a64c	-0.008279394
243	0x3b04e046	0.002027528
244	0x3cec9f19	0.028884457
245	0x3c48ed66	0.012263631
246	0xbcf56c14	-0.029958762
247	0xbc79021c	-0.015198257
248	0x3c80e987	0.015736355
249	0xbabd2683	-0.0014431033
250	0x3c3219ea	0.010870436
251	0xbcb09ec5	-0.021560082
252	0x3cf686c3	0.030093556
253	0xb9cad769	-0.00038688935
254	0xbc2c3741	-0.01051122
255	0x39d3c48b	0.00040391492

bias f4 [64]
0	0xbd1c2ef4	-0.038130715
1	0xbd16f42b	-0.03685395
2	0x3c38effb	0.011287685
3	0xbc1dc4a1	-0.0096293995
4	0xbcbef27b	-0.023308983
5	0x3cce1289	0.025155323
6	0xbb1c1e73	-0.002382186
7	0x3d0b8b4a	0.034068383
8	0x3c1a865b	0.009431447
9	0xbc11f85d	-0.008909312
10	0xbc289163	-0.010288569
11	0x3ca1fa38	0.019772634
12	0xbbe5c87b	-0.0070124245
13	0xbd014a24	-0.031564847
14	0xbd1636ce	-0.03667336
15	0x3d1644d6	0.03668674
16	0xbc9beba3	-0.019033259
17	0x3c9e3101	0.019310476
18	0xbd0a49b4	-0.033761695
19	0xbca14e0f	-0.019690542
20	0x3cd78377	0.026307805
21	0xbcd6c679	-0.026217686
22	0x3d00009d	0.031250585
23	0x3c70e270	0.014702424
24	0x3cf669fa	0.03007983
25	0xbb8cf526	-0.004301685
26	0x3cdd69a0	0.027027905
27	0x3c32629e	0.01088777
28	0xbc97fd11	-0.018553289
29	0x3cbc663c	0.022997968
30	0x3cf7a9f1	0.030232402
31	0x3c7968a0	0.015222698
32	0xbcc1486d	-0.023594106
33	0x3b49e27f	0.0030805168
34	0xbcbabe08	-0.022795692
35	0x3a93b35f	0.0011268667
36	0xbc0f0905	-0.008730178
37	0xbcbb50d4	-0.02286569
38	0xbd14b704	-0.03630735
39	0x3d1c0c72	0.038097806
40	0x3d0e4dba	0.034742095
41	0xbc821040	-0.01587689
42	0x3d3321e0	0.043733478
43	0xbbc330f5	-0.005956764
44	0xbc8caa6b	-0.017171105
45	0x3c6015cf	0.013677075
46	0x3d12029a	0.035647012
47	0xbc769e39	-0.015052372
48	0x3ce5a8d4	0.028034605
49	0x3cbaf4f5	0.022821883
50	0xbc8b504d	-0.017006064
51	0xbc61c5fa	-0.013780111
52	0x3ba81341	0.0051292484
53	0xbaeebbe7	-0.0018213958
54	0x3c1d831a	0.009613777
55	0x3cd9df6f	0.0265958
56	0x3d02617f	0.03183126
57	0xbcbb6fcc	-0.022880457
58	0x3c67d073	0.014148819
59	0xbc861d22	-0.016371313
60	0xbc1ebdac	-0.009688776
61	0xbc1adfb6	-0.009452751
62	0xbc001828	-0.007818259
63	0x3c669a37	0.014074854

weight f4 [64, 1024]
0	0xbc9620d2	-0.018326197
1	0x3b4a2707	0.0030846016
2	0xbc859e6d	-0.016310895
3	0xbbb06eff	-0.0053843255
4	0xbc9173de	-0.017755445
5	0xbb88e27f	-0.004177391
6	0xbcb16c16	-0.021657985
7	0xbcd5b117	-0.02608542
8	0xbc2d6269	-0.010582545
9	0x3be91ea0	0.0071142465
10	0xbcf3ad2d	-0.029745663
11	0x3ce4b263	0.027917093
12	0xbce40b0c	-0.027837299
13	0x3bb6c235	0.0055773505
14	0x3ccbd60e	0.024882343
15	0xbb8cfc37	-0.0043025273
16	0x3babe09e	0.0052452823
17	0xbca72ceb	-0.02040716
18	0x3c117125	0.008877073
19	0xbcabf84d	-0.020992422
20	0xbcdfc9c1	-0.027317883
21	0x3c3ea52a	0.011636058
22	0x3c74c0c4	0.014938537
23	0x3c7857e2	0.015157672
24	0x3c0eaae5	0.008707737
25	0xbcfb02c7	-0.030640973
26	0xbc29ee66	-0.01037178
27	0x3c573891	0.013136045
28	0xbcb00e7d	-0.021491284
29	0x3c810eef	0.015754191
30	0x3c5c2527	0.013436592
31	0x3c3aeeda	0.011409486
32	0xbc3b7597	-0.01144161
33	0x3cdaa300	0.026689053
34	0xbcbace77	-0.022803528
35	0x3c54814f	0.012970283
36	0x3c40243f	0.011727392
37	0xbcadc952	-0.021214161
38	0x3ccbbeea	0.024871308
39	0x3c15d00a	0.009143839
40	0xbc350ad6	-0.011049947
41	0xbc68f51a	-0.014218593
42	0xbc4d43b5	-0.01252835
43	0xbc60719a	-0.01369896
44	0xbc966348	-0.018357888
45	0xbce215b0	-0.027598232
46	0x3ca0d5c3	0.01963318
47	0x3cc120de	0.023575243
48	0x3c70ca51	0.0146966735
49	0xbc9edfa3	-0.019393748
50	0x3cb43bf5	0.022001246
51	0xbcf03994	-0.02932433
52	0x3ca80a25	0.02051265
53	0x3c068987	0.0082115
54	0xbbfcd2fa	-0.00771558
55	0x3cf690b9	0.030098306
56	0x3cb6a132	0.02229366
57	0x3caffd66	0.021483134
58	0xbccb0a50	-0.02478519
59	0xbb87cad9	-0.0041440544
60	0x3c633843	0.013868394
61	0x3c92b7d6	0.017909925
62	0x3c39b2bf	0.01133412
63	0x3d0bce3b	0.034132224
64	0x3cd87b33	0.026425933
65	0x3b9bb966	0.004752326
66	0xbbcb0604	-0.0061957855
67	0x3cbbb59f	0.022913752
68	0xbc510dd5	-0.0127596455
69	0xbcd66ecb	-0.026175877
70	0xbc5aa4d8	-0.013344966
71	0xbc832d1a	-0.016012717
72	0x39ce8cdc	0.0003939633
73	0xbc278886	-0.010225421
74	0xbc2fac71	-0.010722266
75	0x3c1fbdb6	0.00974982
76	0x3c65cd37	0.014025978
77	0xbcd74438	-0.026277646
78	0xbcde1f78	-0.027114615
79	0xbcc210bc	-0.02368962
80	0xbb49011b	-0.0030670825
81	0xbbd01ee0	-0.006351337
82	0x3bf048fe	0.00733292
83	0x3c8ead10	0.017416507
84	0xbcd8c8a9	-0.02646287
85	0x3cc09039	0.02350627
86	0x3ccb1a47	0.024792803
87	0xbc6acecd	-0.014331532
88	0x3cd09e09	0.025465982
89	0xba19ce5d	-0.00058672373
90	0xbb87802d	-0.004135153
91	0x3ccfaa4d	0.02534976
92	0x3b7c59b4	0.0038505616
93	0x3cd1315d	0.025536234
94	0xbc15894a	-0.009126971
95	0xbc11bda6	-0.008895313
96	0xbcc33e6c	-0.023833476
97	0xbabe67f3	-0.0014526829
98	0xbccf7344	-0.025323518
99	0xbc837fb3	-0.016052103
100	0xbccc3582	-0.024927858
101	0x3ce7fac6	0.02831782
102	0x3c74d92c	0.014944356
103	0x3b968ed4	0.004594663
104	0xbce43eee	-0.027862038
105	0x3cbc8d92	0.023016725
106	0x3cf6f273	0.030144906
107	0x3c0cead3	0.008600908
108	0xbcf03de3	-0.029326385
109	0xbcb24bfc	-0.021764748
110	0xbcb48a28	-0.022038534
111	0x3cd5f7c2	0.026119117
112	0xbc147d5d	-0.009063092
113	0xbc851bf8	-0.016248688
114	0xbcae52ca	-0.021279711
115	0xb8c6ded1	-9.4828785e-05
116	0x3c975a7c	0.018475763
117	0x3cd58958	0.026066467
118	0xbcb02c85	-0.021505604
119	0x3cbd939b	0.023141673
120	0xbc367629	-0.01113657
121	0xbc91e11f	-0.017807541
122	0xbcb061ae	-0.021530952
123	0xbcd38ba7	-0.025823427
124	0x3d031080	0.031998158
125	0xbcaf86b7	-0.021426542
126	0x3c182e43	0.009288373
127	0x3cd205d9	0.025637554
128	0x3b54503d	0.0032396459
129	0x3cd770b7	0.026298864
130	0xbc49b7d5	-0.012311895
131	0x3b74a4e5	0.003732973
132	0xbb6d5054	-0.003621121
133	0xbc2fa670	-0.010720834
134	0x3ccd10e7	0.025032474
135	0xbc856dfd	-0.016287798
136	0x3cab8a01	0.020939829
137	0xbcd3a250	-0.025834233
138	0x3c6996dd	0.01425716
139	0xbc7eecf8	-0.015559427
140	0x3cdd43d9	0.027009891
141	0xbc5ac5b1	-0.013352797
142	0x3c9d380c	0.019191764
143	0x3be6693e	0.007031589
144	0x3d019cfc	0.031643853
145	0x3caea1ce	0.021317389
146	0xbc0c9205	-0.008579736
147	0xbc589a2e	-0.013220353
148	0x3b583da1	0.0032995718
149	0xbc894aac	-0.01675924
150	0xbb48573c	-0.0030569574
151	0x3d029e75	0.031889398
152	0x3c035b1a	0.008017326
153	0x3b918017	0.0044403183
154	0xbbbc7dfe	-0.005752324
155	0xbc9fc3bc	-0.019502513
156	0x3ce34b04	0.027745731
157	0x3bae2f55	0.005315701
158	0xbca989d4	-0.020695604
159	0x3cc1801b	0.023620656
160	0x3c6e35c5	0.014539187
161	0x3cd384c6	0.025820147
162	0x3c0760f4	0.0082628615
163	0xbbf98c9b	-0.0076156384
164	0xbc3c3fa7	-0.011489785
165	0xbccc3754	-0.024928726
166	0xbc13899f	-0.009004979
167	0x3cdf3daa	0.027251083
168	0xbbe04bd5	-0.0068449774
169	0x3c6f6359	0.014611089
170	0x3c986ea3	0.018607443
171	0x3beae36c	0.007168224
172	0xbcd16cf5	-0.02556465
173	0xba437650	-0.00074562896
174	0xbc89d672	-0.016825888
175	0x3c405043	0.011737886
176	0xbc354c6a	-0.011065582
177	0x3c338421	0.010956795
178	0xbcb242f0	-0.021760434
179	0x3c7275fa	0.014798636
180	0x3cdd66b7	0.027026517
181	0x3c06791b	0.008207585
182	0x3cd9991c	0.026562266
183	0x3caa7403	0.020807272
184	0xbcb43c81	-0.022001507
185	0x3cd1d991	0.025616439
186	0x3d12d71b	0.03584967
187	0x3caab9cd	0.02084055
188	0xbcad5fa8	-0.021163777
189	0x3c3c36a0	0.011487633
190	0x3cd9d095	0.026588717
191	0x3bf58967	0.0074931863
192	0xbc889403	-0.01667214
193	0x3cdc61f9	0.026902186
194	0x3ced21d6	0.028946798
195	0xbb8fc13b	-0.0043870485
196	0xbcd18ae6	-0.025578927
197	0xbc73a224	-0.0148702
198	0xbc80ea24	-0.015736647
199	0xbc8afee7	-0.01696725
200	0xbc9b8b77	-0.0189874
201	0xbac3f7ab	-0.001495113
202	0xbc6f2882	-0.01459706
203	0xbd005f10	-0.03134066
204	0x3bc5a868	0.0060320385
205	0x3aef668a	0.0018264812
206	0xbcc1df52	-0.023666058
207	0xbbb2b5ac	-0.005453786
208	0x3c568dbd	0.0130953165
209	0xbccc4aea	-0.024938066
210	0xb8564177	-5.1082545e-05
211	0xbbb711f1	-0.0055868556
212	0xbcc44171	-0.023956986
213	0x3c806d7c	0.015677206
214	0xbc699442	-0.014256539
215	0x3cb73aa5	0.022366831
216	0xbca87631	-0.02056417
217	0x3c376e0c	0.011195671
218	0x3b838549	0.0040136916
219	0xbc059dfb	-0.008155341
220	0x3b2f6bfe	0.002676725
221	0xbc5f0533	-0.013612079
222	0xbb023c67	-0.0019872428
223	0x3ce98072	0.02850363
224	0xbcb5843c	-0.02215778
225	0xbc78e075	-0.0151902335
226	0xbcdaead0	-0.026723295
227	0xbcbfda20	-0.02341944
228	0x3cbc76a7	0.023005797
229	0x3ca63573	0.020289158
230	0xbca1b51e	-0.019739684
231	0xbcd8212f	-0.02638301
232	0x3cd9bb66	0.026578616
233	0xbc854389	-0.016267555
234	0x3cd1a878	0.025593027
235	0xbb109288	-0.0022059996
236	0x3ca11019	0.019660996
237	0xbc1082ec	-0.008820277
238	0x3c44ac16	0.012003919
239	0x3cbd88d4	0.023136534
240	0xbcb0c4ab	-0.021578154
241	0x3c9ff940	0.019528031
242	0x3ce82b51	0.028340967
243	0x3c10b5c3	0.008832398
244	0x3be3437e	0.006935536
245	0xbcaeb1a9	-0.02132495
246	0xbc359875	-0.011083712
247	0x3c03eba5	0.0080517875
248	0xbb30db29	-0.0026986098
249	0xbccbf01b	-0.024894765
250	0xbcc09563	-0.023508733
251	0xbb87c571	-0.00414341
252	0xbb557fb9	-0.003257735
253	0x3ccb38f9	0.02480744
254	0x3c503418	0.012707733
255	0xbc98b223	-0.01863963

bias f4 [64]
0	0xbcc54688	-0.024081483
1	0xbbe93e8a	-0.007118051
2	0x3c4fbb74	0.01267897
3	0xbc0241f9	-0.007950299
4	0x3c5ae40d	0.013360036
5	0x3d18262c	0.03714578
6	0xbd0d4c32	-0.034496494
7	0xbc4db49a	-0.012555266
8	0x3bd629c3	0.00653574
9	0x3c6b5226	0.014362847
10	0xbc0fbea1	-0.008773477
11	0x3c1029a8	0.008798994
12	0x3d032f4e	0.032027535
13	0xbd01d378	-0.031695813
14	0x3baa30de	0.0051938137
15	0xb98cde9c	-0.00026868738
16	0x3bda3b3f	0.0066598947
17	0x3b4ba89e	0.0031075845
18	0x3ca47e6e	0.020079818
19	0xbd14c8a3	-0.036324155
20	0xbcb5719d	-0.022148902
21	0x3cbabbb9	0.022794591
22	0x3c7cdf23	0.015434059
23	0x3bec9f6d	0.0072211535
24	0x3bfcf9f6	0.0077202274
25	0xbbc6fd00	-0.0060726404
26	0x3ba51430	0.005037807
27	0xbacc6cd8	-0.0015596403
28	0xbc0d955c	-0.008641567
29	0xbc0c3e46	-0.008559769
30	0x3ac1967d	0.001476958
31	0x3c92fbd8	0.017942354
32	0x3cf0acee	0.029379334
33	0xbca2d4f4	-0.019876935
34	0xbc053001	-0.008129121
35	0xbd0cc7da	-0.03437028
36	0xbbc3aa63	-0.0059712394
37	0xbcf16179	-0.029465424
38	0x3ced7a0f	0.028988866
39	0x3cdfc099	0.027313517
40	0x3c7902d0	0.015198424
41	0xbc1cdf0d	-0.009574664
42	0xbcbd90d4	-0.023140348
43	0x3ca38f31	0.01996574
44	0x3b3c05e6	0.002869004
45	0x3c9c1e8a	0.01905753
46	0x3cce88c2	0.025211696
47	0xbc9fce78	-0.019507632
48	0x3ba11e4a	0.004916941
49	0x3cd5a692	0.026080403
50	0xbd11987f	-0.035545822
51	0x3ccbd7bd	0.024883145
52	0xbb37ba1e	-0.0028034518
53	0xbcf97e05	-0.030455599
54	0xbc1ea9c4	-0.00968403
55	0xbc9f9592	-0.0194805
56	0x3b77e815	0.003782754
57	0xbc6fda0d	-0.01463939
58	0xbc6728ec	-0.014108878
59	0xbd03a877	-0.032143082
60	0x3d28c4e2	0.041203387
61	0xbccf7fc6	-0.025329482
62	0xbcecda15	-0.028912583
63	0x3badeeb3	0.005307996

weight f4 [10, 64]
0	0x3bf02f9f	0.0073298956
1	0xbdf589ee	-0.119891986
2	0x3de6c473	0.112679385
3	0xbd87f7e0	-0.06639075
4	0xbd501f1d	-0.050810922
5	0xbd8ee67a	-0.06977554
6	0xbd527f32	-0.051390834
7	0x3d1f9226	0.038957737
8	0x3bc4beb8	0.0060041808
9	0x3e05953b	0.13045208
10	0x3b6c30a9	0.0036039746
11	0xbe19424f	-0.14966701
12	0x3cf138be	0.029446002
13	0x3d42437f	0.04742765
14	0xbd402c63	-0.04691733
15	0x3d873f56	0.06603877
16	0xbd9945fc	-0.074840516
17	0x3d6385cf	0.05554753
18	0x3dd4fae2	0.103994146
19	0x3dec9d32	0.1155342
20	0x3bb0098a	0.005372231
21	0xbd812758	-0.06306332
22	0x3e04a2a3	0.12952666
23	0x3d1631fb	0.03666876
24	0xbc13ca6a	-0.009020427
25	0xbd710e6e	-0.05885165
26	0xbd8e831d	-0.069586016
27	0xbcc4edbf	-0.024039147
28	0x3d2226f7	0.03958794
29	0x3d387efe	0.045042984
30	0xbd05e9e6	-0.032693766
31	0x3da2481d	0.07923911
32	0x39a66976	0.00031740562
33	0x3db4a1ed	0.088199474
34	0x3d82d8fb	0.06389042
35	0x3dabbd1b	0.083856784
36	0x3e002215	0.12513001
37	0xbd020c4a	-0.03175
38	0x3dbab9af	0.091174476
39	0xbdfdc90c	-0.12391862
40	0xbced351b	-0.028955987
41	0xbd56b344	-0.052417055
42	0x3dc13eb7	0.0943579
43	0x3ce9b275	0.028527478
44	0xbe165722	-0.14681676
45	0xbd64bb37	-0.055842604
46	0x3d185775	0.03719278
47	0xbdab3718	-0.08360118
48	0xbd534f2e	-0.051589184
49	0xbd8a64d8	-0.06757516
50	0x3cecb1fa	0.02889346
51	0x3dbb9448	0.09159142
52	0xbdb7dbf0	-0.089774966
53	0x3c51cb17	0.012804768
54	0x3b182c03	0.0023219592
55	0xbd89a928	-0.06721717
56	0xbd7e5026	-0.062088154
57	0xbdfeba76	-0.12437908
58	0xbdfbcbe0	-0.122947454
59	0x3dddd997	0.108325176
60	0xbdf1d422	-0.11808039
61	0x3dd04f27	0.10171347
62	0x3da4d1ac	0.08047804
63	0x3dfbc94b	0.12294253
64	0xbd66ceeb	-0.056349676
65	0x3dac7958	0.08421582
66	0xbdbd7f0b	-0.09252747
67	0xbde4fe8f	-0.11181366
68	0xbd9333dd	-0.071876265
69	0x3db50a1f	0.08839821
70	0xbd83bf55	-0.06432978
71	0xbe0407c1	-0.12893583
72	0xbd7ea270	-0.06216663
73	0xbc56c2f7	-0.013108007
74	0x3dc8eecc	0.09811172
75	0x3de84f32	0.1134323
76	0xbc910dd3	-0.017706787
77	0x3c1c0cf6	0.0095245745
78	0xbde8026e	-0.113285884
79	0xbd644bd9	-0.055736396
80	0xbd7da883	-0.061928283
81	0xbd6ce2b9	-0.057833407
82	0x3d8034f9	0.06260104
83	0xbcc45513	-0.023966348
84	0x3cd83903	0.026394373
85	0xbda309f3	-0.07960882
86	0xbdca4fe5	-0.0987852
87	0x3cc17b56	0.023618381
88	0x3dcfaacc	0.10139999
89	0xbd30bbbb	-0.043147784
90	0x3d095f6f	0.03353828
91	0xbd8ead02	-0.06966592
92	0x3e11f6db	0.14254324
93	0xbd87ff28	-0.06640464
94	0x3db1d558	0.0868327
95	0x3da72ea6	0.08163194
96	0x3bc3a767	0.0059708836
97	0x3d11f4a0	0.035633683
98	0x3e0cd0b2	0.13751486
99	0xbd4d86ab	-0.050177258
100	0xbd8cca8e	-0.06874572
101	0x3d19cc04	0.03754808
102	0x3dee2bd1	0.11629451
103	0xbdebb67f	-0.11509418
104	0x3dbe79bf	0.09300565
105	0xbc0d3ce1	-0.008620472
106	0xbd1a0e22	-0.037611134
107	0x3d71e9f9	0.059061024
108	0xbdbe3dc9	-0.09289128
109	0xbe016337	-0.12635504
110	0xbdadcabf	-0.084859364
111	0x3d830539	0.063974805
112	0x3c21e1a4	0.009880457
113	0x3d88f6c3	0.06687691
114	0xbe0104d4	-0.12599498
115	0x3dfce8c1	0.12349082
116	0xbdd5911e	-0.104280695
117	0xbd3d1eab	-0.046171825
118	0xbddaff44	-0.10693219
119	0x3d242f80	0.040084362
120	0x3d72af5a	0.05924926
121	0x3d4bbdb2	0.049741454
122	0x3b81837f	0.003952443
123	0xbd3113c2	-0.043231733
124	0x3dab5b1e	0.083669886
125	0x3dcd52a0	0.10025525
126	0x3deddfa3	0.11614921
127	0xbda6c732	-0.08143462
128	0x3db7ec52	0.089806214
129	0x3d4d2081	0.050079826
130	0x3dcc93c8	0.099891245
131	0x3d07b2ae	0.033129387
132	0xbda6453c	-0.08118674
133	0xbda18798	-0.078871906
134	0xbc91b090	-0.017784387
135	0xbdbc9aa5	-0.092091836
136	0xbd559513	-0.05214412
137	0x3deefda4	0.11669472
138	0xbdff0168	-0.1245144
139	0x3d71c172	0.059022374
140	0x3dd93d1d	0.106073596
141	0xbdb906b2	-0.0903448
142	0xbdd76a90	-0.10518372
143	0x3d643313	0.05571277
144	0x3cc2c6f4	0.023776509
145	0xbc732c3d	-0.01484209
146	0xbdfcb4ea	-0.12339194
147	0xbd261d4a	-0.040555276
148	0x3db13a4d	0.08653698
149	0xbdb0e45e	-0.086373076
150	0x3cb6c2bf	0.022309659
151	0x3b988688	0.0046547092
152	0xbde8bf48	-0.11364609
153	0xbda41629	-0.08012039
154	0x3df6a859	0.120438285
155	0x3d8c1f26	0.068418786
156	0xbde80489	-0.1132899
157	0xbdc60ea4	-0.09670761
158	0xbe00c456	-0.12574896
159	0xbdc47fd0	-0.09594691
160	0x3d0ffd9a	0.035153963
161	0x3d5ff77b	0.054679375
162	0xbd05d491	-0.032673422
163	0x3d32c8a5	0.04364838
164	0x3d90b259	0.07065267
165	0xbe01a65a	-0.12661114
166	0x3dd8ab37	0.10579532
167	0x3ca42282	0.020035986
168	0xbd303dcd	-0.043027688
169	0xbdeee2f8	-0.116643846
170	0xbb465e48	-0.0030268598
171	0x3d3551ed	0.044267584
172	0x3ca70d1e	0.020391997
173	0x3dc518d8	0.09623879
174	0xbdf1ef14	-0.11813179
175	0xbde4db06	-0.11174588
176	0xbcfe118e	-0.03101423
177	0xbd7741a2	-0.060365327
178	0x3c2848b4	0.01027124
179	0x3de08d1c	0.109644145
180	0x3d44d366	0.048053168
181	0x3ba30d15	0.0049759247
182	0xbdc36cee	-0.09542261
183	0x3d54d6e7	0.05196276
184	0x3b957fcc	0.0045623537
185	0x3d3aab23	0.045573365
186	0x3de6b534	0.112650305
187	0x3e02b17a	0.12763014
188	0x3cf135ed	0.02944466
189	0x3d69a9f6	0.057046853
190	0x3863c0d8	5.4300617e-05
191	0x3de0e53d	0.10981224
192	0x3d8b95cf	0.06815683
193	0x3d8fa004	0.070129424
194	0xbdd0c48c	-0.10193738
195	0xbdd7add9	-0.10531206
196	0xbdb41f28	-0.08795005
197	0x3d970224	0.07373455
198	0x3dc6c82a	0.09706147
199	0x3d64394c	0.055718705
200	0xbde69334	-0.112585455
201	0x3d236989	0.039895568
202	0x3d86ee3f	0.065884106
203	0x3cfa0b3c	0.030522935
204	0x3acfb1ee	0.0015845874
205	0xbe00f5d3	-0.12593774
206	0x3d7b9221	0.061418656
207	0x3d8bdb47	0.06828933
208	0x3e08e617	0.13369022
209	0x3c944686	0.018100034
210	0x3d0e15d8	0.0346888
211	0x3dc799e6	0.09746151
212	0xbd2058f3	-0.03914733
213	0x3dc3b466	0.09555893
214	0x3da9944c	0.082802385
215	0x3cbf9829	0.023387985
216	0xbde12f36	-0.10995333
217	0x3bb25138	0.005441811
218	0x3dda69c3	0.10664704
219	0xbd97e079	-0.07415862
220	0xbd34a029	-0.044098053
221	0x3dce4ad1	0.10072864
222	0xbdc621a6	-0.09674387
223	0x3dcca84c	0.099930376
224	0xbdfac3f7	-0.122444086
225	0x3dfcc991	0.12343133
226	0xbdb4378e	-0.08799659
227	0xbd19ab8f	-0.037517127
228	0xbd3b6368	-0.045749098
229	0xbcdd26ad	-0.026995981
230	0x3d956c33	0.07296028
231	0x38bd95b6	9.040108e-05
232	0xbced57fa	-0.028972615
233	0x3dad6eee	0.08468424
234	0x3dde58d6	0.10856788
235	0x3b16647e	0.0022948082
236	0x3e07d979	0.13266553
237	0x3d11778a	0.035514392
238	0xbcf8588a	-0.030315656
239	0xbdeb5e6a	-0.114926174
240	0x3d84ba5d	0.064808585
241	0xbc9809b7	-0.01855932
242	0x3da410ad	0.08010993
243	0x3e05c10f	0.13061927
244	0xbdb40fb5	-0.087920584
245	0xbc1022e6	-0.008797383
246	0x3c29dc34	0.010367442
247	0xbd7db37f	-0.06193876
248	0x3b585755	0.0033011038
249	0x3b644b99	0.0034835099
250	0xbd2373db	-0.03990541
251	0xbd6ab117	-0.057297792
252	0xbc2a5d40	-0.010398209
253	0xbdac5b8b	-0.08415898
254	0x3a88a081	0.001042381
255	0x3ddc8e33	0.1076931

bias f4 [10]
0	0xbdc95e62	-0.09832455
1	0xbdae0c1b	-0.08498403
2	0xbd30a8e6	-0.043129824
3	0x3d8f91b0	0.070102096
4	0xbc626015	-0.013816853
5	0x3d2c59cb	0.04207782
6	0xbd844992	-0.06459345
7	0xbda7e3e2	-0.08197762
8	0x3b17b261	0.0023147094
9	0xbdcb98fa	-0.09941287
