PytorchLearning/learn1/vggmodel/vgg_12.pth (torch, 587335 bytes, 10 tensors)

weight f4 [32, 3, 5, 5]
0.11032592 -0.10664684 -0.06051907 -0.036975592 -0.088363335 -0.005482391 0.026499469 -0.024843866
-0.06904613 0.09272952 0.117971 0.0010856453 -0.00889872 0.06801007 -0.0435133 -0.09339166
0.07781745 -0.09110013 0.11372122 0.10314687 -0.062158853 0.059892125 0.057106797 0.11714512
-0.053907577 -0.05057569 -0.0397846 0.09426006 0.03294793 -0.11123046 0.0610178 -0.010723097
-0.0999368 -0.077510126 0.08261186 -0.021463672 -0.08517132 0.046757877 -0.0811546 0.078684054
0.04027416 0.0931825 0.077866524 0.08626119 -0.032679852 -0.027524404 0.058497854 0.11379319
-0.0641385 -0.036614306 -0.0031260261 0.025687816 -0.081853814 -0.040805887 -0.04049816 0.020796778
0.1012845 -0.0039845095 0.10499084 0.063996166 -0.026130639 0.07709057 -0.06316624 -0.10340674
0.03297077 0.121027604 0.08697968 -0.026755527 0.012748025 0.121628106 0.004350799 0.12573797
0.042369027 0.037290473 0.047527205 -0.047424354 0.11514878 0.03630013 -0.030605625 0.04640919
0.06672329 -0.056131188 -0.06288675 0.07945279 -0.088480994 0.015528814 -0.005912982 -0.08134751
-0.082155064 -0.0016757386 0.02326662 0.11710399 0.046961997 -0.11023746 -0.005601655 -0.020707587
0.07587545 -0.09478874 0.066777654 -0.065352656 -0.03406467 -0.070925444 0.06703883 -0.12261345
0.012511705 -0.06574595 -0.0016832728 0.08005145 -0.13078265 -0.08074457 0.049596496 -0.04158315
-0.08929034 -0.022833038 -0.095527895 0.081647865 0.10840771 -0.023117343 0.000916674 0.02360956
-0.10745573 0.08058926 0.06453278 -0.08354348 0.034062795 -0.12779418 -0.10979468 -0.100557804
0.030520707 0.026368704 -0.09944195 -0.019096626 0.064635865 -0.09991312 -0.1188755 0.09772301
0.028891657 -0.04704353 0.074877225 -0.113148466 -0.0038660038 0.08759869 -0.008545896 -0.075538434
-0.023684327 -0.062493563 0.00037349627 0.09076419 -0.026127277 0.08092776 -0.055682912 -0.10303772
0.0876517 -0.04579807 -0.0074751144 -0.10155495 -0.11721334 -0.08460172 -0.10933147 -0.07927344
-0.061813477 0.09847115 -0.0025630929 0.0043910705 0.03691532 0.03761546 0.006933601 0.02536868
-0.07383808 -0.08995686 0.094284885 0.026610874 -0.050452292 0.088628255 0.0985012 -0.04572186
0.013674085 0.09715089 -0.05665858 0.012677387 0.05524675 0.09488218 0.07432858 -0.049054388
-0.04267176 -0.11664904 -0.065567106 -0.10352417 0.054354955 0.011536731 0.07199269 -0.08896476
0.047299426 -0.061167005 0.09816885 -0.052553993 0.07464113 -0.043797005 0.07672627 0.09529361
0.09798901 -0.03994825 -0.00946693 0.0058636377 0.12031219 0.10502193 -0.044798695 0.10171861
-0.0814534 0.02286547 0.0055332202 0.062312856 -0.060275484 0.03891917 0.04844774 0.0942902
0.113181815 0.075376205 0.07745803 0.01957208 0.036276326 0.1129138 0.025442487 0.09272253
-0.008145845 -0.09134508 0.08284834 0.02402615 -0.10626652 0.043776132 -0.0769185 -0.02883735
-0.04320119 0.027221655 -0.08353255 -0.08129284 0.02230767 -0.064640485 -0.031673506 -0.1102481
-0.07922859 0.045404416 0.09639843 0.08433204 0.11325934 -0.028896859 0.049831595 0.08907124
0.039446883 0.07349494 0.05045094 0.031454526 -0.09223663 0.10506133 0.10312705 0.1103901
00000000: 8ef2 e13d a969 dabd d8e2 77bd b873 17bd
00000010: d6f7 b4bd a1a5 b3bb 6a15 d93c 5d85 cbbc
00000020: 0f68 8dbd f9e8 bd3d c89a f13d 364c 8e3a
00000030: f0cb 11bc dd48 8b3d 013b 32bd 2044 bfbd
00000040: c15e 9f3d b492 babd ace6 e83d ab3e d33d
00000050: 489a 7ebd 7251 753d d1e8 693d c8e9 ef3d
00000060: 31ce 5cbd 7428 4fbd 2df5 22bd 6b0b c13d
00000070: 69f4 063d cccc e3bd cded 793d eeaf 2fbc
00000080: aaab ccbd a1bd 9ebd 6830 a93d 95d4 afbc
00000090: 4d6e aebd 3085 3f3d 6234 a6bd 1b25 a13d
000000a0: 85f6 243d 77d6 be3d 7c78 9f3d b5a9 b03d
000000b0: 4fdb 05bd dc7a e1bc 729b 6f3d 670c e93d
000000c0: 0c5b 83bd e2f8 15bd 04de 4cbb 416f d23c
000000d0: f9a2 a7bd 1324 27bd 66e1 25bd 015e aa3c
000000e0: 3f6e cf3d 7d90 82bb 7005 d73d 6c10 833d
000000f0: ec0f d6bc a9e1 9d3d 4d5d 81bd eac6 d3bd
00000100: 5c0c 073d 52dd f73d 6722 b23d 682e dbbc
00000110: 18dd 503c 2818 f93d 2691 8e3b 74c1 003e
00000120: 258b 2d3d e5bd 183d e3ab 423d 0a40 42bd
00000130: 20d3 eb3d 72af 143d a6b8 fabc 9017 3e3d
00000140: 38a6 883d d1e9 65bd c5ca 80bd 25b8 a23d
00000150: 8635 b5bd 916c 7e3c b0c1 c1bb 8699 a6bd
00000160: ea40 a8bd 75a4 dbba a399 be3c 37d4 ef3d
00000170: 395b 403d 2dc4 e1bd 178e b7bb f5a2 a9bc
00000180: 9764 9b3d 9920 c2bd b9c2 883d 9dd7 85bd
00000190: 6587 0bbd 5c41 91bd a74b 893d c31c fbbd
000001a0: e5fd 4c3c d0a5 86bd 43a1 dcba 04f2 a33d
000001b0: e3eb 05be 695d a5bd b225 4b3d 1853 2abd
000001c0: dbdd b6bd 5a0c bbbc 21a4 c3bd ff36 a73d
000001d0: dd04 de3d 9560 bdbc f34c 703a d668 c13c
000001e0: c011 dcbd fb0b a53d c329 843d d818 abbd
000001f0: 6e85 0b3d 7adc 02be 08dc e0bd 40f1 cdbd
00000200: 9006 fa3c 2e03 d83c 39a8 cbbd 8770 9cbc
00000210: cf5f 843d 409f ccbd 0075 f3bd 0023 c83d
00000220: 32ae ec3c b7b0 40bd 3b59 993d 62ba e7bd
00000230: c85c 7dbb f166 b33d 1604 0cbc e5b3 9abd
00000240: a205 c2bc 40f9 7fbd d2d1 c339 93e2 b93d
00000250: df08 d6bc 74bd a53d c413 64bd 7105 d3bd
00000260: bc82 b33d c296 3bbd cef1 f4bb 0bfc cfbd
00000270: 8c0d f0bd ab43 adbd 2ee9 dfbd 1d5a a2bd
00000280: 2130 7dbd 3eab c93d 90f9 27bb f8e2 8f3b
00000290: 8534 173d ab12 1a3d 4333 e33b fad1 cf3c
000002a0: 6b38 97bd 4d3b b8bd 6f18 c13d 0cff d93c
000002b0: 10a7 4ebd bb82 b53d ffba c93d d846 3bbd
000002c0: 4509 603c 0cf7 c63d d412 68bd d1b4 4f3c
000002d0: 6b4a 623d 9751 c23d 9539 983d 41ed 48bd
000002e0: 95c8 2ebd b1e5 eebd 0c48 86bd 7b04 d4bd
000002f0: 4da3 5e3d 8f04 3d3c e770 933d 2833 b6bd
00000300: 0bbd 413d 418a 7abd c00c c93d db42 57bd
00000310: 73dd 983d 7d64 33bd aa22 9d3d 4c29 c33d
00000320: 76ae c83d c7a0 23bd 2f1b 1bbc c223 c03b
00000330: 3d66 f63d bd15 d73d d67e 37bd d951 d03d
00000340: 0ad1 a6bd 5e50 bb3c 0450 b53b c43b 7f3d
00000350: 6de3 76bd b569 1f3d 2371 463d 381b c13d
00000360: decb e73d d75e 9a3d 51a2 9e3d a055 a03c
00000370: 7c96 143d 5a3f e73d c36c d03c 4fe5 bd3d
00000380: 2676 05bc 2113 bbbd 64ac a93d 7dd2 c43c
00000390: 43a2 d9bd 9a4e 333d 7287 9dbd 4e3c ecbc
000003a0: bbf3 30bd f3ff de3c 1d13 abbd dc7c a6bd
000003b0: 93be b63c 3b62 84bd 14bc 01bd c1c9 e1bd
000003c0: 9942 a2bd fbf9 393d 8a6c c53d 47b6 ac3d
000003d0: 83f4 e73d 1bb9 ecbc 371c 4c3d fb6a b63d
000003e0: 0e93 213d 8484 963d a5a5 4e3d 76d6 003d
000003f0: 8fe6 bcbd 652a d73d 4634 d33d 3414 e23d

bias f4 [32]
0.06553004 0.038473517 -0.009914413 -0.023887224 0.079183966 0.081764616 -0.044045623 0.09811037
-0.09634024 0.10891532 0.09156993 -0.07664848 -0.035746273 0.005609443 0.11049997 0.019733407
0.047141973 -0.07600895 0.02633177 0.0941618 0.06682551 -0.0056672147 0.07453439 0.117213555
-0.07806472 -0.06358925 0.053135976 -0.096051075 -0.061210994 -0.0027714889 -0.13946983 0.09121342
00000000: 9d34 863d 6896 1d3d 1070 22bc 24af c3bc
00000010: 342b a23d 3574 a73d 2f69 34bd 17ee c83d
00000020: 084e c5bd ff0e df3d 0489 bb3d e1f9 9cbd
00000030: af6a 12bd 6bcf b73b cf4d e23d f4a7 a13c
00000040: f117 413d 95aa 9bbd b9b5 d73c e7d7 c03d
00000050: d0db 883d 0bb4 b9bb 7ca5 983d a90d f03d
00000060: 65e0 9fbd 153b 82bd 1ca5 593d 6db6 c4bd
00000070: 61b8 7abd dea1 35bb 2ed1 0ebe 1ace ba3d

weight f4 [32, 32, 5, 5]
-0.020034453 -0.03315648 0.0045144586 0.033135496 -0.028296256 -0.03404123 -0.0037950967 0.018451635
-0.01892752 0.020632746 -0.018030545 0.021733874 -0.037506152 0.010383161 -0.031333525 -0.016310621
-0.025631642 -0.001580829 0.015643943 -0.0072292504 0.02384181 0.008087641 -0.032116614 -0.014157805
-0.0021247657 -0.03158215 -0.026382487 0.0009876605 -0.029769994 0.02972424 0.000985126 -0.02029986
-0.03267261 0.022433564 0.016661497 0.0060780556 -0.011501446 -0.034639187 0.014627387 0.008933615
-0.030871442 -0.0022241976 -0.004775508 -0.012099964 0.020509161 -0.029917121 0.016835056 -0.0014838378
-0.013120266 -0.019512722 -0.0039055473 -0.032902647 0.024236824 -0.009254958 0.034179825 -0.030429367
0.010519453 0.032650627 -0.02235822 0.030836502 -0.0044638673 0.02893704 0.029597038 0.02890889
0.03212689 0.0025083928 0.01838941 -0.031108974 -0.00334483 -0.02968924 0.03028936 0.0029012933
-0.0015920859 -0.0074263103 0.03165404 -0.033849284 -0.018514099 -0.0014773188 -0.03400436 0.029421235
0.011498861 -0.011756281 0.0008859979 -0.029750122 0.023893796 -0.0003329441 -0.032403 0.025185626
-0.022521492 -0.017253108 0.005266023 -0.011950229 -0.00407336 0.011685155 -0.009674259 -0.032249883
-0.030104645 -0.024867002 -0.008650747 -0.028466122 -0.019093841 -0.031938147 -0.00046169118 -0.015133141
-0.0027271914 0.008563819 -0.009179359 0.015316372 0.008599807 -0.032816153 -0.020841084 -0.03029596
-0.04028216 0.004550677 0.008333573 0.0118443575 0.005702891 -0.037112504 0.018825315 0.012748578
0.008101791 0.013882989 0.0022737957 0.019528575 0.00056794897 -0.018510204 -0.032776423 -0.00026331763
0.01122231 0.004796745 -0.03176232 0.021315994 -0.0077245054 0.017770035 0.014016402 -0.035343103
0.005232928 -0.036404867 -0.03042099 -0.0017753835 -0.0340815 -0.032336794 -0.013665659 0.023169402
0.013357132 0.013353023 0.016020887 -0.016176306 0.0017153297 0.030141212 -0.0014161016 0.0103508625
-0.009499958 -0.0066044796 0.010969125 0.03071297 0.0041648406 -0.0056877485 -0.025317432 -0.0027994341
0.029224388 0.01929926 0.011463701 0.015288325 -0.027670627 0.027875975 0.028907424 -0.025675325
0.007799499 -0.023049876 0.005974499 0.019236233 0.0030502784 -0.020504927 0.010679617 0.02523383
0.016501982 -0.012299356 -0.01993971 0.029014982 0.022819169 -0.011752822 -0.0005770929 0.0017713759
0.025510252 0.020861197 -0.034550697 -0.011646748 0.027168624 -0.0022589783 -0.022636103 -0.035051603
-0.0042446144 0.031970404 -0.023749819 0.0051604793 -0.028190216 0.012309591 0.015976805 -0.020896295
0.02174379 -0.01690959 0.031333167 0.013212361 0.00808557 0.03247844 0.005668821 0.0017629006
-0.008134745 0.009747679 0.011595773 0.033484273 0.0032778932 -0.009103367 0.017776232 0.0009359597
0.03561983 0.025330506 0.0067295926 0.0013968674 -0.020425702 0.0361948 0.02419197 0.038964305
0.014685487 -0.0060660513 -0.028999139 0.003569891 -0.028910935 0.021485595 -0.043128792 -0.028164268
-0.016866429 0.01835358 0.024568422 -0.013471204 0.0068738353 -0.037662074 -0.025630394 -0.03699949
0.01388802 -0.025002986 -0.0031604406 -0.00407027 -0.01682046 0.019921964 -0.039633993 -0.035310745
-0.015016266 -0.020587029 -0.039082818 -0.031856004 -0.02712505 0.01451896 0.015012428 0.010690413
00000000: 4b1f a4bc 17cf 07bd 06ee 933b 16b9 073d
00000010: 8dcd e7bc d16e 0bbd 28b7 78bb e227 973c
00000020: e30d 9bbc 0106 a93c cbb4 93bc 3d0b b23c
00000030: 0da0 19bd 221e 2a3c 9557 00bd da9d 85bc
00000040: 73f9 d1bc d233 cfba ba27 803c 59e3 ecbb
00000050: e64f c33c 0682 043c b68c 03bd 23f6 67bc
00000060: a73f 0bbb 495c 01bd 1620 d8bc 6374 813a
00000070: 34e0 f3bc 4080 f33c 581f 813a e44b a6bc
00000080: b7d3 05bd 98c6 b73c b17d 883c 6d2a c73b
00000090: 9070 3cbc d2e1 0dbd b5a7 6f3c 4c5e 123c
000000a0: 1be6 fcbc d8c3 11bb dd7b 9cbb ed3e 46bc
000000b0: d402 a83c c014 f5bc ace9 893c 567d c2ba
000000c0: 62f6 56bc 25d9 9fbc 36f4 7fbb edc4 06bd
000000d0: 4e8c c63c 1ba2 17bc 2500 0c3d 0247 f9bc
000000e0: c959 2c3c aabc 053d 9628 b7bc d59c fc3c
000000f0: a245 92bb 5f0d ed3c 7d75 f23c 56d2 ec3c
00000100: 7c97 033d d963 243b 63a5 963c 3fd8 febc
00000110: ef34 5bbb d936 f3bc 6421 f83c a023 3e3b
00000120: 8aad d0ba 6858 f3bb aba7 013d 8ca5 0abd
00000130: e1aa 97bc 98a2 c1ba 2848 0bbd cd04 f13c
00000140: b865 3c3c 6b9d 40bc 5042 683a 87b6 f3bc
00000150: ecbc c33c 008f aeb9 02b9 04bd 1652 ce3c
00000160: fe7e b8bc 6456 8dbc 9a8e ac3b e5ca 43bc
00000170: d279 85bb 1873 3f3c c980 1ebc 7418 04bd
00000180: 049e f6bc e2b5 cbbc ddbb 0dbc c931 e9bc
00000190: b06a 9cbc 93d1 02bd 240f f2b9 fef0 77bc
000001a0: aeba 32bb 434f 0c3c 0665 16bc 85f1 7a3c
000001b0: 34e6 0c3c 3b6a 06bd ecba aabc 3c2f f8bc
000001c0: e8fe 24bd d81d 953b 8a89 083c d60e 423c
000001d0: 51df ba3b 4803 18bd 8c37 9a3c 69df 503c
000001e0: 60bd 043c 7a75 633c f603 153b 64fa 9f3c
000001f0: 69e2 143a b6a2 97bc 9240 06bd e50d 8ab9
00000200: c8dd 373c 032e 9d3b 3519 02bd e19e ae3c
00000210: d91d fdbb 7792 913c 0da5 653c eec3 10bd
00000220: fb78 ab3b 451d 15bd 7135 f9bc fcb3 e8ba
00000230: 0b99 0bbd 9673 04bd eee5 5fbc c2cd bd3c
00000240: dfd7 5a3c a3c6 5a3c 3c3e 833c 2c84 84bc
00000250: ead4 e03a b4ea f63c 7c9c b9ba aa96 293c
00000260: b6a5 1bbc 646a d8bb d8b7 333c c499 fb3c
00000270: 3779 883b 4b60 babb 8166 cfbc b676 37bb
00000280: fc67 ef3c 7b19 9e3c 3fd2 3b3c e27b 7a3c
00000290: 83ad e2bc 285c e43c 43cf ec3c 0f55 d2bc
000002a0: f192 ff3b 18d3 bcbc bbc5 c33b 4e95 9d3c
000002b0: 2ee7 473b f3f9 a7bc 8ff9 2e3c 2db7 ce3c
000002c0: 2a2f 873c 3d83 49bc 9a58 a3bc d4b0 ed3c
000002d0: 44ef ba3c e98e 40bc 0d48 17ba 832d e83a
000002e0: e0fa d03c 1ae5 aa3c 0885 0dbd 00d2 3ebc
000002f0: bc90 de3c 5e0b 14bb 596f b9bc 4592 0fbd
00000300: 6816 8bbb 66f3 023d fb8e c2bc 3d19 a93b
00000310: 2bef e6bc 2bae 493c cae1 823c b52e abbc
00000320: 0820 b23c fb85 8abc 3557 003d a978 583c
00000330: 5779 043c 1d08 053d 84c1 b93b 2111 e73a
00000340: 9847 05bc bbb4 1f3c 32fc 3d3c ce26 093d
00000350: ecd1 563b 4a26 15bc 769f 913c 315b 753a
00000360: 19e6 113d ec81 cf3c ea83 dc3b 1817 b73a
00000370: cd53 a7bc 0041 143d 3d2e c63c 0999 1f3d
00000380: 669b 703c bac5 c6bb 9a8f edbc d5f4 693b
00000390: a0d6 ecbc 8f02 b03c d1a7 30bd c0b8 e6bc
000003a0: 772b 8abc 3f5a 963c b743 c93c 53b6 5cbc
000003b0: e93d e13b 8c43 1abd d5f6 d1bc c78c 17bd
000003c0: 948a 633c 10d3 ccbc 651f 4fbb e65f 85bb
000003d0: 10cb 89bc 6333 a33c 4157 22bd 00a2 10bd
000003e0: c906 76bc 21a6 a8bc 4e15 20bd 717b 02bd
000003f0: 5a35 debc efe0 6d3c b0f6 753c d826 2f3c

bias f4 [32]
-0.014342162 -0.03107834 -0.015340312 -0.03238656 0.018616365 -0.009127846 -0.0280957 -0.014524038
0.0028488068 0.0068887435 -0.0113638155 -0.021420097 0.028307065 -0.02427914 -0.02232553 -0.008176894
0.03065542 -0.034171797 -0.019765303 0.004370497 0.027727654 -0.04551408 0.008685487 -0.008834179
-0.0055631665 -0.037502877 -0.016802222 0.015296028 0.034480076 -0.032514766 0.0204626 0.02581356
00000000: 63fb 6abc 0198 febc ef55 7bbc c5a7 04bd
00000010: 5981 983c f68c 15bc f428 e6bc 3bf6 6dbc
00000020: 0cb3 3a3b f8ba e13b 4c2f 3abc 3379 afbc
00000030: 38e4 e73c 0ce5 c6bc 08e4 b6bc 61f8 05bc
00000040: 1321 fb3c baf7 0bbd d8ea a1bc 6336 8f3b
00000050: 1b25 e33c f96c 3abd 934d 0e3c 3bbd 10bc
00000060: 394b b6bb 9e9c 19bd d0a4 89bc 319c 7a3c
00000070: fb3a 0d3d 342e 05bd 2fa1 a73c f576 d33c

weight f4 [64, 32, 5, 5]
-0.00937673 0.015269457 -0.017656859 0.007431707 0.015359957 -0.01719875 0.0019075309 0.0045745596
0.0004062957 0.0026924585 -0.011392848 0.01865279 -0.016710963 0.031960163 0.035541274 -0.03106546
0.0151403155 -0.0126897665 -0.031025771 -0.000481963 -0.0019493453 0.0135672735 -0.009757201 0.018097972
-0.027675616 0.0064002625 -0.0070796353 0.042471185 0.015838152 0.015215198 0.010120506 -0.026913317
0.011332619 0.016762277 0.01001405 -0.027655147 -0.03846709 -0.023218222 0.004979195 -0.0061630877
0.03236917 0.006106906 -0.02255607 -0.005892969 0.019832687 0.023280935 -0.023128135 -0.035087276
0.031434745 0.01840161 0.01975767 0.031627037 -0.016378 0.004306821 0.028855825 -0.003994344
-0.018956857 -0.01030581 -0.020612987 0.029942838 0.022771403 0.019953324 -0.026572937 -0.02765923
0.024947211 -0.025026847 0.010155088 0.031938605 -0.01739113 0.024004009 -0.005212539 0.00791635
0.01778834 0.0011460877 -0.033735875 0.022074409 0.021591483 -0.021589912 -0.024356253 0.020162998
0.0052286214 -0.02569697 0.011894692 0.03254082 -0.007975806 0.0063265823 0.016050883 0.039802793
0.003273164 0.027673975 0.019926926 0.02106395 -0.030816741 -0.023873972 0.015636934 -0.031360377
0.01787853 0.02859388 0.005348391 -0.012735303 0.0004759465 -0.002030272 0.023050092 0.011711399
-0.002311587 0.013513115 0.016904388 0.018416693 0.027036542 0.027984986 -0.016389461 -0.019670142
0.024363454 -0.010946813 0.0106406165 -0.034675557 0.006666623 -0.029378632 -0.0339003 -0.005498707
0.007189721 -0.022118097 0.02828583 0.0050239167 0.015246719 -0.026571047 -0.029117955 -0.037786122
-0.033861425 -0.024741706 -0.013340711 -0.031442888 0.026137026 0.016942585 -0.007929701 -0.022596346
0.009195924 -0.026202785 0.023482002 -0.004864504 -0.018073553 0.012522761 -0.027125716 0.031560138
-0.036646772 -0.03148997 0.032371584 0.023861464 -0.020923285 -0.013132584 -0.01388221 0.034637004
0.020757418 0.021747302 -0.007158584 0.005171782 0.03057374 0.03340683 0.032411296 0.03673526
0.02093187 0.04729972 0.040648498 0.030661574 0.041963704 -0.0044756467 -0.0039354386 0.019242821
0.031333763 0.029274346 0.011211295 0.012939111 -0.021508053 0.0341067 -0.027101906 -0.00038874088
0.00064651313 0.008489209 -0.025918143 0.008069809 0.03893607 -0.013026281 -0.017529488 0.0063135913
-0.021672541 0.013107578 0.027288303 -0.005364541 -0.010489467 -0.016553331 -0.00952981 -0.022596365
-0.006575996 -0.0023234894 0.01695175 -0.034215268 -0.028488237 0.033973016 0.0004462043 -0.0005804608
-0.00021105878 0.039596472 0.0011210049 0.042363334 -0.0020966874 0.02067634 -0.020553702 -0.020511415
0.04040766 -0.0117603885 0.031016707 -0.0125685595 0.038180817 0.027420506 0.003516575 -0.0026394064
0.020075029 -0.015592867 -0.020436881 0.007246404 -0.020183722 0.025496367 -0.011742834 -0.027217567
-0.0061791604 -0.010151341 -0.010467506 0.027749803 0.02141843 -0.019722456 0.034256484 -0.023068339
-0.009693957 -0.03334982 -0.012287549 0.012918915 -0.024736634 0.028853491 0.0019090627 0.035790533
-0.024947776 0.00265217 -0.005147592 0.0042122887 0.031516146 0.012491793 -0.029495722 -0.014556892
0.016037144 -0.0007736788 0.0127155855 -0.018952409 0.032907005 0.0009479623 -0.009600719 0.0016257373
00000000: dba0 19bc bf2c 7a3c 1ea5 90bc ad85 f33b
00000010: 54a8 7b3c 65e4 8cbc 1e06 fa3a 30e6 953b
00000020: 1604 d539 f573 303b 11a9 3abc bccd 983c
00000030: 6ee5 88bc a9e8 023d ba93 113d fe7c febc
00000040: 160f 783c bde8 4fbc c229 febc fbaf fcb9
00000050: 2d81 ffba 4549 5e3c abdc 1fbc 3342 943c
00000060: f9b7 e2bc 4bb9 d13b 49fc e7bb 44f6 2d3d
00000070: 03bf 813c 2a49 793c 7bd0 253c 5179 dcbc
00000080: 73ac 393c 0b51 893c f811 243c 0c8d e2bc
00000090: ab8f 1dbd 2434 bebc 8428 a33b baf3 c9bb
000000a0: 8995 043d 711c c83b 82c7 b8bc cf19 c1bb
000000b0: 2978 a23c a9b7 be3c 3777 bdbc adb7 0fbd
000000c0: b8c1 003d f9be 963c d6da a13c 5a8b 013d
000000d0: 282b 86bc 3c20 8d3b 0d63 ec3c fce2 82bb
000000e0: 694b 9bbc b3d9 28bc 91dc a8bc af4a f53c
000000f0: 188b ba3c 2775 a33c 7daf d9bc 9c95 e2bc
00000100: 185e cc3c 1a05 cdbc 8761 263c 0ed2 023d
00000110: d877 8ebc 0ea4 c43c f2cd aabb 94b3 013c
00000120: dab8 913c 5238 963a a12e 0abd 64d5 b43c
00000130: 9fe0 b03c 54dd b0bc c486 c7bc df2c a53c
00000140: db54 ab3b 7482 d2bc f4e1 423c 8649 053d
00000150: f4ac 02bc 384f cf3b 247d 833c 4108 233d
00000160: 9482 563b 88b4 e23c cb3d a33c 4e8e ac3c
00000170: 6473 fcbc 5993 c3bc 0719 803c bd73 00bd
00000180: ff75 923c b63d ea3c 8e41 af3b bba7 50bc
00000190: 7588 f939 500e 05bb 8cd3 bc3c 2be1 3f3c
000001a0: ff7d 17bb 1d66 5d3c 127b 8a3c 9bde 963c
000001b0: bd7b dd3c c540 e53c 3143 86bc 4723 a1bc
000001c0: de95 c73c 435a 33bc fb55 2e3c f507 0ebd
000001d0: b073 da3b 75ab f0bc 0adb 0abd 7f2e b4bb
000001e0: c097 eb3b 0331 b5bc afb7 e73c ab9f a43b
000001f0: 60cd 793c 86ab d9bc c788 eebc 9fc5 1abd
00000200: 47b2 0abd 1eaf cabc ff92 5abc 42ca 00bd
00000210: 511d d63c 2dcb 8a3c 94eb 01bc f91b b9bc
00000220: 80aa 163c 39a7 d6bc 545d c03c 6b66 9fbb
00000230: fd0e 94bc 442c 4d3c c036 debc 3445 013d
00000240: ed1a 16bd a0fb 00bd 1198 043d 1e79 c33c
00000250: 4f67 abbc 0d2a 57bc 3572 63bc 88df 0d3d
00000260: 760b aa3c 6627 b23c 8e92 eabb 0d78 a93b
00000270: c875 fa3c 9ad5 083d b5c1 043d b677 163d
00000280: 5079 ab3c 5abd 413d 0a7f 263d fb2d fb3c
00000290: 22e2 2b3d 72a8 92bb daf4 80bb 1fa3 9d3c
000002a0: d557 003d c1d0 ef3c 94af 373c 91fe 533c
000002b0: a831 b0bc 78b3 0b3d d104 debc ebcf cbb9
000002c0: c37a 293a 5316 0b3c 4952 d4bc 3b37 043c
000002d0: 6e7b 1f3d 2f6c 55bc 009a 8fbc 3ee2 ce3b
000002e0: 9d8a b1bc 2bc1 563c b88b df3c 08c9 afbb
000002f0: 03dc 2bbc da9a 87bc ec22 1cbc 031c b9bc
00000300: 747b d7bb af45 18bb 65de 8a3c 4f25 0cbd
00000310: 2a60 e9bc 4a27 0b3d 87f0 e939 112a 18ba
00000320: a94f 5db9 e92f 223d afee 923a 2d85 2d3d
00000330: 9468 09bb 6e61 a93c 3d60 a8bc 8e07 a8bc
00000340: 8182 253d a5ae 40bc c016 fe3c 5cec 4dbc
00000350: 7d63 1c3d f8a0 e03c 5776 663b e4f9 2cbb
00000360: 6374 a43c 3979 7fbc 3f6b a7bc 3e73 ed3b
00000370: 5558 a5bc c2dd d03c 0465 40bc 60f7 debc
00000380: 8e7a cabb cf51 26bc e77f 2bbc 8e53 e33c
00000390: b475 af3c fd90 a1bc 8750 0c3d d0f9 bcbc
000003a0: 67d3 1ebc d299 08bd b751 49bc dba9 533c
000003b0: 7ba4 cabc 285e ec3c 8439 fa3a 1899 123d
000003c0: 475f ccbc 07d0 2d3b 22ad a8bb 3d07 8a3b
000003d0: 1317 013d 61aa 4c3c 03a1 f1bc 0880 6ebc
000003e0: 5460 833c b5d0 4aba 0855 503c 1542 9bbc
000003f0: 7fc9 063d ac80 783a 564c 1dbc b116 d53a

bias f4 [64]
-0.041304473 -0.03832649 0.0122370245 -0.009179436 -0.022709679 0.020330064 -0.004482994 0.031038206
0.003647656 -0.007983244 -0.016785607 0.021155005 -0.00558217 -0.03172114 -0.038820326 0.036521535
-0.022574317 0.020443758 -0.03563323 -0.022165453 0.025884293 -0.027738879 0.028898213 0.01318041
0.029596021 -0.009458585 0.029275443 0.010550029 -0.01644248 0.025342677 0.025970437 0.009771722
-0.02355445 0.006138965 -0.022251077 -0.004914153 -0.008695554 -0.02805695 -0.04066988 0.03723927
0.031663816 -0.01519454 0.04237654 -0.0073904777 -0.018053051 0.0129064135 0.037290458 -0.018799393
0.029702963 0.022528715 -0.021807043 -0.014405004 0.0051074256 -0.004248951 0.00864974 0.027431102
0.034084592 -0.022384679 0.01212043 -0.016849915 -0.0107284635 -0.009202544 -0.009842125 0.014728945
00000000: e12e 29bd 3dfc 1cbd cd7d 483c 5865 16bc
00000010: a609 babc 3c8b a63c 14e6 92bb d643 fe3c
00000020: 830d 6f3b 27cc 02bc f881 89bc 434d ad3c
00000030: a3ea b6bb 07ee 01bd 1002 1fbd 9b97 153d
00000040: c6ed b8bc ab79 a73c 26f4 11bd 5394 b5bc
00000050: 4c0b d43c a53c e3bc f2bb ec3c a5f2 573c
00000060: 5b73 f23c 2ef8 1abc 0ed3 ef3c 07da 2c3c
00000070: 61b2 86bc 729b cf3c f4bf d43c 9319 203c
00000080: 43f5 c0bc 5f29 c93b e447 b6bc e706 a1bb
00000090: cc77 0ebc b0d7 e5bc 7695 26bd 3488 183d
000000a0: ebb1 013d 85f2 78bc 0693 2d3d d22b f2bb
000000b0: fee3 93bc 6c75 533c e1bd 183d 2f01 9abc
000000c0: a153 f33c 248e b83c afa4 b2bc f702 6cbc
000000d0: 315c a73b c93a 8bbb a4b7 0d3c 31b7 e03c
000000e0: 499c 0b3d 1360 b7bc c594 463c d508 8abc
000000f0: 70c6 2fbc 44c6 16bc dd40 21bc ac51 713c

weight f4 [64, 1024]
-0.0184138 0.0029652934 -0.01654562 -0.004906288 -0.017955411 -0.004694136 -0.022642594 -0.02690858
-0.011651965 0.005930744 -0.030837132 0.027524134 -0.029961629 0.0028201363 0.02141919 -0.006153455
0.0054117083 -0.021184703 0.00825639 -0.021103598 -0.028266447 0.009599163 0.01437213 0.015706979
0.008553268 -0.029995278 -0.009469327 0.013299914 -0.022443222 0.0141068315 0.012962028 0.01185758
-0.010999585 0.0266703 -0.022051655 0.0129903685 0.01248376 -0.019566078 0.026823558 0.009305733
-0.010271308 -0.012948645 -0.010733679 -0.012736201 -0.018644636 -0.028017348 0.019609077 0.024343643
0.015040191 -0.018706383 0.02333795 -0.028360656 0.020154288 0.008195787 -0.0073500695 0.030287547
0.021069238 0.020682529 -0.025981737 -0.005456672 0.0127031915 0.017643822 0.011129269 0.033424992
0.026770443 0.004478333 -0.006620598 0.022843443 -0.011786974 -0.024378624 -0.01143516 -0.0150122885
0.00050571386 -0.009464564 -0.007489467 0.011872641 0.013693527 -0.026592357 -0.027124926 -0.02387664
-0.0029599117 -0.0059848554 0.0071739303 0.017426526 -0.026311653 0.024462428 0.026218733 -0.014455139
0.02407173 -0.0014489997 -0.0058213463 0.022824576 0.0030638766 0.023410663 -0.011263452 -0.010698035
-0.02354452 -0.00061796483 -0.024259804 -0.015497671 -0.025641762 0.02974663 0.016441675 0.0032202257
-0.02875574 0.023556333 0.030433843 0.007966055 -0.029352853 -0.021693166 -0.022625472 0.026104555
-0.009690721 -0.016100822 -0.022019532 0.00024415995 0.018918196 0.02887216 -0.019839102 0.024266912
-0.011929574 -0.018631697 -0.023409886 -0.0271222 0.031322107 -0.023163244 0.00769009 0.02298781
0.0039772424 0.027155133 -0.011028442 0.0039546755 -0.00444758 -0.009289369 0.025020713 -0.018709026
0.018858664 -0.026670039 0.013424992 -0.018279966 0.024377318 -0.016267871 0.014575543 0.0051100757
0.03154747 0.021705152 -0.008676386 -0.012915001 0.0042105685 -0.014276865 -0.0011046595 0.03275866
0.0073791514 0.0007722404 -0.007909579 -0.021264631 0.02599533 0.003677455 -0.022141764 0.022836147
0.013935289 0.026047826 0.008678793 -0.007856946 -0.013546611 -0.024527436 -0.008895673 0.024644395
-0.009095017 0.014871161 0.020873493 0.0054336963 -0.025808489 -0.0007463193 -0.018025922 0.0119378185
-0.010516335 0.011450922 -0.020716477 0.015909765 0.02822376 0.009610344 0.027673677 0.021867016
-0.022245537 0.026900804 0.03702318 0.021222563 -0.022033531 0.01092139 0.026313609 0.007054616
-0.01710171 0.026709052 0.0291156 -0.005089289 -0.025722208 -0.014707418 -0.015679656 -0.017391937
-0.019211542 -0.0013584783 -0.014281281 -0.030629562 0.0063317716 0.0020658763 -0.023732767 -0.0055989036
0.014189301 -0.024049455 0.0007005997 -0.0047475444 -0.023578113 0.016399674 -0.014237543 0.02310315
-0.021108737 0.010491467 0.004326286 -0.008195671 0.0017923956 -0.013956929 -0.002185229 0.028579637
-0.021150809 -0.014251167 -0.02561066 -0.021946004 0.023362678 0.020742565 -0.019230396 -0.02566523
0.025839437 -0.01686483 0.024959752 -0.001919843 0.017453423 -0.010329194 0.011089078 0.02320197
-0.020147769 0.02175929 0.029211879 0.0099437665 0.0072714705 -0.020990111 -0.010391466 0.009313887
-0.0035234329 -0.02408063 -0.02405537 -0.0035026057 -0.0027823767 0.025455238 0.01185706 -0.018888928
00000000: 8ad8 96bc 5e55 423b ae8a 87bc edc4 a0bb
00000010: 3a17 93bc 44d1 99bb f67c b9bc 626f dcbc
00000020: e2e7 3ebc b056 c23b 279e fcbc 4b7a e13c
00000030: 1772 f5bc 09d2 383b 4c77 af3c eca2 c9bb
00000040: b354 b13b 8b8b adbc cf45 073c 74e1 acbc
00000050: 098f e7bc cf45 1d3c 1579 6b3c ecab 803c
00000060: 0223 0c3c a8b8 f5bc 3c25 1bbc e2e7 593c
00000070: d9da b7bc 5720 673c b05e 543c 4c46 423c
00000080: 9a37 34bc ac7b da3c aca5 b4bc 8ed5 543c
00000090: af88 4c3c 0a49 a0bc 14bd db3c 1377 183c
000000a0: fd48 28bc 8e26 54bc 50dc 2fbc 80ab 50bc
000000b0: a3bc 98bc a384 e5bc 37a3 a03c 526c c73c
000000c0: 226b 763c 213e 99bc 3b2f bf3c 9b54 e8bc
000000d0: 9b1a a53c 9f47 063c dad8 f0bb 971d f83c
000000e0: 6599 ac3c 686e a93c a7d7 d4bc e2cd b2bb
000000f0: 0c21 503c c789 903c 8a57 363c a5e8 083d
00000100: b04d db3c fbbe 923b 9af1 d8bb 2c22 bb3c
00000110: 271e 41bc aeb5 c7bc 8a5a 3bbc 1af6 75bc
00000120: e291 043a 4211 1bbc 346a f5bb 7785 423c
00000130: d15a 603c 37d8 d9bc 1835 debc f198 c3bc
00000140: 14fb 41bb 9b1c c4bb 4a13 eb3b 13c2 8e3c
00000150: 898b d7bc 6e65 c83c abc8 d63c 3fd5 6cbc
00000160: 1432 c53c 5dec bdba fec0 bebb 9bfa ba3c
00000170: 52cb 483b b8c7 bf3c 578a 38bc d046 2fbc
00000180: 70e0 c0bc ebfe 21ba 7fbc c6bc f2e9 7dbc
00000190: ac0e d2bc 34af f33c b1b0 863c 6c0a 533b
000001a0: 2891 ebbc 36f9 c03c 6550 f93c 0e84 023c
000001b0: 6575 f0bc deb5 b1bc 0e59 b9bc 38d9 d53c
000001c0: d4c5 1ebc dfe5 83bc 4e62 b4bc 9802 8039
000001d0: 55fa 9a3c 4f85 ec3c 9d85 a2bc 67cb c63c
000001e0: 4374 43bc 80a1 98bc 17c6 bfbc 602f debc
000001f0: 9c4b 003d d8c0 bdbc 27fd fb3b ef50 bc3c
00000200: 8753 823b 7174 de3c a3b0 34bc 3996 813b
00000210: 01bd 91bb 7032 18bc 3df8 cc3c ac43 99bc
00000220: 7c7d 9a3c 207b dabc 7ff4 5b3c debf 95bc
00000230: f1b2 c73c 3344 85bc 42ce 6e3c 6c72 a73b
00000240: eb37 013d 01cf b13c 6727 0ebc 7199 53bc
00000250: cff8 893b 83e9 69bc 39ca 90ba f22d 063d
00000260: cfcc f13b 2d70 4a3a 2e97 01bc 2a33 aebc
00000270: 29f4 d43c 7501 713b a562 b5bc df12 bb3c
00000280: d750 643c 4062 d53c 7f31 0e3c 6cba 00bc
00000290: 9bf2 5dbc c3ed c8bc 28bf 11bc 0be3 c93c
000002a0: 4403 15bc 2ca6 733c e3fe aa3c 260d b23b
000002b0: 536c d3bc a4a4 43ba 19ab 93bc d796 433c
000002c0: b54c 2cbc a69c 3b3c 9ab5 a9bc 3255 823c
000002d0: 8435 e73c b474 1d3c e8b3 e23c 7522 b33c
000002e0: 463c b6bc 135f dc3c 9ea5 173d f1da ad3c
000002f0: aa7f b4bc a1ef 323c a38f d73c 692a e73b
00000300: e318 8cbc f1cc da3c d783 ee3c 0dc4 a6bb
00000310: 61b7 d2bc 62f7 70bc 9f72 80bc 8979 8ebc
00000320: 8661 9dbc f80e b2ba 09fc 69bc d9ea fabc
00000330: c07a cf3b a763 073b 386b c2bc 0277 b7bb
00000340: 3e7a 683c 5d03 c5bc 73a8 373a 4a91 9bbb
00000350: e326 c1bc 9c58 863c 9544 69bc d142 bd3c
00000360: 3bec acbc 67e4 2b3c 84c3 8d3b 2347 06bc
00000370: d1ee ea3a 9aab 64bc 0f36 0fbb d81f ea3c
00000380: 7644 adbc ba7d 69bc 72cd d1bc 1bc8 b3bc
00000390: 1663 bf3c 50ec a93c 1089 9dbc e33f d2bc
000003a0: 3aad d33c 1d28 8abc 6578 cc3c 3ea3 fbba
000003b0: 7bfa 8e3c c83b 29bc f7ae 353c 0f12 be3c
000003c0: ef0c a5bc 8a40 b23c c04d ef3c 2eeb 223c
000003d0: 8445 ee3b 74f3 abbc f840 2abc 4699 183c
000003e0: 65e9 66bb be44 c5bc c40f c5bc f98b 65bb
000003f0: 8958 36bb 8187 d03c 1d44 423c f4bc 9abc

bias f4 [64]
-0.024302466 -0.008936473 0.015452943 -0.007827614 0.014382491 0.038324445 -0.035736997 -0.013225144
0.0075437706 0.01640203 -0.009600477 0.0067742644 0.033506203 -0.031915024 0.0047272523 0.0034194372
0.0069180178 0.001958377 0.018361604 -0.037721366 -0.021986136 0.022141114 0.016593749 0.007777002
0.006550656 -0.0076569337 0.0066711754 0.00070592616 -0.009618184 -0.01210129 -0.0005386628 0.017448874
0.032782655 -0.01837934 -0.008359317 -0.035052404 -0.004629342 -0.033774357 0.028024096 0.026825925
0.015055402 -0.013462307 -0.023819983 0.019303203 0.0024411231 0.022321135 0.02555816 -0.025085717
0.004618412 0.026083486 -0.035114884 0.026759041 -0.00044092623 -0.029475937 -0.0117551815 -0.017516674
0.0018552488 -0.01712095 -0.010145864 -0.03242034 0.039399907 -0.024064204 -0.030344322 0.0061305584
00000000: f715 c7bc 496a 12bc 572e 7d3c 653f 00bc
00000010: 8aa4 6b3c 18fa 1c3d f560 12bd 46ae 58bc
00000020: bc31 f73b 8d5d 863c 524b 1dbc a6fa dd3b
00000030: cd3d 093d 54b9 02bd 11e7 9a3b a318 603b
00000040: 8ab0 e23b 1d58 003b 136b 963c b881 1abd
00000050: 451c b4bc 4861 b53c 9def 873c 39d6 fe3b
00000060: e3a6 d63b 04e7 fabb e099 da3b e70d 393a
00000070: 9695 1dbc 7d44 46bc 0c35 0dba f1f0 8e3c
00000080: 1b47 063d 4590 96bc 84f5 08bc 1c93 0fbd
00000090: bcb1 97bb fb56 0abd ca92 e53c 0bc2 db3c
000000a0: efaa 763c 0291 5cbc 2022 c3bc c021 9e3c
000000b0: 40fb 1f3b d0da b63c 595f d13c 9080 cdbc
000000c0: 0c56 973b 09ad d53c a0d4 0fbd c735 db3c
000000d0: 1e2c e7b9 8577 f1bc ce98 40bc 217f 8fbc
000000e0: d22b f33a 3c41 8cbc d73a 26bc 31cb 04bd
000000f0: cc61 213d 4b22 c5bc a894 f8bc dae2 c83b

weight f4 [10, 64]
0.013958874 -0.12674399 0.11290809 -0.06275915 -0.053770497 -0.06552949 -0.055244684 0.04665169
0.014318676 0.13445914 -0.002259833 -0.14759032 0.037870932 0.042883243 -0.04092875 0.07335779
-0.06958415 0.054476485 0.10744918 0.11018742 0.013057006 -0.05688714 0.13153735 0.048279062
-0.014841716 -0.060551733 -0.06277764 -0.015763527 0.028301915 0.039235964 -0.035818655 0.08256579
-0.0040523293 0.09379759 0.055940174 0.09652297 0.13916722 -0.041706827 0.08469854 -0.12695955
-0.036410857 -0.054369006 0.092552744 0.02422553 -0.14644907 -0.04850956 0.036946323 -0.09416037
-0.05365302 -0.07501635 0.030010812 0.08971775 -0.08728981 0.013519449 0.010150553 -0.06834943
-0.06939933 -0.13339251 -0.12976108 0.11126416 -0.119606994 0.10106942 0.08566069 0.13662834
-0.060580842 0.09719739 -0.09788363 -0.12522882 -0.072239816 0.08974825 -0.062595 -0.14482883
-0.07331996 -0.028127544 0.12211926 0.11681245 -0.032395773 0.013466431 -0.12959753 -0.06765131
-0.075656675 -0.06318141 0.06953127 -0.020327466 0.012970406 -0.088130064 -0.11200457 0.016466046
0.1265844 -0.03272369 0.02881963 -0.07837837 0.16694835 -0.06928942 0.097767964 0.08306899
0.009928699 0.03982837 0.15673444 -0.06303414 -0.08732273 0.05530198 0.12707864 -0.12643136
0.10963586 -0.020038752 -0.031555083 0.06353867 -0.11032936 -0.14134884 -0.087572165 0.07664859
0.01542692 0.088079296 -0.1382456 0.13207105 -0.12399337 -0.048588693 -0.11920989 0.045199174
0.07446834 0.05809351 0.0056266626 -0.052445132 0.089548916 0.113804094 0.12768218 -0.101428665
0.09383084 0.044271477 0.107350126 0.03351113 -0.08057393 -0.07910993 -0.023515757 -0.09328251
-0.048104413 0.1288971 -0.13679624 0.05723365 0.12557082 -0.10210569 -0.09745577 0.0673321
0.03496828 -0.015086847 -0.13290566 -0.05067633 0.09370669 -0.08827219 0.032209627 0.007786151
-0.13020186 -0.09014223 0.13149929 0.08147389 -0.13559057 -0.108023934 -0.13868473 -0.097413674
0.03921542 0.061092194 -0.04341207 0.052059144 0.08387325 -0.14508897 0.10463628 0.02398114
-0.052409057 -0.12245551 -0.007893572 0.04501237 0.028345376 0.1112661 -0.122672975 -0.13871464
-0.030346518 -0.07431552 0.014508157 0.11372555 0.06866958 0.005390989 -0.099019155 0.054971855
-0.008202018 0.040900744 0.12049853 0.13317154 0.025385981 0.058184832 -0.0060676523 0.12020472
0.06643019 0.079279624 -0.110135116 -0.10596505 -0.085652895 0.070712596 0.10335575 0.05195292
-0.12223748 0.034549177 0.07593522 0.03499523 -0.004491853 -0.12559716 0.054555528 0.059942566
0.13644427 0.020702457 0.030299691 0.10148092 -0.043688186 0.09248145 0.08051537 0.012619121
-0.11017321 0.01307144 0.1021631 -0.08297158 -0.034226246 0.111559026 -0.095276974 0.0993829
-0.12666431 0.12316699 -0.08570284 -0.05009462 -0.06191959 -0.017095963 0.07854465 0.008684275
-0.023614412 0.09536225 0.1133442 0.008019662 0.13701998 0.03020552 -0.033056412 -0.10418056
0.07192296 -0.011652457 0.080850184 0.13587067 -0.08770089 -0.012633825 0.000945483 -0.060903568
0.010867428 0.012589356 -0.03768473 -0.06491595 -0.0055194166 -0.08873166 -0.01059952 0.09948171
00000000: c3b3 643c 2dc9 01be 5b3c e73d df87 80bd
00000010: 743e 5cbd 5334 86bd 4048 62bd d815 3f3d
00000020: e198 6a3c a8af 093e b519 14bb eb21 17be
00000030: 8d1e 1b3d 57a6 2f3d e8a4 27bd 9c3c 963d
00000040: 2382 8ebd bc22 5f3d 510e dc3d f1a9 e13d
00000050: 0ded 553c 7d02 69bd bab1 063e 44c0 453d
00000060: ab2a 73bc 1805 78bd 9091 80bd 8322 81bc
00000070: 6bd9 e73c e4b5 203d 95b6 12bd 4118 a93d
00000080: 67c9 84bb f318 c03d 8621 653d d6ad c53d
00000090: da81 0e3e c7d4 2abd 6e76 ad3d af01 02be
000000a0: 8d23 15bd 09b2 5ebd 4b8c bd3d 9e74 c63c
000000b0: bff6 15be f6b1 46bd 0755 173d 27d7 c0bd
000000c0: 45c3 5bbd 2ca2 99bd 3cd9 f53c f1bd b73d
000000d0: 00c5 b2bd ae80 5d3c 814e 263c c9fa 8bbd
000000e0: 3c21 8ebd 0c98 08be 17e0 04be 77de e33d
000000f0: 83f4 f4bd 7cfd ce3d df6e af3d 4de8 0b3e
00000100: 9e23 78bd 6d0f c73d 3677 c8bd fc3b 00be
00000110: 78f2 93bd eecd b73d cf31 80bd 024e 14be
00000120: c628 96bd bc6b e6bc aa19 fa3d 5e3b ef3d
00000130: 6eb1 04bd 4ea2 5c3c 37b5 04be c58c 8abd
00000140: e3f1 9abd 4165 81bd 6966 8e3d c985 a6bc
00000150: d381 543c 897d b4bd a762 e5bd cde3 863c
00000160: 579f 013e 4709 06bd 2517 ec3c d784 a0bd
00000170: 82f4 2a3e 9de7 8dbd 923a c83d 1320 aa3d
00000180: fbab 223c 1323 233d fe7e 203e 0b18 81bd
00000190: 42d6 b2bd 5484 623d e720 023e 3977 01be
000001a0: c488 e03d 4f28 a4bc e73f 01bd 9020 823d
000001b0: 5cf4 e1bd c0bd 10be 0959 b3bd f0f9 9c3d
000001c0: 31c1 7c3c eb62 b43d 4190 0dbe a23d 073e
000001d0: 3cf0 fdbd f004 47bd 5124 f4bd c522 393d
000001e0: db82 983d 76f3 6d3d de5f b83b b5d0 56bd
000001f0: 6c65 b73d 1f12 e93d 1ebf 023e d5b9 cfbd
00000200: 622a c03d 0256 353d 62da db3d f742 093d
00000210: f203 a5bd 6304 a2bd 1ea4 c0bc e70a bfbd
00000220: 2209 45bd 9afd 033e 5014 0cbe d56d 6a3d
00000230: a395 003e ca1c d1bd e496 c7bd 69e5 893d
00000240: e63a 0f3d d32e 77bc 6c18 08be fc91 4fbd
00000250: 4be9 bf3d 0dc8 b4bd 3eee 033d f822 ff3b
00000260: a353 05be 7d9c b8bd c0a7 063e c8db a63d
00000270: 41d8 0abe a73b ddbd 5f03 0ebe d280 c7bd
00000280: 59a0 203d cf3b 7a3d dbd0 31bd f83b 553d
00000290: bdc5 ab3d 3492 14be 8c4b d63d 1974 c43c
000002a0: e1aa 56bd f4c9 fabd 0a54 01bc e45e 383d
000002b0: 9034 e83c 7bdf e33d f83b fbbd 360b 0ebe
000002c0: 4399 f8bc bc32 98bd 9fb3 6d3c f1e8 e83d
000002d0: a3a2 8c3d e5a6 b03b 8eca cabd 2b2a 613d
000002e0: c261 06bc 8a87 273d efc7 f63d 1f5e 083e
000002f0: 43f6 cf3c 3853 6e3d 28d3 c6bb e42d f63d
00000300: 8d0c 883d 5b5d a23d 858e e1bd 3404 d9bd
00000310: c96a afbd c4d1 903d 2eac d33d 96cc 543d
00000320: a557 fabd 7083 0d3d ed83 9b3d 2957 0f3d
00000330: 6530 93bb 8b9c 00be 9e75 5f3d 5686 753d
00000340: 0cb8 0b3e 3398 a93c 0f37 f83c 3bd5 cf3d
00000350: 62f2 32bd ea66 bd3d 3ee5 a43d 6ec0 4e3c
00000360: 7ea2 e1bd 9829 563c e33a d13d 01ed a9bd
00000370: d230 0cbd 0f79 e43d 9320 c3bd 4389 cb3d
00000380: 4ab4 01be fa3e fc3d f884 afbd 0430 4dbd
00000390: 659f 7dbd d50c 8cbc 04dc a03d 7d48 0e3c
000003a0: 0373 c1bc 494d c33d 0121 e83d e764 033c
000003b0: f74e 0c3e 9171 f73c 2966 07bd 9e5c d5bd
000003c0: 584c 933d f2e9 3ebc c894 a53d ae21 0b3e
000003d0: 869c b3bd 1afe 4ebc 4ada 773a 0576 79bd
000003e0: 4c0d 323c 9643 4e3c 4e5b 1abd a7f2 84bd
000003f0: 39dc b4bb f2b8 b5bd 9ca9 2dbc 11bd cb3d

bias f4 [10]
-0.09862613 -0.08596147 -0.031180767 0.07008831 -0.0020246992 0.027530171 -0.063502915 -0.0908012
0.0013394525 -0.09860506
00000000: 7ffc c9bd 910c b0bd cf6e ffbc 768a 8f3d
00000010: d1b0 04bb f486 e13c d10d 82bd fbf5 b9bd
00000020: 9190 af3a 73f1 c9bd
