PytorchLearning/learn1/vggmodel/vgg_5.pth (torch, 587335 bytes, 10 tensors)

weight f4 [32, 3, 5, 5]
0	0x3dea4bad	0.11440215
1	0xbdd3b38d	-0.10336981
2	0xbd6bc871	-0.057564203
3	0xbd0cf520	-0.034413457
4	0xbdb0a2c0	-0.08624792
5	0xbbc7a301	-0.0060924296
6	0x3cca44e0	0.024691045
7	0xbce73a5c	-0.02822607
8	0xbd946cfc	-0.072473496
9	0x3db8cf9e	0.09023975
10	0x3de52c62	0.11190106
11	0xbbc79eaf	-0.0060919146
12	0xbc922f94	-0.017844953
13	0x3d72a32e	0.05923765
14	0xbd4f9d59	-0.050687168
15	0xbdd6bf93	-0.10485759
16	0x3d87537c	0.0660772
17	0xbdd52d25	-0.10409001
18	0x3dce69ad	0.1007875
19	0x3dba6c2a	0.09102662
20	0xbd98d68a	-0.07462795
21	0x3d443080	0.047897816
22	0x3d385e47	0.045011785
23	0x3dd5b443	0.10434773
24	0xbd88ac80	-0.06673527
25	0xbd32ea88	-0.043680698
26	0xbd0bf675	-0.034170587
27	0x3dcbd6e7	0.09953099
28	0x3d1b4a49	0.03791264
29	0xbdda8e99	-0.106717296
30	0x3d8225b2	0.06354846
31	0xbc20c005	-0.009811406
32	0xbdcdf8f1	-0.100572474
33	0xbd9ffc12	-0.078117505
34	0x3da9add1	0.08285106
35	0xbcc03fdd	-0.023467952
36	0xbdb598b0	-0.088670135
37	0x3d2a4b4a	0.041575707
38	0xbdb02b13	-0.08601966
39	0x3d9a0c8c	0.075219244
40	0x3d094ff3	0.03352351
41	0x3dafa380	0.08576107
42	0x3d8e1ec5	0.069394626
43	0x3da00918	0.078142345
44	0xbd242beb	-0.040080946
45	0xbd0c455b	-0.03424583
46	0x3d5493c4	0.051898733
47	0x3ddbcd6d	0.10732541
48	0xbd916d8c	-0.071009725
49	0xbd32d2de	-0.04365813
50	0x39cd993b	0.00039214813
51	0x3ce4c87c	0.02792763
52	0xbda3a1c6	-0.0798984
53	0xbd1fd00c	-0.03901677
54	0xbd1ff682	-0.039053448
55	0x3ca18f91	0.019721778
56	0x3dc9f2dd	0.098607756
57	0xbc05d445	-0.008168285
58	0x3dcec358	0.100958526
59	0x3d799703	0.06093503
60	0xbd0068ee	-0.03135007
61	0x3d904fb8	0.07046455
62	0xbd924552	-0.07142128
63	0xbde3e7e0	-0.11128211
64	0x3cd9db34	0.026593782
65	0x3de40811	0.11134351
66	0x3d9d3de9	0.07677824
67	0xbd1b6a24	-0.03794302
68	0x3afe1a15	0.0019386435
69	0x3de48a6a	0.11159213
70	0xbba22f53	-0.004949489
71	0x3def217f	0.11676311
72	0x3d099ea4	0.033598557
73	0x3ce66821	0.028125824
74	0x3d1c8efb	0.038222294
75	0xbd4da524	-0.05020632
76	0x3de474ab	0.11155065
77	0x3d02d992	0.031945772
78	0xbd09893a	-0.033578135
79	0x3d2cccf1	0.042187635
80	0x3d87144c	0.06595668
81	0xbd69cc53	-0.057079624
82	0xbd81ec79	-0.06343932
83	0x3da69578	0.08133978
84	0xbdb2536d	-0.087073185
85	0x3c56dd79	0.013114327
86	0xbc067d47	-0.008208579
87	0xbda5f82f	-0.08103978
88	0xbda1ad86	-0.07894425
89	0x3a688be8	0.00088709453
90	0x3c913241	0.017724158
91	0x3de16d0a	0.11007126
92	0x3d2fa628	0.04288307
93	0xbde3050b	-0.11084946
94	0xbbecd547	-0.007227573
95	0xbcd62190	-0.02613905
96	0x3d8c93bc	0.068641156
97	0xbdcd4e1d	-0.100246646
98	0x3d82c09d	0.06384394
99	0xbd8e7b25	-0.06957082
100	0xbcbda1b0	-0.023148388
101	0xbd770316	-0.060305677
102	0x3d9d6759	0.076857276
103	0xbde4ad63	-0.111658834
104	0x3cb38686	0.021914732
105	0xbd6095bd	-0.0548303
106	0x3c195794	0.009359259
107	0x3dbb4a45	0.09145025
108	0xbdefa287	-0.117009215
109	0xbd8a710d	-0.06759844
110	0x3d6a4e55	0.05720361
111	0xbd099093	-0.033585142
112	0xbda136c2	-0.07871772
113	0xbc1b8cd6	-0.009494027
114	0xbda9bb0b	-0.08287629
115	0x3dad2687	0.08454614
116	0x3de16b29	0.11006767
117	0xbc981f38	-0.018569574
118	0x3c0ddf63	0.008659217
119	0x3cf7d82e	0.03025445
120	0xbdd89690	-0.105755925
121	0x3da55339	0.08072514
122	0x3d87d5b1	0.06632555
123	0xbda2f501	-0.07956887
124	0x3d164575	0.036687333
125	0xbdf3a5a8	-0.11896831
126	0xbdcf8763	-0.10133245
127	0xbdbeae82	-0.093106285
128	0x3d1f0bae	0.038829498
129	0x3d078f5c	0.033095703
130	0xbdba925a	-0.091099456
131	0xbc2f1c3a	-0.010687882
132	0x3d95cbf0	0.073142886
133	0xbdb6fff3	-0.08935537
134	0xbddf4400	-0.10901642
135	0x3dd24324	0.10266712
136	0x3d0c13c3	0.034198534
137	0xbd21778b	-0.039420646
138	0x3dadfad9	0.08495111
139	0xbdd4b4c8	-0.10386044
140	0xbb8126cd	-0.003941393
141	0x3db0d159	0.0863368
142	0xbbe91e11	-0.00711418
143	0xbd91c7d9	-0.07118196
144	0xbca7f820	-0.020504057
145	0xbd834675	-0.06409923
146	0xbb329e77	-0.0027255097
147	0x3db6aa15	0.08919159
148	0xbcd25f6c	-0.025680266
149	0x3da3d81c	0.08000204
150	0xbd48fcc7	-0.049069192
151	0xbdc4c597	-0.09608
152	0x3dc7ceca	0.09756239
153	0xbd2a6979	-0.041604493
154	0xbabeff33	-0.0014571905
155	0xbdbe615e	-0.09295915
156	0xbdda288f	-0.10652267
157	0xbd950143	-0.07275631
158	0xbdd2a535	-0.10285417
159	0xbd9177e4	-0.071029454
160	0xbd6b0bc3	-0.057384264
161	0x3dd62f44	0.10458234
162	0x39c5f83d	0.0003775972
163	0x3bd7a1b9	0.006580558
164	0x3d26cad9	0.040720794
165	0x3d0f9c1f	0.035060998
166	0x3b60921f	0.0034266782
167	0x3c913dc6	0.017729651
168	0xbda0ca72	-0.078511134
169	0xbdbd1b51	-0.09233726
170	0x3db22634	0.08698693
171	0x3c954efb	0.018226137
172	0xbd831f44	-0.06402448
173	0x3da3ad51	0.07992042
174	0x3dbae8cd	0.091264345
175	0xbd1b70ac	-0.03794925
176	0x3cb17d32	0.021666143
177	0x3dde2510	0.10846913
178	0xbd50ec19	-0.05100641
179	0x3ca50b77	0.020147068
180	0x3d86eb93	0.06587901
181	0x3ddc3734	0.10752717
182	0x3db50968	0.08839685
183	0xbd246fa4	-0.04014553
184	0xbd023227	-0.03178611
185	0xbddc97d2	-0.10771145
186	0xbd60b731	-0.054862205
187	0xbdc4de69	-0.09612734
188	0x3d786579	0.060643647
189	0x3c9f6676	0.019458037
190	0x3d9d49c2	0.07680084
191	0xbdaef5eb	-0.08542999
192	0x3d3da902	0.046303757
193	0xbd73ff1a	-0.059569456
194	0x3dd1056c	0.10206112
195	0xbd4afd65	-0.049558062
196	0x3d9b21db	0.07574817
197	0xbd455115	-0.04817303
198	0x3d9e83ff	0.0774002
199	0x3dc7f368	0.09763223
200	0x3dc01110	0.093782544
201	0xbd35077c	-0.04419659
202	0xbc28c70c	-0.010301363
203	0xb91e3ff1	-0.00015091874
204	0x3dee32ce	0.11630784
205	0x3dd2e93d	0.10298393
206	0xbd389374	-0.045062497
207	0x3dd2e78b	0.102980696
208	0xbdadbd10	-0.084833264
209	0x3cb14882	0.02164102
210	0x3a6eb957	0.0009106597
211	0x3d72ea81	0.05930567
212	0xbd87f9b3	-0.06639423
213	0x3d035c2c	0.032070324
214	0x3d318729	0.04334179
215	0x3db07016	0.08615129
216	0x3dd45463	0.10367658
217	0x3d7c0fa9	0.061538372
218	0x3d87faba	0.06639619
219	0x3c31f80e	0.0108623635
220	0x3ce43fed	0.027862513
221	0x3dd23b0c	0.102651685
222	0x3c222099	0.009895467
223	0x3da8b7be	0.08238171
224	0xbc896020	-0.016769469
225	0xbdb1cde7	-0.08681851
226	0x3db19061	0.08670116
227	0x3cda567e	0.02665257
228	0xbdd4c266	-0.10388641
229	0x3d3f0cd5	0.046643097
230	0xbd9a794e	-0.07542668
231	0xbce3af43	-0.027793532
232	0xbd2f7ecf	-0.042845543
233	0x3cdc9654	0.02692715
234	0xbdabc491	-0.083871014
235	0xbda7c8e6	-0.08192615
236	0x3cb56d3a	0.02214681
237	0xbd85a337	-0.065252714
238	0xbd0661aa	-0.032807983
239	0xbde42248	-0.11139351
240	0xbda5202f	-0.08062779
241	0x3d3872ba	0.045031287
242	0x3dc3e56c	0.09565243
243	0x3daa4f26	0.083158776
244	0x3de610c7	0.11233669
245	0xbcf4a451	-0.029863508
246	0x3d4b119a	0.049577333
247	0x3db59532	0.088663474
248	0x3d1e0fcf	0.038589295
249	0x3d9548f0	0.07289302
250	0x3d4ab506	0.049489044
251	0x3cf04257	0.029328508
252	0xbdc3d747	-0.09562545
253	0x3dd01590	0.10160363
254	0x3dcd56a1	0.10026289
255	0x3ddaccf4	0.10683623

bias f4 [32]
0	0x3d9ece65	0.077542104
1	0x3d4a2f82	0.049361713
2	0x3c04b883	0.008100632
3	0xbcaee57c	-0.021349661
4	0x3d9b46ee	0.07581888
5	0x3d9f4067	0.07775956
6	0xbd003167	-0.031297114
7	0x3decd6fe	0.11564444
8	0xbd946e00	-0.07247543
9	0x3dec6fa3	0.115447305
10	0x3da4657b	0.08027168
11	0xbd8e0ccc	-0.069360346
12	0xbb04f2e4	-0.0020286376
13	0x3cc54527	0.024080826
14	0x3df345fb	0.11878582
15	0x3cab39b7	0.020901544
16	0x3d81e265	0.063420095
17	0xbda90ada	-0.08254023
18	0x3cd08b50	0.025457054
19	0x3db096cb	0.086225115
20	0x3d936bfc	0.07198331
21	0x3c965613	0.01835159
22	0x3d958334	0.07300416
23	0x3de745a8	0.11292583
24	0xbdc07f8f	-0.0939933
25	0xbd35274f	-0.04422694
26	0x3d671318	0.056414694
27	0xbd8006af	-0.06251275
28	0xbd591a4e	-0.0530036
29	0x3c8c0769	0.017093377
30	0xbde5c456	-0.11219089
31	0x3dbb37ae	0.091414794

weight f4 [32, 32, 5, 5]
0	0xbc9ca74f	-0.019122748
1	0xbd05efd2	-0.032699414
2	0x3bb8903b	0.005632428
3	0x3d0b4bc2	0.034007795
4	0xbce3e6ce	-0.027820017
5	0xbd036784	-0.032081142
6	0xbb053512	-0.0020325822
7	0x3ca8e96f	0.020619122
8	0xbc905ef3	-0.0176234
9	0x3cafd97f	0.021466015
10	0xbc7a83a1	-0.015290172
11	0x3cc7ee77	0.024405701
12	0xbd1042d5	-0.035219986
13	0x3c4b142d	0.012394947
14	0xbcfaaf88	-0.030601278
15	0xbc6c6ec6	-0.014430707
16	0xbcc57b36	-0.024106603
17	0xb9aa742a	-0.00032511476
18	0x3c8be873	0.017078614
19	0xbbed7907	-0.0072470936
20	0x3cc98952	0.024601612
21	0x3c0cb82f	0.008588835
22	0xbd006a04	-0.031351104
23	0xbc5b4d4d	-0.013385129
24	0xbb02e152	-0.0019970727
25	0xbcf38674	-0.029727198
26	0xbcc67683	-0.024226433
27	0x3b5f5155	0.0034075577
28	0xbcde0e6e	-0.02710649
29	0x3d06c96a	0.032906927
30	0x3b234c6a	0.0024917373
31	0xbc99f089	-0.018791454
32	0xbcfb8864	-0.030704685
33	0x3cce82ef	0.025208918
34	0x3c9cc60f	0.01913741
35	0x3bdc31e3	0.006719814
36	0xbc34f0c5	-0.011043732
37	0xbd07fd17	-0.03320035
38	0x3c8c9da5	0.017165015
39	0x3c30e259	0.010796153
40	0xbcfb0664	-0.030642696
41	0xbb01b539	-0.0019791855
42	0xbb6b3417	-0.0035889202
43	0xbc24cb93	-0.0100583015
44	0x3cbb4f72	0.02286503
45	0xbcf4f413	-0.02990154
46	0x3c8daec2	0.017295245
47	0xba0cd226	-0.0005371891
48	0xbc38c36b	-0.01127706
49	0xbc8b0845	-0.016971717
50	0xbb899a9f	-0.0041993405
51	0xbd08db1f	-0.033412095
52	0x3cc2ca8e	0.023778226
53	0xbc1ea5ab	-0.009683053
54	0x3d099bbe	0.033595793
55	0xbcf904ff	-0.03039789
56	0x3c2dd9e9	0.010611036
57	0x3d04fe10	0.032468855
58	0xbcb87941	-0.022518756
59	0x3cf62288	0.030045763
60	0xbb979e1c	-0.0046270024
61	0x3ceabfb4	0.028655864
62	0x3cee003c	0.029052846
63	0x3ce8460e	0.028353717
64	0x3cfa6319	0.030564832
65	0x3ad40987	0.0016177156
66	0x3c8cca68	0.017186359
67	0xbd041e9c	-0.032255754
68	0xbb971215	-0.00461031
69	0xbd0142c7	-0.031557824
70	0x3ce8f6c1	0.028437974
71	0x3a6e128e	0.00090817444
72	0xbb5a68cf	-0.003332663
73	0xbc14b6c3	-0.009076777
74	0x3cf41a6c	0.029797755
75	0xbd061fd5	-0.0327452
76	0xbc8f5b7b	-0.017499676
77	0xb8e47f55	-0.00010895605
78	0xbd079742	-0.033103235
79	0x3cf520e0	0.029922903
80	0x3c5ccca9	0.013476529
81	0xbc22b96d	-0.009931904
82	0x3b468ebd	0.003029748
83	0xbcea8587	-0.028628124
84	0x3cc84ff4	0.024452187
85	0x3b008a01	0.0019613507
86	0xbcfa520a	-0.030556697
87	0x3ce0f09e	0.027458485
88	0xbcb0c59b	-0.0215786
89	0xbc8c57ac	-0.017131649
90	0x3be33f8b	0.006935065
91	0xbc30b8e2	-0.010786267
92	0xbb1d3e14	-0.00239933
93	0x3c4e3332	0.012585448
94	0xbc238c8b	-0.0099822385
95	0xbd017616	-0.031606756
96	0xbcf2ca8d	-0.0296376
97	0xbcc35a87	-0.023846878
98	0xbc04d6ed	-0.008107883
99	0xbcebd699	-0.028788852
100	0xbc8960c6	-0.016769778
101	0xbcf5b232	-0.029992197
102	0x3acffff8	0.0015869131
103	0xbc55dc39	-0.013052993
104	0xbaa9bbc6	-0.0012949638
105	0x3c35230a	0.011055717
106	0xbbe4d11f	-0.006982937
107	0x3c92238f	0.017839221
108	0x3c376a8f	0.011194839
109	0xbd00546a	-0.031330504
110	0xbc901f52	-0.01759306
111	0xbcdd2e5f	-0.02699965
112	0xbd187dbb	-0.03722928
113	0x3bfd6b0a	0.0077337073
114	0x3c2e93c9	0.010655352
115	0x3c714812	0.014726656
116	0x3c148336	0.009064486
117	0xbd0dd855	-0.03463014
118	0x3caf8bc4	0.02142895
119	0x3c742c3c	0.014903124
120	0x3c30c707	0.010789639
121	0x3c88af22	0.016685072
122	0x3b947b3a	0.0045312913
123	0x3cb14a8b	0.02164199
124	0x3b15179a	0.0022749663
125	0xbc81692a	-0.015797216
126	0xbcf4c3ca	-0.029878516
127	0x3b3846dd	0.002811841
128	0x3c63af71	0.013896809
129	0x3be917d4	0.0071134362
130	0xbcecfde6	-0.028929662
131	0x3ccaca96	0.024754804
132	0xbb980a18	-0.004639875
133	0x3ca70630	0.020388693
134	0x3c874447	0.01651205
135	0xbd04a561	-0.03238428
136	0x3c1310bf	0.008976161
137	0xbd094aae	-0.033518486
138	0xbce311de	-0.02771848
139	0x3a841410	0.001007678
140	0xbd018d3e	-0.03162884
141	0xbcef3a30	-0.02920255
142	0xbc3813d4	-0.011235196
143	0x3cd0990e	0.025463607
144	0x3c831c04	0.01600457
145	0x3c7dc52a	0.015488902
146	0x3c987acb	0.01861324
147	0xbc634ce1	-0.01387331
148	0x3b7592a8	0.0037471447
149	0x3d061bb7	0.032741275
150	0xbab90bdb	-0.0014117913
151	0x3c2e9104	0.010654692
152	0xbc13d2e4	-0.009022448
153	0xbbc27c20	-0.005935207
154	0x3c42b46e	0.011883838
155	0x3cf3f1d7	0.029778404
156	0x3b6a4f29	0.003575275
157	0xbbc7509b	-0.006082607
158	0xbcd14d9d	-0.025549704
159	0xbb030d67	-0.0019997002
160	0x3ce43235	0.027855972
161	0x3c977669	0.01848908
162	0x3c2b3dbd	0.010451731
163	0x3c761fb3	0.015022206
164	0xbcdbb6a4	-0.026820488
165	0x3cdeac2f	0.027181713
166	0x3ceb22c1	0.028703095
167	0xbcd36397	-0.025804324
168	0x3c067fe6	0.008209204
169	0xbcb23cad	-0.021757448
170	0x3bcb80d0	0.006210424
171	0x3ca1bc29	0.019743042
172	0x3b7c18ca	0.0038466924
173	0xbca05cb7	-0.01957546
174	0x3c485431	0.012227104
175	0x3cdba694	0.02681283
176	0x3c96afc5	0.01839436
177	0xbc279270	-0.0102277845
178	0xbc93c9c0	-0.018040538
179	0x3cfcdc01	0.030866625
180	0x3ccfa858	0.025348827
181	0xbc12c49b	-0.008958007
182	0x3b03ddb7	0.0020121166
183	0x3b7bb2b7	0.0038406083
184	0x3ce11af0	0.027478665
185	0x3cc5ce05	0.02414609
186	0xbcff7e50	-0.03118816
187	0xbc0c104a	-0.0085488055
188	0x3cf3863e	0.029727098
189	0x384607c8	4.7214126e-05
190	0xbca49775	-0.020091752
191	0xbd05e1e9	-0.032686148
192	0xbafafe8b	-0.0019149346
193	0x3d0b0d2b	0.033948105
194	0xbcb4ae20	-0.022055686
195	0x3be4a962	0.0069782
196	0xbcd7f5e0	-0.02636236
197	0x3c671e51	0.014106349
198	0x3c92022c	0.017823301
199	0xbc9cf10e	-0.019157913
200	0x3ca54232	0.020173166
201	0xbc942921	-0.018086018
202	0x3cf95783	0.030437237
203	0x3c50c361	0.012741894
204	0x3c02c426	0.007981336
205	0x3cf4deaf	0.02989134
206	0x3b75d669	0.0037511832
207	0xb90dfb00	-0.00013540313
208	0xbc1b418e	-0.009476079
209	0x3c163a61	0.009169192
210	0x3bf8d415	0.0075936415
211	0x3cf9330c	0.030419849
212	0x378c045e	1.6691334e-05
213	0xbc3e5626	-0.011617219
214	0x3c867a11	0.016415628
215	0xbb3eb639	-0.0029100312
216	0x3d061641	0.032736067
217	0x3cb4c0c9	0.022064583
218	0x3b978743	0.0046242788
219	0x39b186f3	0.00033860616
220	0xbcc44922	-0.023960654
221	0x3d086fa5	0.033309598
222	0x3cac7b86	0.021054994
223	0x3d1734f6	0.03691574
224	0x3c60ded2	0.0137249995
225	0xbb2be74f	-0.00262304
226	0xbcd4d88c	-0.025982164
227	0x3bcc31ec	0.006231537
228	0xbcd6f696	-0.026240628
229	0x3cc50c4e	0.024053719
230	0xbd1d8848	-0.038460046
231	0xbcc596d4	-0.024119772
232	0xbc5a5083	-0.01332486
233	0x3cb7dfb6	0.02244554
234	0x3ce26703	0.02763701
235	0xbbeade8d	-0.0071676434
236	0x3c49bb60	0.01231274
237	0xbd0418df	-0.03225028
238	0xbca4e7c3	-0.020130044
239	0xbd08186a	-0.033226408
240	0x3ca5a54f	0.020220427
241	0xbca3093b	-0.019901862
242	0x3b267715	0.0025400568
243	0x3a91a0e4	0.0011110571
244	0xbc596a6b	-0.013270001
245	0x3cd31401	0.025766375
246	0xbd0e491e	-0.0347377
247	0xbcf5dc92	-0.030012403
248	0xbc23cc18	-0.00999739
249	0xbc8b56b5	-0.017009119
250	0xbd131c77	-0.035915818
251	0xbce9ce23	-0.028540676
252	0xbcc47259	-0.023980306
253	0x3c8f3e0a	0.017485637
254	0x3c8f590a	0.017498512
255	0x3c715d55	0.014731725

bias f4 [32]
0	0xbc71c71e	-0.014756946
1	0xbcea1f6f	-0.028579442
2	0xbc05f1b3	-0.008175301
3	0xbcd1bf2d	-0.025603855
4	0x3c484d5f	0.012225478
5	0xbc3913ed	-0.011296255
6	0xbc5ef109	-0.013607272
7	0xbc2cbcf7	-0.0105431
8	0x3c4b7f23	0.0124204485
9	0x3c2c5d04	0.0105202235
10	0xbbc61238	-0.0060446523
11	0xbc858da0	-0.016302884
12	0x3ce12c56	0.027486961
13	0xbc8fad39	-0.017538654
14	0xbc844802	-0.016147617
15	0xbbb09a97	-0.0053895223
16	0x3d0cfd1c	0.03442107
17	0xbce413eb	-0.027841529
18	0xbc8e28b7	-0.017353399
19	0xbbab8089	-0.0052338284
20	0x3cef54be	0.029215213
21	0xbd00b2bc	-0.031420454
22	0x3c4f54d2	0.0126545
23	0xbc447b60	-0.0119923055
24	0xba7d519c	-0.0009663345
25	0xbcd6cb33	-0.02621994
26	0xbc7e4991	-0.015520469
27	0x3cb47ee5	0.022033164
28	0x3cf57e97	0.02996759
29	0xbcc54cd3	-0.024084484
30	0x3cc07a16	0.023495715
31	0x3cdf34e1	0.027246894

weight f4 [64, 32, 5, 5]
0	0xbc09854b	-0.008393596
1	0x3c76f8fb	0.01507401
2	0xbc8686d9	-0.016421722
3	0x3bff3589	0.0077883643
4	0x3c6e0b21	0.0145290205
5	0xbc855a6e	-0.016278472
6	0x39de7992	0.00042433717
7	0x3b8f976b	0.004382064
8	0xb927fc5f	-0.00016020377
9	0x3a211aed	0.0006145675
10	0xbc180601	-0.009278775
11	0x3c9c8810	0.019107848
12	0xbc7f1de2	-0.015571089
13	0x3d065051	0.03279144
14	0x3d129dae	0.035794906
15	0xbcfb7164	-0.030693717
16	0x3c6c65ec	0.014428597
17	0xbc4faf0b	-0.012676011
18	0xbcffb62a	-0.031214792
19	0xba170bd2	-0.0005761954
20	0xbb2dcb5c	-0.0026518917
21	0x3c4ba8f5	0.012430419
22	0xbc236460	-0.009972662
23	0x3c9505ca	0.018191237
24	0xbce6985b	-0.02814882
25	0x3a0763e2	0.0005164725
26	0xbc637625	-0.013883148
27	0x3d09ed26	0.033673428
28	0x3c0ff563	0.008786532
29	0x3c152a7c	0.009104367
30	0x3bd11a14	0.0063812826
31	0xbd0143ca	-0.03155879
32	0x3ba52e2e	0.0050409054
33	0x3c457ce4	0.012053702
34	0x3befc249	0.007316862
35	0xbccc8fd8	-0.024970934
36	0xbd0f8f61	-0.035048846
37	0xbca1a82a	-0.019733507
38	0x3c151cc6	0.009101098
39	0xba2543c5	-0.0006304349
40	0x3d04c9d1	0.03241903
41	0x3bde93b6	0.006792511
42	0xbcb81790	-0.022472173
43	0xbb9aa355	-0.0047191777
44	0x3caa921e	0.020821627
45	0x3cb859b2	0.022503708
46	0xbcb71110	-0.022347003
47	0xbd0d087b	-0.034431916
48	0x3d045861	0.032310847
49	0x3c982ad3	0.018575108
50	0x3c8dc714	0.017306842
51	0x3ce43c54	0.027860798
52	0xbca6505e	-0.020301994
53	0x3b82e1f2	0.00399422
54	0x3cf4503d	0.029823417
55	0xbbbb5cef	-0.0057178657
56	0xbcafba2f	-0.021451084
57	0xbc4f9572	-0.012669908
58	0xbca36199	-0.019944
59	0x3cfd4520	0.03091675
60	0x3ca30fa5	0.01990492
61	0x3c85800e	0.016296413
62	0xbcf897de	-0.030345853
63	0xbceaa72c	-0.028644167
64	0x3cbc5cc8	0.02299346
65	0xbcdb6864	-0.026783176
66	0x3bf0aa48	0.007344518
67	0x3ceb2b44	0.028707154
68	0xbc981e24	-0.01856906
69	0x3cb1764f	0.02166286
70	0xbbac09fa	-0.0052502127
71	0x3bdd0577	0.006745036
72	0x3c899551	0.016794832
73	0x3aaaa2f6	0.0013018537
74	0xbd0c9a7b	-0.03432701
75	0x3ca95b8b	0.020673534
76	0x3c9e48e2	0.019321863
77	0xbcc6cec4	-0.024268515
78	0xbccdcf20	-0.025123179
79	0x3ca90410	0.02063182
80	0x3b547439	0.0032417907
81	0xbce444a3	-0.02786476
82	0x3c141faf	0.009040757
83	0x3d01a89c	0.03165494
84	0xbc01ae3f	-0.007915079
85	0x3aae0af0	0.0013278406
86	0x3c35eb27	0.011103428
87	0x3d0cc711	0.034369532
88	0xb9c75f69	-0.00038027324
89	0x3cc910e3	0.024544185
90	0x3c921e27	0.017836643
91	0x3c9ab190	0.018883497
92	0xbd0c22a3	-0.03421272
93	0xbcd603e7	-0.026124908
94	0x3c58882a	0.013216058
95	0xbcff61df	-0.031174598
96	0x3c8fa3a9	0.017534094
97	0x3ce2638d	0.02763536
98	0x3ba85641	0.0051372354
99	0xbc522f37	-0.01282864
100	0x3b5b20d9	0.0033436327
101	0x3b05d217	0.0020419413
102	0x3ce13874	0.02749274
103	0x3c6ff828	0.014646567
104	0xb93c6e8d	-0.0001797026
105	0x3c6339db	0.013868774
106	0x3c94dd8f	0.018172054
107	0x3c9fafd3	0.01949302
108	0x3cdaa5e0	0.026690423
109	0x3ce15139	0.02750455
110	0xbc8c6c4d	-0.017141486
111	0xbca304c4	-0.019899733
112	0x3cc8e842	0.024524812
113	0xbc4a9e11	-0.0123667875
114	0x3c217d48	0.0098565295
115	0xbd09ee48	-0.03367451
116	0x3c06d80b	0.00823022
117	0xbce2025e	-0.02758902
118	0xbd085174	-0.033280805
119	0xbb65a87b	-0.003504305
120	0x3c01ce19	0.007922673
121	0xbcae1ada	-0.021253038
122	0x3ceeaa49	0.029133933
123	0x3baecec6	0.005334708
124	0x3c89f60e	0.01684096
125	0xbcce0697	-0.025149627
126	0xbce3ba27	-0.027798725
127	0xbd0f6429	-0.03500763
128	0xbcf0fb27	-0.029416634
129	0xbca97b46	-0.020688664
130	0xbc46ba42	-0.012129368
131	0xbcfd3280	-0.03090787
132	0x3cde3972	0.027127001
133	0x3ca2e0e7	0.019882632
134	0xbbdb0f8a	-0.006685202
135	0xbcb6f3ed	-0.02233311
136	0x3c16fef5	0.00921606
137	0xbcd3f640	-0.025874257
138	0x3cd2e691	0.025744708
139	0xbb9cd4d8	-0.004786115
140	0xbc8f27cf	-0.017475037
141	0x3c50fc75	0.012755503
142	0xbcda852e	-0.026674833
143	0x3d0579ec	0.032586977
144	0xbd15fd00	-0.036618233
145	0xbcfb822a	-0.030701715
146	0x3d020564	0.031743422
147	0x3cbf80a0	0.023376763
148	0xbca90da8	-0.020636395
149	0xbc56f306	-0.013119465
150	0xbc78ec79	-0.015193098
151	0x3d0a5360	0.03377092
152	0x3ca75f47	0.020431174
153	0x3cb38bf4	0.02191732
154	0xbbeb163e	-0.0071742823
155	0xbb5a39e4	-0.0033298666
156	0x3ca533ea	0.020166356
157	0x3cb24db9	0.021765577
158	0x3cb1204e	0.02162185
159	0x3cdd3856	0.027004402
160	0x3c5c8f2d	0.01346187
161	0x3d1ba4d3	0.037998985
162	0x3cfcf8b9	0.030880319
163	0x3caef602	0.02135754
164	0x3d094122	0.03350938
165	0xbb8e6f30	-0.0043467507
166	0xbb935cda	-0.0044971528
167	0x3c91b1fa	0.017785061
168	0x3cf2b624	0.029627867
169	0x3ce77d37	0.02825795
170	0x3c47dc3c	0.012198504
171	0x3c5ae984	0.0133613385
172	0xbcaf141e	-0.021371897
173	0x3d0ec767	0.034858134
174	0xbcd895b1	-0.026438566
175	0xba7d2c3d	-0.0009657776
176	0xba11a20d	-0.00055554585
177	0x3bffe5ef	0.0078093926
178	0xbcdb25f6	-0.0267515
179	0x3bd83ab9	0.006598797
180	0x3d15e06b	0.036590975
181	0xbc8f007e	-0.01745629
182	0xbcb23604	-0.021754272
183	0x3b1a5a03	0.0023552186
184	0xbcd66daf	-0.026175348
185	0x3c4663ad	0.0121087255
186	0x3ccffa40	0.025387883
187	0xbbe39a59	-0.00694589
188	0xbc40284d	-0.011728358
189	0xbc8f8133	-0.017517662
190	0xbc0e6edf	-0.008693426
191	0xbcb9d438	-0.022684202
192	0xbbd9d524	-0.006647723
193	0xbb015a09	-0.0019737503
194	0x3c907c4a	0.01763739
195	0xbd0b3baa	-0.033992447
196	0xbced53db	-0.02897065
197	0x3d0adcee	0.0339021
198	0x3aad5082	0.0013222846
199	0xb989ab7c	-0.00026258442
200	0xbbbbe4ed	-0.005734077
201	0x3d09306d	0.033493448
202	0xbbb35167	-0.0054723504
203	0x3d0e7e11	0.034788195
204	0xbc0ce9b8	-0.008600645
205	0x3c6b4824	0.014360461
206	0xbce6e4c9	-0.028185265
207	0xbce8c66d	-0.02841493
208	0x3d020447	0.03174236
209	0xbc98913d	-0.018623943
210	0x3cf405fa	0.029788006
211	0xbc6a1924	-0.014288221
212	0x3d12ce8e	0.035841517
213	0x3cca861f	0.024722157
214	0x3b512d1a	0.0031917752
215	0xbb187bc2	-0.0023267125
216	0x3ca2cba6	0.019872498
217	0xbc84bf8f	-0.016204624
218	0xbcac0058	-0.020996258
219	0x3bfc1ac5	0.007693621
220	0xbca49fb9	-0.020095693
221	0x3cdc4008	0.026886001
222	0xbc25bbbb	-0.010115559
223	0xbcd5c389	-0.026094215
224	0xbbab292c	-0.005223414
225	0xbc2b6f6d	-0.010463578
226	0xbc32b4ff	-0.010907411
227	0x3ce5ff59	0.02807586
228	0x3cc06eca	0.023490328
229	0xbc869d45	-0.016432414
230	0x3d0c2353	0.034213375
231	0xbcbc6b42	-0.023000363
232	0xbc0ed68a	-0.008718142
233	0xbcf8ccd3	-0.030371105
234	0xbc09026a	-0.008362392
235	0x3c1f442d	0.009720844
236	0xbcebd1fc	-0.028786652
237	0x3cd0db66	0.025495242
238	0xb76f08d3	-1.4247565e-05
239	0x3d0a40cb	0.033753198
240	0xbcf08729	-0.029361324
241	0xbb1923ed	-0.002336736
242	0xbc298a87	-0.010347969
243	0x38449a90	4.687399e-05
244	0x3cde401b	0.027130177
245	0x3c36385a	0.011121834
246	0xbcff7693	-0.03118447
247	0xbc886460	-0.016649425
248	0x3c69037a	0.01422202
249	0xbb2ef2e5	-0.002669507
250	0x3c28f067	0.010311223
251	0xbcb606a9	-0.022219973
252	0x3cf107cc	0.029422663
253	0xba4d9a4b	-0.0007843121
254	0xbc30c6d5	-0.010789593
255	0x395571cf	0.0002035566

bias f4 [64]
0	0xbd1815be	-0.03713011
1	0xbd1168eb	-0.03550045
2	0x3c2c6b6f	0.010523661
3	0xbc2e81cc	-0.010651063
4	0xbcb93286	-0.0226071
5	0x3cc6a90a	0.024250526
6	0xbb240a21	-0.0025030451
7	0x3d08120e	0.033220343
8	0x3bc3300b	0.005956655
9	0xbc249c9c	-0.010047104
10	0xbc459e8e	-0.012061728
11	0x3c9e2da2	0.019308869
12	0xbbe94c16	-0.007119666
13	0xbcec9f65	-0.028884599
14	0xbd15509c	-0.03645383
15	0x3d193658	0.037405342
16	0xbc94e5ab	-0.01817592
17	0x3c9980c0	0.01873815
18	0xbd06ee3f	-0.032942053
19	0xbcaadbb9	-0.020856725
20	0x3cd7cd9d	0.026343161
21	0xbcd8dc44	-0.026472218
22	0x3cef7efc	0.029235356
23	0x3c63e0d0	0.01390858
24	0x3cf05ae5	0.029340217
25	0xbbdf7187	-0.0068189534
26	0x3cd71656	0.026255768
27	0x3c3d5120	0.011554986
28	0xbca21558	-0.019785568
29	0x3cb6d9a1	0.02232057
30	0x3cf69883	0.03010202
31	0x3c6ac714	0.0143296905
32	0xbcd8b1c8	-0.02645196
33	0x3bb9ed75	0.005674059
34	0xbcb63547	-0.022242201
35	0xba71a66f	-0.0009218221
36	0xbc1b14ef	-0.00946544
37	0xbcc249ff	-0.023716925
38	0xbd155bb5	-0.03646441
39	0x3d10665a	0.03525386
40	0x3d0de736	0.034644328
41	0xbc8cee45	-0.01720346
42	0x3d28e591	0.041234557
43	0xbbcb1d0b	-0.0061985306
44	0xbca2647a	-0.019823302
45	0x3c40d44f	0.011769368
46	0x3d1360bc	0.035980925
47	0xbc822445	-0.015886435
48	0x3cdae397	0.026719851
49	0x3cbdf4e0	0.023188055
50	0xbc917ed8	-0.01776068
51	0xbc4fadde	-0.0126757305
52	0x3bc47be2	0.0059962133
53	0xbb580eab	-0.0032967727
54	0x3c0eeed9	0.008723938
55	0x3ce2109d	0.027595812
56	0x3d037b14	0.0320998
57	0xbcbd2583	-0.023089176
58	0x3c5cb3a0	0.01347056
59	0xbc7b3695	-0.015332838
60	0xbc25a838	-0.010110907
61	0xbc0624af	-0.008187457
62	0xbc118819	-0.008882546
63	0x3c6c093b	0.014406498

weight f4 [64, 1024]
0	0xbc9356ab	-0.017985662
1	0x3b6be4ad	0.0035994456
2	0xbc81edce	-0.015860464
3	0xbbad7f02	-0.0052946815
4	0xbc8b6be9	-0.017019229
5	0xbb305649	-0.0026906899
6	0xbca65e03	-0.0203085
7	0xbccec7bf	-0.02524173
8	0xbc253ce7	-0.010085321
9	0x3bec5950	0.0072127953
10	0xbcf1795c	-0.029476814
11	0x3ce7daf2	0.028302643
12	0xbcdb9c42	-0.026807908
13	0x3beac1d9	0.0071642217
14	0x3cd9deec	0.026595555
15	0xbb5094c0	-0.0031826943
16	0x3bb3ac0b	0.0054831556
17	0xbca17d22	-0.019712988
18	0x3c1c57c2	0.0095424075
19	0xbcaa52aa	-0.02079137
20	0xbcdceac8	-0.026967421
21	0x3c4b6e2b	0.012416403
22	0x3c7d06b6	0.015443495
23	0x3c79101f	0.0152015975
24	0x3c152adf	0.00910446
25	0xbcf7dece	-0.030257609
26	0xbc23cfb4	-0.009998251
27	0x3c5b41bb	0.013382371
28	0xbca868b2	-0.020557735
29	0x3c8e6a94	0.017384805
30	0x3c6a33ba	0.014294559
31	0x3c3b87b4	0.011445928
32	0xbc41c2dc	-0.011826243
33	0x3cd95188	0.026528135
34	0xbcc07f1c	-0.02349811
35	0x3c53222f	0.012886568
36	0x3c36d79c	0.011159804
37	0xbcba1206	-0.022713672
38	0x3cba0b17	0.022710366
39	0x3bfe9c07	0.0077700648
40	0xbc43f5fd	-0.011960504
41	0xbc78777b	-0.015165205
42	0xbc5c769e	-0.013456015
43	0xbc68dc86	-0.014212733
44	0xbc998c9f	-0.018743811
45	0xbce3cf65	-0.027808854
46	0x3ca224e4	0.019792981
47	0x3cc0b489	0.023523586
48	0x3c69eede	0.014278142
49	0xbca4130e	-0.020028617
50	0x3cadadd5	0.021201054
51	0xbcf604ec	-0.030031644
52	0x3ca8e12f	0.020615188
53	0x3c0a1fb9	0.008430415
54	0xbbf42171	-0.0074502756
55	0x3cf669f0	0.030079812
56	0x3cb86cee	0.02251288
57	0x3cae761a	0.02129655
58	0xbccead5b	-0.025229147
59	0xbb8f7157	-0.004377525
60	0x3c651375	0.01398169
61	0x3c8cf06a	0.017204482
62	0x3c27b286	0.010235434
63	0x3d0951db	0.03352533
64	0x3cd4bbbe	0.025968429
65	0x3ba160e7	0.0049248817
66	0xbbc066d4	-0.005871633
67	0x3cbdc776	0.0231664
68	0xbc51dbdb	-0.012808765
69	0xbcd5009e	-0.02600127
70	0xbc62084a	-0.013795922
71	0xbc8588df	-0.016300617
72	0x3a87260b	0.001031102
73	0xbc15d6c4	-0.009145442
74	0xbc3646ce	-0.01112528
75	0x3c174e88	0.009235032
76	0x3c69f48c	0.014279496
77	0xbccfcf82	-0.025367502
78	0xbcd931a7	-0.026512934
79	0xbcbe87d5	-0.02325813
80	0xbb355f23	-0.0027675114
81	0xbbd10fb3	-0.0063800453
82	0x3bfcf48c	0.007719582
83	0x3c8f7442	0.01751149
84	0xbcd965d4	-0.026537813
85	0x3cbc9521	0.023020329
86	0x3cc88856	0.024479073
87	0xbc616ba9	-0.013758578
88	0x3cd6b744	0.026210435
89	0xb7bede4b	-2.2753278e-05
90	0xbb5c424e	-0.0033608857
91	0x3cd75069	0.02628346
92	0x3b92440b	0.0044636778
93	0x3cdac975	0.02670739
94	0xbc089866	-0.008337116
95	0xbc0b1a01	-0.0084900865
96	0xbcc4c40c	-0.024019264
97	0xbaf1f50d	-0.0018459872
98	0xbcd33664	-0.025782771
99	0xbc851410	-0.016244918
100	0xbcc8f59f	-0.024531184
101	0x3ce5f342	0.028070096
102	0x3c6b742d	0.01437096
103	0x3ba59395	0.0050529935
104	0xbce46176	-0.027878504
105	0x3cb336cc	0.021876715
106	0x3cec6ec8	0.028861418
107	0x3c09cca8	0.00841061
108	0xbcf0daed	-0.029401267
109	0xbcb2e59c	-0.021838002
110	0xbcb2325e	-0.021752533
111	0x3cd89c4e	0.02644172
112	0xbc0d9fe5	-0.008644079
113	0xbc849e69	-0.016188817
114	0xbcab9c27	-0.020948483
115	0xb91a0a93	-0.00014690524
116	0x3c917c1f	0.01775938
117	0x3cccc076	0.024994116
118	0xbcb142fb	-0.021638384
119	0x3cbd8a07	0.023137106
120	0xbc2fea5e	-0.01073703
121	0xbc86ef4a	-0.016471524
122	0xbca1d5c0	-0.019755244
123	0xbcc9f5d7	-0.024653358
124	0x3d01f90c	0.03173165
125	0xbcac346a	-0.021021087
126	0x3c2003ee	0.009766562
127	0x3cd86e24	0.026419707
128	0x3b4cbcd3	0.0031240478
129	0x3cda1f34	0.026626207
130	0xbc49617a	-0.012291307
131	0x3b8322fe	0.004001974
132	0xbb3906d2	-0.0028232825
133	0xbc328dab	-0.010898034
134	0x3ccd8593	0.025088107
135	0xbc805718	-0.01566653
136	0x3cabce42	0.020972375
137	0xbcdda525	-0.027056286
138	0x3c611676	0.013738265
139	0xbc6fa815	-0.014627476
140	0x3ce31b16	0.027722877
141	0xbc504f52	-0.012714224
142	0x3ca887f4	0.02057264
143	0x3bf32549	0.007420216
144	0x3cffbc47	0.031217707
145	0x3ca79946	0.020458829
146	0xbc17d305	-0.00926662
147	0xbc5d0772	-0.013490545
148	0x3b26a989	0.002543064
149	0xbc957ddc	-0.018248491
150	0xbb996802	-0.004681588
151	0x3cfeede4	0.031119294
152	0x3c0e383f	0.008680402
153	0x3bd05282	0.006357492
154	0xbb991686	-0.0046718745
155	0xbc9b19e7	-0.01893325
156	0x3ce4c918	0.02792792
157	0x3babe538	0.005245831
158	0xbcaca541	-0.021074893
159	0x3cbcd000	0.0230484
160	0x3c775b68	0.015097477
161	0x3cd88825	0.026432106
162	0x3c12f3f2	0.008969294
163	0xbbec8b7f	-0.0072187777
164	0xbc282239	-0.010262066
165	0xbccd316d	-0.025047982
166	0xbc1707b8	-0.009218149
167	0x3ce54784	0.027988203
168	0xbbc55760	-0.006022379
169	0x3c553439	0.013012939
170	0x3c895785	0.016765365
171	0x3bf77cad	0.0075527043
172	0xbccd5109	-0.025063055
173	0xb9e0fa32	-0.0004291102
174	0xbc8343aa	-0.016023476
175	0x3c41b447	0.011822767
176	0xbc3d7ed5	-0.011565884
177	0x3c29220f	0.010323062
178	0xbcba0ea5	-0.022712061
179	0x3c657d4f	0.014006927
180	0x3cdc639d	0.026902968
181	0x3c0301a2	0.007995995
182	0x3cd3ec4d	0.025869513
183	0x3ca37de0	0.019957483
184	0xbcb29151	-0.021797808
185	0x3cca5b56	0.024701755
186	0x3d0cbeae	0.034361534
187	0x3ca360f8	0.0199437
188	0xbcb0f7d5	-0.02160255
189	0x3c287e0c	0.010283958
190	0x3ccd930b	0.02509453
191	0x3bec71ab	0.0072156987
192	0xbc86a87b	-0.01643776
193	0x3cde4ace	0.027135279
194	0x3ceea202	0.029129986
195	0xbb829961	-0.0039855693
196	0xbcd23e70	-0.025664538
197	0xbc7a55e4	-0.015279267
198	0xbc847c5e	-0.016172584
199	0xbc88973b	-0.016673675
200	0xbc985a58	-0.018597767
201	0xba906c13	-0.0011018537
202	0xbc6f855f	-0.0146192005
203	0xbd008522	-0.031376965
204	0x3bc895d3	0.006121376
205	0x3b0c486e	0.0021405476
206	0xbcbef22d	-0.023308838
207	0xbba46f64	-0.0050181616
208	0x3c486617	0.012231371
209	0xbcd1dc1d	-0.025617654
210	0xba21249e	-0.0006147119
211	0xbbc31605	-0.0059535527
212	0xbcc105ca	-0.02356233
213	0x3c86948c	0.016428255
214	0xbc5b84bd	-0.0133983465
215	0x3cb8cd04	0.022558697
216	0xbca07191	-0.019585403
217	0x3c50db6b	0.012747626
218	0x3ba501e9	0.005035628
219	0xbbf7bfa3	-0.0075606867
220	0x3b4e0e15	0.00314415
221	0xbc59b840	-0.0132885575
222	0xbafcc681	-0.0019285233
223	0x3ce8fad6	0.02843992
224	0xbcb952a5	-0.022622416
225	0xbc7d8aee	-0.015475018
226	0xbcdfc718	-0.027316615
227	0xbcc7df77	-0.024398549
228	0x3cc2b6cd	0.023768807
229	0x3cb21c08	0.021741882
230	0xbc96651f	-0.018358765
231	0xbcd52ad6	-0.026021402
232	0x3ce62665	0.02809448
233	0xbc65762a	-0.014005223
234	0x3ce236a0	0.027613938
235	0xbad3653b	-0.0016128191
236	0x3caaa78f	0.020831851
237	0xbbfa7891	-0.007643767
238	0x3c4ed5e6	0.01262424
239	0x3cbd1c9f	0.023084937
240	0xbcb66ae3	-0.022267764
241	0x3c98c8d7	0.018650455
242	0x3ce29ebb	0.02766358
243	0x3c03dcea	0.0080482755
244	0x3bf6218b	0.007511323
245	0xbca7d246	-0.020486008
246	0xbc383b07	-0.011244542
247	0x3be7d44c	0.0070748683
248	0xbb521cb4	-0.0032060565
249	0xbcd0465f	-0.02542418
250	0xbcc00b6d	-0.023442948
251	0xbb97a169	-0.004627396
252	0xbb9cad7b	-0.0047814227
253	0x3cbe7063	0.02324695
254	0x3c4c22bb	0.012459452
255	0xbc99dca6	-0.018781971

bias f4 [64]
0	0xbcc2b78f	-0.023769168
1	0xbc1d0b6b	-0.009585242
2	0x3c645c96	0.01393809
3	0xbc048304	-0.008087877
4	0x3c4c2835	0.012460758
5	0x3d126213	0.035738062
6	0xbd07f94b	-0.03319673
7	0xbc3707fc	-0.011171337
8	0x3bc1dd6d	0.0059162886
9	0x3c86ab6c	0.016439162
10	0xbc1d7a87	-0.009611732
11	0x3be143b1	0.0068745245
12	0x3d0a02c9	0.033694062
13	0xbd05d557	-0.03267416
14	0x3bf746cc	0.0075462814
15	0x3a1a2685	0.00058803736
16	0x3bccc676	0.0062492443
17	0x3b937524	0.0045000482
18	0x3ca99c3d	0.020704383
19	0xbd0c1736	-0.034201823
20	0xbcad3293	-0.02114228
21	0x3cbf4a7d	0.023350948
22	0x3c937d0b	0.018003961
23	0x3be6cb07	0.0070432457
24	0x3bda7bd3	0.006667593
25	0xbbbcee7e	-0.005765735
26	0x3b8410e7	0.004030335
27	0xba8661eb	-0.001025257
28	0xbc31f511	-0.010861651
29	0xbbc555b2	-0.0060221786
30	0x3a6f62e8	0.00091318646
31	0x3c959fc0	0.018264651
32	0x3ce75ae4	0.028241582
33	0xbca283e2	-0.019838277
34	0xbc169799	-0.009191417
35	0xbd007deb	-0.031370085
36	0xbb949571	-0.0045344164
37	0xbcf36aee	-0.029714074
38	0x3cee6cf4	0.029104687
39	0x3ce296f2	0.027659867
40	0x3c5e6a36	0.013575127
41	0xbc274ea6	-0.010211622
42	0xbcb52145	-0.02211059
43	0x3ca0be27	0.019621922
44	0x3b647f3f	0.0034865884
45	0x3c9ed0e1	0.01938671
46	0x3cc9afe7	0.02462001
47	0xbc9e1ffd	-0.019302363
48	0x3b8dfb0a	0.0043329047
49	0x3cb79c77	0.022413475
50	0xbd08c578	-0.033391446
51	0x3cc92e1e	0.024558123
52	0xbae5793f	-0.0017507448
53	0xbced2b89	-0.028951423
54	0xbbfbc583	-0.0076834573
55	0xbca456f9	-0.020061003
56	0x3b1e7f35	0.0024184708
57	0xbc6b8342	-0.014374556
58	0xbc7f4e2e	-0.015582604
59	0xbcf7b603	-0.030238157
60	0x3d1fa84f	0.03897887
61	0xbcdd2d71	-0.026999207
62	0xbcde2c61	-0.02712077
63	0x3bf8469e	0.0075767776

weight f4 [10, 64]
0	0x3c1624f5	0.009164085
1	0xbde49717	-0.111616306
2	0x3dccb557	0.09995525
3	0xbd83d4e2	-0.064370885
4	0xbd253e24	-0.040342465
5	0xbd81c8ca	-0.063371256
6	0xbd687dde	-0.05676066
7	0x3d0e9d61	0.034818057
8	0x3bb13f9e	0.005409195
9	0x3df859ea	0.12126525
10	0x3ba0054a	0.004883443
11	0xbe0e5d4c	-0.13902777
12	0x3d0fcdca	0.035108365
13	0x3d38f80c	0.04515843
14	0xbd4e38eb	-0.05034725
15	0x3d825e8b	0.06365689
16	0xbd7d6f76	-0.061873876
17	0x3d4e96a6	0.05043664
18	0x3dcf4bb3	0.1012186
19	0x3dd8a9c3	0.105792545
20	0x3c172109	0.009224185
21	0xbd8a4830	-0.0675205
22	0x3df88522	0.12134768
23	0x3d2e0d09	0.0424929
24	0xbc8d58dc	-0.017254286
25	0xbd837ade	-0.064199194
26	0xbd89b49c	-0.06723902
27	0xbce1c752	-0.027560864
28	0x3d20fdb2	0.039304443
29	0x3d20ec36	0.03928777
30	0xbd003b8a	-0.03130678
31	0x3da301d0	0.0795933
32	0x3ab59656	0.0013854008
33	0x3dacf65b	0.08445426
34	0x3d71b123	0.05900682
35	0x3d9abaa7	0.07555132
36	0x3df5c627	0.12000685
37	0xbd06b0d8	-0.032883495
38	0x3db27639	0.087139554
39	0xbde7d1de	-0.11319326
40	0xbcee39f1	-0.029080363
41	0xbd24049b	-0.040043455
42	0x3db3fe1f	0.08788704
43	0x3d0027d8	0.031287998
44	0xbe0d5eb7	-0.13805662
45	0xbd55ebe4	-0.052226916
46	0x3d0850b3	0.033280086
47	0xbda9f3da	-0.08298464
48	0xbd4d5fb7	-0.05014011
49	0xbd791c86	-0.060818218
50	0x3cabe366	0.020982455
51	0x3dbcc2a2	0.09216811
52	0xbdac9ce2	-0.084283605
53	0x3be16899	0.006878924
54	0xb9383add	-0.00017569536
55	0xbd908d6b	-0.07058223
56	0xbd704f97	-0.058669653
57	0xbdf8ed8f	-0.12154686
58	0xbdeb6402	-0.11493684
59	0x3dcbc656	0.09949939
60	0xbddc3e46	-0.10754065
61	0x3dbc0f06	0.09182553
62	0x3d8f2d0a	0.069910124
63	0x3de80dd8	0.113307655
64	0xbd656279	-0.056002114
65	0x3d9f7aeb	0.077871166
66	0xbdab2e58	-0.08358449
67	0xbddd961b	-0.10819646
68	0xbd9cc8a6	-0.07655458
69	0x3daca31b	0.084295474
70	0xbd81758b	-0.06321248
71	0xbdf646e5	-0.12025241
72	0xbd60e87b	-0.05490921
73	0xbb65a762	-0.0035042395
74	0x3db4ba0c	0.08824548
75	0x3dd90454	0.10596529
76	0xbc97b93a	-0.01852094
77	0x3c20329c	0.009777691
78	0xbde0cc2e	-0.10976444
79	0xbd576f17	-0.052596178
80	0xbd830124	-0.06396702
81	0xbd54059c	-0.051763162
82	0x3d78b536	0.06071969
83	0xbcbb1c3a	-0.022840608
84	0x3cdf6ae8	0.027272657
85	0xbd9adff4	-0.07562247
86	0xbdbbd922	-0.09172274
87	0x3cb79892	0.022411618
88	0x3dc51796	0.09623639
89	0xbd311230	-0.043230236
90	0x3d07407e	0.03302049
91	0xbd83e7fb	-0.06440731
92	0x3e09152a	0.1338698
93	0xbd8456ae	-0.06461845
94	0x3da889e5	0.08229426
95	0x3da00b22	0.078146234
96	0x3ba21ac7	0.0049470398
97	0x3d13ef4b	0.03611688
98	0x3e095045	0.13409527
99	0xbd2ce9a8	-0.04221502
100	0xbd6fec93	-0.058575224
101	0x3d0c85bb	0.034307223
102	0x3de9b9fc	0.11412427
103	0xbdf1228e	-0.11774169
104	0x3db5844b	0.088631235
105	0xbc203a4c	-0.009779524
106	0xbd0ce588	-0.034398586
107	0x3d61f874	0.055168584
108	0xbdc262e6	-0.0949152
109	0xbe008701	-0.125515
110	0xbda071e0	-0.0783422
111	0x3d6a6fb8	0.05723545
112	0x3c1251b1	0.00893061
113	0x3d734346	0.05939033
114	0xbdf0f544	-0.11765531
115	0x3df6644b	0.12030848
116	0xbdcf35b7	-0.10117667
117	0xbd314639	-0.04327986
118	0xbdd6ecaf	-0.104943626
119	0x3d23c795	0.039985258
120	0x3d5b2b8c	0.053508326
121	0x3d30c44c	0.043155953
122	0xbae78e35	-0.0017666282
123	0xbd0f3af1	-0.03496832
124	0x3d9bde96	0.07610814
125	0x3dd44b0e	0.10365878
126	0x3de890b1	0.11355723
127	0xbd8decbc	-0.06929919
128	0x3dba41f1	0.090946086
129	0x3d52c43d	0.05145668
130	0x3dc52eb8	0.096280515
131	0x3d099335	0.033587653
132	0xbda8ce2c	-0.08242449
133	0xbd9a93a7	-0.07547694
134	0xbc8b8c15	-0.01703457
135	0xbdb877dd	-0.09007237
136	0xbd5b35a1	-0.05351794
137	0x3dea85a2	0.1145127
138	0xbdf96aad	-0.1217855
139	0x3d7d2132	0.061799236
140	0x3dd5bd25	0.10436467
141	0xbdba11f1	-0.09085453
142	0xbddc726f	-0.10764014
143	0x3d5dd3ab	0.05415694
144	0x3cc26b72	0.023732875
145	0xbc7e9220	-0.015537769
146	0xbdf9de1b	-0.122005664
147	0xbd1c3e7f	-0.03814554
148	0x3db57855	0.08860842
149	0xbdaf48ed	-0.08558831
150	0x3ca635e7	0.020289375
151	0x3bbad2c9	0.005701397
152	0xbde75443	-0.112953685
153	0xbda0867a	-0.07838149
154	0x3df009c6	0.11720614
155	0x3d88f824	0.06687954
156	0xbde1f88e	-0.11033736
157	0xbdbc5aa5	-0.091969766
158	0xbdfb34e9	-0.12265951
159	0xbdbf41ed	-0.09338746
160	0x3d013c79	0.03155181
161	0x3d59db25	0.053187508
162	0xbd057162	-0.032578833
163	0x3d2cde07	0.04220393
164	0x3d884f08	0.06655699
165	0xbdfdfc1e	-0.12401603
166	0x3ddb936c	0.10721478
167	0x3ca4d4f8	0.020121083
168	0xbd32504c	-0.04353361
169	0xbdeb23ff	-0.11481475
170	0xbb49f128	-0.0030813906
171	0x3d325fdd	0.043548454
172	0x3cb56758	0.022144005
173	0x3dbef9a1	0.09324957
174	0xbdfa6a72	-0.12227334
175	0xbdd556a4	-0.10416916
176	0xbd009aae	-0.031397514
177	0xbd723f11	-0.059142176
178	0x3c103895	0.008802553
179	0x3de597c9	0.11210591
180	0x3d386271	0.045015756
181	0x3ba151ad	0.0049230666
182	0xbdbe4da8	-0.092921555
183	0x3d522b14	0.051310614
184	0x3bb491b9	0.0055105356
185	0x3d445f11	0.047942225
186	0x3de4d350	0.11173117
187	0x3dffe78e	0.124953374
188	0x3cff53ae	0.031167831
189	0x3d554321	0.052065972
190	0x3b5aa86c	0.0033364547
191	0x3ddda363	0.10822179
192	0x3d8af274	0.067845255
193	0x3d8ea88f	0.06965744
194	0xbdce8004	-0.10083011
195	0xbdd90a9a	-0.10597725
196	0xbdb37de8	-0.08764249
197	0x3d9a6b5e	0.0754001
198	0x3dc4fc21	0.09618402
199	0x3d60ee52	0.05491478
200	0xbde3a54f	-0.111155145
201	0x3d20d071	0.039261285
202	0x3d83b5c2	0.06431152
203	0x3cf4c07d	0.029876942
204	0x3aba444e	0.001421103
205	0xbe002693	-0.12514715
206	0x3d7d5950	0.061852753
207	0x3d8f0300	0.06982994
208	0x3e094e63	0.13408808
209	0x3c86e5a1	0.016466917
210	0x3d111c34	0.035427287
211	0x3dc57dff	0.096431725
212	0xbd257d1b	-0.040402513
213	0x3dc3b0dd	0.09555218
214	0x3da9d960	0.08293414
215	0x3cd20315	0.025636235
216	0xbde10807	-0.10987859
217	0x3b07cb36	0.0020720488
218	0x3ddc0e65	0.10744933
219	0xbd968fd8	-0.07351655
220	0xbd3aa236	-0.045564853
221	0x3dc9cd0c	0.09853563
222	0xbdc79339	-0.09744877
223	0x3dcca38f	0.09992134
224	0xbdf4a2f2	-0.11945142
225	0x3df9a287	0.12189203
226	0xbdb55529	-0.08854134
227	0xbd148123	-0.036255967
228	0xbd34f6df	-0.044180747
229	0xbcece8d2	-0.028919611
230	0x3d9373a8	0.07199794
231	0xba069cbc	-0.00051350496
232	0xbcf1fb09	-0.029538648
233	0x3dac408f	0.08410751
234	0x3ddb22af	0.10699975
235	0x3aded16e	0.0016999671
236	0x3e07822b	0.13233249
237	0x3d13fe45	0.036131162
238	0xbce3bdb1	-0.027800413
239	0xbdeeb30c	-0.11655244
240	0x3d807507	0.06272321
241	0xbc90e988	-0.017689481
242	0x3da28891	0.07936204
243	0x3e04c0ac	0.12964123
244	0xbdb5f2f9	-0.08884234
245	0xbc095f6f	-0.00838457
246	0x3c51e5db	0.0128111495
247	0xbd8226d0	-0.06355059
248	0x3ac3dba2	0.0014942775
249	0x3b27f396	0.0025627366
250	0xbd1ca7f5	-0.038246114
251	0xbd690637	-0.056890693
252	0xbc369ef6	-0.011146298
253	0xbdabf673	-0.08396616
254	0x3b0440a7	0.0020180137
255	0x3ddb0bb2	0.1069559

bias f4 [10]
0	0xbdb5cd9f	-0.0887711
1	0xbdc3c177	-0.09558385
2	0xbd3773b7	-0.04478809
3	0x3d8fcc98	0.07021445
4	0xbc801885	-0.015636692
5	0x3d54372e	0.051810436
6	0xbd8a78f0	-0.06761348
7	0xbda7524d	-0.081699945
8	0x3c0733dd	0.008252111
9	0xbddd095f	-0.10792803
