PytorchLearning/learn1/vggmodel/vgg_16.pth (torch, 587335 bytes, 10 tensors)

weight f4 [32, 3, 5, 5]
0.10519413 -0.11176451 -0.06541526 -0.041575756 -0.09261079 -0.008455044 0.024043037 -0.0259219
-0.07014042 0.09079846 0.118683174 0.0025183891 -0.0057620723 0.070751764 -0.042224012 -0.089118205
0.08205722 -0.085579805 0.118935615 0.10786029 -0.057874884 0.06336591 0.0607986 0.12154845
-0.049019095 -0.055337243 -0.044169895 0.09009308 0.028951816 -0.11494093 0.058335137 -0.012595986
-0.100484155 -0.07819168 0.08111596 -0.021036197 -0.08377423 0.049752306 -0.07872854 0.079752736
0.043947805 0.09708583 0.08286314 0.09065082 -0.028807389 -0.024650333 0.0607844 0.11610158
-0.061411556 -0.03338917 -0.0079897875 0.021260606 -0.086117856 -0.0449568 -0.044341154 0.01791313
0.09919928 -0.004772049 0.104023814 0.062210396 -0.026275884 0.07779697 -0.060922094 -0.101709954
0.03336568 0.12393361 0.08993118 -0.022779696 0.016173718 0.12463914 0.006412423 0.12700006
0.04358075 0.03898941 0.04984241 -0.04570098 0.11777067 0.039489858 -0.02840887 0.049543153
0.066982396 -0.05551707 -0.06249612 0.07824951 -0.08905887 0.016824488 -0.0042983303 -0.08110117
-0.08385805 -0.0026977402 0.02679723 0.12189549 0.050431784 -0.108859785 -0.0037918615 -0.01793446
0.07967118 -0.09193451 0.06837792 -0.06307963 -0.038448114 -0.07478078 0.06379659 -0.12690088
0.009500608 -0.07031952 -0.0060623293 0.07546934 -0.137233 -0.08639631 0.047309685 -0.043659266
-0.09275772 -0.02848727 -0.100501835 0.082553886 0.11053639 -0.022291252 -0.00045095675 0.022723796
-0.10670551 0.08240011 0.06550721 -0.083840676 0.0345194 -0.1333667 -0.11491819 -0.10484125
0.025690593 0.02276936 -0.104669236 -0.024163207 0.059668425 -0.10622642 -0.124427564 0.095102645
0.02644604 -0.05055806 0.06964978 -0.11775565 -0.0031145578 0.08943264 -0.0077299397 -0.07645584
-0.024165805 -0.061330378 0.0024374172 0.09219776 -0.025601491 0.082142144 -0.06049877 -0.10808271
0.08083136 -0.049112238 -0.012141824 -0.1078349 -0.12492267 -0.093362205 -0.1147363 -0.08610715
-0.06619859 0.09292327 -0.006212596 0.0012786945 0.03237771 0.03788438 0.007705421 0.028984318
-0.07208653 -0.0899397 0.09673069 0.029479384 -0.04388976 0.091794044 0.10073544 -0.047115307
0.012265188 0.09379141 -0.05663317 0.011277583 0.052147813 0.09053698 0.06884243 -0.051402986
-0.046658907 -0.11881733 -0.068816096 -0.10471578 0.053792376 0.009469588 0.07295959 -0.087196015
0.05221444 -0.058001976 0.0995481 -0.05109776 0.077068344 -0.037447684 0.0795012 0.0969853
0.09721441 -0.040638708 -0.012158569 0.0063227257 0.11925923 0.102997445 -0.04797629 0.097356156
-0.083008654 0.019589353 0.004769368 0.060515977 -0.060133398 0.03937175 0.047345616 0.096201465
0.11594635 0.081173055 0.0812757 0.02154356 0.037574243 0.11515459 0.03150331 0.09500802
-0.007020287 -0.09349017 0.08106118 0.022442272 -0.1078904 0.042134628 -0.077836275 -0.029479416
-0.043588467 0.027097646 -0.08369359 -0.08067158 0.022715189 -0.06386835 -0.030563569 -0.109220795
-0.07736193 0.04673954 0.097992845 0.08613889 0.11476874 -0.027562115 0.05093421 0.09025044
0.040758375 0.07447475 0.05053998 0.03210125 -0.09135201 0.105846934 0.103796996 0.111670315
00000000: 0570 d73d cbe4 e4bd 70f8 85bd 574b 2abd
00000010: baaa bdbd 0687 0abc e7f5 c43c 2a5a d4bc
00000020: c8a5 8fbd 8bf4 b93d 2a10 f33d 8f0b 253b
00000030: c4cf bcbb 4de6 903d 16f3 2cbd 9b83 b6bd
00000040: 9e0d a83d 7744 afbd 8494 f33d dbe5 dc3d
00000050: 370e 6dbd fcc5 813d f407 793d 65ee f83d
00000060: 3fc8 48bd 4ea9 62bd 7eeb 34bd b982 b83d
00000070: 5c2c ed3c 2666 ebbd d3f0 6e3d 655f 4ebc
00000080: a3ca cdbd f622 a0bd 2020 a63d 1a54 acbc
00000090: d391 abbd 13c9 4b3d 6e3c a1bd 6755 a33d
000000a0: 9d02 343d f0d4 c63d 26b4 a93d 23a7 b93d
000000b0: 79fd ebbc 7fef c9bc 10f9 783d aac6 ed3d
000000c0: af8a 7bbd 15c3 08bd 99e7 02bc b92a ae3c
000000d0: 8f5e b0bd 9f24 38bd 129f 35bd 8ebe 923c
000000e0: fe28 cb3d d95e 9cbb 700a d53d 54d0 7e3d
000000f0: 8640 d7bc 0554 9f3d 7289 79bd 4f4d d0bd
00000100: 74aa 083d e8d0 fd3d d72d b83d 7c9c babc
00000110: bf7e 843c ce42 ff3d 4e1f d23b 4e0c 023e
00000120: ba81 323d 5cb3 1f3d 8e27 4c3d f330 3bbd
00000130: c031 f13d 1ec0 213d b8b9 e8bc c3ed 4a3d
00000140: 112e 893d de65 63bd eefb 7fbd 4741 a03d
00000150: 7f64 b6bd 82d3 893c 02d9 8cbb 5f18 a6bd
00000160: c5bd abbd 92cc 30bb dd85 db3c 58a4 f93d
00000170: 8f91 4e3d e1f1 debd e180 78bb 4aeb 92bc
00000180: a52a a33d 2948 bcbd b909 8c3d e52f 81bd
00000190: c57b 1dbd aa26 99bd c9a7 823d 4ef2 01be
000001a0: 70a8 1b3c ae03 90bd 81a6 c6bb ab8f 9a3d
000001b0: cf86 0cbe 8cf0 b0bd cdc7 413d 0fd4 32bd
000001c0: c2f7 bdbd 235e e9bc e8d3 cdbd 0312 a93d
000001d0: e760 e23d 259c b6bc 646e ecb9 4127 ba3c
000001e0: 6b88 dabd 64c1 a83d a528 863d a9b4 abbd
000001f0: 3764 0d3d 4891 08be 3a5a ebbd 02b7 d6bd
00000200: 1475 d23c cf86 ba3c d35c d6bd ebf1 c5bc
00000210: e166 743d 3d8d d9bd e1d3 febd 2dc5 c23d
00000220: 5ea5 d83c f815 4fbd 8ba4 8e3d e029 f1bd
00000230: 9c1d 4cbb 7628 b73d 6f4b fdbb e194 9cbd
00000240: 5ef7 c5bc 9035 7bbd 13bd 1f3b 2ed2 bc3d
00000250: 38ba d1bc 243a a83d 8fcd 77bd 785a ddbd
00000260: e98a a53d ea29 49bd 80ee 46bc 8bd8 dcbd
00000270: 75d7 ffbd af34 bfbd defa eabd f258 b0bd
00000280: 2093 87bd 8e4e be3d 0893 cbbb de99 a73a
00000290: 7d9e 043d a72c 1b3d c27d fc3b 8570 ed3c
000002a0: 1aa2 93bd 4e32 b8bd bd1a c63d c07e f13c
000002b0: c0c5 33bd 84fe bb3d 624e ce3d fbfb 40bd
000002c0: edf3 483c b615 c03d 2ff8 67bd 9dc5 383c
000002d0: f298 553d 746b b93d 43fd 8c3d f08b 52bd
000002e0: 691d 3fbd 8056 f3bd 74ef 8cbd 3a75 d6bd
000002f0: 6555 5c3d 5526 1b3c d66b 953d d393 b2bd
00000300: cfde 553d 7b93 6dbd e0df cb3d e34b 51bd
00000310: 02d6 9d3d be62 19bd 86d1 a23d 3ba0 c63d
00000320: 5918 c73d c674 26bd bc34 47bc de2e cf3b
00000330: 2f3e f43d 53f0 d23d c982 44bd aa62 c73d
00000340: 7100 aabd da79 a03c 5c48 9c3b 9adf 773d
00000350: 704e 76bd 4644 213d 7aed 413d 4605 c53d
00000360: 4875 ed3d 0f3e a63d e073 a63d 1f7c b03c
00000370: 73e7 193d 2bd6 eb3d 9d09 013d 9193 c23d
00000380: 700a e6bb c677 bfbd 6703 a63d dbd8 b73c
00000390: a4f5 dcbd 5c95 2c3d a068 9fbd d17e f1bc
000003a0: d289 32bd e2fb dd3c 8b67 abbd 2437 a5bd
000003b0: 3415 ba3c 69cd 82bd 7360 fabc 27af dfbd
000003c0: ee6f 9ebd f671 3f3d 79b0 c83d 9669 b03d
000003d0: e00b eb3d f2c9 e1bc 64a0 503d 39d5 b83d
000003e0: 41f2 263d 3886 983d 0303 4f3d 9a7c 033d
000003f0: c316 bbbd 47c6 d83d 8593 d43d 68b3 e43d

bias f4 [32]
0.049177 0.013890873 -0.014113131 -0.024758765 0.070647605 0.06686584 -0.0646918 0.06385332
-0.11163127 0.080965064 0.08483563 -0.082169645 -0.0692178 -0.018706653 0.080078505 0.017836064
0.02696534 -0.0657662 0.013194317 0.1039705 0.060747746 -0.02132283 0.06333741 0.10103293
-0.06434468 -0.08249102 0.03785426 -0.14144877 -0.08220413 -0.023850922 -0.16352043 0.07598137
00000000: d26d 493d 8b96 633c c33a 67bc e5d2 cabc
00000010: b1af 903d f5f0 883d 227d 84bd 88c5 823d
00000020: ef9e e4bd 03d1 a53d 4ebe ad3d 8f48 a8bd
00000030: 10c2 8dbd b23e 99bc 3300 a43d f01c 923c
00000040: 6be6 dc3c 6eb0 86bd fa2c 583c 7cee d43d
00000050: a1d2 783d 37ad aebc 0bb7 813d 5aea ce3d
00000060: 25c7 83bd 0df1 a8bd 120d 1b3d f2d7 10be
00000070: a45a a8bd 0263 c3bc e671 27be 1f9c 9b3d

weight f4 [32, 32, 5, 5]
-0.020392144 -0.033498596 0.0039413157 0.03285401 -0.028278464 -0.03529195 -0.0051269834 0.017121306
-0.019508101 0.020400958 -0.01957972 0.020027602 -0.038850516 0.009549698 -0.03135215 -0.017694686
-0.027079869 -0.0026912435 0.014927302 -0.006971253 0.02337919 0.007550572 -0.03257684 -0.014281612
-0.0017558266 -0.03237216 -0.02732079 -0.00016007945 -0.031152088 0.02810318 0.00047445096 -0.020804
-0.033531643 0.02113073 0.015558 0.0062633515 -0.011314727 -0.035127316 0.013512635 0.008128603
-0.030701924 -0.0021221417 -0.0053563905 -0.013212495 0.019139253 -0.029239964 0.017340474 -0.0015710588
-0.0138417 -0.020663232 -0.00415398 -0.033256214 0.023915254 -0.009434141 0.03406174 -0.031144103
0.009606908 0.03202294 -0.022718515 0.03075919 -0.004883161 0.028362228 0.02926656 0.028819822
0.032523587 0.0024740212 0.018300882 -0.030990267 -0.0029314721 -0.02898157 0.030944517 0.0034611633
-0.0010177747 -0.0067468 0.03232258 -0.0345705 -0.019354263 -0.0024828417 -0.034549847 0.029148724
0.010037236 -0.013261687 -0.0007126876 -0.030508595 0.023484413 -0.001916792 -0.03396213 0.023463134
-0.023198523 -0.017409699 0.0038011977 -0.0133422995 -0.005558909 0.011089046 -0.009565331 -0.033090852
-0.031017592 -0.02594545 -0.009039485 -0.028344309 -0.01965359 -0.032346893 -0.0009482501 -0.0155296875
-0.0027900275 0.007911633 -0.009816243 0.014492965 0.0078799315 -0.03291251 -0.022017732 -0.03163241
-0.04143395 0.0034344366 0.007716676 0.010852321 0.004445217 -0.037914947 0.018031307 0.012359918
0.007116141 0.012873481 0.0016343087 0.019046456 0.0004935371 -0.01942143 -0.03371869 -0.00117401
0.010455817 0.004235548 -0.032611694 0.020248828 -0.008458244 0.017191889 0.013479053 -0.036215108
0.0040656594 -0.03697627 -0.031080734 -0.0024555412 -0.034866426 -0.033334523 -0.014190723 0.02256483
0.012631147 0.012935519 0.0155342175 -0.016351914 0.00147597 0.029667204 -0.0016355258 0.010088035
-0.009901651 -0.0071506067 0.01019816 0.031246584 0.004614612 -0.0054591754 -0.025397744 -0.0035358912
0.02987762 0.019756898 0.011814714 0.01506897 -0.028590903 0.028313423 0.029166311 -0.025589831
0.0073804283 -0.024075324 0.0061110333 0.01929674 0.002834814 -0.020983785 0.009700421 0.024556743
0.01574355 -0.013106207 -0.02053242 0.028552184 0.021509835 -0.013056339 -0.001631463 0.0012266131
0.025126265 0.019096853 -0.036201615 -0.0130131245 0.026276542 -0.0028261407 -0.02409861 -0.036280755
-0.0052835126 0.031354632 -0.024085958 0.0046076835 -0.028649544 0.012052659 0.015902612 -0.020854805
0.021373753 -0.01740965 0.030897439 0.012446336 0.00697201 0.03276485 0.0057568224 0.0020308318
-0.008362972 0.008917477 0.012806162 0.03442744 0.0044109 -0.008627729 0.01748926 0.0021762876
0.03654266 0.026419645 0.006976481 0.000853928 -0.019058673 0.03741235 0.025551463 0.03941992
0.014272838 -0.006957894 -0.029861674 0.0028003175 -0.029525222 0.021071045 -0.04483118 -0.029757785
-0.018321738 0.01689072 0.023814443 -0.01605354 0.00441204 -0.040198073 -0.027942289 -0.038102932
0.011052493 -0.027569655 -0.006001344 -0.006308504 -0.017880531 0.017412046 -0.041941598 -0.03783342
-0.017027702 -0.02151117 -0.039925925 -0.032845054 -0.028067846 0.013708944 0.0146718975 0.00927328
00000000: 6d0d a7bc d335 09bd 2726 813b ed91 063d
00000010: 3da8 e7bc 4b8e 10bd 4100 a8bb fb41 8c3c
00000020: 74cf 9fbc e91f a73c a665 a0bc ed10 a43c
00000030: b821 1fbd 5676 1c3c 1d6b 00bd 72f4 90bc
00000040: 9ad6 ddbc 935f 30bb a491 743c 1c6f e4bb
00000050: b785 bf3c ca6a f73b 4b6f 05bd 6cfd 69bc
00000060: c423 e6ba ac98 04bd d9cf dfbc 00db 27b9
00000070: aa32 ffbc a438 e63c bbbf f839 266d aabc
00000080: 7a58 09bd 5a1a ad3c fbe6 7e3c cd3c cd3b
00000090: 6861 39bc a9e1 0fbd 1964 5d3c d52d 053c
000000a0: 9a82 fbbc a113 0bbb a984 afbb 3879 58bc
000000b0: ecc9 9c3c a688 efbc 9c0d 8e3c fceb cdba
000000c0: 4cc8 62bc f045 a9bc 1c1e 88bb ab37 08bd
000000d0: ece9 c33c a891 1abc 5384 0b3d eb21 ffbc
000000e0: 4b66 1d3c 7d2a 033d 2e1c babc b2fa fb3c
000000f0: ec02 a0bb e757 e83c 6dc0 ef3c 8c17 ec3c
00000100: 7437 053d 3023 223b bbeb 953c 4ddf fdbc
00000110: f11d 40bb c26a edbc 5b7f fd3c afd4 623b
00000120: da66 85ba 4314 ddbb af64 043d cc99 0dbd
00000130: d58c 9ebc 2cb7 22bb 2484 0dbd 4ec9 ee3c
00000140: 3873 243c 8c47 59bc a8d3 3aba 29ed f9bc
00000150: 6262 c03c de3c fbba e01b 0bbd c235 c03c
00000160: d40a bebc c99e 8ebc 841d 793b a999 5abc
00000170: 8227 b6bb d4ae 353c e8b7 1cbc 468a 07bd
00000180: 9b18 febc 8d8b d4bc 591a 14bc 5332 e8bc
00000190: 9100 a1bc 2d7e 04bd fd93 78ba 3b70 7ebc
000001a0: e5d8 36bb cb9f 013c 4fd4 20bc e773 6d3c
000001b0: d41a 013c 45cf 06bd 885e b4bc fc90 01bd
000001c0: a5b6 29bd 4914 613b 2cdc fc3b efcd 313c
000001d0: 2fa9 913b b44c 1bbd 64b6 933c 4181 4a3c
000001e0: 842e e93b 4beb 523c 4d36 d63a 5007 9c3c
000001f0: b760 013a b119 9fbc 9c1c 0abd 3de1 99ba
00000200: e04e 2b3c 5aca 8a3b d793 05bd dfe0 a53c
00000210: 7294 0abc 01d6 8c3c 3fd7 5c3c 4b56 14bd
00000220: 3939 853b 6e74 17bd 069d febc 25ed 20bb
00000230: 19d0 0ebd c889 08bd 3580 68bc e1d9 b83c
00000240: dff2 4e3c 80ef 533c 3b83 7e3c 73f4 85bc
00000250: 5675 c13a a308 f33c 245f d6ba 4948 253c
00000260: 893a 22bc a34f eabb 2f16 273c d6f8 ff3c
00000270: 2c36 973b e2e2 b2bb ee0e d0bc 69ba 67bb
00000280: e9c1 f43c 38d9 a13c 8192 413c d7e3 763c
00000290: 7837 eabc 8df1 e73c 30ee ee3c c4a1 d1bc
000002a0: 85d7 f13b 9d39 c5bc 103f c83b 3214 9e3c
000002b0: 49c8 393b 30e6 abbc 84ee 1e3c 392b c93c
000002c0: 9ef8 803c 6bbb 56bc 9b33 a8bc 45e6 e93c
000002d0: 6535 b03c 41ea 55bc d0d6 d5ba 4ec6 a03a
000002e0: 99d5 cd3c 0171 9c3c 2548 14bd 0035 55bc
000002f0: e741 d73c c636 39bb 736a c5bc 219b 14bd
00000300: 5121 adbb b76d 003d ea4f c5bc 0dfc 963b
00000310: 73b2 eabc 8478 453c 3246 823c b2d7 aabc
00000320: 0218 af3c af9e 8ebc a01c fd3c b8eb 4b3c
00000330: 7575 e43b 6f34 063d baa3 bc3b b417 053b
00000340: d904 09bc 9c1a 123c f0d0 513c ca03 0d3d
00000350: 5089 903b 515b 0dbc a345 8f3c 0ca0 0e3b
00000360: c2ad 153d 036e d83c f79a e43b 23da 5f3a
00000370: ef20 9cbc b13d 193d 4d51 d13c c876 213d
00000380: 9fd8 693c 0cff e3bb 78a0 f4bc 8885 373b
00000390: e1de f1bc 2f9d ac3c e6a0 37bd 99c6 f3bc
000003a0: 7817 96bc 685e 8a3c 8216 c33c b782 83bc
000003b0: e092 903b bca6 24bd 3ae7 e4bc d211 1cbd
000003c0: 8415 353c c2d9 e1bc eca6 c4bb 91b7 cebb
000003d0: 317a 92bc b5a3 8e3c f4ca 2bbd 37f7 1abd
000003e0: ae7d 8bbc 3138 b0bc 5e89 23bd 8988 06bd
000003f0: 8aee e5bc 7b9b 603c 6662 703c f5ee 173c

bias f4 [32]
-0.006167741 -0.038105544 -0.024913413 -0.040987883 0.024158685 -0.010501678 -0.036198847 -0.018093262
-0.004599443 0.011537269 -0.018477581 -0.021299591 0.026275016 -0.036763106 -0.025337247 -0.013242296
0.018938348 -0.047641456 -0.028232288 0.012318026 0.022752242 -0.05884732 -0.0030944324 -0.0074587027
-0.0059968797 -0.04727545 -0.018414775 0.010672931 0.03905578 -0.0437447 0.0031793418 0.020849848
00000000: c31a cabb 8f14 1cbd 3717 ccbc e9e2 27bd
00000010: 6fe8 c53c 3b0f 2cbc 3e45 14bd 5238 94bc
00000020: edb6 96bb d006 3d3c 4c5e 97bc 7b7c aebc
00000030: b43e d73c e994 16bd 0f90 cfbc 37f6 58bc
00000040: 9824 9b3c b023 43bd 6647 e7bc 8cd1 493c
00000050: e962 ba3c e309 71bd f6cb 4abb 2268 f4bb
00000060: 7981 c4bb e7a3 41bd 95da 96bc 84dd 2e3c
00000070: f4f8 1f3d a42d 33bd 815c 503b 4dcd aa3c

weight f4 [64, 32, 5, 5]
-0.010273467 0.014500129 -0.018980967 0.005959909 0.0142222 -0.018800315 0.0014205164 0.00334495
-0.001073257 0.0015666372 -0.012580441 0.018513555 -0.017823603 0.03098323 0.03478256 -0.029868115
0.017049976 -0.011829521 -0.030435162 0.00043204395 -0.0012071235 0.0146311615 -0.009641382 0.017719978
-0.027516281 0.0070242295 -0.005893109 0.044614695 0.016760694 0.015330507 0.0109586045 -0.025194515
0.013853031 0.018079903 0.009510558 -0.026702857 -0.038486186 -0.022761099 0.005104643 -0.0065819365
0.032969233 0.006208546 -0.021810615 -0.0058910525 0.019818805 0.02374852 -0.023275474 -0.034916267
0.03122403 0.01834312 0.019757189 0.032113727 -0.01493746 0.0038170114 0.027329283 -0.0023224987
-0.017182129 -0.0076343613 -0.019558541 0.030571783 0.024452323 0.022118455 -0.02335471 -0.02633562
0.026336003 -0.026183208 0.010055771 0.03209699 -0.01876558 0.023251802 -0.006574278 0.0076565295
0.017318908 -0.0003307569 -0.034666218 0.022152422 0.021785453 -0.020632789 -0.024374688 0.019140325
0.006834047 -0.024017202 0.014432462 0.034040183 -0.006849835 0.008949753 0.019202141 0.04351947
0.0054916693 0.029649245 0.019192835 0.02066691 -0.030585466 -0.02453173 0.015284468 -0.032864124
0.016954744 0.028160855 0.0043096663 -0.013769157 0.00017000858 -0.0026478649 0.021744773 0.011036166
-0.0021145875 0.01308284 0.016199207 0.017432762 0.026474625 0.027728712 -0.01672218 -0.020463863
0.023279168 -0.011565487 0.009598441 -0.034630217 0.0057998565 -0.030013608 -0.033796575 -0.0065478324
0.0078057516 -0.02216367 0.028347928 0.005810446 0.014836404 -0.026508871 -0.029315341 -0.037954845
-0.035090223 -0.025912588 -0.013282281 -0.031298846 0.02684399 0.01665815 -0.00766347 -0.023279287
0.008908578 -0.02616694 0.022278449 -0.0053619803 -0.01929335 0.012196525 -0.027621776 0.030174276
-0.037283376 -0.03167697 0.033288278 0.024648545 -0.021229126 -0.012947226 -0.011777439 0.03591247
0.021074565 0.021728158 -0.0067104897 0.0095727 0.036914714 0.040971212 0.03899989 0.041948583
0.023325393 0.051233493 0.044668484 0.033734728 0.044011075 -0.005495964 -0.0044872253 0.018597672
0.030904612 0.028677557 0.009273535 0.011317626 -0.023676619 0.03147929 -0.029281398 -6.1042374e-05
0.0007162319 0.00842389 -0.026255067 0.007698469 0.039707202 -0.011120282 -0.015416156 0.0078009297
-0.020654852 0.013477287 0.028350746 -0.0047399164 -0.010400701 -0.016760757 -0.009425328 -0.022080969
-0.0065846853 -0.0026155738 0.016775364 -0.034217935 -0.028138353 0.033617508 -0.00036702884 -0.0009860703
0.0013082518 0.041700598 0.0033252174 0.044391178 -0.00087846216 0.02285948 -0.017085256 -0.017270718
0.043187555 -0.010667837 0.032345414 -0.011176865 0.039587934 0.028935723 0.0039442535 -0.0024320816
0.020228768 -0.015664198 -0.020732336 0.0066567105 -0.021141777 0.023873817 -0.013707897 -0.029195573
-0.007973765 -0.012047983 -0.012351108 0.025592105 0.0187117 -0.02294053 0.033718742 -0.02393268
-0.010800222 -0.03526599 -0.01462952 0.014644427 -0.022772815 0.030991774 0.003357557 0.03714662
-0.023402171 0.0047685164 -0.0030124404 0.005415549 0.032795448 0.011919903 -0.02939424 -0.014822755
0.015162704 -0.0013620721 0.01301845 -0.018200267 0.03413311 0.0011338389 -0.010001531 0.0029788825
00000000: 0b52 28bc f391 6d3c f97d 9bbc 574b c33b
00000010: 3b04 693c 1e03 9abc 9f30 ba3a f336 5b3b
00000020: 87ac 8cba 9f57 cd3a 321e 4ebc bda9 973c
00000030: ce02 92bc 8bd0 fd3c 2878 0e3d faad f4bc
00000040: 64ac 8b3c 9bd0 41bc 2953 f9bc f583 e239
00000050: 5838 9eba 8ab7 6f3c e3f6 1dbc 7d29 913c
00000060: d369 e1bc 822b e63b fb1a c1bb e6bd 363d
00000070: b94d 893c cf2c 7b3c b88b 333c ba64 cebc
00000080: d3f7 623c 4e1c 943c 2cd2 1b3c f3bf dabc
00000090: b1a3 1dbd 7c75 babc d944 a73b 49ad d7bb
000000a0: bf0a 073d 0f71 cb3b 2dac b2bc bb09 c1bb
000000b0: 0c5b a23c 428c c23c 35ac bebc 5c04 0fbd
000000c0: 89c9 ff3c 5044 963c d4d9 a13c af89 033d
000000d0: 40bc 74bc d326 7a3b a9e1 df3c 1035 18bb
000000e0: 89c1 8cbc aa29 fabb 3c39 a0bc ad71 fa3c
000000f0: 3d50 c83c c331 b53c 6052 bfbc ccbd d7bc
00000100: 9abe d73c 2b7e d6bc f6c0 243c 2278 033d
00000110: 46ba 99bc 907a be3c 0b6d d7bb a0e3 fa3b
00000120: 62e0 8d3c 7169 adb9 2afe 0dbd ff78 b53c
00000130: 6877 b23c 1806 a9bc 6dad c7bc 2ccc 9c3c
00000140: 24f0 df3b b9bf c4bc 2276 6c3c b86d 0b3d
00000150: 9574 e0bb fca1 123c cf4d 9d3c 7941 323d
00000160: 76f3 b33b f9e2 f23c 4b3a 9d3c a74d a93c
00000170: 5f8e fabc c4f6 c8bc b56b 7a3c 889c 06bd
00000180: ade4 8a3c 98b1 e63c 1a38 8d3b 0898 61bc
00000190: 5544 3239 cd87 2dbb 1822 b23c 09d1 343c
000001a0: e494 0abb 6859 563c 33b4 843c 27cf 8e3c
000001b0: 50e1 d83c 5327 e33c f4fc 88bc d5a3 a7bc
000001c0: f4b3 be3c 2b7d 3dbc c842 1d3c 6ad8 0dbd
000001d0: b90c be3b 19df f5bc 476e 0abd 338f d6bb
000001e0: 64c7 ff3b 9690 b5bc ea39 e83c 8e65 be3b
000001f0: 6314 733c 2229 d9bc ba26 f0bc 8a76 1bbd
00000200: c4ba 0fbd a346 d4bc ed9d 59bc 3833 00bd
00000210: ede7 db3c ac76 883c d91d fbbb 34b4 bebc
00000220: 49f5 113c 0d5c d6bc 4b81 b63c 8db3 afbb
00000230: 160d 9ebc efd3 473c 1047 e2bc 0b30 f73c
00000240: 74b6 18bd b6bf 01bd 4a59 083d bfeb c93c
00000250: b4e8 adbc 9a20 54bc 29f6 40bc f418 133d
00000260: 91a4 ac3c 40ff b13c abe3 dbbb d0d6 1c3c
00000270: e233 173d 6ed1 273d 59be 1f3d 47d2 2b3d
00000280: e514 bf3c 36da 513d 4df6 363d 6d2d 0a3d
00000290: f544 343d 7d17 b4bb 9309 93bb 255a 983c
000002a0: ab2b fd3c 32ed ea3c 06f0 173c 906d 393c
000002b0: 78f5 c1bc 6ef0 003d 8bdf efbc e003 80b8
000002c0: 82c1 3b3a 5b04 0a3c de14 d7bc 7043 fc3b
000002d0: 05a4 223d d831 36bc 0b94 7cbc f19e ff3b
000002e0: 5d34 a9bc d7cf 5c3c d33f e83c 4d51 9bbb
000002f0: b467 2abc db4d 89bc b16c 1abc 26e3 b4bc
00000300: 58c4 d7bb 0c6a 2bbb 7d6c 893c 1b28 0cbd
00000310: 6782 e6bc 83b2 093d c76d c0b9 073f 81ba
00000320: a579 ab3a 3fce 2a3d e4eb 593b 86d3 353d
00000330: 9948 66ba ce43 bb3c 61f6 8bbc 527b 8dbc
00000340: 6fe5 303d 27c8 2ebc a07c 043d 2b1f 37bc
00000350: f526 223d 9c0a ed3c cc3e 813b 8f63 1fbb
00000360: cdb6 a53c 3452 80bc dcd6 a9bc 8920 da3b
00000370: 8531 adbc 0693 c33c 1697 60bc 8e2b efbc
00000380: 65a4 02bc e764 45bc 4d5c 4abc 89a6 d13c
00000390: 4749 993c c7ed bbbc aa1c 0a3d 780e c4bc
000003a0: 6af3 30bc 1273 10bd a7b0 6fbc 2eef 6f3c
000003b0: 0e8e babc 76e2 fd3c 760a 5c3b 0e27 183d
000003c0: e9b5 bfbc 3741 9c3b 5d6c 45bb eb74 b13b
000003d0: 8554 063d b24b 433c 30cc f0bc 24db 72bc
000003e0: fd6c 783c 8e87 b2ba 564b 553c ba18 95bc
000003f0: 29cf 0b3d 529d 943a 76dd 23bc 5b39 433b

bias f4 [64]
-0.04314824 -0.038139936 0.012206122 -0.009475541 -0.021358004 0.015251938 -0.0077558854 0.027704952
-0.0037976042 -0.0067056892 -0.025340093 0.020865418 -0.004369818 -0.030582076 -0.039710674 0.036582008
-0.02525773 0.021559596 -0.03726595 -0.025744257 0.026488941 -0.029111052 0.026845483 0.011046501
0.029174807 -0.012904973 0.03015556 0.011153988 -0.015529752 0.026669275 0.022349589 0.004619807
-0.025131095 0.011401236 -0.021218115 -0.011396109 -0.009420815 -0.033087566 -0.043015745 0.035733216
0.028951554 -0.015713628 0.039956708 -0.0068902792 -0.020469708 0.011831502 0.03853671 -0.021435581
0.03045097 0.022587392 -0.026728513 -0.015516029 0.0063455305 -0.007872456 0.006455228 0.029186545
0.03578911 -0.021286318 0.008792697 -0.016990138 -0.011914284 -0.008196997 -0.01277207 0.016630594
00000000: 35bc 30bd 9f38 1cbd 30fc 473c 4d3f 1bbc
00000010: fbf6 aebc 44e3 793c 1525 febb 7ff5 e23c
00000020: 3ae1 78bb 66bb dbbb 0796 cfbc f4ed aa3c
00000030: b130 8fbb 4387 fabc a9a7 22bd 04d7 153d
00000040: 4de9 cebc c09d b03c 2ea4 18bd 9fe5 d2bc
00000050: 56ff d83c 4d7a eebc 0feb db3c 62fc 343c
00000060: 0100 ef3c 616f 53bc cb08 f73c 37bf 363c
00000070: 8070 7ebc 8679 da3c 7c16 b73c c061 973b
00000080: badf cdbc 40cc 3a3c 9dd1 adbc bfb6 3abc
00000090: c359 1abc d486 07bd 4731 30bd fe5c 123d
000000a0: cf2b ed3c deb9 80bc a5a9 233d dac7 e1bb
000000b0: 17b0 a7bc ebd8 413c abd8 1d3d ac99 afbc
000000c0: 5074 f93c 3209 b93c c1f5 dabc f136 7ebc
000000d0: 2bee cf3b 79fb 00bc 6186 d33b 9f18 ef3c
000000e0: 9a97 123d a560 aebc 3f0f 103c e72e 8bbc
000000f0: 2134 43bc b34c 06bc f241 51bc e23c 883c

weight f4 [64, 1024]
-0.018050313 0.0035587263 -0.016341547 -0.0041996655 -0.016689412 -0.002255379 -0.021220142 -0.026467102
-0.012806083 0.0033523855 -0.032535765 0.027171673 -0.030740678 0.0020778752 0.020135835 -0.0065680686
0.0058923163 -0.021228207 0.008438505 -0.02080664 -0.029122906 0.008070725 0.013900986 0.016390165
0.008109138 -0.029931657 -0.0087682605 0.0135031575 -0.022599788 0.013585157 0.012828041 0.012171301
-0.011241678 0.026270356 -0.022150299 0.013029698 0.012842234 -0.0187741 0.027151782 0.008150053
-0.010201175 -0.012352835 -0.009670365 -0.012563946 -0.019637374 -0.029331403 0.019220855 0.024531627
0.0152019225 -0.018660609 0.023811985 -0.028157588 0.020006098 0.008382556 -0.006410581 0.030689947
0.019994667 0.01973815 -0.028009022 -0.006817024 0.012054829 0.017640235 0.010784454 0.033110593
0.026274774 0.0038137897 -0.0068967436 0.022943381 -0.011353912 -0.0226223 -0.010426325 -0.014448042
0.00040628682 -0.008565063 -0.0050954097 0.013245299 0.013260764 -0.02657194 -0.026869986 -0.024184704
-0.0020576587 -0.0046273996 0.00824833 0.017764812 -0.02598537 0.025395546 0.027937872 -0.013651907
0.022904882 -0.0021546995 -0.006900441 0.021353811 0.002777899 0.022640448 -0.012576389 -0.011853401
-0.023678198 -0.00022292984 -0.023513691 -0.015150927 -0.025698727 0.032659076 0.018886583 0.002876066
-0.029358638 0.023937969 0.030328434 0.0076458645 -0.029413207 -0.02135156 -0.022766912 0.026386753
-0.009402644 -0.015179366 -0.022247966 0.00062794314 0.018720265 0.030401736 -0.018872557 0.02504818
-0.0120124845 -0.017707076 -0.02402565 -0.027790617 0.030832749 -0.023926515 0.0070233787 0.021726465
0.0047573945 0.028389642 -0.009410857 0.004551132 -0.0031984441 -0.0062339697 0.026993291 -0.019865217
0.01739221 -0.02832121 0.012528708 -0.020087747 0.023062484 -0.01795899 0.011892898 0.0037706622
0.031348366 0.021982685 -0.008699719 -0.012140559 0.0039114663 -0.013988183 -0.0016819561 0.032554798
0.0072938367 -0.001141307 -0.008830009 -0.022565702 0.024780437 0.0025955825 -0.02326424 0.022076802
0.013720702 0.027448175 0.01048618 -0.007640523 -0.013516511 -0.02188971 -0.0068804543 0.023486672
-0.010066479 0.0145815015 0.022826262 0.004687994 -0.025384612 -0.00032682187 -0.01842838 0.011688903
-0.010769643 0.010913232 -0.02082797 0.01658291 0.028960083 0.010649139 0.02766613 0.022592245
-0.021485867 0.028725576 0.037819717 0.021737505 -0.023333415 0.009869783 0.025153989 0.0064469054
-0.017100753 0.027446901 0.030139575 -0.0052045775 -0.0261761 -0.0155391 -0.016521046 -0.017528366
-0.019570341 -0.0013936517 -0.014604994 -0.030270923 0.006662542 0.0022042412 -0.023909632 -0.0054869032
0.014226666 -0.024368402 0.00036585648 -0.0043999106 -0.023362754 0.016985888 -0.014499414 0.023566423
-0.021426512 0.010500052 0.0049966983 -0.008026891 0.0015307767 -0.013673797 -0.0018211642 0.028921003
-0.020670576 -0.013968033 -0.02550953 -0.02141449 0.023678474 0.021423444 -0.018390153 -0.025158055
0.026120352 -0.015945163 0.025547057 -0.0011698055 0.017023403 -0.010079444 0.011166211 0.023674415
-0.019808168 0.022531688 0.029216193 0.010723517 0.007861769 -0.020188585 -0.010859803 0.009393657
-0.0044971784 -0.02301612 -0.024253892 -0.003191367 -0.0029416229 0.025460219 0.011555387 -0.01886934
00000000: 40de 93bc 8539 693b b5de 85bc 599d 89bb
00000010: 3cb8 88bc fbce 13bb ddd5 adbc 89d1 d8bc
00000020: 9bd0 51bc b2b3 5b3b 3944 05bd 2197 de3c
00000030: e0d3 fbbc f62c 083b e8f3 a43c f438 d7bb
00000040: 5514 c13b c7e6 adbc a841 0a3c b072 aabc
00000050: 2993 eebc 133b 043c f6c0 633c ab44 863c
00000060: 31dc 043c 3c33 f5bc c0a8 0fbc 593c 5d3c
00000070: 3123 b9bc 4794 5e3c b42c 523c 236a 473c
00000080: 042f 38bc ee34 d73c 8b74 b5bc 847a 553c
00000090: 3c68 523c 24cc 99bc 6a6d de3c cd87 053c
000000a0: d422 27bc 8c63 4abc 7370 1ebc 02d9 4dbc
000000b0: 8fde a0bc 6948 f0bc 0e75 9d3c 8df6 c83c
000000c0: 7c11 793c 22de 98bc 5a11 c33c beaa e6bc
000000d0: d4e3 a33c fd56 093c da0f d2bb 7c69 fb3c
000000e0: dbcb a33c e7b1 a13c 2d73 e5bc 5861 dfbb
000000f0: 9e81 453c 4182 903c 47b1 303c f99e 073d
00000100: 323e d73c c6f0 793b 14fe e1bb c2f3 bb3c
00000110: c205 3abc 6752 b9bc 2dd3 2abc 7bb7 6cbc
00000120: e502 d539 7a54 0cbc 65f7 a6bb d002 593c
00000130: ad43 593c 66ad d9bc 721e dcbc 001f c6bc
00000140: c9d9 06bb 71a1 97bb 0124 073c 8387 913c
00000150: 45df d4bc 520a d03c f7dd e43c 40ac 5fbc
00000160: 05a3 bb3c dc35 0dbb 181d e2bb 30ee ae3c
00000170: 690d 363b 7678 b93c 330d 4ebc c434 42bc
00000180: c8f8 c1bc 46c2 69b9 c99f c0bc 983b 78bc
00000190: 2386 d2bc 86c5 053d 09b8 9a3c 617c 3c3b
000001a0: 8781 f0bc 8f19 c43c 5673 f83c 298a fa3b
000001b0: f7f3 f0bc 77e9 aebc ad81 babc 0829 d83c
000001c0: 8c0d 1abc e0b2 78bc 5e41 b6bc 8d9c 243a
000001d0: 3e5b 993c 100d f93c 9f9a 9abc d731 cd3c
000001e0: 03d0 44bc 6e0e 91bc 71d1 c4bc 26a9 e3bc
000001f0: f694 fc3c 8a01 c4bc 5f24 e63b b3fb b13c
00000200: ebe3 9b3b 6591 e83c ff2f 1abc aa21 953b
00000210: fd9c 51bb 5446 ccbb 0921 dd3c 61bc a2bc
00000220: 1c7a 8e3c e201 e8bc 3645 4d3c 0f8f a4bc
00000230: 89ed bc3c bb1e 93bc 6eda 423c 371d 773b
00000240: 2567 003d 0815 b43c 4489 0ebc 32e9 46bc
00000250: c22b 803b b12e 65bc 1575 dcba 2e58 053d
00000260: 2301 ef3b e897 95ba beab 10bc b5db b8bc
00000270: 5800 cb3c a61a 2a3b a694 bebc 69da b43c
00000280: cccc 603c ffda e03c 3ace 2b3c 5a5d fabb
00000290: 5b74 5dbc 0d52 b3bc 6f75 e1bb 1f67 c03c
000002a0: e0ed 24bc 40e7 6e3c 24fe ba3c be9d 993b
000002b0: 64f3 cfbc 4a59 abb9 1df7 96bc d082 3f3c
000002c0: 2873 30bc 6acd 323c 6b9f aabc e2d8 873c
000002d0: b23d ed3c ba79 2e3c 14a4 e23c 5f13 b93c
000002e0: 2103 b0bc e651 eb3c d9e8 1a3d da12 b23c
000002f0: b825 bfbc dfb4 213c bd0f ce3c 9040 d33b
00000300: e116 8cbc 53d8 e03c 45e7 f63c 298b aabb
00000310: 436f d6bc b697 7ebc 2557 87bc a697 8fbc
00000320: fb51 a0bc 31ab b6ba c949 6fbc bafa f7bc
00000330: 7451 da3b 0875 103b 22de c3bc 7bcb b3bb
00000340: f616 693c 3ea0 c7bc 6dd0 bf39 202d 90bb
00000350: 3f63 bfbc fd25 8b3c f38e 6dbc 5f0e c13c
00000360: a786 afbc 6908 2c3c 58bb a33b 3983 03bc
00000370: 58a4 c83a 1008 60bc 21b4 eeba bdeb ec3c
00000380: 5755 a9bc 2dda 64bc 5df9 d0bc 716d afbc
00000390: 5cf9 c13c 3880 af3c f2a6 96bc 4418 cebc
000003a0: 59fa d53c 6e9f 82bc 1048 d13c 2954 99ba
000003b0: aa74 8b3c 4124 25bc 7cf2 363c d9f0 c13c
000003c0: bd44 a2bc 6094 b83c cc56 ef3c b1b1 2f3c
000003d0: a6ce 003c 8862 a5bc 51ed 31bc dae7 193c
000003e0: 115d 93bb 4d8c bcbc 19b0 c6bc 4126 51bb
000003f0: 3ec8 40bb f391 d03c ce52 3d3c e093 9abc

bias f4 [64]
-0.024827048 -0.011766168 0.019186838 -0.007506221 0.0144774895 0.03840138 -0.036480498 -0.014023378
0.007918643 0.018272623 -0.010252633 0.0037486276 0.03466382 -0.031559758 0.0051624645 0.007283361
0.006191096 0.0011961948 0.017377734 -0.03777061 -0.021835696 0.021856992 0.018343283 0.007629737
0.0066602435 -0.008896572 0.007859127 0.0027219784 -0.010313946 -0.014959815 -0.0013295135 0.01641116
0.036075626 -0.017418565 -0.008191161 -0.034906913 -0.0028326146 -0.037960656 0.027156519 0.025944646
0.014629399 -0.018188003 -0.024915839 0.018498285 0.0013948561 0.024809062 0.026221516 -0.029707642
0.0043807714 0.025008453 -0.0346845 0.028128318 0.002045881 -0.027300471 -0.012839447 -0.015092105
0.00016662596 -0.018851938 -0.006543564 -0.031540785 0.036903296 -0.022851774 -0.03025978 0.006784738
00000000: 1862 cbbc e3c6 40bc b72d 9d3c bff6 f5bb
00000010: fe32 6d3c c44a 1d3d 936c 15bd 4fc2 65bc
00000020: 32bd 013c 78b0 953c a9fa 27bc 89ab 753b
00000030: a6fb 0d3d ce44 01bd e429 a93b 43a9 ee3b
00000040: adde ca3b a3c9 9c3a c05b 8e3c 5bb5 1abd
00000050: c6e0 b2bc 6f0d b33c a744 963c df02 fa3b
00000060: 2c3e da3b edc2 11bc 91c3 003c 3863 323b
00000070: d3fb 28bc 031a 75bc 1243 aeba b270 863c
00000080: 09c4 133d 61b1 8ebc 3834 06bc 8dfa 0ebd
00000090: 63a3 39bb a27c 1bbd 5977 de3c de89 d43c
000000a0: 26b0 6f3c 02ff 94bc 4d1c ccbc b789 973c
000000b0: 9bd3 b63a 603c cb3c 81ce d63c 715d f3bc
000000c0: 938c 8f3b 87de cc3c 5611 0ebd 5c6d e63c
000000d0: 3014 063b 3da5 dfbc 8b5c 52bc e044 77bc
000000e0: 51b8 2e39 616f 9abc 656b d6bb e930 01bd
000000f0: e927 173d a533 bbbc 5ce3 f7bc 8252 de3b

weight f4 [10, 64]
0.016750384 -0.1279114 0.111642554 -0.060880672 -0.05238454 -0.062469188 -0.060709838 0.04722652
0.019013846 0.12817405 0.0029145982 -0.14509207 0.036244765 0.04601233 -0.039862536 0.07431922
-0.07113841 0.053609274 0.11519772 0.10667101 0.014274573 -0.050949823 0.12619269 0.056810126
-0.009368579 -0.05882662 -0.060077995 -0.0140427295 0.0287255 0.027569497 -0.031619567 0.08495126
-0.0072712554 0.09364687 0.055084474 0.10140516 0.14629892 -0.043565627 0.0771188 -0.13360542
-0.035497952 -0.05493112 0.089496635 0.023219816 -0.15216604 -0.05035403 0.041052423 -0.09652149
-0.053956628 -0.06876419 0.022097219 0.08649806 -0.09337485 0.012440567 0.012111334 -0.06729687
-0.06842166 -0.14013997 -0.1359883 0.11121201 -0.11770888 0.107280605 0.09269425 0.13791087
-0.063439496 0.09622564 -0.09262359 -0.13115153 -0.07143146 0.09025511 -0.062666684 -0.15023243
-0.07252245 -0.028775075 0.12459498 0.11096971 -0.032271545 0.015081564 -0.1313482 -0.065477654
-0.08419274 -0.06533381 0.07154907 -0.024125367 0.009758853 -0.09328543 -0.11275873 0.01637478
0.1329632 -0.034282576 0.02868956 -0.08042338 0.16967581 -0.07550877 0.10020523 0.080764994
0.018803775 0.044928137 0.16257799 -0.060597103 -0.084270924 0.054114018 0.12961827 -0.13099244
0.11264899 -0.031307343 -0.0316359 0.06209385 -0.119653195 -0.14041129 -0.08805251 0.072684556
0.015504687 0.089353696 -0.1387175 0.13406909 -0.12416249 -0.046170544 -0.12872022 0.04866077
0.07648239 0.055860452 0.009885364 -0.05235168 0.08477953 0.12082674 0.1271663 -0.10703554
0.096677236 0.044366512 0.109122224 0.030318249 -0.0837221 -0.08093786 -0.02146248 -0.09735483
-0.051444627 0.13810854 -0.13707457 0.060729593 0.1368509 -0.11335523 -0.09401989 0.06925828
0.036897507 -0.012446091 -0.13931553 -0.051638078 0.098934256 -0.08830588 0.037610404 0.0035174699
-0.13493197 -0.08880956 0.13600692 0.0896464 -0.14670418 -0.11001612 -0.14670509 -0.09490329
0.034116168 0.065908946 -0.046986103 0.055392772 0.08509919 -0.14993292 0.11100235 0.024296422
-0.055875435 -0.12776352 -0.007924462 0.047401704 0.03544129 0.11480272 -0.13355352 -0.14666735
-0.027304534 -0.08323049 0.016486395 0.120029554 0.07667245 0.0060407887 -0.104270786 0.05881677
-0.010874263 0.045572143 0.12150524 0.13582999 0.024881458 0.060590666 -0.0012903153 0.12694523
0.066160314 0.08402517 -0.11682607 -0.10868763 -0.08478847 0.07032963 0.11344365 0.0487761
-0.13418455 0.03431789 0.08101383 0.036486693 -0.0030297965 -0.12940508 0.05079176 0.058279373
0.14303203 0.019253861 0.021254905 0.10874001 -0.045283373 0.08858879 0.086192876 0.002249311
-0.11770842 0.014367335 0.098465234 -0.09014148 -0.030049212 0.13226159 -0.09993725 0.10205222
-0.12864731 0.124595374 -0.08645428 -0.05973486 -0.07793303 -0.014205714 0.08779297 0.021754758
-0.022344239 0.1052681 0.116975576 0.011789121 0.1485075 0.029881328 -0.03777491 -0.09802855
0.07726179 -0.013694189 0.08708831 0.14433552 -0.081733055 -0.013543676 -0.0032602514 -0.06262905
0.012388285 0.023236489 -0.030186836 -0.07454837 -0.006452139 -0.10400698 -0.024585536 0.09321415
00000000: 1a38 893c 35fb 02be daa4 e43d 035e 79bd
00000010: 2c91 56bd b1df 7fbd e1aa 78bd 9870 413d
00000020: edc2 9b3c 0f40 033e d802 3f3b 0493 14be
00000030: 6475 143d 6d77 3c3d e646 23bd ad34 983d
00000040: 04b1 91bd 6695 5b3d c8ec eb3d 5576 da3d
00000050: e6df 693c c3b0 50bd a838 013e bcb1 683d
00000060: ab7e 19bc 2ff4 70bd 5814 76bd 7a13 66bc
00000070: bd51 eb3c 6dd9 e13c 8583 01bd edfa ad3d
00000080: b643 eebb eec9 bf3d 42a0 613d 82ad cf3d
00000090: 62cf 153e df71 32bd 76f0 9d3d dccf 08be
000000a0: 4d66 11bd 74ff 60bd 034a b73d 7c37 be3c
000000b0: 6ad1 1bbe 0740 4ebd 9626 283d 0fad c5bd
000000c0: a001 5dbd 3dd4 8cbd 3a05 b53c e525 b13d
000000d0: 503b bfbd 85d3 4b3c 9e6e 463c f1d2 89bd
000000e0: a820 8cbd da80 0fbe 8440 0bbe 1fc3 e33d
000000f0: 5a11 f1bd efb5 db3d 7cd6 bd3d 8238 0d3e
00000100: 91ec 81bd f311 c53d 70b1 bdbd 964c 06be
00000110: a84a 92bd acd7 b83d 6457 80bd 88d6 19be
00000120: a686 94bd b5b9 ebbc a72b ff3d 1644 e33d
00000130: 2b2f 04bd aa18 773c 2480 06be 2619 86bd
00000140: 3e6d acbd bccd 85bd 5288 923d 90a2 c5bc
00000150: 99e3 1f3c 6e0c bfbd 0dee e6bd 6724 863c
00000160: 8127 083e e36b 0cbd 5e06 eb3c 03b5 a4bd
00000170: 7fbf 2d3e 58a4 9abd 6638 cd3d 1e68 a53d
00000180: 600a 9a3c 9106 383d d87a 263e ab34 78bd
00000190: 3c96 acbd a9a6 5d3d a7ba 043e e222 06be
000001a0: 83b4 e63d 213c 00bd a594 01bd 1f56 7e3d
000001b0: bc0c f5bd fac7 0fbe e054 b4bd a4db 943d
000001c0: 5f07 7e3c 12ff b63d f60b 0ebe 6849 093e
000001d0: e748 febd 531d 3dbd 3ccf 03be 8450 473d
000001e0: cda2 9c3d eecd 643d 39f6 213c b76e 56bd
000001f0: e4a0 ad3d 0374 f73d e237 023e 7335 dbbd
00000200: b7fe c53d a9b9 353d 797b df3d fa5d f83c
00000210: 7e76 abbd c0c2 a5bd 15d2 afbc f861 c7bd
00000220: 9ab7 52bd 536c 0d3e 475d 0cbe 98bf 783d
00000230: a422 0c3e c926 e8bd 808d c0bd 49d7 8d3d
00000240: d721 173d b0ea 4bbc bba8 0ebe 7382 53bd
00000250: 0b9e ca3d b7d9 b4bd 5e0d 1a3d 5a85 663b
00000260: 9b2b 0abe c9e1 b5bd 6645 0b3e 8898 b73d
00000270: 9f39 16be 2250 e1bd dc39 16be a85c c2bd
00000280: 65bd 0b3d 45fb 863d 8074 40bd 88e3 623d
00000290: 7c48 ae3d 0488 19be 3355 e33d 4a09 c73c
000002a0: a4dd 64bd 71d4 02be 9ad5 01bc 4a28 423d
000002b0: e32a 113d b01d eb3d 41c2 08be f72f 16be
000002c0: c2ad dfbc bf74 aabd 7a0e 873c 0ed2 f53d
000002d0: 7206 9d3d cff1 c53b ec8b d5bd dae9 703d
000002e0: f729 32bc dba9 3a3d bdd7 f83d 0417 0b3e
000002f0: 33d4 cb3c eb2d 783d cc1f a9ba eefd 013e
00000300: 0f7f 873d 6315 ac3d 8242 efbd 9f97 debd
00000310: 94a5 adbd fb08 903d 2555 e83d 73c9 473d
00000320: ad67 09be ea90 0c3d 94ea a53d 1273 153d
00000330: 8d8f 46bb c482 04be 050b 503d 5ab6 6e3d
00000340: fd76 123e 46ba 9d3c c41e ae3c 15b3 de3d
00000350: 0f7b 39bd 0a6e b53d e485 b03d 2d69 133b
00000360: 1d11 f1bd f864 6b3c 24a8 c93d 199c b8bd
00000370: c429 f6bc 956f 073e e7ab ccbd c100 d13d
00000380: 1fbc 03be dc2b ff3d f10e b1bd 8aac 74bd
00000390: 5a9b 9fbd 15bf 68bc cdcc b33d 0937 b23c
000003a0: 440b b7bc cd96 d73d e490 ef3d 2827 413c
000003b0: 5a12 183e b0c9 f43c ddb9 1abd 31c3 c8bd
000003c0: 6e3b 9e3d 975d 60bc 5b5b b23d b1cc 133e
000003d0: a963 a7bd 4be6 5dbc f1a9 55bb a943 80bd
000003e0: 3cf8 4a3c 735a be3c 624a f7bc d1ac 98bd
000003f0: 776c d3bb 9d01 d5bd 9b67 c9bc 0fe7 be3d

bias f4 [10]
-0.09633593 -0.087422095 -0.02159669 0.06748794 0.0066429772 0.016580906 -0.06424205 -0.09785121
0.0061348733 -0.10114308
00000000: c64b c5bd 5b0a b3bd 8beb b0bc 1e37 8a3d
00000010: 55ad d93b aed4 873c 5691 83bd 3766 c8bd
00000020: 0c07 c93b 1a24 cfbd
