PytorchLearning/learn1/vggmodel/vgg_10.pth (torch, 587335 bytes, 10 tensors)

weight f4 [32, 3, 5, 5]
000000 4c e1 e4 3d 43 a8 d7 bd 40 a4 72 bd 6a e4 12 bd
       0.111757845 -0.1053014 -0.059238672 -0.035862364
000010 8f 16 b3 bd 72 d6 b4 bb 7a 4c d6 3c 5e 1a d3 bc
       -0.08744537 -0.005518728 0.026159514 -0.025769409
000020 1b 5e 8f bd 2a a4 bc 3d fc 6f ed 3d c0 8c aa ba
       -0.07000371 0.09210999 0.11593625 -0.0013011917
000030 66 7c 44 bc 67 2f 85 3d 88 e7 3b bd bd 8c c7 bd
       -0.0119925495 0.06503182 -0.045875102 -0.097436406
000040 83 15 97 3d f1 e1 c3 bd e3 bd df 3d 6d 8a ca 3d
       0.0737715 -0.09564579 0.1092489 0.09889684
000050 06 ea 87 bd c7 72 65 3d f8 e8 59 3d e5 3e e7 3d
       -0.06636433 0.056017663 0.053200692 0.11291293
000060 cf db 6e bd a5 7a 42 bd 0e 4d 17 bd 25 bc c6 3d
       -0.058315095 -0.047480244 -0.03693872 0.097038545
000070 60 d1 11 3d bf d0 de bd 12 77 80 3d 94 d6 1a bc
       0.035600066 -0.10879659 0.06272711 -0.0094505735
000080 74 36 cb bd 12 46 9d bd 08 37 ab 3d f1 dd af bc
       -0.099224955 -0.076793805 0.08360106 -0.021468135
000090 b5 65 af bd 35 e6 3a 3d cf 25 a8 bd 36 3e a0 3d
       -0.08564321 0.0456297 -0.082103364 0.07824366
0000a0 f1 57 1d 3d 89 c7 ba 3d 54 94 9a 3d d8 2e ac 3d
       0.038413946 0.091200896 0.075478226 0.08407372
0000b0 7e 21 0e bd 6e 56 ef bc 7d 9f 69 3d d8 33 e6 3d
       -0.03469991 -0.029216018 0.057036866 0.11240357
0000c0 d6 9b 86 bd 45 78 1d bd f5 9e 36 ba fb 19 e4 3c
       -0.06572692 -0.038444776 -0.00069664355 0.02784442
0000d0 b2 52 a3 bd 44 e6 1e bd 84 76 1e bd 1e b6 b2 3c
       -0.07974757 -0.038793817 -0.038687244 0.021815356
0000e0 d1 9b d0 3d cc c1 81 bb 4b 23 d7 3d 9c cc 83 3d
       0.101859696 -0.00395987 0.105047785 0.064355105
0000f0 75 b5 da bc 93 d1 9b 3d 6e bc 84 bd 9c c8 d6 bd
       -0.026697854 0.076083325 -0.064812526 -0.10487482
000100 08 30 03 3d a8 10 f3 3d fa 31 ad 3d 8f 1c f2 bc
       0.032028228 0.11868411 0.08456798 -0.029554633
000110 0d fa 25 3c ec 13 f4 3d 40 0f 13 3b 7d d0 fd 3d
       0.0101304175 0.11917862 0.002243951 0.123932816
000120 88 89 26 3d e1 d5 10 3d 3a bf 39 3d 75 b3 4a bd
       0.040658504 0.03536022 0.045348383 -0.04948755
000130 c5 b1 e6 3d 32 5b 09 3d d9 70 06 bd ac 26 33 3d
       0.112643756 0.033534236 -0.032822464 0.043738052
000140 0d 42 86 3d 8e 95 6b bd 18 64 83 bd c4 df a1 3d
       0.06555567 -0.057515673 -0.06415576 0.07904008
000150 c3 99 b6 bd ad b5 61 3c 7c 98 00 bc a7 06 a9 bd
       -0.089160465 0.013776225 -0.007848855 -0.08253222
000160 4b 96 a8 bd b8 8d 0d bb 2d ac a5 3c 57 2a e8 3d
       -0.08231791 -0.0021599364 0.020223701 0.11336201
000170 4a 50 34 3d a4 75 e5 bd 0f 27 fd bb a9 b6 c1 bc
       0.044021882 -0.11204079 -0.0077256034 -0.02364667
000180 9f f4 93 3d 82 83 c8 bd 02 e3 83 3d f9 9a 8b bd
       0.07224392 -0.09790708 0.06439783 -0.06816668
000190 90 0d fb bc f3 b0 8a bd 67 44 8f 3d 91 28 f4 bd
       -0.030646116 -0.06772032 0.069954686 -0.119218
0001a0 b7 e0 7a 3c ad 93 7e bd 5f 69 ee 3a 0b 4f ab 3d
       0.015312365 -0.062152553 0.0018189362 0.083646856
0001b0 49 55 01 be a9 dd 9c bd ac d7 54 3d 46 e9 20 bd
       -0.1263019 -0.07659466 0.051963493 -0.039284967
0001c0 e3 a1 b0 bd a3 ba 99 bc 0e f5 bb bd f6 54 a8 3d
       -0.086246274 -0.018765753 -0.091776 0.0821933
0001d0 1e e5 dd 3d dd 87 b7 bc 6b 2d 31 3b df 44 cd 3c
       0.10834716 -0.022403652 0.0027035128 0.025057254
0001e0 53 80 db bd 67 52 a4 3d 93 5a 84 3d 81 94 a9 bd
       -0.10717835 0.080235295 0.06462588 -0.08280278
0001f0 96 a6 0c 3d d2 a8 ff bd 81 3d db bd 82 18 c9 bd
       0.034338556 -0.12483372 -0.1070509 -0.098191276
000200 e5 00 08 3d af 35 e9 3c 3c c1 c5 bd 6d 9d 85 bc
       0.033203978 0.028467981 -0.09655997 -0.016310418
000210 78 09 8a 3d fb 82 c5 bd 8e 05 ed bd c2 41 cb 3d
       0.06740087 -0.09644123 -0.11573325 0.09924652
000220 34 9b f8 3c f1 2c 38 bd d0 5d 9f 3d d1 5b e2 bd
       0.030347444 -0.044964734 0.07781565 -0.11052669
000230 c6 af 8c bb cb 5c b1 3d 05 5a 11 bc 2e 7b 99 bd
       -0.0042934148 0.08660277 -0.00887156 -0.07494198
000240 8e ec bf bc 0c e5 81 bd b0 91 96 ba c3 86 b7 3d
       -0.023428228 -0.06342515 -0.001148751 0.08961251
000250 14 10 db bc 14 91 a3 3d be 67 5e bd a0 06 d0 bd
       -0.026741065 0.07986656 -0.054298155 -0.101575136
000260 c9 40 b8 3d 98 2d 39 bd 01 42 ce bb 54 fd cb bd
       0.08996732 -0.045209497 -0.0062944894 -0.09960428
000270 d2 bc ea bd 62 21 a7 bd 96 1b dd bd 2e 56 9e bd
       -0.11461796 -0.08160664 -0.10796277 -0.07731281
000280 0e 7d 7a bd 21 24 cc 3d 2b 29 1b bb 42 6a 8f 3b
       -0.061154418 0.099678285 -0.002367566 0.0043766806
000290 3f 77 19 3d 17 c3 12 3d 8e 14 a0 3b 89 af b3 3c
       0.037467238 0.035830583 0.004885263 0.021934288
0002a0 66 4d 9c bd 13 c8 bb bd 12 d4 ba 3d 49 bf be 3c
       -0.0763195 -0.091690205 0.091224805 0.023284571
0002b0 4d 6d 63 bd 13 81 ae 3d 3a 9a c3 3d 43 18 33 bd
       -0.05552416 0.08520713 0.09550901 -0.04372431
0002c0 93 8c 80 3c a5 11 cd 3d 10 da 62 bd f2 61 6e 3c
       0.015692031 0.10013131 -0.05538374 0.014549719
0002d0 11 7f 6d 3d d3 25 c9 3d 77 06 a0 3d 29 af 3f bd
       0.057982508 0.098216675 0.07813733 -0.046797905
0002e0 d3 d2 22 bd 38 a5 ea bd 74 e3 80 bd 87 cf d0 bd
       -0.03975184 -0.11457294 -0.06293383 -0.10195833
0002f0 5e cd 63 3d 7d 0f 5b 3c d8 55 94 3d 5c 11 b6 bd
       0.055615775 0.013370392 0.07242936 -0.0889003
000300 b4 c6 3b 3d 77 07 7d bd ac 53 c9 3d c5 5c 57 bd
       0.045843795 -0.061774697 0.09830412 -0.052578706
000310 cf c3 97 3d 2d 27 3d bd d0 c1 9b 3d c3 c4 c2 3d
       0.074103944 -0.04617994 0.07605326 0.095101856
000320 87 40 ca 3d 18 9e 20 bd 4b c5 fd bb a8 ae c4 3b
       0.09875589 -0.03921327 -0.0077444664 0.006002266
000330 bc f9 f7 3d 8e b5 d9 3d 85 fb 2f bd 10 19 d5 3d
       0.1210818 0.10630332 -0.042964477 0.10405171
000340 d8 e9 a4 bd 98 9d c8 3c 0c 77 c2 3b df 89 81 3d
       -0.08052415 0.024489209 0.0059346016 0.06325125
000350 a4 2f 77 bd ed 5d 1e 3d 8a c7 47 3d d4 f3 be 3d
       -0.060348168 0.038663793 0.04877428 0.0932385
000360 04 dc e4 3d 08 70 94 3d 45 94 9a 3d 70 33 96 3c
       0.11174777 0.07247931 0.075478114 0.018335074
000370 6e 73 10 3d 9a 2f e4 3d 41 83 b5 3c b0 ca ba 3d
       0.035266332 0.11141892 0.022157313 0.09120691
000380 19 49 16 bc d7 3f b8 bd 37 48 ac 3d 04 81 cd 3c
       -0.009172701 -0.089965515 0.084122114 0.025085934
000390 37 84 d7 bd 26 c7 37 3d 15 6c 9c bd 8e 28 e8 bc
       -0.10523265 0.044867657 -0.076378025 -0.02833965
0003a0 87 a3 2f bd 05 2b e0 3c 58 c9 aa bd 11 08 a7 bd
       -0.04288056 0.027364263 -0.083391845 -0.081558354
0003b0 26 52 b6 3c f9 d8 84 bd a6 61 03 bd 26 8a e2 bd
       0.022255968 -0.06486697 -0.032075547 -0.11061506
0003c0 d4 b3 a3 bd 58 b0 38 3d 03 8a c4 3d 9f 90 ab 3d
       -0.07993284 0.04509005 0.09596636 0.08377194
0003d0 b6 0f e7 3d ae 6d f0 bc c3 59 4b 3d 03 f6 b5 3d
       0.112822935 -0.029349174 0.04964615 0.08884814
0003e0 42 27 20 3d 1d 10 96 3d 30 81 4e 3d 8e 40 ff 3c
       0.03909994 0.07327292 0.05041617 0.031158712
0003f0 03 fe bd bd 0e 1c d6 3d 6f 59 d2 3d 2d 76 e0 3d
       -0.092769645 0.1045457 0.10270964 0.1096004

bias f4 [32]
000000 9f cb 9a 3d 93 1d 55 3d 57 10 3b bb 49 56 c8 bc
       0.07558369 0.052030157 -0.0028543675 -0.024455206
000010 8c f5 a7 3d 2c c6 af 3d b1 30 02 bd f2 e6 ee 3d
       0.08201131 0.0858272 -0.031784717 0.11665143
000020 88 77 a9 bd 54 d9 f7 3d 5a d4 b8 3d 70 e6 96 bd
       -0.08274752 0.12101999 0.09024878 -0.07368171
000030 8c 27 50 bc bf 27 c0 3c 37 56 03 3e 94 13 ae 3c
       -0.012704741 0.023456452 0.12825857 0.02124957
000040 b3 04 76 3d b9 56 ab bd ea 3c ef 3c ae 28 b6 3d
       0.060063075 -0.083661504 0.02920385 0.08894478
000050 bf ae 94 3d 6e df 20 3c 97 c4 9f 3d 39 6a fa 3d
       0.07259893 0.009818895 0.078011684 0.122272916
000060 bc 9d ba bd 85 a9 45 bd 31 f9 6f 3d 3f 71 8b bd
       -0.09112117 -0.04825737 0.058587257 -0.06808709
000070 41 83 56 bd 6c 56 54 3c 29 0c fa bd 6a a5 c7 3d
       -0.052371267 0.012960058 -0.122093506 0.09748347

weight f4 [32, 32, 5, 5]
000000 16 ff a3 bc 17 02 08 bd 35 fe 96 3b 0e ad 07 3d
       -0.020019095 -0.033205118 0.0046079406 0.033124022
000010 fc 0e e9 bc d7 a9 09 bd ac b4 5d bb d5 cd 9a 3c
       -0.028449528 -0.033609238 -0.0033829613 0.018896976
000020 d5 fe 99 bc 6f a1 a8 3c 75 6d 8e bc e3 7e b7 3c
       -0.018798271 0.02058479 -0.017386178 0.022399371
000030 b7 bd 17 bd 05 3c 2e 3c 21 f3 00 bd 26 f9 81 bc
       -0.03704616 0.010634427 -0.031481866 -0.015865874
000040 5b a5 ce bc 3e f6 af ba e8 45 81 3c d6 9e f7 bb
       -0.025225332 -0.0013424826 0.015780404 -0.0075567765
000050 1d c7 c3 3c c8 1b 05 3c 76 6e 03 bd ad 0b 69 bc
       0.023898656 0.008124299 -0.032087766 -0.014223975
000060 b9 99 1d bb 25 4e ff bc dc 45 d4 bc 82 0b ca 3a
       -0.0024047925 -0.031165192 -0.025912218 0.0015414807
000070 43 82 ee bc 3d 14 fa 3c 16 51 ac 3a ff b9 a3 bc
       -0.029114848 0.030527228 0.0013146724 -0.01998615
000080 d2 ea 03 bd 85 7d bd 3c 97 82 8d 3c ce d6 c7 3b
       -0.032206364 0.023131141 0.017274184 0.0060986048
000090 a3 c5 3c bc 95 b1 0c bd b2 c6 79 3c e4 a9 19 3c
       -0.01152173 -0.034349043 0.015245127 0.009378884
0000a0 2d 58 fd bc b2 cc 13 bb b1 5d 92 bb 27 66 3c bc
       -0.030925835 -0.0022552428 -0.0044667353 -0.011498964
0000b0 8e b4 ad 3c 19 48 f6 bc 58 9c 89 3c bf 74 a6 ba
       0.02120426 -0.030063676 0.016798183 -0.0012699588
0000c0 aa 5a 4e bc 01 f8 99 bc 7e 3e 85 bb 52 66 07 bd
       -0.012594858 -0.018795015 -0.0040662875 -0.033056565
0000d0 14 4b c5 3c 3f bc 1a bc b3 0a 0b 3d 04 de f8 bc
       0.024083652 -0.009444295 0.03394575 -0.030379303
0000e0 26 3d 2e 3c a4 b1 05 3d 02 f7 b7 bc f9 63 fa 3c
       0.010634696 0.032640114 -0.02245665 0.030565249
0000f0 2b 73 93 bb 9d fb ec 3c 0d 45 f1 3c 3c ce ea 3c
       -0.004499813 0.028928572 0.029451871 0.028662793
000100 4c 79 01 3d a9 4c 11 3b d0 0c 94 3c af 0c 01 bd
       0.03160982 0.0022170937 0.018072516 -0.031506237
000110 42 ce 7c bb 5d aa f8 bc ea a5 f3 3c b7 44 1b 3b
       -0.0038575088 -0.030354673 0.0297422 0.002369208
000120 81 25 0a bb ae b3 02 bc b8 a2 fe 3c ce ca 09 bd
       -0.0021079483 -0.007977409 0.03108345 -0.033640675
000130 b5 cb 95 bc 8c 49 94 ba a0 b7 0a bd 8b 0e f1 3c
       -0.018285612 -0.0011313423 -0.033866525 0.02942588
000140 c2 3a 45 3c 37 28 38 bc 07 a5 c2 3a ad 03 f2 bc
       0.012037935 -0.011240057 0.0014850207 -0.029542768
000150 50 f0 c3 3c 61 7c 97 39 42 86 02 bd 37 7f d3 3c
       0.0239183 0.00028893634 -0.03186632 0.025817497
000160 61 69 b7 bc d4 5c 8e bc ee c6 bb 3b 72 c4 3d bc
       -0.022389116 -0.017378248 0.0057305014 -0.011582481
000170 8b 24 6d bb b3 ba 40 3c ff e1 22 bc 61 68 03 bd
       -0.0036185111 0.011763263 -0.009941577 -0.032081965
000180 de 41 f5 bc 6e 51 c9 bc 10 6d 0d bc d6 0e eb bc
       -0.029938634 -0.024574962 -0.00863196 -0.028693598
000190 20 68 99 bc 5e b6 01 bd 54 4e 41 b9 86 b3 73 bc
       -0.018726408 -0.03166806 -0.00018435094 -0.014874345
0001a0 ec 15 2d bb 71 bc 12 3c 9c a3 10 bc 54 d2 80 3c
       -0.0026410772 0.008956061 -0.00882807 0.015725292
0001b0 2d 8d 13 3c 78 18 06 bd 68 7f a5 bc b2 9d f2 bc
       0.009005827 -0.03273818 -0.020202354 -0.02961621
0001c0 35 a9 22 bd a4 90 a8 3b a2 cb 0d 3c 12 24 4b 3c
       -0.03971215 0.0051441956 0.008654507 0.012398737
0001d0 47 56 d1 3b 20 55 16 bd ca a7 9d 3c 4a e9 54 3c
       0.006388459 -0.036702275 0.019245047 0.012995074
0001e0 7f fd 0c 3c 1e ed 6b 3c 20 dd 28 3b a4 fe a1 3c
       0.00860536 0.014399795 0.0025766566 0.019774742
0001f0 31 1c 2d 3a 35 00 93 bc a6 d6 03 bd e9 fc a2 39
       0.0006603627 -0.017944435 -0.032187127 0.0003108748
000200 a3 c4 3f 3c f3 83 a9 3b af 86 ff bc 6d 63 b4 3c
       0.011704597 0.0051732003 -0.031192152 0.022020066
000210 d3 a4 eb bb 9a 14 95 3c 4d 39 6c 3c 94 59 0e bd
       -0.0071912794 0.0181983 0.014417958 -0.034753397
000220 66 f2 c4 3b 58 36 13 bd 21 6f f5 bc 14 5f a8 ba
       0.0060103415 -0.035940498 -0.029960217 -0.0012845718
000230 11 a8 09 bd 5f c7 01 bd 29 6b 59 bc 7f 35 c1 3c
       -0.033607546 -0.031684276 -0.013270178 0.02358508
000240 c1 5c 63 3c 6d 6d 60 3c 61 f2 86 3c 76 13 82 bc
       0.013877095 0.013697964 0.016472997 -0.01587842
000250 58 49 04 3b 5a b6 fa 3c a2 76 a3 ba 00 0d 2d 3c
       0.0020185318 0.03060453 -0.0012471268 0.0105621815
000260 ab 41 17 bc 3b 6a cd bb 45 ec 3a 3c 7b 3b fa 3c
       -0.009231965 -0.006268767 0.01140887 0.03054594
000270 16 ae 84 3b bd f8 ba bb 9f 96 ce bc 93 0a 1c bb
       0.004049073 -0.0057059214 -0.025218306 -0.0023810014
000280 73 b8 ec 3c 01 98 9c 3c e4 1d 39 3c 44 4f 7c 3c
       0.028896546 0.01911545 0.01129863 0.015399758
000290 29 d2 de bc 72 78 e3 3c 03 f4 ec 3c 60 8c d1 bc
       -0.027199822 0.027767394 0.028924948 -0.025579631
0002a0 f8 2f 05 3c b8 c1 b7 bc a5 05 c8 3b 9c 32 9f 3c
       0.008129112 -0.02243124 0.0061041885 0.019433312
0002b0 ab 26 5d 3b 2c 8a a4 bc 3b 60 39 3c 71 35 d1 3c
       0.0033744972 -0.020085417 0.011314447 0.025538178
0002c0 53 3d 8a 3c d5 20 43 bc 35 c6 a0 bc d9 f5 ef 3c
       0.016874945 -0.011909683 -0.019625762 0.029292034
0002d0 d5 05 c0 3c 60 d7 35 bc 5a b3 36 b8 51 86 09 3b
       0.02344028 -0.011098713 -4.3559216e-05 0.00209846
0002e0 58 41 d3 3c b6 f8 b1 3c da 0a 0a bd 8a 72 33 bc
       0.025787994 0.02172504 -0.033701755 -0.010952601
0002f0 44 92 e2 3c 32 f3 f5 ba b3 19 b4 bc 30 33 0d bd
       0.027657636 -0.0018764494 -0.02198491 -0.034472644
000300 6d c1 75 bb 98 5c 04 3d 9a 8b c0 bc d5 e2 b3 3b
       -0.0037499324 0.032314867 -0.023504067 0.005489687
000310 f0 42 e4 bc ba c9 4d 3c 61 b7 84 3c 59 9c a9 bc
       -0.02786395 0.012560302 0.016200723 -0.020704435
000320 bb 12 b2 3c 07 e8 89 bc b4 be 00 3d 85 9b 5c 3c
       0.021737447 -0.016834272 0.03143187 0.013464813
000330 ce f7 0a 3c 85 d6 03 3d dc 9a b4 3b ea df cb 3a
       0.008481933 0.032187004 0.0055116247 0.0015554402
000340 80 fc 04 bc fd 83 24 3c 6b bd 31 3c 26 f4 06 3d
       -0.008116841 0.010041234 0.010848383 0.03294768
000350 9f 38 2e 3b ed 50 1a bc 3f 21 92 3c 10 1d 48 39
       0.0026584042 -0.009418708 0.017838119 0.00019084313
000360 e0 cf 0f 3d ff 91 ca 3c 24 a8 d6 3b b7 9f d0 3a
       0.035110354 0.02472782 0.0065508056 0.0015916739
000370 34 fd ac bc 06 13 12 3d 27 3f c1 3c 97 e2 1e 3d
       -0.02111683 0.035662673 0.023589684 0.03879031
000380 41 30 74 3c b4 33 b2 bb 77 e8 e8 bc e5 8d 84 3b
       0.014904083 -0.0054382924 -0.02843116 0.0040452355
000390 fd 48 e9 bc 95 0d b3 3c be 94 2c bd 5e 94 df bc
       -0.028477186 0.021857062 -0.04213404 -0.027292427
0003a0 71 0e 84 bc 42 20 9d 3c 78 66 cd 3c 11 df 44 bc
       -0.016120167 0.01918042 0.025073275 -0.012016074
0003b0 14 bd 05 3c 7b 0f 15 bd 10 05 c8 bc 1b e2 14 bd
       0.0081627555 -0.036391716 -0.024416476 -0.036348443
0003c0 3e 0a 7d 3c 11 51 c2 bc dd c6 e4 ba cd 86 3e bb
       0.015444336 -0.023720296 -0.0017454285 -0.0029072047
0003d0 d8 ca 84 bc ee 79 ae 3c 7b 8b 1d bd 04 79 0b bd
       -0.016210005 0.021298375 -0.038463097 -0.034050956
0003e0 a4 9a 64 bc 9c fe a3 bc e0 0c 1e bd 05 43 00 bd
       -0.013952885 -0.020018868 -0.038586497 -0.031313915
0003f0 a1 06 da bc 4a f9 74 3c 0b db 79 3c ae ad 3b 3c
       -0.026614489 0.014952013 0.015249978 0.011454983

bias f4 [32]
000000 49 8a 94 bc 54 79 d5 bc db 82 1a bc ca f8 dd bc
       -0.018132346 -0.02605883 -0.009430612 -0.027096171
000010 59 9a 6c 3c 6e d2 19 bc c5 2a 9e bc 66 06 43 bc
       0.014441096 -0.009388549 -0.019307503 -0.011903381
000020 c4 a7 26 3c d8 f7 9e 3b a3 b9 e1 bb 2b a1 ab bc
       0.010171834 0.0048513226 -0.0068885847 -0.020950874
000030 75 4f f7 3c df 0f 7d bc 50 6e 9f bc 09 2f c8 bb
       0.030189255 -0.0154456785 -0.01946178 -0.0061091227
000040 44 ee 1a 3d 9c 4c d2 bc ac 3a 7b bc 83 02 4a bb
       0.037824884 -0.025671296 -0.015333813 -0.003082425
000050 97 ae fa 3c 29 6a 10 bd bf ae 80 3c c7 5f 2a bc
       0.030600829 -0.035257492 0.015708325 -0.010398812
000060 43 8c 50 bb ab 92 f0 bc d0 f9 82 bc c8 41 a8 3c
       -0.0031821884 -0.029366812 -0.01598826 0.02053918
000070 ce 3e ff 3c 82 a8 c8 bc ab dc f9 3c 42 06 e7 3c
       0.031157877 -0.024494413 0.03050073 0.028201226

weight f4 [64, 32, 5, 5]
000000 78 aa 11 bc 38 40 7f 3c 43 f5 89 bc a1 20 03 3c
       -0.008890741 0.015579276 -0.016840583 0.008003385
000010 d1 15 7f 3c d3 ee 87 bc ef a0 f6 3a 09 13 a7 3b
       0.015569166 -0.016593372 0.0018816272 0.0050987047
000020 e4 95 55 3a 9e fd 30 3b d6 33 2e bc 5e dc 9a 3c
       0.00081476406 0.0027006636 -0.010632476 0.018903907
000030 62 27 83 bc 59 17 05 3d 56 18 13 3d 1a 03 00 bd
       -0.01600999 0.03249297 0.03591188 -0.031252958
000040 8e 79 6f 3c b9 f5 50 bc b9 d6 fe bc de 49 16 ba
       0.014616383 -0.012753897 -0.031108247 -0.0005733053
000050 51 bb 0b bb ce 0f 59 3c 9d 0e 1e bc 65 09 96 3c
       -0.0021321366 0.013248397 -0.009647039 0.018315027
000060 27 47 e2 bc fd 0c a4 3b 5b fa 0f bc 3d c7 24 3d
       -0.027621819 0.005006431 -0.008787717 0.04022907
000070 1f ae 68 3c 2d 4c 65 3c a8 47 13 3c 23 38 e9 bc
       0.01420167 0.0139952125 0.008989252 -0.02846915
000080 85 97 18 3c 5c 37 7c 3c de e7 1b 3c ce 39 e1 bc
       0.009313469 0.015394058 0.009515731 -0.027493384
000090 31 97 1b bd 4a 1a bb bc fd ce b8 3b 1a 9e a5 bb
       -0.037985984 -0.022839684 0.0056399093 -0.0050542476
0000a0 01 e5 03 3d b6 3b ca 3b a7 0b ba bc 0a 75 b7 bb
       0.032200817 0.006171669 -0.022710634 -0.005598669
0000b0 c0 ae a4 3c 5d 7c ba 3c aa e8 be bc be e9 10 bd
       0.020102859 0.02276438 -0.023304302 -0.035379164
0000c0 12 6a 00 3d 7a b3 94 3c 46 3c 9e 3c 05 54 fa 3c
       0.031351157 0.018151987 0.01931585 0.030557642
0000d0 0f 29 8f bc 4d 6d 90 3b df de f0 3c 63 b8 98 bb
       -0.017475633 0.004407561 0.029403148 -0.0046606525
0000e0 5a 8c a4 bc cb 5b 3b bc 93 b9 a9 bc a1 19 f5 3c
       -0.020086456 -0.011435459 -0.020718371 0.029919447
0000f0 e6 76 b2 3c 8d 68 97 3c 56 0a e7 bc dd a3 e7 bc
       0.02178521 0.01848247 -0.02820317 -0.028276378
000100 87 83 c4 3c fc aa cc bc 24 ab 1c 3c 6e 34 00 3d
       0.023988498 -0.024983875 0.0095622875 0.0313
000110 24 13 8d bc 7e 95 c1 3c 1d 2a a0 bb 25 a8 fa 3b
       -0.017221041 0.023630854 -0.004887833 0.007649439
000120 72 76 90 3c 34 b2 c1 3a 97 82 0a bd be 52 b2 3c
       0.017634604 0.001477784 -0.033815946 0.02176797
000130 d8 32 ab 3c 9d 0c b8 bc 96 2e c9 bc 6c 68 a7 3c
       0.020898268 -0.022466952 -0.024558347 0.020435534
000140 6c 81 93 3b 49 2e da bc 1e ef 2e 3c dd f4 02 3d
       0.0045015123 -0.026633399 0.010677127 0.0319718
000150 55 09 08 bc 21 da 98 3b d4 e1 67 3c 94 56 1a 3d
       -0.008303006 0.004664675 0.014152963 0.037680224
000160 aa cb fd 3a b2 28 d8 3c 7f d8 a1 3c 3b 8e a9 3c
       0.0019363065 0.026386593 0.019756554 0.020697704
000170 61 28 01 bd 9f 73 c5 bc fb f7 78 3c 36 ba fd bc
       -0.03153265 -0.024102984 0.015195842 -0.030972581
000180 d8 65 93 3c eb e8 e8 3c 05 69 b4 3b 48 0c 4f bc
       0.017992899 0.028431376 0.0055056834 -0.012637205
000190 6f 97 8d 3a b7 15 7a ba 1c 41 c6 3c 0c a3 4a 3c
       0.0010802577 -0.0009539979 0.024200968 0.012367975
0001a0 d9 2b 00 bb 86 30 60 3c 1e 3b 8f 3c 90 40 9a 3c
       -0.0019557385 0.013683444 0.017484244 0.018829614
0001b0 71 8b dd 3c 72 47 e5 3c 3e 75 86 bc 10 5c 9e bc
       0.02704403 0.02798817 -0.016413327 -0.019331008
0001c0 d1 45 ca 3c 8e a9 34 bc 40 9a 31 3c 4c 80 0d bd
       0.024691494 -0.011026753 0.010839999 -0.03454618
0001d0 0f d2 eb 3b cf 3c ed bc b4 db 0a bd a7 70 9f bb
       0.007196672 -0.02895966 -0.03390093 -0.004865724
0001e0 95 bb ea 3b 70 6f b3 bc f7 07 e9 3c 4b 1b a1 3b
       0.007163475 -0.021903723 0.02844618 0.0049165837
0001f0 fc 22 81 3c 54 f6 d8 bc 8a 52 ef bc 3b 4f 19 bd
       0.015763752 -0.026484646 -0.029214162 -0.037429076
000200 52 9d 06 bd e1 cd c3 bc 05 aa 58 bc e8 d6 01 bd
       -0.032864876 -0.023901882 -0.01322413 -0.03169909
000210 45 99 d4 3c 67 6d 8e 3c dd 51 03 bc 37 2b b8 bc
       0.02595199 0.017386151 -0.008015123 -0.022481544
000220 bc 91 13 3c 91 bc d7 bc 67 c2 c4 3c 52 60 a3 bb
       0.009006914 -0.026335033 0.02401848 -0.0049858475
000230 2a a5 90 bc e5 01 4d 3c 70 f9 dc bc 78 3c 03 3d
       -0.017656881 0.012512659 -0.02697441 0.03204009
000240 b0 24 16 bd 31 86 00 bd b2 b9 02 3d a9 48 c0 3c
       -0.03665608 -0.031377975 0.031915374 0.023472147
000250 e8 13 ab bc a6 dd 5a bc bb d4 68 bc 00 ca 0d 3d
       -0.020883515 -0.013358509 -0.014210875 0.03461647
000260 fe 95 ac 3c 34 c3 b5 3c 58 56 e3 bb 83 30 28 3b
       0.021067616 0.022187807 -0.006937783 0.002566368
000270 9f bf de 3c f9 02 f2 3c c8 57 ec 3c e2 b8 09 3d
       0.027190981 0.029542433 0.028850451 0.033623584
000280 09 a2 99 3c b9 02 36 3d c9 8c 1a 3d 50 ca e5 3c
       0.018754022 0.04443619 0.03773192 0.028050572
000290 62 5a 22 3d e3 7b 8c bb 92 d4 82 bb 70 15 9c 3c
       0.039636977 -0.0042872294 -0.0039926255 0.019053191
0002a0 49 33 fe 3c 61 b9 ee 3c 91 2c 45 3c c6 37 5f 3c
       0.031030314 0.02914113 0.012034551 0.013624137
0002b0 4d b8 a9 bc 7f c2 0f 3d fb e3 d6 bc 1f ab 01 ba
       -0.020717764 0.035097595 -0.026231756 -0.00049464585
0002c0 81 df 0e 3a fd 30 0c 3c a8 f1 d3 bc dc 7e 02 3c
       0.0005450175 0.008556602 -0.025872067 0.007964816
0002d0 e1 f1 1c 3d c4 27 69 bc b8 0b 99 bc 18 31 ae 3b
       0.03831661 -0.014230672 -0.018682346 0.005315911
0002e0 01 eb b9 bc da 72 51 3c b0 9e da 3c e0 3c bd bb
       -0.022695066 0.01278373 0.026686996 -0.005775079
0002f0 fd 31 30 bc ab e1 88 bc 0c b0 1b bc c0 82 ba bc
       -0.010754106 -0.01670917 -0.009502422 -0.022767425
000300 a8 02 d8 bb e0 25 10 bb 97 1f 8c 3c b6 00 0c bd
       -0.0065921135 -0.0021995232 0.017104907 -0.034180366
000310 5c 83 ea bc fa 97 0b 3d 8d b6 51 3a 00 23 d5 b9
       -0.02862709 0.034080483 0.00079999195 -0.00040652603
000320 3f 04 c9 ba 1e 4a 1c 3d 5e 8e ed b9 8b 52 26 3d
       -0.0015336348 0.03815662 -0.00045310234 0.040606063
000330 eb 1a 62 bb 0d b1 9b 3c 04 68 b9 bc 7f f6 b8 bc
       -0.0034500908 0.019005323 -0.022632606 -0.022578476
000340 37 d7 1c 3d 92 3e 57 bc f8 3d fa 3c 27 93 55 bc
       0.038291182 -0.0131374765 0.030547127 -0.013035572
000350 c2 eb 19 3d a8 4e db 3c 65 94 69 3b 2a 0c 2e bb
       0.03757835 0.026770905 0.0035641429 -0.0026557543
000360 b3 c1 a4 3c ea bf 7e bc 9f 63 a6 bc a4 2f fb 3b
       0.020111894 -0.015548686 -0.020311175 0.0076655913
000370 07 e8 a3 bc 3d b7 d5 3c ed cf 34 bc 0e ba d9 bc
       -0.0200081 0.026088351 -0.0110359015 -0.026577976
000380 5c af b5 bb 56 1a 1c bc 2a 06 24 bc 08 90 e9 3c
       -0.005544586 -0.009527763 -0.010011235 0.028511062
000390 70 c0 b9 3c cb 04 95 bc e3 92 0d 3d 31 00 bb bc
       0.02267477 -0.018190762 0.03456391 -0.02282724
0003a0 1b 00 15 bc 9e bb 03 bd f2 84 32 bc 98 84 46 3c
       -0.009094263 -0.032161348 -0.010895954 0.012116574
0003b0 c2 ed d3 bc 76 c8 e4 3c 01 22 b6 3a 12 29 10 3d
       -0.025870208 0.027927618 0.0013895632 0.035195418
0003c0 71 fa d3 bc 46 0c b3 3a d8 81 d0 bb 59 ec 60 3b
       -0.025876256 0.0013660274 -0.006363135 0.0034320562
0003d0 ed 0d fa 3c 67 35 4f 3c 01 76 f2 bc f9 2c 6f bc
       0.030524218 0.012647009 -0.029597284 -0.014598125
0003e0 84 8d 84 3c 49 9c 5e ba f6 23 45 3c 16 0f a4 bc
       0.016180761 -0.0008491916 0.0120325 -0.020026725
0003f0 ac 20 02 3d 27 0d f1 39 a2 1a 21 bc 48 d1 7c 3a
       0.03176944 0.000459769 -0.00983301 0.00096442224

bias f4 [64]
000000 8c 16 21 bd e9 94 1a bd 7a cd 40 3c 8c 5a 13 bc
       -0.039328143 -0.037739668 0.011767739 -0.008993756
000010 7b 8f c0 bc 3c da c2 3c c8 1c 49 bb 51 8a 08 3d
       -0.023505917 0.023785703 -0.003068732 0.033335034
000020 eb 65 0f 3c 39 ec 04 bc 89 23 46 bc e4 36 a8 3c
       0.0087523265 -0.0081129605 -0.012093433 0.020533986
000030 49 59 cf bb 6e 65 05 bd 71 22 1a bd 25 82 13 3d
       -0.0063277823 -0.032567434 -0.037630502 0.036012787
000040 61 f9 a9 bc c6 ab a1 3c 53 18 0e bd 3a d8 a4 bc
       -0.020748796 0.019735228 -0.034691166 -0.020122636
000050 9a c7 d3 3c 1c b7 da bc dd f5 fe 3c fd ec 6f 3c
       0.025852013 -0.026698641 0.031123096 0.014643905
000060 ad 1e f7 3c d2 eb a6 bb 30 3a e5 3c 1d 62 2a 3c
       0.030165995 -0.00509403 0.027981848 0.010399369
000070 be 47 8e bc 74 2a c5 3c 45 ba e9 3c a6 6d 5d 3c
       -0.017368194 0.024068095 0.028531203 0.013514912
000080 8c 50 b7 bc 72 d0 52 3b f0 f8 b9 bc 7a ba 9f b9
       -0.022377275 0.00321677 -0.02270171 -0.0003046578
000090 5f 1a 08 bc 73 a0 c7 bc 88 45 1a bd c1 28 1f 3d
       -0.008307069 -0.0243685 -0.037663966 0.038857225
0000a0 c1 a6 08 3d 4b ec 79 bc db 7f 34 3d 06 63 cc bb
       0.033362154 -0.015254091 0.044067245 -0.0062373905
0000b0 2c 5f 85 bc b2 a8 6a 3c b0 2e 13 3d 65 8c 83 bc
       -0.016280733 0.014322447 0.035933197 -0.016058156
0000c0 6f d1 ed 3c 49 93 b7 3c bc 72 97 bc 6d 51 6d bc
       0.02903053 0.022409098 -0.018487327 -0.014484745
0000d0 4e 1b 9c 3b 75 5d fe ba 87 06 1e 3c 17 2d d9 3c
       0.004763997 -0.0019406514 0.009645111 0.026510758
0000e0 48 a7 04 3d 09 43 b9 bc a6 23 5d 3c 4a ea 89 bc
       0.032386094 -0.022614973 0.013497269 -0.01683535
0000f0 02 7d 23 bc c6 43 21 bc 93 9a 07 bc dd dd 64 3c
       -0.009978535 -0.009842819 -0.008276599 0.013968912

weight f4 [64, 1024]
000000 14 02 97 bc b0 0e 3f 3b 86 08 87 bc 4c 36 a8 bb
       -0.018433608 0.0029153042 -0.016483556 -0.005133426
000010 45 e4 94 bc e4 16 a8 bb 83 18 ba bc 98 61 db bc
       -0.018175254 -0.005129682 -0.022716766 -0.026779935
000020 55 55 35 bc 40 fe e2 3b da 2b f6 bc fa 7f e3 3c
       -0.011067708 0.0069272816 -0.030050207 0.027770985
000030 1c b6 ee bc 1f 99 7b 3b 87 6a ba 3c 2a a8 b4 bb
       -0.02913957 0.0038390828 0.022755874 -0.005513211
000040 40 f2 ad 3b 6e 9c ab bc 87 a1 09 3c 84 03 ad bc
       0.0053084195 -0.020948615 0.0084003275 -0.02111984
000050 81 71 e3 bc 13 be 2c 3c de 93 70 3c 53 a0 7d 3c
       -0.027764084 0.010543364 0.014683692 0.015480119
000060 77 b7 0f 3c c6 84 f6 bc 14 2a 20 bc 55 8a 58 3c
       0.008771769 -0.030092608 -0.009775657 0.013216575
000070 eb 19 b5 bc 65 1e 70 3c c1 81 57 3c 14 77 3f 3c
       -0.022107085 0.014655684 0.013153494 0.011686105
000080 f9 9a 36 bc 2c 33 da 3c 5a 1a b7 bc 7f 09 53 3c
       -0.011145347 0.026635729 -0.022351433 0.012880682
000090 7d de 46 3c 49 d5 a4 bc 63 fc d7 3c 43 1c 1d 3c
       0.012138006 -0.020121234 0.026365465 0.009589258
0000a0 06 bd 2c bc 20 ba 5c bc 03 d4 3c bc a5 07 57 bc
       -0.010543114 -0.01347211 -0.011525157 -0.013124381
0000b0 87 3b 97 bc c5 74 e3 bc 65 27 a0 3c d5 78 c4 3c
       -0.018461002 -0.027765641 0.019550035 0.023983398
0000c0 a2 c6 74 3c f7 9a 9a bc a7 b9 bb 3c 69 99 ea bc
       0.014939936 -0.018872721 0.022915674 -0.028637605
0000d0 f0 c6 a5 3c 49 76 03 3c 09 1f ff bb b9 53 f6 3c
       0.020236462 0.008023807 -0.007785682 0.030069219
0000e0 d1 8a b0 3c 23 53 ac 3c 6b 50 cf bc 02 cd 9f bb
       0.021550568 0.021035736 -0.025306901 -0.0048767338
0000f0 cd dd 56 3c 24 5c 91 3c cd 26 39 3c cf 13 0a 3d
       0.013114405 0.017744131 0.011300755 0.033710297
000100 b2 2c dc 3c de 30 9c 3b 32 18 d1 bb dc 7e bb 3c
       0.026876781 0.0047665676 -0.006381058 0.02288764
000110 2c 2e 46 bc f0 d3 cd bc 63 66 45 bc 83 bf 7a bc
       -0.012095969 -0.025125474 -0.012048337 -0.015304449
000120 23 a0 da 39 62 ea 22 bc e9 b0 10 bc 52 63 35 3c
       0.0004169951 -0.0099435765 -0.008831241 0.011071043
000130 4e d6 62 3c d8 b4 d9 bc bc 0b df bc b9 2d c3 bc
       0.0138450395 -0.02657549 -0.027227275 -0.023825513
000140 ed ec 51 bb 60 10 d0 bb 7c a8 e4 3b de 09 8e 3c
       -0.0032032088 -0.0063496083 0.0069780927 0.01733869
000150 4e d7 d7 bc 68 6f c5 3c fc 1e d1 3c 19 66 70 bc
       -0.026347782 0.024100974 0.02552747 -0.0146727795
000160 8e 3c ca 3c 2b 4b 8d ba 92 ff a8 bb 69 e0 c2 3c
       0.024687078 -0.0010779848 -0.0051574195 0.023788648
000170 55 90 5b 3b b0 1a c6 3c c8 8c 29 bc 57 07 22 bc
       0.0033502777 0.024182647 -0.010348506 -0.009889445
000180 2f 8d c1 bc 96 b4 79 ba f0 63 ca bc c7 ff 80 bc
       -0.023626892 -0.00095255056 -0.024705857 -0.015746964
000190 26 3b d1 bc be 72 eb 3c d3 18 7e 3c 87 47 6e 3b
       -0.0255409 0.028741237 0.015508848 0.0036358552
0001a0 0e c3 e8 bc d9 11 c0 3c 33 cb f9 3c 49 5e 07 3c
       -0.028413322 0.02344601 0.0304924 0.008262225
0001b0 7b f5 ef bc e0 c7 b1 bc 29 75 b7 bc cc a3 d5 3c
       -0.029291859 -0.021701753 -0.022394734 0.026079081
0001c0 af b3 1d bc e4 73 85 bc 23 fc b1 bc 1a e2 0b 39
       -0.009625359 -0.016290613 -0.021726673 0.00013340302
0001d0 83 25 9b 3c be a6 e4 3c fc d4 a7 bc ab 0f c3 3c
       0.018938785 0.02791154 -0.020487301 0.023811182
0001e0 69 91 3f bc 12 f3 98 bc 4a be bb bc 5b e0 da bc
       -0.011692383 -0.018670592 -0.022917885 -0.02671831
0001f0 05 68 01 3d fd fd b8 bc 2b a1 06 3c 3d 14 c4 3c
       0.03159334 -0.022582049 0.008217136 0.023935432
000200 6d cb 68 3b eb 0e d9 3c ae d6 41 bc a2 bb 6f 3b
       0.0035521642 0.026496371 -0.011830969 0.0036580344
000210 6b 1b 98 bb 49 e0 2b bc 11 e5 c8 3c ae 41 92 bc
       -0.0046419404 -0.0104904855 0.02452329 -0.017853584
000220 c6 35 a2 3c 2e 85 d4 bc ed 75 64 3c b6 e7 8c bc
       0.019801032 -0.025942411 0.013944131 -0.017200332
000230 7f 00 d0 3c 6f ca 77 bc de e4 85 3c e1 97 c2 3b
       0.025390862 -0.0151239475 0.016344484 0.0059385155
000240 24 b8 01 3d 4b 44 b1 3c e6 65 0c bc 59 cf 56 bc
       0.03166975 0.02163901 -0.008569216 -0.013110959
000250 51 1c 86 3b 87 c3 73 bc d6 62 b6 ba af a1 05 3d
       0.004092731 -0.01487816 -0.0013914953 0.032624897
000260 0a a5 f4 3b e1 33 ff 3a e5 5f ee bb d6 cd a8 bc
       0.0074659633 0.0019470417 -0.007274615 -0.020605963
000270 aa 89 da 3c 50 1a 8d 3b 4d 7f b0 bc 43 19 be 3c
       0.026676971 0.004306115 -0.021545077 0.023205405
000280 72 63 65 3c 72 51 d1 3c 04 f2 03 3c f7 07 02 bc
       0.01400076 0.025551531 0.0080533065 -0.007936469
000290 6c be 57 bc 43 61 cf bc b0 5f 1a bc 48 17 d1 3c
       -0.013167959 -0.025314933 -0.009422228 0.025523797
0002a0 aa 85 08 bc cd b4 75 3c c5 e2 a3 3c 33 7f c5 3b
       -0.008332649 0.01499672 0.020005593 0.006027126
0002b0 d3 26 d3 bc f1 57 4c ba e2 1e 90 bc 64 32 43 3c
       -0.025775349 -0.0007795087 -0.017592851 0.0119138695
0002c0 61 a9 2d bc 4d 71 3a 3c 6f 15 ac bc 2d c8 7c 3c
       -0.010599465 0.011379552 -0.021006314 0.015428585
0002d0 3c 82 e2 3c de 63 11 3c ff 40 df 3c e2 14 af 3c
       0.027649991 0.008873908 0.027252672 0.021372262
0002e0 c7 1b b8 bc 38 69 d5 3c 0d 3f 15 3d bc 6d ab 3c
       -0.022474183 0.026051149 0.036437083 0.020926349
0002f0 71 d3 b0 bc 28 e5 38 3c ad 2f da 3c 02 1a ed 3b
       -0.021585198 0.011285104 0.026634062 0.0072357664
000300 ae 43 8b bc 9b fd d9 3c 59 67 ec 3c ab 88 a0 bb
       -0.017000046 0.026610186 0.028857874 -0.0048991046
000310 85 64 d1 bc a0 bc 6d bc 33 3b 7d bc af 06 8d bc
       -0.025560627 -0.014510304 -0.015456009 -0.017215101
000320 c5 c9 9c bc 54 24 ba ba a9 5b 6a bc f3 d2 fc bc
       -0.01913918 -0.00142015 -0.01430408 -0.030862307
000330 a3 cf ca 3b 0b 01 01 3b 4e 2d c2 bc 26 3f b7 bb
       0.006189303 0.001968446 -0.023703244 -0.0055922447
000340 54 88 66 3c ed ed c4 bc 3c 1a 40 3a 21 38 a1 bb
       0.014070589 -0.024039233 0.0007328128 -0.004920021
000350 c3 03 c2 bc 1a b5 83 3c 18 c1 68 bc 5f 3c bb 3c
       -0.023683434 0.016077567 -0.014206193 0.022855936
000360 3c 95 ab bc 8a 81 2d 3c e8 dc 84 3b 1b 57 07 bc
       -0.020945184 0.010589967 0.0040546544 -0.008260514
000370 ae 78 0a 3b 44 18 63 bc 91 de 09 bb f0 d2 e9 3c
       0.002112906 -0.013860766 -0.00210372 0.028542966
000380 e5 e5 ae bc 52 74 6b bc a5 8b d2 bc cb 26 b6 bc
       -0.021349857 -0.014370995 -0.025701353 -0.022235295
000390 2d 2e be 3c 63 9c a7 3c b4 1e a0 bc 82 46 d4 bc
       0.023215378 0.020460313 -0.01954589 -0.025912527
0003a0 69 30 d4 3c 91 37 8b bc 5b 30 cc 3c 28 6e 0c bb
       0.02590199 -0.01699427 0.024925401 -0.0021427963
0003b0 81 7b 94 3c 7f bb 22 bc d3 81 3a 3c c1 b3 bd 3c
       0.018125298 -0.009932398 0.011383492 0.023157002
0003c0 9a c6 a8 bc a9 10 ac 3c 8d bb ed 3c 74 64 1c 3c
       -0.020602513 0.021004038 0.029020095 0.009545434
0003d0 77 51 e1 3b 42 9f af bc cf 52 2e bc 30 1d 13 3c
       0.0068761664 -0.021438245 -0.01063986 0.008979127
0003e0 4e cb 51 bb 23 79 c9 bc 54 ce c4 bc 58 0c 78 bb
       -0.0032012048 -0.024593895 -0.024024166 -0.0037849154
0003f0 d6 bb 38 bb ed d4 cf 3c 39 f8 46 3c 29 77 9a bc
       -0.002818813 0.025370086 0.012144142 -0.018855648

bias f4 [64]
000000 2f de c7 bc f9 99 ea bb f1 3e 5d 3c 13 93 05 bc
       -0.024397938 -0.0071594683 0.013503776 -0.008152741
000010 4a a7 67 3c 22 58 1c 3d 3f 85 10 bd 54 be 5b bc
       0.014139006 0.038169987 -0.035283323 -0.013412077
000020 da a0 e8 3b f8 9d 73 3c f3 d7 0d bc 21 34 09 3c
       0.007099253 0.014869206 -0.008657443 0.008374245
000030 b9 e0 03 3d c9 75 01 bd c3 1b 8a 3b f8 33 8c 3a
       0.032196734 -0.03160647 0.0042147352 0.001069664
000040 3c 9a dd 3b 81 fe 0f 3b 7d 06 9d 3c e2 b4 19 bd
       0.006762771 0.0021971765 0.019168133 -0.03752602
000050 a6 4d b8 bc 5a 8c b6 3c da 3d 79 3c d5 dc f3 3b
       -0.022497963 0.022283722 0.0152125005 0.0074420967
000060 04 c6 f8 3b c6 e4 dd bb 35 27 c5 3b fa 9d 33 ba
       0.0075919647 -0.0067716567 0.0060166367 -0.00068518484
000070 f2 5d 09 bc c7 8c 31 bc a6 ad 0e 3a c1 bb 91 3c
       -0.008384215 -0.010836787 0.0005442746 0.017789723
000080 6d ee ff 3c 97 17 9c bc ac f9 fe bb 06 bc 11 bd
       0.03124162 -0.019054217 -0.007781228 -0.035579704
000090 cf c6 c2 bb f8 92 ff bc a9 bf ea 3c a4 28 dc 3c
       -0.00594411 -0.03119801 0.028655844 0.026874848
0000a0 b3 38 81 3c b4 ec 37 bc cf 68 c0 bc 23 2a a2 3c
       0.015774107 -0.011225868 -0.023487477 0.019795483
0000b0 3b c3 1d 3b 7c 54 a7 3c bb c2 d0 3c 7f 0e b5 bc
       0.0024072665 0.020426027 0.02548348 -0.022101639
0000c0 3d d1 a2 3b 9e f6 de 3c 2b e2 12 bd 40 e1 d4 3c
       0.004968791 0.027217206 -0.03586022 0.025986314
0000d0 85 4f 13 bb c5 da f9 bc ec 78 3b bc 54 01 97 bc
       -0.0022477817 -0.030499825 -0.011442404 -0.01843325
0000e0 b1 66 5a 3b f1 ef 81 bc 73 73 43 bc b0 f2 06 bd
       0.003332537 -0.015861483 -0.011929381 -0.03294629
0000f0 ba c1 27 3d cf 97 c5 bc 15 de f5 bc 57 24 a7 3b
       0.040956236 -0.02412024 -0.030013124 0.0051007676

weight f4 [10, 64]
000000 20 53 44 3c 03 cb 00 be 5a c6 e9 3d 76 d3 82 bd
       0.011982709 -0.12577443 0.11414786 -0.06387989
000010 0e 13 5c bd 1f 49 8a bd f9 4c 59 bd 32 ca 39 3d
       -0.05372911 -0.06752228 -0.053051922 0.045358844
000020 5a 6d 40 3c 38 d0 0a 3e 20 4f 24 bb 63 54 19 be
       0.011744821 0.13555992 -0.0025071576 -0.14973597
000030 23 5a 14 3d 95 2f 31 3d a9 a4 2b bd 1c be 93 3d
       0.036218774 0.04325827 -0.04190508 0.07213995
000040 29 70 91 bd 0e 2b 63 3d ab 2d d7 3d 95 90 e6 3d
       -0.07101471 0.055460982 0.10506757 0.112580456
000050 b4 ab 36 3c 7c 68 73 bd d0 26 08 3e 29 42 32 3d
       0.011149336 -0.059425816 0.13296056 0.043520126
000060 71 6b 75 bc 95 5f 78 bd 5e 3c 85 bd 1c ea 91 bc
       -0.014979229 -0.06063803 -0.06505655 -0.017811827
000070 3c 75 f7 3c 9d a8 31 3d ee 39 14 bd e4 2e a6 3d
       0.030207269 0.043373693 -0.03618806 0.081144124
000080 8b 91 1e bb ae c3 bd 3d 70 2d 6c 3d cb 53 bf 3d
       -0.0024195637 0.092658386 0.05766052 0.09342154
000090 24 4d 0a 3e 09 f8 20 bd 39 ce b3 3d 16 56 00 be
       0.1350599 -0.039299045 0.08779568 -0.12532839
0000a0 62 0c 11 bd 46 24 5e bd 07 09 c0 3d e0 9b cd 3c
       -0.0354122 -0.05423381 0.09376722 0.025098741
0000b0 0b 33 15 be 77 9b 4c bd be b5 15 3d f0 55 bc bd
       -0.14570253 -0.04995295 0.036550276 -0.09196079
0000c0 c8 71 59 bd e4 91 9a bd ee 5d 04 3d 31 0c ba 3d
       -0.053087026 -0.07547358 0.03231614 0.090843566
0000d0 cd a4 b0 bd eb f6 64 3c f7 ef 01 3c 89 7f 8b bd
       -0.08625183 0.013974885 0.007930747 -0.06811435
0000e0 c0 a0 8c bd 58 c7 05 be 67 2b 02 be fd b4 e3 3d
       -0.06866598 -0.13064325 -0.12711869 0.11118505
0000f0 04 64 f7 bd 2d 1b cd 3d 85 ed a9 3d 01 21 09 3e
       -0.12079623 0.10014949 0.082972564 0.13391496
000100 6c 23 70 bd cf 21 c3 3d 0c ec cb bd d4 26 f7 bd
       -0.05862753 0.09527933 -0.09957132 -0.12067953
000110 f6 4e 93 bd 9f 58 b8 3d 45 8e 81 bd 35 6d 0f be
       -0.07192795 0.09001278 -0.06325964 -0.14006503
000120 b5 6a 91 bd 3c 2f d0 bc 1c e0 ed 3d 3f cd f3 3d
       -0.07100431 -0.025413148 0.11615011 0.11904382
000130 60 d0 e6 bc 5c 4e 42 3c 8d 6e 00 be 8a df 86 bd
       -0.028175533 0.011859503 -0.12542172 -0.065856054
000140 10 e3 8d bd cd 90 7d bd 54 78 8a 3d c6 23 ad bc
       -0.06928074 -0.06190567 0.06761232 -0.021135222
000150 99 ea 90 3c 5d 6a ad bd c4 0a e1 bd 7b 06 9d 3c
       0.01768999 -0.08467553 -0.109883815 0.01916813
000160 15 69 f3 3d f0 3b 10 bd 26 e0 f6 3c f0 7c 9c bd
       0.11885277 -0.03521341 0.03013618 -0.076410174
000170 4a 81 24 3e a5 83 8b bd f3 5c c3 3d 1a 4a ab 3d
       0.16064945 -0.068122186 0.09539213 0.08363743
000180 91 2f d6 3b 5d 09 18 3d 94 11 1a 3e 93 37 7b bd
       0.006536432 0.037118305 0.15045768 -0.061332297
000190 de 37 ac bd 19 1d 52 3d 45 b2 fc 3d 22 84 f9 bd
       -0.08409093 0.05129728 0.1233869 -0.121834055
0001a0 6e aa d6 3d 4b 2c 5e bc a3 49 0b bd 3d 19 81 3d
       0.10481726 -0.013560365 -0.034005772 0.06303642
0001b0 ad e5 d2 bd 35 02 0d be 4c 1e b4 bd c7 89 9b 3d
       -0.102977134 -0.13770373 -0.08794841 0.07594638
0001c0 b1 6e 64 3c f1 fc aa 3d 1e ed 0b be 57 3d 04 3e
       0.0139424065 0.08349026 -0.13664672 0.12914024
0001d0 83 51 f4 bd 98 9c 49 bd 6b 24 e9 bd 2d 44 30 3d
       -0.119296096 -0.049221605 -0.11383899 0.043033767
0001e0 77 1e 91 3d 10 b6 6a 3d f9 a5 9d 3b 6b d7 50 bd
       0.07085889 0.057302535 0.0048110452 -0.05098669
0001f0 3a f4 b9 3d e4 85 dd 3d 3e 23 00 3e 78 2e c5 bd
       0.09079786 0.10816553 0.12513444 -0.09628004
000200 c7 f3 bb 3d 55 79 3d 3d f4 39 d6 3d d1 a2 0a 3d
       0.09177356 0.04625829 0.104602724 0.03384668
000210 6a db a2 bd 78 48 a1 bd d3 fd b2 bc c9 9f be bd
       -0.07952006 -0.078751504 -0.021849548 -0.0930782
000220 33 4d 49 bd 24 52 fc 3d 7c 05 08 be b4 0e 6a 3d
       -0.04914589 0.123203546 -0.13283342 0.05714293
000230 9f ab f0 3d e9 18 c5 bd c8 0e cd bd 2b bc 81 3d
       0.11751484 -0.09623892 -0.10012585 0.06334718
000240 01 27 ff 3c 73 c0 80 bc f7 33 04 be 2f aa 43 bd
       0.031146528 -0.015716767 -0.12910448 -0.04776972
000250 c2 66 b8 3d dd 2b b4 bd 90 0b e6 3c c4 eb ec 3b
       0.090039745 -0.08797429 0.028081685 0.007230254
000260 df 7f fe bd f6 4d b3 bd d4 a5 02 3e 79 02 9b 3d
       -0.12426733 -0.08755104 0.12758571 0.07568831
000270 83 a7 01 be ec f4 d5 bd 24 eb 08 be 56 bf c7 bd
       -0.12661557 -0.10447106 -0.13370949 -0.09753291
000280 33 49 21 3d 65 ae 6e 3d b7 84 21 bd ac f8 46 3d
       0.03937645 0.058271784 -0.039433207 0.048576996
000290 21 66 a2 3d f1 c6 0d be 76 e5 d4 3d 35 d8 be 3c
       0.07929636 -0.13845421 0.10395329 0.023296455
0002a0 35 27 46 bd 9e 63 f4 bd 56 de d4 bb ff ea 36 3d
       -0.048377234 -0.11933063 -0.006496231 0.044657703
0002b0 d7 21 cb 3c b1 74 d9 3d 0c 6c f3 bd 27 62 04 be
       0.02479641 0.1061796 -0.11885843 -0.12928067
0002c0 fe 68 fe bc 1a 99 8b bd e6 1c 56 3c 59 87 e3 3d
       -0.031055924 -0.06816311 0.013068413 0.111098
0002d0 67 c9 7a 3d 65 7f a5 3b bc 18 c8 bd 30 89 59 3d
       0.06122723 0.005050587 -0.09770343 0.053109348
0002e0 71 05 64 bb 03 03 2b 3d b1 58 f2 3d d8 c5 05 3e
       -0.0034793282 0.04175092 0.11833323 0.13063753
0002f0 ca af da 3c 48 1a 6b 3d 52 41 c4 bb cd e4 eb 3d
       0.02669515 0.05739811 -0.005989232 0.1151825
000300 ef 1b 89 3d c6 36 9a 3d 5a 77 d9 bd 96 f5 d6 bd
       0.06694781 0.075299785 -0.10618468 -0.104960606
000310 f8 10 b1 bd 9e a4 92 3d cc 50 cc 3d 8a 9e 5c 3d
       -0.08645815 0.071603045 0.09976348 0.053862132
000320 98 f9 ef bd 25 eb 15 3d 08 99 92 3d ee 31 08 3d
       -0.11717528 0.036601204 0.07158095 0.03325074
000330 b4 ee 23 bb ab 2a 00 be ae c2 6b 3d c8 32 81 3d
       -0.0025014104 -0.12516277 0.057558708 0.06308514
000340 76 05 0a 3e 11 ab a5 3c d6 37 06 3d e1 7a ca 3d
       0.13478646 0.020223172 0.032768093 0.098867185
000350 3d 23 2b bd 35 66 c0 3d 92 2e a5 3d d7 48 90 3c
       -0.041781653 0.093944944 0.08065523 0.017612858
000360 d2 f7 df bd 9f fa 2c 3c f3 a5 d5 3d e6 59 a1 bd
       -0.1093594 0.0105578 0.10432043 -0.07878475
000370 8f 1a 1d bd 42 69 d6 3d a1 49 c3 bd 9d 5f ca 3d
       -0.038355406 0.10469295 -0.09535528 0.09881518
000380 fe 9b ff bd f2 79 fc 3d 9e 31 b1 bd 5c bf 35 bd
       -0.12480925 0.12327947 -0.08652042 -0.044371948
000390 3d 85 5c bd bc 2c ad bc 0b 0b 9a 3d 55 7c 85 3b
       -0.053838003 -0.021139495 0.075216375 0.0040736594
0003a0 f1 58 d2 bc d1 ba b8 3d 26 25 e4 3d ff 94 b6 3b
       -0.025677176 0.090200074 0.11139898 0.005571961
0003b0 26 12 09 3e 02 32 05 3d 9d dc 00 bd de 60 df bd
       0.1338583 0.032518394 -0.031460393 -0.10907148
0003c0 7a cc 8c 3d 88 03 67 bc 33 91 a3 3d ff 0b 08 3e
       0.06874938 -0.014099963 0.07986679 0.13285826
0003d0 b7 82 b4 bd 37 15 38 bc 4e 4d 90 3b c4 3e 79 bd
       -0.088139944 -0.011235527 0.0044037467 -0.060850874
0003e0 11 c2 05 3c 1a c8 02 3c d2 b7 21 bd e0 e3 78 bd
       0.008163945 0.007982278 -0.039481945 -0.060764194
0003f0 66 5d e8 bb de fe ad bd 26 64 a1 bb 72 1d d4 3d
       -0.007091212 -0.08495878 -0.0049252687 0.10357179

bias f4 [10]
000000 aa a9 cd bd e1 a9 a8 bd 21 cc 17 bd e4 b4 90 3d
       -0.100421265 -0.08235527 -0.037059907 0.07065752
000010 0a 26 02 bc cd b9 05 3d b6 f5 82 bd 6c e7 b1 bd
       -0.0079436395 0.032647897 -0.06394522 -0.08686718
000020 bc 2a 5e b8 d1 6f c5 bd
       -5.2968724e-05 -0.09640468
