PytorchLearning/learn1/vggmodel/vgg_15.pth (torch, 587335 bytes, 10 tensors)

weight f4 [32, 3, 5, 5]
0.106639504 -0.110301994 -0.06401734 -0.040244594 -0.091354385 -0.007478987 0.024904784 -0.02541611
-0.069623485 0.09153577 0.11877993 0.0024277682 -0.00629862 0.070332415 -0.042255096 -0.08984144
0.08132061 -0.086661175 0.117954105 0.10703236 -0.05859086 0.062835164 0.060195066 0.1207786
-0.04988972 -0.054298002 -0.04321305 0.09098479 0.029811347 -0.11412462 0.05892942 -0.012195397
-0.100428335 -0.078091994 0.08144441 -0.021168968 -0.08416018 0.048947405 -0.07936899 0.07948911
0.043080572 0.09613699 0.08161756 0.08958501 -0.029704193 -0.025290707 0.060270756 0.11556316
-0.062039148 -0.03411 -0.006889987 0.02226085 -0.085168175 -0.044024892 -0.043459587 0.0186054
0.09970264 -0.0046079913 0.104240604 0.06265542 -0.02620373 0.07765201 -0.061470356 -0.10210293
0.033329327 0.12332365 0.0892938 -0.023693804 0.015423094 0.124023356 0.006034559 0.12680832
0.04338517 0.038685072 0.049406394 -0.04579458 0.11747112 0.039047457 -0.02862361 0.049095005
0.06718227 -0.05537209 -0.062283292 0.0788484 -0.08861684 0.016756723 -0.0044061695 -0.080847055
-0.08311741 -0.0021237473 0.026226703 0.12104635 0.049924128 -0.10884217 -0.0038609481 -0.01823567
0.079153895 -0.092205696 0.0684178 -0.06318544 -0.037523933 -0.07397986 0.06444582 -0.12599143
0.010088026 -0.06939662 -0.005165161 0.07643296 -0.13579431 -0.085162215 0.047657575 -0.043338757
-0.092065945 -0.027228052 -0.09941091 0.08217636 0.10987412 -0.02261351 -0.00020222084 0.022871153
-0.106952466 0.08191264 0.0652444 -0.08376889 0.034422316 -0.13213593 -0.11379072 -0.103927724
0.026733786 0.023501769 -0.10356277 -0.023077007 0.06073848 -0.10481687 -0.12321145 0.09555094
0.026872901 -0.049846254 0.07080658 -0.11674723 -0.0034196363 0.08887693 -0.008022193 -0.07629829
-0.024094021 -0.061638806 0.0019283054 0.09185715 -0.025704028 0.08188946 -0.059219174 -0.10673872
0.08264629 -0.04818827 -0.010855987 -0.10616246 -0.122885555 -0.09102563 -0.113250755 -0.08422849
-0.064934105 0.094471194 -0.005113875 0.0022332722 0.03372947 0.038060065 0.007742633 0.028306864
-0.07229727 -0.08967753 0.09638225 0.029027805 -0.045285195 0.09126726 0.10046357 -0.046971813
0.012413056 0.09445195 -0.056820516 0.011475648 0.052749705 0.091452114 0.070076585 -0.050953485
-0.045757767 -0.11838716 -0.068128824 -0.10452258 0.053831086 0.009933154 0.07268379 -0.08768893
0.050926737 -0.05884119 0.09920219 -0.05145725 0.07646621 -0.039055955 0.07881234 0.09659628
0.09730072 -0.040575463 -0.011572325 0.0061230473 0.11947092 0.10343189 -0.047255352 0.09840609
-0.08265506 0.020417456 0.004961468 0.060949843 -0.06016228 0.039276455 0.04768891 0.09581115
0.11532135 0.079781584 0.080400765 0.0211795 0.03738658 0.11472631 0.03009244 0.094577
-0.007129532 -0.09296266 0.081480816 0.022827815 -0.10748918 0.042531233 -0.077577926 -0.029313982
-0.043481566 0.027153015 -0.083626054 -0.0807902 0.022617089 -0.06406127 -0.030835316 -0.10946964
-0.07783625 0.046355437 0.097537026 0.08564065 0.11435483 -0.027926257 0.050583836 0.089875765
0.04036636 0.07417998 0.050512828 0.03192778 -0.09156639 0.10566021 0.103633024 0.111380026
00000000: d065 da3d 03e6 e1bd 861b 83bd 84d7 24bd
00000010: 0218 bbbd 4a12 f5bb 1e05 cc3c 7235 d0bc
00000020: c296 8ebd 1b77 bb3d e442 f33d 311b 1f3b
00000030: a764 cebb 710a 903d ae13 2dbd cafe b7bd
00000040: 6c8b a63d 6a7b b1bd ec91 f13d c833 db3d
00000050: f8fc 6fbd b9af 803d 1a8f 763d c55a f73d
00000060: 2a59 4cbd 9567 5ebd 2b00 31bd 3c56 ba3d
00000070: ed36 f43c 2bba e9bd fa5f 713d 34cf 47bc
00000080: 5fad cdbd b2ee 9fbd 54cc a63d 8b6a adbc
00000090: 2c5c acbd 137d 483d 368c a2bd 30cb a23d
000000a0: 4175 303d 78e3 c43d 1b27 a73d 5978 b73d
000000b0: 3556 f3bc 752e cfbc 78de 763d 61ac ec3d
000000c0: c31c 7ebd edb6 0bbd 66c5 e1bb 635c b63c
000000d0: a76c aebd 7253 34bd ae02 32bd 5a6a 983c
000000e0: e630 cc3d a2fe 96bb 197c d53d 7c51 803d
000000f0: 34a9 d6bc 0408 9f3d 57c8 7bbd 571b d1bd
00000100: 5584 083d 1c91 fc3d abdf b63d 8219 c2bc
00000110: 25b1 7c3c f5ff fd3d 8dbd c53b 0ada 013e
00000120: a6b4 313d 3d74 1e3d 5c5e 4a3d 1993 3bbd
00000130: b394 f03d 3af0 1f3d 107c eabc d817 493d
00000140: dc96 893d d8cd 62bd c41c 7fbd 457b a13d
00000150: bf7c b5bd 6545 893c a161 90bb 2493 a5bd
00000160: 7639 aabd 912e 0bbb 62d9 d63c 26e7 f73d
00000170: 3e7d 4c3d a5e8 debd f607 7dbb f962 95bc
00000180: 701b a23d 57d6 bcbd a21e 8c3d 5e67 81bd
00000190: b2b2 19bd c182 97bd 2cfc 833d e603 01be
000001a0: 3f48 253c d11f 8ebd 8340 a9bb e288 9c3d
000001b0: aa0d 0bbe 8769 aebd 9734 433d fb83 31bd
000001c0: 128d bcbd 5d0d dfbc f297 cbbd 144c a83d
000001d0: af05 e13d f83f b9bc 3e0b 54b9 495c bb3c
000001e0: e509 dbbd d0c1 a73d db9e 853d 068f abbd
000001f0: 6afe 0c3d a44e 07be 1c0b e9bd 0fd8 d4bd
00000200: d000 db3c c886 c03c b818 d4bd fe0b bdbc
00000210: eac8 783d 3aaa d6bd 4956 fcbd 36b0 c33d
00000220: 8f24 dc3c 962b 4cbd 0a03 913d 2c19 efbd
00000230: fa1b 60bb 1c05 b63d 846f 03bc 4742 9cbd
00000240: d360 c5bc f978 7cbd 31bf fc3a 9a1f bc3d
00000250: 4191 d2bc a9b5 a73d ce8f 72bd d499 dabd
00000260: 7542 a93d 1061 45bd 4fdd 31bc b46b d9bd
00000270: 6cab fbbd a56b babd 03f0 e7bd fd7f acbd
00000280: 2cfc 84bd 1d7a c13d 4b92 a7bb 175c 123b
00000290: ea27 0a3d dfe4 1b3d eab5 fd3b cce3 e73c
000002a0: 9710 94bd daa8 b7bd 0f64 c53d b8cb ed3c
000002b0: f87c 39bd 54ea ba3d d8bf cd3d 8465 40bd
000002c0: 2160 4b3c 0670 c13d a1bc 68bd 5b04 3c3c
000002d0: 1310 583d 3f4b bb3d 5084 8f3d 9ab4 50bd
000002e0: 7f6c 3bbd f874 f2bd 2087 8bbd ef0f d6bd
000002f0: fc7d 5c3d abbe 223c 3ddb 943d 4196 b3bd
00000300: 8e98 503d 7603 71bd 852a cb3d d6c4 52bd
00000310: 519a 9c3d 23f9 1fbd 5d68 a13d 45d4 c53d
00000320: 9a45 c73d 7532 26bd d999 3dbc d8a3 c83b
00000330: 2bad f43d 19d4 d33d d48e 41bd 2289 c93d
00000340: 0e47 a9bd 8242 a73c cf93 a23b 8ba6 793d
00000350: b96c 76bd 59e0 203d 7255 433d a338 c43d
00000360: 9a2d ec3d 8764 a33d 28a9 a43d a180 ad3c
00000370: ac22 193d a1f5 ea3d 6c84 f63c 96b1 c13d
00000380: d99e e9bb 3563 bebd 6adf a63d 6601 bb3c
00000390: 4a23 dcbd 3b35 2e3d 2de1 9ebd e023 f0bc
000003a0: ba19 32bd 0070 de3c 2344 abbd 5575 a5bd
000003b0: 7947 b93c 8e32 83bd 589a fcbc 9e31 e0bd
000003c0: 9d68 9fbd 33df 3d3d 7ec1 c73d 5d64 af3d
000003d0: dd32 ea3d 9bc5 e4bc ff30 4f3d c910 b83d
000003e0: 3257 253d aceb 973d 8ae6 4e3d b4c6 023d
000003f0: 2987 bbbd 6164 d83d 8d3d d43d 361b e43d

bias f4 [32]
0.05210123 0.01837521 -0.014064858 -0.024341328 0.0725614 0.07036274 -0.06117873 0.07023206
-0.10983706 0.086682975 0.087138675 -0.081219845 -0.063922994 -0.015181168 0.08549881 0.01819258
0.030425824 -0.06724584 0.016568018 0.10215587 0.061490174 -0.019676616 0.065812185 0.10474041
-0.06590926 -0.08010202 0.04128223 -0.1336827 -0.07804469 -0.020860393 -0.16004367 0.07919414
00000000: 1968 553d 9c87 963c 4a70 66bc 7767 c7bc
00000010: 129b 943d 571a 903d 8c96 7abd d4d5 8f3d
00000020: 41f2 e0bd d886 b13d c375 b23d 9756 a6bd
00000030: 0fea 82bd 6fba 78bc 001a af3d 9b08 953c
00000040: 943f f93c 30b8 89bd a7b9 873c 1937 d13d
00000050: 1fdd 7b3d db30 a1bc 8ac8 863d 2482 d63d
00000060: 6ffb 86bd 870c a4bd 8e17 293d 1ee4 08be
00000070: e5d5 9fbd 6ae3 aabc 7de2 23be 8a30 a23d

weight f4 [32, 32, 5, 5]
-0.020218704 -0.033320475 0.0041715573 0.033009343 -0.028195906 -0.034905344 -0.0047095763 0.017537115
-0.01929777 0.020534938 -0.019140713 0.02051781 -0.038436208 0.009831221 -0.031265244 -0.017257763
-0.026614029 -0.0023024238 0.015207432 -0.0069380696 0.023574028 0.007765937 -0.032380555 -0.014182961
-0.0017864343 -0.032152925 -0.027058197 0.00015683072 -0.030776754 0.028538177 0.00059367984 -0.02068017
-0.033310656 0.021456346 0.015826477 0.006213489 -0.011357341 -0.03499087 0.013803108 0.008336929
-0.030727655 -0.002132937 -0.005201106 -0.012929466 0.019491015 -0.029435275 0.017182281 -0.001576142
-0.013692975 -0.020401398 -0.003979825 -0.033049643 0.024112465 -0.009279889 0.034207694 -0.030863553
0.009943705 0.032286793 -0.022531163 0.030887764 -0.0046933293 0.02859928 0.029452998 0.028950715
0.032541443 0.0026040867 0.018447898 -0.030894717 -0.0029139826 -0.02903345 0.030869497 0.0034094038
-0.0010754035 -0.0068328916 0.032243174 -0.03434744 -0.019094666 -0.002188753 -0.03437086 0.02926246
0.01044981 -0.012825363 -0.00026286536 -0.030274568 0.023638276 -0.0014847817 -0.033515964 0.023953281
-0.022973487 -0.017310042 0.0042349235 -0.0129144 -0.005112601 0.011302421 -0.009528024 -0.03281589
-0.03072145 -0.025614427 -0.008893841 -0.028329333 -0.019523125 -0.032247804 -0.00082337466 -0.015434429
-0.0027770004 0.008079304 -0.009648719 0.014718479 0.008072961 -0.03287713 -0.021726111 -0.031296913
-0.041136496 0.0037145815 0.007880485 0.011095135 0.0047515193 -0.037706565 0.018235426 0.012462729
0.007369044 0.013133254 0.0018143782 0.019181991 0.00052114466 -0.019208439 -0.03349609 -0.00096066156
0.010639004 0.0043675606 -0.032421406 0.020489324 -0.008299893 0.01731844 0.013596213 -0.036021058
0.004327149 -0.03686119 -0.030928746 -0.0023007763 -0.034683086 -0.033112958 -0.014080314 0.022698525
0.012787414 0.013019408 0.015618632 -0.016343862 0.0015041836 0.02974326 -0.0016111209 0.010124032
-0.009827776 -0.007041552 0.0103620095 0.031082897 0.004473083 -0.0055425544 -0.025392605 -0.00337009
0.029714527 0.019636437 0.011719481 0.015117932 -0.028371733 0.028170452 0.029060554 -0.025657296
0.00743996 -0.02386314 0.0060109724 0.019218333 0.0028263466 -0.02091711 0.009898349 0.024752302
0.015955716 -0.012881188 -0.020363584 0.028688848 0.021851392 -0.012720498 -0.0013562196 0.0013640929
0.025225732 0.019534936 -0.03579429 -0.012665305 0.026500635 -0.0026927083 -0.023705462 -0.035953164
-0.0049998686 0.03152379 -0.023998536 0.004749985 -0.028538778 0.012108228 0.015897246 -0.020894626
0.02153525 -0.017215407 0.031063626 0.01269875 0.007311392 0.032744586 0.005782903 0.002001129
-0.008262459 0.009168018 0.012558183 0.034234747 0.0041658655 -0.008703076 0.017600164 0.001926162
0.03635997 0.026190309 0.0069529396 0.0010296135 -0.019373832 0.037121553 0.025219578 0.03931537
0.014390852 -0.0067775487 -0.02969002 0.0029640433 -0.029408546 0.021139648 -0.044434786 -0.02938012
-0.01796588 0.01723429 0.023980953 -0.015444089 0.0050062137 -0.03957023 -0.02737619 -0.037849557
0.011721225 -0.026944485 -0.005298761 -0.0057632714 -0.017634546 0.01800828 -0.041380394 -0.03720573
-0.0165345 -0.0212988 -0.03973049 -0.032605458 -0.02783762 0.013908248 0.014754693 0.009618832
00000000: b2a1 a5bc 0d7b 08bd 8fb1 883b ce34 073d
00000010: 1afb e6bc e8f8 0ebd ca52 9abb ffa9 8f3c
00000020: 5b16 9ebc e338 a83c fccc 9cbc f714 a83c
00000030: 496f 1dbd 2113 213c fc0f 00bd 2760 8dbc
00000040: aa05 dabc 43e4 16bb 9828 793c bf58 e3bb
00000050: 521e c13c 6779 fe3b 79a1 04bd a65f 68bc
00000060: ca26 eaba c9b2 03bd 27a9 ddbc ed72 2439
00000070: 881f fcbc e5c8 e93c 2ea1 1b3a 7669 a9bc
00000080: c170 08bd 38c5 af3c 87a6 813c 869a cb3b
00000090: 2414 3abc 9652 0fbd 6e26 623c 9d97 083c
000000a0: 90b8 fbbc bfc8 0bbb 0a6e aabb 1cd6 53bc
000000b0: 9fab 9f3c 3f22 f1bc dbc1 8c3c 8d96 ceba
000000c0: 8058 60bc d520 a7bc 3169 82bb 105f 07bd
000000d0: 8187 c53c ad0a 18bc 5e1d 0c3d 90d5 fcbc
000000e0: ecea 223c 283f 043d 4693 b8bc 5608 fd3c
000000f0: 80ca 99bb 0a49 ea3c 6a47 f13c 0d2a ed3c
00000100: 2d4a 053d 53a9 2a3b 0c20 973c eb16 fdbc
00000110: 84f8 3ebb 8fd7 edbc 07e2 fc3c 4e70 5f3b
00000120: 8ef4 8cba 73e6 dfbb 6b11 043d e7af 0cbd
00000130: 6b6c 9cbc 2f71 0fbb 75c8 0cbd d4b7 ef3c
00000140: ae35 2b3c 7921 52bc 31d1 89b9 5f02 f8bc
00000150: 0fa5 c13c 029d c2ba 0948 09bd ac39 c43c
00000160: e532 bcbc cacd 8dbc 1dc5 8a3b eb96 53bc
00000170: 9b87 a7bb ca2d 393c 6e1b 1cbc f469 06bd
00000180: 8dab fbbc 59d5 d1bc 79b7 11bc eb12 e8bc
00000190: f6ee 9fbc 4616 04bd bdd7 57ba b0e0 7cbc
000001a0: 56fe 35bb 0f5f 043c a915 1ebc c625 713c
000001b0: 7444 043c 2baa 06bd f5fa b1bc 3131 00bd
000001c0: be7e 28bd 5670 733b 261d 013c 5ec8 353c
000001d0: a2b2 9b3b 3372 1abd 7662 953c 7930 4c3c
000001e0: 0578 f13b dc2c 573c 6ed0 ed3a 8d23 9d3c
000001f0: 6d9d 083a 045b 9dbc 3233 09bd e8d4 7bba
00000200: 384f 2e3c c11d 8f3b 4fcc 04bd 3ad9 a73c
00000210: 46fc 07bc 67df 8d3c a7c2 5e3c d18a 13bd
00000220: c2ca 8d3b c2fb 16bd 485e fdbc 9fc8 16bb
00000230: da0f 0ebd 74a1 07bd 1eb1 66bc 42f2 b93c
00000240: 4d82 513c 5b4f 553c 4ae5 7f3c 90e3 85bc
00000250: 0728 c53a 23a8 f33c 3f2c d3ba 45df 253c
00000260: ae04 21bc d2bc e6bb 6bc5 293c 8fa1 fe3c
00000270: f192 923b 519e b5bb 2704 d0bc badc 5cbb
00000280: e16b f33c 98dc a03c 1103 403c 34b1 773c
00000290: d66b e8bc b8c5 e63c 6610 ee3c 402f d2bc
000002a0: e8ca f33b a27c c3bc b1f7 c43b c46f 9d3c
000002b0: 3a3a 393b 5c5a abbc af2c 223c 57c5 ca3c
000002c0: 90b5 823c 9e0b 53bc 88d1 a6bc e004 eb3c
000002d0: b101 b33c a369 50bc 2ec3 b1ba 5dcb b23a
000002e0: 32a6 ce3c bb07 a03c 099d 12bd 2482 4fbc
000002f0: dc17 d93c 2678 30bb f531 c2bc a043 13bd
00000300: f0d5 a3bb 171f 013d 9498 c4bc c3a5 9b3b
00000310: 28ca e9bc 9761 463c f13a 823c 352b abbc
00000320: b16a b03c 5307 8dbc 2579 fe3c 6b0e 503c
00000330: 6794 ef3b 301f 063d 827e bd3b 6025 033b
00000340: 445f 07bc 7435 163c d6c0 4d3c bc39 0c3d
00000350: d081 883b 5997 0ebc 382e 903c 4677 fc3a
00000360: 31ee 143d 0f8d d63c 7cd5 e33b 19f4 863a
00000370: dfb5 9ebc c50c 183d 4a99 ce3c 2709 213d
00000380: 9cc7 6b3c 3316 debb 7c38 f3bc 6540 423b
00000390: 31ea f0bc 0e2d ad3c 4001 36bd 94ae f0bc
000003a0: 2e2d 93bc ed2e 8d3c b473 c43c 3409 7dbc
000003b0: 2a0b a43b 6514 22bd 0844 e0bc 2308 1bbd
000003c0: 620a 403c aeba dcbc 3ba1 adbb d3d9 bcbb
000003d0: 5376 90bc 1a86 933c 7d7e 29bd 0965 18bd
000003e0: 5c73 87bc d27a aebc 70bc 22bd 4d8d 05bd
000003f0: b80b e4bc 6cdf 633c abbd 713c 4e98 1d3c

bias f4 [32]
-0.0078686215 -0.037068218 -0.02303294 -0.039342824 0.023264239 -0.009997733 -0.035655662 -0.017505009
-0.0038302024 0.010719789 -0.01713208 -0.021299977 0.026446922 -0.034701176 -0.024954798 -0.012057198
0.020991657 -0.045237347 -0.026420062 0.011489741 0.023701746 -0.05665786 -0.0008542832 -0.0075911004
-0.0064796153 -0.04585456 -0.018034622 0.011092764 0.038327824 -0.04186414 0.0063475934 0.021864096
00000000: 64eb 00bc d8d4 17bd 94af bcbc f125 21bd
00000010: a594 be3c 88cd 23bc ac0b 12bd aa66 8fbc
00000020: 2204 7bbb 0ea2 2f3c 9358 8cbc 4a7d aebc
00000030: 37a7 d83c d222 0ebd 016e ccbc 8e8b 45bc
00000040: b2f6 ab3c cc4a 39bd e36e d8bc 773f 3c3c
00000050: 2a2a c23c 1212 68bd faf1 5fba c4be f8bb
00000060: f452 d4bb fed1 3bbd 58bd 93bc 6dbe 353c
00000070: a3fd 1c3d bc79 2bbd 79ff cf3b 551c b33c

weight f4 [64, 32, 5, 5]
-0.010046628 0.014684521 -0.018701596 0.006338593 0.014563518 -0.018358432 0.0015531447 0.0036323932
-0.00068718975 0.0018915401 -0.012315731 0.018492814 -0.017580982 0.03121655 0.034944866 -0.030209986
0.016529454 -0.012064378 -0.030586375 0.00015001913 -0.0014194347 0.014332807 -0.009692507 0.017807044
-0.02760844 0.0070176604 -0.0060383887 0.044202037 0.01662607 0.015386593 0.010868774 -0.025497403
0.013342491 0.017824275 0.009688648 -0.027022611 -0.038516708 -0.022927705 0.0049889972 -0.006604083
0.032857146 0.0062144715 -0.022036664 -0.0059551564 0.019779548 0.02370313 -0.02319092 -0.034912128
0.031343322 0.01845412 0.019831182 0.03215002 -0.01524602 0.0039354614 0.027700072 -0.0027481623
-0.017532805 -0.008308151 -0.019856235 0.03040114 0.024088139 0.021664329 -0.024140695 -0.026618583
0.026092295 -0.02584618 0.010151979 0.03210374 -0.01834203 0.023562893 -0.006226546 0.007739937
0.017479736 0.00011864834 -0.034334585 0.022186294 0.02186044 -0.020793363 -0.024332497 0.019414553
0.0064453664 -0.024375133 0.013834342 0.033696946 -0.007116771 0.008389112 0.018524872 0.04267924
0.005042634 0.029278314 0.019426282 0.02084305 -0.030580755 -0.024286127 0.015474439 -0.032469507
0.017204054 0.028299483 0.004621827 -0.0134408865 0.00017255024 -0.0026340722 0.021995652 0.01118212
-0.002193333 0.0131741185 0.01630528 0.017673062 0.02664993 0.027819976 -0.01665972 -0.020305093
0.02353847 -0.011414703 0.009866333 -0.034695312 0.00598045 -0.029878104 -0.033869818 -0.0063311
0.0076256283 -0.022155235 0.02830808 0.005540496 0.014876755 -0.026521638 -0.029191956 -0.037947647
-0.0348461 -0.025655566 -0.013312608 -0.031275086 0.026641442 0.016695127 -0.0077131246 -0.023094658
0.009010023 -0.026199773 0.022581955 -0.005195298 -0.019011114 0.012254987 -0.027549846 0.030530708
-0.03709912 -0.031652607 0.033041548 0.024453843 -0.021110008 -0.012966681 -0.012394814 0.035527676
0.02096287 0.02172426 -0.0068405247 0.008628937 0.03544534 0.039188273 0.0375242 0.040870626
0.022994017 0.050489906 0.04391811 0.033243492 0.04380872 -0.005156821 -0.004260924 0.018934747
0.031214295 0.029005293 0.009781765 0.011746468 -0.023067644 0.032203116 -0.028699316 -0.00014469317
0.00070543453 0.008425558 -0.026157169 0.007832659 0.039568666 -0.011559335 -0.0159278 0.007469533
-0.020832982 0.013422 0.028098429 -0.0048633106 -0.010374379 -0.016672745 -0.009427091 -0.022185238
-0.006523941 -0.0024946595 0.016838307 -0.034198705 -0.028215919 0.033741657 -0.00014089777 -0.000879065
0.0010490704 0.04125675 0.0028538625 0.043995015 -0.001065919 0.022455184 -0.017851263 -0.017965851
0.042624097 -0.010801436 0.03201503 -0.011511701 0.039290518 0.02860076 0.0038438407 -0.0024245367
0.020244785 -0.01558406 -0.020613072 0.0068331882 -0.020845996 0.024313185 -0.013169125 -0.02862812
-0.007459646 -0.011555529 -0.011836894 0.026129521 0.019349657 -0.022179658 0.033837046 -0.023693895
-0.010552326 -0.034839667 -0.014100536 0.014220094 -0.02322265 0.030446986 0.003000225 0.036831897
-0.023784347 0.0042613 -0.003532547 0.0051677697 0.032558195 0.012017376 -0.029468589 -0.014768063
0.015417044 -0.0011720129 0.013028073 -0.018270202 0.03391318 0.001124882 -0.009874636 0.002647442
00000000: 9d9a 24bc 5897 703c 1734 99bc f9b3 cf3b
00000010: d29b 6e3c 6c64 96bc e392 cb3a 720d 6e3b
00000020: 8624 34ba 8eed f73a ebc7 49bc 3e7e 973c
00000030: fe05 90bc dab9 ff3c 5922 0f3d ef7a f7bc
00000040: c768 873c aba9 45bc 4790 fabc 744e 1d39
00000050: 530c baba 26d4 6a3c 52cd 1ebc 14e0 913c
00000060: 182b e2bc 67f4 e53b addd c5bb 320d 353d
00000070: 6533 883c 0c18 7c3c f112 323c eedf d0bc
00000080: 779a 5a3c 3704 923c 23bd 1e3c 865e ddbc
00000090: b2c3 1dbd e2d2 bbbc be7a a33b 1067 d8bb
000000a0: 3795 063d c4a2 cb3b 3c86 b4bc 7923 c3bb
000000b0: b808 a23c 112d c23c e2fa bdbc 0500 0fbd
000000c0: db61 003d 182d 973c 0175 a23c bdaf 033d
000000d0: 71ca 79bc 0bf5 803b 43eb e23c 831a 34bb
000000e0: f5a0 8fbc e91e 08bc 8ba9 a2bc d00b f93c
000000f0: 7d54 c53c 6479 b13c b5c2 c5bc 370f dabc
00000100: 82bf d53c 5ebb d3bc 7c54 263c 367f 033d
00000110: 0642 96bc f806 c13c 0e08 ccbb 4c9f fd3b
00000120: aa31 8f3c d8d2 f838 6ca2 0cbd 08c0 b53c
00000130: aa14 b33c d856 aabc f254 c7bc 450b 9f3c
00000140: a733 d33b 5cae c7bc 70a9 623c cf05 0a3d
00000150: cd33 e9bb 7c72 093c 79c1 973c 6dd0 2e3d
00000160: ae3c a53b 13d9 ef3c de23 9f3c 0bbf aa3c
00000170: 7e84 fabc b3f3 c6bc 8088 7d3c bffe 04bd
00000180: 84ef 8c3c 51d4 e73c b272 973b 2a37 5cbc
00000190: 9aee 3439 66a0 2cbb 3a30 b43c 3635 373c
000001a0: 06be 0fbb 42d8 573c a792 853c 19c7 903c
000001b0: f450 da3c b8e6 e33c f779 88bc de56 a6bc
000001c0: c0d3 c03c bc04 3bbc 66a6 213c ac1c 0ebd
000001d0: a7f7 c33b edc2 f4bc 14bb 0abd 1e75 cfbb
000001e0: 68e0 f93b e57e b5bc 59e6 e73c 0d8d b53b
000001f0: a2bd 733c e843 d9bc f823 efbc fe6e 1bbd
00000200: c9ba 0ebd 9f2b d2bc 201d 5abc 4e1a 00bd
00000210: 273f da3c 38c4 883c 61be fcbb 0231 bdbc
00000220: c79e 133c e8a0 d6bc cbfd b83c 523d aabb
00000230: 32bd 9bbc 24c9 483c 37b0 e1bc 891b fa3c
00000240: 3ff5 17bd 2aa6 01bd 9356 073d 6d53 c83c
00000250: e5ee acbc 3472 54bc 9e13 4bbc 7885 113d
00000260: 53ba ab3c 13f7 b13c 7b26 e0bb 6360 0d3c
00000270: 222f 113d e283 203d fab2 193d f567 273d
00000280: f35d bc3c 81ce 4e3d 7ae3 333d 542a 083d
00000290: c670 333d 8dfa a8bb 399f 8bbb 0b1d 9b3c
000002a0: 1fb5 ff3c 829c ed3c b243 203c 4274 403c
000002b0: 5bf8 bcbc 6ae7 033d d41a ebbc c7b8 17b9
000002c0: e9ec 383a 5a0b 0a3c 8f47 d6bc 8e54 003c
000002d0: c112 223d 5d63 3dbc 057b 82bc fcc2 f43b
000002e0: eea9 aabc f3e7 5b3c ad2e e63c 685c 9fbb
000002f0: 4df9 29bc 4895 88bc 1674 1abc d1bd b5bc
00000300: c9c6 d5bb 717d 23bb 7df0 893c f113 0cbd
00000310: 1225 e7bc b134 0a3d f5bd 13b9 0e71 66ba
00000320: f680 893a d6fc 283d de07 3b3b 1e34 343d
00000330: 4eb6 8bba eff3 b73c d03c 92bc 1f2d 93bc
00000340: 9b96 2e3d 82f8 30bc 3122 033d 939b 3cbc
00000350: 18ef 203d 244c ea3c f2e8 7b3b fae4 1ebb
00000360: 64d8 a53c 4954 7fbc bfdc a8bc f0e8 df3b
00000370: 39c5 aabc 722c c73c 50c3 57bc 8585 eabc
00000380: 0c70 f4bb 6753 3dbc 88ef 41bc 940d d63c
00000390: 2c83 9e3c 1db2 b5bc b798 0a3d b319 c2bc
000003a0: aae3 2cbc 0ab4 0ebd ef05 67bc 66fb 683c
000003b0: 6d3d bebc f56b f93c 6c9f 443b 0bdd 163d
000003c0: 64d7 c2bc 60a2 8b3b 4e82 67bb 6556 a93b
000003d0: be5b 053d 87e4 443c 1c68 f1bc bff5 71bc
000003e0: c597 7c3c 3a9e 99ba b373 553c 64ab 95bc
000003f0: 8ce8 0a3d c770 933a 3ac9 21bc b580 2d3b

bias f4 [64]
-0.042938724 -0.03832131 0.012294324 -0.009484933 -0.02155973 0.016229188 -0.0069318074 0.028307227
-0.002487364 -0.0071710697 -0.023469804 0.021050762 -0.0046244636 -0.030689947 -0.039614122 0.036719386
-0.024676677 0.021361033 -0.03688087 -0.024977712 0.026334314 -0.0288862 0.02701101 0.011435497
0.029209562 -0.012763502 0.030144503 0.011004115 -0.015701005 0.026474018 0.023041414 0.0055782096
-0.024977267 0.010334302 -0.021458581 -0.010262256 -0.00928462 -0.032191265 -0.042857133 0.035805076
0.029536873 -0.015571087 0.040366065 -0.007320361 -0.020154716 0.0118141845 0.038435634 -0.021179985
0.030333662 0.022634251 -0.02579429 -0.015088983 0.0060288482 -0.0071785105 0.0069908346 0.028826099
0.035631903 -0.021638433 0.009625352 -0.016945079 -0.011687183 -0.008351283 -0.012122187 0.016196055
00000000: 84e0 2fbd cef6 1cbd 226e 493c b166 1bbc
00000010: 089e b0bc 13f3 843c 3724 e3bb 8fe4 e73c
00000020: 0b03 23bb 4bfb eabb bf43 c0bc a672 ac3c
00000030: d088 97bb 7c69 fbbc 6b42 22bd 1167 163d
00000040: be26 cabc 55fd ae3c 6510 17bd 0f9e ccbc
00000050: 0fbb d73c c1a2 ecbc 3246 dd3c f35b 3b3c
00000060: e448 ef3c 021e 51bc 9bf1 f63c 9b4a 343c
00000070: 659f 80bc 0ae0 d83c 59c1 bc3c 6ac9 b63b
00000080: 209d ccbc 3451 293c e8c9 afbc 0523 28bc
00000090: 851e 18bc fdda 03bd f68a 2fbd 58a8 123d
000000a0: 50f7 f13c df1d 7fbc e356 253d a4df efbb
000000b0: 811b a5bc 4890 413c af6e 1d3d a681 adbc
000000c0: 4d7e f83c 776b b93c 8c4e d3bc c837 77bc
000000d0: a58d c53b b639 ebbb 5f13 e53b b624 ec3c
000000e0: c2f2 113d 1543 b1bc a7b3 1d3c 68d0 8abc
000000f0: 997b 3fbc d2d3 08bc 239c 46bc 97ad 843c

weight f4 [64, 1024]
-0.01816503 0.003363801 -0.016419662 -0.0043967213 -0.017022917 -0.0029061388 -0.02161008 -0.026614897
-0.012518819 0.0040464466 -0.03210563 0.027240187 -0.03065155 0.0021122969 0.020279292 -0.0065689264
0.0057469294 -0.021250801 0.008364485 -0.020893788 -0.028905675 0.008437137 0.014037308 0.016205855
0.008224746 -0.02992877 -0.008946637 0.013469101 -0.022617942 0.013638234 0.012806808 0.012096191
-0.011159939 0.026396167 -0.02205566 0.013056291 0.01278565 -0.018959433 0.027105337 0.008478775
-0.0101536065 -0.012438393 -0.009865497 -0.012522886 -0.019312162 -0.028915457 0.019359333 0.024538374
0.015164167 -0.018658288 0.023710994 -0.028189525 0.020043945 0.008368857 -0.006627659 0.030600522
0.020272052 0.019988075 -0.0274227 -0.006451998 0.012194495 0.017618129 0.010884614 0.033163227
0.026404338 0.0039589796 -0.0068577086 0.022899216 -0.011450543 -0.023125209 -0.010652275 -0.014572584
0.00047191218 -0.0087873805 -0.005625071 0.012966047 0.013402462 -0.026576588 -0.026922325 -0.024065582
-0.00230132 -0.0049997107 0.007928992 0.01767736 -0.02607846 0.025172912 0.027501749 -0.0138581265
0.023193689 -0.001965539 -0.006643088 0.021683095 0.0027843057 0.022696624 -0.012350181 -0.011642203
-0.02362633 -0.00030946854 -0.023697995 -0.015232391 -0.025686907 0.031872403 0.018283572 0.002899081
-0.02923214 0.02381073 0.030361775 0.0076707266 -0.029435288 -0.021504598 -0.02280246 0.026262704
-0.009485016 -0.015419475 -0.022211213 0.0005281561 0.018769508 0.030036123 -0.019101819 0.024873005
-0.012038554 -0.018049067 -0.023956638 -0.02765213 0.030949494 -0.023789687 0.0071259015 0.021973355
0.0045857662 0.028124528 -0.009785852 0.0044220444 -0.003556543 -0.006966543 0.026472893 -0.019646628
0.017681025 -0.027911909 0.012705542 -0.019702531 0.02327348 -0.017649202 0.01242461 0.0040272935
0.031386748 0.02190977 -0.008693026 -0.012363647 0.0040254155 -0.014012467 -0.0014560808 0.03263102
0.0073142042 -0.0007099057 -0.008629657 -0.022237644 0.025077624 0.0028565484 -0.022961536 0.022301646
0.0137893455 0.027072798 0.010007775 -0.0076908106 -0.013580504 -0.02257496 -0.00741657 0.023707468
-0.009888702 0.014674153 0.022323735 0.004819516 -0.025582228 -0.0005248458 -0.018451799 0.01174286
-0.010705669 0.011064662 -0.020747604 0.016437808 0.028791087 0.010382272 0.027743332 0.022426408
-0.021698736 0.028266253 0.037721187 0.021640878 -0.02297279 0.010167632 0.025516357 0.006631657
-0.017114868 0.027227825 0.029853169 -0.0052010617 -0.02606365 -0.015300554 -0.016270192 -0.01753781
-0.019456826 -0.0013665786 -0.014475951 -0.03036379 0.00656735 0.0021687404 -0.023849169 -0.005532935
0.014208929 -0.024290228 0.0004515283 -0.004505336 -0.023419961 0.016849179 -0.014408296 0.023447052
-0.021345573 0.0104735745 0.0048200213 -0.008058575 0.0015655119 -0.013781053 -0.0019463068 0.028823664
-0.020807046 -0.014060438 -0.025535192 -0.021537846 0.023591986 0.021231128 -0.018609755 -0.025256284
0.02601906 -0.01624739 0.02536329 -0.0013533704 0.017042654 -0.01025819 0.011094395 0.023546925
-0.019866757 0.022370104 0.02922295 0.010529 0.0077366317 -0.02040951 -0.010635141 0.00943902
-0.0041879383 -0.023263644 -0.02416427 -0.00321526 -0.002846433 0.02550202 0.011599748 -0.018870661
00000000: d4ce 94bc 3773 5c3b 8782 86bc 5f12 90bb
00000010: a573 8bbc eb74 3ebb 9f07 b1bc 7c07 dabc
00000020: bc1b 4dbc 0e98 843b 3181 03bd d026 df3c
00000030: f618 fbbc 766e 0a3b c220 a63c 2640 d7bb
00000040: bd50 bc3b 2916 aebc 310b 093c 7329 abbc
00000050: 98cb ecbc eb3b 0a3c bdfc 653c 24c2 843c
00000060: 16c1 063c 2e2d f5bc ea94 12bc 81ad 5c3c
00000070: 4349 b9bc e672 5f3c a5d3 513c 1a2f 463c
00000080: 2dd8 36bc c63c d83c 12ae b4bc 0eea 553c
00000090: e77a 513c d050 9bbc 030c de3c 8fea 0a3c
000000a0: 505b 26bc 67ca 4bbc e5a2 21bc ca2c 4dbc
000000b0: 8a34 9ebc 1ce0 ecbc 7797 9e3c b304 c93c
000000c0: 2073 783c 44d9 98bc 8f3d c23c b8ed e6bc
000000d0: 3333 a43c 881d 093c d52c d9bb f2ad fa3c
000000e0: 9311 a63c 08be a33c 92a5 e0bc 486b d3bb
000000f0: 6bcb 473c e553 903c 6155 323c 2ad6 073d
00000100: e94d d83c 54ba 813b a1b6 e0bb 2397 bb3c
00000110: 0f9b 3bbc 1471 bdbc e186 2ebc d9c1 6ebc
00000120: fb6a f739 f2f8 0fbc 8452 b8bb 8b6f 543c
00000130: 0096 5b3c 25b7 d9bc 358c dcbc 2f25 c5bc
00000140: bed1 16bb 9dd4 a3bb 9ae8 013c 1cd0 903c
00000150: 7fa2 d5bc 6c37 ce3c 594b e13c 320d 63bc
00000160: b100 be3c 46d0 00bb 43ae d9bb bfa0 b13c
00000170: e678 363b 45ee b93c 6a58 4abc f0be 3ebc
00000180: 018c c1bc 2a40 a2b9 4c22 c2bc 4791 79bc
00000190: 596d d2bc a38c 023d 6ec7 953c 82fe 3d3b
000001a0: 3e78 efbc b80e c33c 42b9 f83c b85a fb3b
000001b0: 4622 f1bc 692a b0bc 39cc babc e224 d73c
000001c0: 0a67 1bbc f7a1 7cbc 4af4 b5bc f573 0a3a
000001d0: 83c2 993c 510e f63c 6b7b 9cbc 79c2 cb3c
000001e0: 5b3d 45bc a3db 93bc b640 c4bc b886 e2bc
000001f0: cb89 fd3c 97e2 c2bc 6580 e93b 7701 b43c
00000200: 3244 963b 6965 e63c d754 20bc cce6 903b
00000210: e414 69bb 9947 e4bb aedd d83c f7f1 a0bc
00000220: ccd7 903c 84a7 e4bc e82a 503c 3467 a1bc
00000230: 06a8 be3c 0f95 90bc 9790 4b3c 63f7 833b
00000240: 648f 003d 1e7c b33c 326d 0ebc e590 4abc
00000250: a2e7 833b 8c94 65bc f7d9 beba 1ba8 053d
00000260: feab ef3b f718 3aba 6863 0dbc b82b b6bc
00000270: 976f cd3c ee34 3b3b d519 bcbc f1b1 b63c
00000280: b5ec 613c c6c7 dd3c a7f7 233c 3203 fcbb
00000290: c380 5ebc 1fef b8bc b306 f3bb 2a36 c23c
000002a0: 3904 22bc dc6b 703c 44e0 b63c 08ed 9d3b
000002b0: d291 d1bc ce95 09ba 3a28 97bc 2065 403c
000002c0: d566 2fbc 8e48 353c e1f6 a9bc 95a8 863c
000002d0: 49db eb3c 681a 2a3c fc45 e33c 96b7 b73c
000002e0: 8cc1 b1bc a18e e73c 8881 1a3d 3648 b13c
000002f0: 6f31 bcbc 2496 263c ae07 d13c 5f4e d93b
00000300: 7b34 8cbc e30c df3c a28e f43c ab6d aabb
00000310: 7083 d5bc 2daf 7abc 1149 85bc 74ab 8fbc
00000320: ec63 9fbc c51e b3ba 8a2c 6dbc 7cbd f8bc
00000330: ed32 d73b 6d21 0e3b 555f c3bc 9f4d b5bb
00000340: 91cc 683c 4dfc c6bc 1abb ec39 7fa1 93bb
00000350: 38db bfbc 4a07 8a3c c610 6cbc 0814 c03c
00000360: e9dc aebc 5b99 2b3c 45f1 9d3b 1d08 04bc
00000370: dd31 cd3a edc9 61bc 381b ffba 9b1f ec3c
00000380: 8a73 aabc c05d 66bc 2e2f d1bc 2370 b0bc
00000390: fb43 c13c e7ec ad3c 7c73 98bc 44e6 cebc
000003a0: ec25 d53c 3f19 85bc adc6 cf3c 9363 b1ba
000003b0: 099d 8b3c f811 28bc 44c5 353c 7be5 c03c
000003c0: 9cbf a2bc 8241 b73c f864 ef3c d481 2c3c
000003d0: 9283 fd3b d831 a7bc 043f 2ebc 1fa6 1a3c
000003e0: f93a 89bb 6693 bebc 26f4 c5bc 1db7 52bb
000003f0: 398b 3abb 9de9 d03c df0c 3e3c a596 9abc

bias f4 [64]
-0.024631195 -0.011227498 0.018351937 -0.007534604 0.014449701 0.038364172 -0.03632653 -0.013659308
0.007904546 0.01799082 -0.010258196 0.0044180723 0.03454741 -0.03174202 0.0051807025 0.006461815
0.0064515066 0.0014503542 0.017582024 -0.037754927 -0.02174943 0.021951267 0.018066226 0.0077600013
0.0064127003 -0.008656302 0.0075675673 0.002342363 -0.010372749 -0.014246846 -0.0012571915 0.016682722
0.035234362 -0.017624082 -0.008380802 -0.034771048 -0.0031123902 -0.03707132 0.027299913 0.026191872
0.014584734 -0.017061625 -0.024610773 0.018656384 0.0017355288 0.024333324 0.026005285 -0.028733548
0.0043681674 0.025058834 -0.03465487 0.02777749 0.00157246 -0.02780122 -0.012472782 -0.01572766
0.00040013448 -0.018540777 -0.0074616955 -0.031662967 0.03740403 -0.023242936 -0.030276937 0.006833803
00000000: 5cc7 c9bc 8af3 37bc cd56 963c d7e4 f6bb
00000010: 70be 6c3c c023 1d3d 21cb 14bd 4acb 5fbc
00000020: 1282 013c 7c61 933c fe11 28bc 7ac5 903b
00000030: 9681 0d3d ec03 02bd e2c2 a93b a2bd d33b
00000040: 2967 d33b d019 be3a 2d08 903c e9a4 1abd
00000050: dc2b b2bc 25d3 b33c 9fff 933c 9c47 fe3b
00000060: a121 d23b 29d3 0dbc 5bf9 f73b 5482 193b
00000070: 76f2 29bc 9a6b 69bc 59c8 a4ba 34aa 883c
00000080: e851 103d 6160 90bc a24f 09bc 166c 0ebd
00000090: 3ef9 4bbb 19d8 17bd 11a4 df3c 5690 d63c
000000a0: cff4 6e3c d2c4 8bbc 889c c9bc 46d5 983c
000000b0: af7a e33a ae56 c73c 0909 d53c 9e62 ebbc
000000c0: d822 8f3b 2f48 cd3c 44f2 0dbd 9e8d e33c
000000d0: 011b ce3a 62bf e3bc a45a 4cbc 4bd7 80bc
000000e0: 24c9 d139 d4e2 97bc 3d81 f4bb 07b1 01bd
000000f0: f834 193d f867 bebc 5707 f8bc 18ee df3b

weight f4 [10, 64]
0.016122557 -0.12725098 0.11129448 -0.06134805 -0.052711215 -0.06293995 -0.059312146 0.04714482
0.017813876 0.12977466 0.0014288623 -0.14505899 0.036932386 0.044897642 -0.040309023 0.07383476
-0.07015158 0.05356067 0.11301546 0.107229576 0.014101668 -0.052544743 0.12736379 0.054889075
-0.011098039 -0.059301753 -0.060595892 -0.014383499 0.028520478 0.030663 -0.032894153 0.08444181
-0.0065616914 0.09383694 0.055161625 0.09989991 0.14428872 -0.043064218 0.0791463 -0.13156378
-0.035762988 -0.054409154 0.090355046 0.02353169 -0.15025303 -0.04955882 0.039627638 -0.09580194
-0.05401712 -0.07037296 0.023999551 0.08729267 -0.091806665 0.012429561 0.011851638 -0.06787277
-0.06859906 -0.13814996 -0.13440081 0.110933945 -0.11767741 0.10530087 0.090718836 0.13764769
-0.06293452 0.0964918 -0.0936616 -0.12992404 -0.07168257 0.08995826 -0.062362544 -0.14938371
-0.07333068 -0.028732872 0.1246793 0.112118326 -0.032794632 0.014858336 -0.13122664 -0.066089906
-0.08259617 -0.064854756 0.071018256 -0.022554196 0.010033555 -0.09226089 -0.11248145 0.01576734
0.13205875 -0.033445094 0.028593726 -0.07995222 0.16965286 -0.073384635 0.09952063 0.081427746
0.016689701 0.04385602 0.16165408 -0.061494406 -0.085721835 0.054836724 0.12951493 -0.13013935
0.11241135 -0.02899273 -0.031205148 0.06265585 -0.11771764 -0.14097564 -0.08780379 0.073748454
0.015697574 0.08923428 -0.13847816 0.1340279 -0.124464266 -0.04662137 -0.12656032 0.047963824
0.07625687 0.056757875 0.008896081 -0.052552108 0.085763335 0.11924549 0.12766239 -0.10600565
0.09617259 0.0439466 0.10933633 0.03133182 -0.08304631 -0.08053087 -0.022658587 -0.095920525
-0.049951814 0.1362153 -0.13782914 0.059477612 0.13455464 -0.11065062 -0.09484583 0.06947149
0.036950316 -0.01314746 -0.13792934 -0.05184065 0.097849965 -0.08839555 0.036698442 0.0050716694
-0.1344572 -0.08979335 0.13531528 0.08815058 -0.14476123 -0.11013777 -0.14492424 -0.09587267
0.03590218 0.064905345 -0.04645002 0.05501182 0.08576381 -0.1497237 0.108935446 0.024090644
-0.055591594 -0.12685852 -0.0081386 0.04660455 0.0335083 0.11456183 -0.13055155 -0.1461333
-0.028113421 -0.08138752 0.016057452 0.118572906 0.07536894 0.0059356187 -0.10275568 0.058069665
-0.011015094 0.043605722 0.12162833 0.1356004 0.024722492 0.060217377 -0.002859786 0.12581022
0.066180356 0.08309614 -0.11514355 -0.10799693 -0.08496145 0.07015748 0.1107416 0.0494026
-0.13113943 0.034001973 0.08011784 0.036056064 -0.0039154026 -0.12812708 0.051537063 0.05832992
0.14095394 0.019888718 0.023902848 0.1068953 -0.045120653 0.08966683 0.08434224 0.0047286795
-0.115275405 0.014334309 0.099223346 -0.08860335 -0.03063605 0.12662545 -0.09826198 0.101275116
-0.1282978 0.1239728 -0.08603153 -0.057515733 -0.07407434 -0.01440419 0.08526572 0.018230792
-0.02238899 0.10279221 0.11597274 0.010947158 0.14518313 0.029429866 -0.03638392 -0.099164605
0.07614934 -0.012478766 0.08523931 0.1420836 -0.08360528 -0.013348234 -0.0025202192 -0.061947428
0.012370263 0.020459166 -0.032309007 -0.072020315 -0.006020297 -0.09959126 -0.02101085 0.09448925
00000000: 7413 843c 154e 02be 5cee e33d 1848 7bbd
00000010: b7e7 57bd a9e6 80bd 4bf1 72bd ed1a 413d
00000020: 68ee 913c a6e3 043e aa48 bb3a 588a 14be
00000030: 6a46 173d 97e6 373d 131b 25bd ae36 973d
00000040: a2ab 8fbd 6f62 5b3d a674 e73d 2e9b db3d
00000050: af0a 673c 2839 57bd a76b 023e 5ed3 603d
00000060: 8dd4 35bc 65e6 72bd 6633 78bd c4a8 6bbc
00000070: c7a3 e93c f930 fb3c 05bc 06bd d4ef ac3d
00000080: 7503 d7bb 952d c03d 28f1 613d 5398 cc3d
00000090: 6cc0 133e 1b64 30bd 7517 a23d a8b8 06be
000000a0: 367c 12bd 22dc 5ebd 110c b93d 88c5 c03c
000000b0: eedb 19be 30fe 4abd 9750 223d cf33 c4bd
000000c0: 0e41 5dbd b31f 90bd b59a c43c 80c6 b23d
000000d0: 2205 bcbd 5ba5 4b3c 5f2d 423c e100 8bbd
000000e0: aa7d 8cbd 2f77 0dbe 5ea0 09be 5631 e33d
000000f0: db00 f1bd fca7 d73d ccca b93d 84f3 0c3e
00000100: d0e3 80bd 7e9d c53d a7d1 bfbd cf0a 05be
00000110: 50ce 92bd 093c b83d de6f 7fbd 0bf8 18be
00000120: 652e 96bd 3361 ebbc dc57 ff3d 4b9e e53d
00000130: aa53 06bd 6170 733c 4760 06be 255a 87bd
00000140: 2e28 a9bd 92d2 84bd 0572 913d 94c3 b8bc
00000150: c863 243c 47f3 bcbd ad5c e6bd 822a 813c
00000160: 693a 073e b9fd 08bd 643d ea3c fdbd a3bd
00000170: 7bb9 2d3e af4a 96bd 79d1 cb3d 97c3 a63d
00000180: d7b8 883c 5fa2 333d a688 253e 8fe1 7bbd
00000190: ee8e afbd 799c 603d 909f 043e 4043 05be
000001a0: ec37 e63d 2982 edbc f0a1 ffbc b651 803d
000001b0: f215 f1bd eb5b 10be 79d2 b3bd 6e09 973d
000001c0: 3398 803c 76c0 b63d 38cd 0dbe 9c3e 093e
000001d0: 1fe7 febd 0df6 3ebd 0799 01be b775 443d
000001e0: 902c 9c3d f27a 683d dec0 113c e140 57bd
000001f0: b0a4 af3d fb36 f43d eeb9 023e 7d19 d9bd
00000200: 23f6 c43d 5a01 343d baeb df3d cb55 003d
00000210: 2f14 aabd 5eed a4bd 809e b9bc fb71 c4bd
00000220: 469a 4cbd 067c 0b3e 1523 0dbe cc9e 733d
00000230: b1c8 093e cb9c e2bd 883e c2bd 1247 8e3d
00000240: 3759 173d 7268 57bc 593d 0dbe dd56 54bd
00000250: 9065 c83d ba08 b5bd 1b51 163d 3f30 a63b
00000260: 26af 09be 93e5 b7bd 1790 0a3e 4b88 b43d
00000270: 4a3c 14be e98f e1bd 0567 14be e458 c4bd
00000280: 2a0e 133d 18ed 843d 6042 3ebd 1354 613d
00000290: f0a4 af3d 2b51 19be 8c19 df3d be59 c53c
000002a0: 03b4 63bd 33e7 01be c357 05bc 6ae4 3e3d
000002b0: 0040 093d 659f ea3d 4eaf 05be f8a3 15be
000002c0: 1e4e e6bc 80ae a6bd eb8a 833c 5ad6 f23d
000002d0: 085b 9a3d 947f c23b 9271 d2bd 75da 6d3d
000002e0: a778 34bc ea9b 323d 4618 f93d d5da 0a3e
000002f0: d386 ca3c 7fa6 763d 3f6b 3bbb 65d4 003e
00000300: 9189 873d 4f2e aa3d 62d0 ebbd 7f2d ddbd
00000310: 4500 aebd baae 8f3d 7ecc e23d 615a 4a3d
00000320: 6a49 06be a745 0b3d d214 a43d 86af 133d
00000330: c74c 80bb bf33 03be 8718 533d 5beb 6e3d
00000340: 3b56 103e aaed a23c e8cf c33c eceb da3d
00000350: 6fd0 38bd 3ea3 b73d a0bb ac3d 0af3 9a3b
00000360: 8315 ecbd 73da 6a3c 9c35 cb3d ac75 b5bd
00000370: 74f8 fabc 1aaa 013e 943d c9bd 5469 cf3d
00000380: 8060 03be 74e5 fd3d 4c31 b0bd 9e95 6bbd
00000390: 4ab4 97bd 8dff 6bbc cb9f ae3d be58 953c
000003a0: 1d69 b7bc b984 d23d 1e83 ed3d b55b 333c
000003b0: e3aa 143e e716 f13c 4e07 15bd d016 cbbd
000003c0: 2ff4 9b3d bd73 4cbc f391 ae3d 5d7e 113e
000003d0: 3f39 abbd 8db2 5abc 432a 25bb 96bc 7dbd
000003e0: a5ac 4a3c fb99 a73c 7356 04bd 637f 93bd
000003f0: e945 c5bb 81f6 cbbd f21e acbc 9483 c13d

bias f4 [10]
-0.096504055 -0.08775672 -0.023742933 0.06811319 0.0048864544 0.019355878 -0.0640218 -0.09612752
0.004963464 -0.10091028
00000000: eba3 c5bd ccb9 b3bd 8a80 c2bc ee7e 8b3d
00000010: 8d1e a03b 3890 9e3c dd1d 83bd 81de c4bd
00000020: 8ea4 a23b 0daa cebd
