PytorchLearning/learn1/vggmodel/vgg_14.pth (torch, 587335 bytes, 10 tensors)

weight f4 [32, 3, 5, 5]
0	0x3ddd3c6d	0.10802541
1	0xbddf0df4	-0.10891333
2	0xbd8062d6	-0.062688515
3	0xbd1fb0da	-0.03898702
4	0xbdb8b234	-0.090183645
5	0xbbd89561	-0.006609604
6	0x3cd21e5f	0.025649248
7	0xbcccfe07	-0.025023473
8	0xbd8dc29f	-0.06921887
9	0x3dbcbbfb	0.09215542
10	0x3df33133	0.118746184
11	0x3b10fade	0.0022122185
12	0xbbe3cafe	-0.006951689
13	0x3d8eec3e	0.06978653
14	0xbd2dca4a	-0.042429246
15	0xbdb9d673	-0.09074106
16	0x3da4b4e6	0.08042316
17	0xbdb4011d	-0.08789275
18	0x3def3943	0.11680844
19	0x3dd92043	0.106018566
20	0xbd73a382	-0.059482105
21	0x3d7e8978	0.06214282
22	0x3d7375c9	0.0594385
23	0x3df572f4	0.11984816
24	0xbd50a71b	-0.050940614
25	0xbd59d3aa	-0.053180374
26	0xbd2ccb45	-0.04218604
27	0x3dbc51a0	0.09195256
28	0x3cfbd721	0.03074223
29	0xbde7f3c0	-0.113257885
30	0x3d73ea44	0.059549585
31	0xbc40f19b	-0.011776353
32	0xbdcd8353	-0.10034814
33	0xbd9fada3	-0.077967905
34	0x3da77e4b	0.08178385
35	0xbcae8c91	-0.021307262
36	0xbdad25fa	-0.08454509
37	0x3d453b0b	0.04815201
38	0xbda3dd30	-0.080011725
39	0x3da233fd	0.07920072
40	0x3d2cabe6	0.042156123
41	0x3dc2dc82	0.09514715
42	0x3da489eb	0.08034118
43	0x3db530ac	0.08847174
44	0xbcfb4b0b	-0.030675432
45	0xbcd4f653	-0.025996363
46	0x3d748f28	0.059706837
47	0x3deb7cb0	0.11498392
48	0xbd807224	-0.062717706
49	0xbd0ef9b4	-0.034906104
50	0xbbbb1337	-0.0057090777
51	0x3cbf2967	0.023335172
52	0xbdac5058	-0.08413762
53	0xbd3032ba	-0.043017127
54	0xbd2e2c41	-0.042522673
55	0x3c9e43a1	0.019319357
56	0x3dcd4007	0.10021978
57	0xbb90e3fd	-0.0044217096
58	0x3dd5fa07	0.104480796
59	0x3d813ff1	0.06311024
60	0xbcd638d6	-0.026150148
61	0x3d9eb3b0	0.077491164
62	0xbd7e0dd6	-0.062024914
63	0xbdd1f185	-0.10251144
64	0x3d083956	0.033257805
65	0x3dfb2b5b	0.12264129
66	0x3db571a9	0.088595696
67	0xbcca02ec	-0.024659596
68	0x3c6f4b4d	0.014605355
69	0x3dfc8e5b	0.1233184
70	0x3bb6d31d	0.005579366
71	0x3e0196c2	0.12655166
72	0x3d30aac9	0.043131623
73	0x3d1ceed0	0.038313687
74	0x3d483ae5	0.04888429
75	0xbd3cb023	-0.046066415
76	0x3def9266	0.11697845
77	0x3d1d58b5	0.038414676
78	0xbcedab39	-0.02901231
79	0x3d468928	0.048470646
80	0x3d89bd04	0.06725505
81	0xbd62d7d8	-0.055381626
82	0xbd7ee4af	-0.06222981
83	0x3da26796	0.07929914
84	0xbdb4e3e0	-0.08832526
85	0x3c87bf2a	0.016570646
86	0xbb98d2d8	-0.0046638064
87	0xbda5638b	-0.08075627
88	0xbda90b4c	-0.08254108
89	0xbae14e46	-0.0017189465
90	0x3cd0dfc9	0.025497334
91	0x3df5c975	0.120013155
92	0x3d499a45	0.04921939
93	0xbddf4903	-0.10902598
94	0xbb87dc34	-0.0041461233
95	0xbc999f36	-0.018752676
96	0x3da08fd3	0.07839932
97	0xbdbde4e2	-0.092721716
98	0x3d8bb23e	0.068211064
99	0xbd82289f	-0.06355404
100	0xbd1596d9	-0.036520813
101	0xbd95bac0	-0.0731101
102	0x3d8574e0	0.06516433
103	0xbe0001c5	-0.12500675
104	0x3c301def	0.010749324
105	0xbd8bffb8	-0.06835884
106	0xbb88cc00	-0.0041747093
107	0x3d9eaefc	0.07748219
108	0xbe097e14	-0.13427001
109	0xbdabb5c0	-0.083842754
110	0x3d451ff0	0.04812616
111	0xbd2fce86	-0.042921565
112	0xbdbaf832	-0.09129371
113	0xbcd42d13	-0.0259004
114	0xbdc93a28	-0.098255455
115	0x3da7aa68	0.08186799
116	0x3ddfc56c	0.10926327
117	0xbcbb9799	-0.022899436
118	0x388fde3c	6.860166e-05
119	0x3cbca4a6	0.02302773
120	0xbddb8868	-0.10719377
121	0x3da6bd72	0.081416026
122	0x3d850a75	0.06496135
123	0xbdab7a11	-0.08372892
124	0x3d0c686f	0.034279283
125	0xbe05ebbc	-0.13078207
126	0xbde67f28	-0.11254722
127	0xbdd2ba84	-0.10289481
128	0x3ce49453	0.027902758
129	0x3cc78cc0	0.024359107
130	0xbdd186ac	-0.10230765
131	0xbcb311ab	-0.02185901
132	0x3d7db18b	0.061936896
133	0xbdd383be	-0.10327862
134	0xbdf995bf	-0.12186765
135	0x3dc4ed03	0.09615519
136	0x3ce0c22a	0.027436335
137	0xbd48bf88	-0.049010783
138	0x3d939c32	0.07207526
139	0xbdecd16c	-0.115633816
140	0xbb6e0304	-0.0036317715
141	0x3db50af2	0.08839978
142	0xbc07246a	-0.008248428
143	0xbd9bd404	-0.07608798
144	0xbcc47bd5	-0.023984829
145	0xbd7da6eb	-0.061926764
146	0x3abb0417	0.0014268187
147	0x3dbb6c74	0.09151545
148	0xbcd38077	-0.025818093
149	0x3da722ee	0.08160959
150	0xbd6d40bd	-0.057923067
151	0xbdd7d1ee	-0.10538088
152	0x3dacf37c	0.084448785
153	0xbd419d3c	-0.04726909
154	0xbc1d1407	-0.009587294
155	0xbdd5fe94	-0.104489475
156	0xbdf7804e	-0.12085019
157	0xbdb5b2b5	-0.08871976
158	0xbde4f374	-0.111792475
159	0xbda8bf80	-0.08239651
160	0xbd827d7a	-0.06371589
161	0x3dc4924f	0.09598219
162	0xbb8588ac	-0.0040751304
163	0x3b4d403d	0.0031318807
164	0x3d0f6017	0.035003748
165	0x3d1c2d15	0.03812893
166	0x3bfbe6f8	0.0076874457
167	0x3ce197ac	0.027538143
168	0xbd94b117	-0.0726034
169	0xbdb75ee4	-0.08953646
170	0x3dc4719e	0.09591983
171	0x3ce92ba7	0.028463198
172	0xbd3f9b22	-0.046778806
173	0x3db99818	0.09062213
174	0x3dccea9e	0.10005687
175	0xbd3f5b4c	-0.046717927
176	0x3c4f9c81	0.012671591
177	0x3dc2f710	0.0951978
178	0xbd692967	-0.05692425
179	0x3c40605c	0.011741724
180	0x3d5ae34d	0.053439427
181	0x3dbd58bf	0.092454426
182	0x3d922a9a	0.07137032
183	0xbd4ea3dc	-0.050449237
184	0xbd379a84	-0.044825092
185	0xbdf17f5c	-0.1179187
186	0xbd8a058d	-0.0673934
187	0xbdd59ba8	-0.1043008
188	0x3d5cbfff	0.05389404
189	0x3c2a4c4e	0.010394169
190	0x3d943c11	0.07238019
191	0xbdb49fb9	-0.08819527
192	0x3d4b490b	0.049630206
193	0xbd7487df	-0.05969989
194	0x3dca5b1f	0.09880661
195	0xbd547134	-0.05186577
196	0x3d9b4584	0.075816184
197	0xbd26ada4	-0.04069294
198	0x3d9fe3d2	0.07807125
199	0x3dc4e1c0	0.09613371
200	0x3dc79596	0.09745328
201	0xbd25a7d3	-0.040443253
202	0xbc333f57	-0.010940394
203	0x3bc36a66	0.0059636114
204	0x3df527b1	0.11970461
205	0x3dd4cc89	0.103905745
206	0xbd3e6e91	-0.046492163
207	0x3dcbb785	0.09947113
208	0xbda88a32	-0.08229484
209	0x3cade71b	0.021228364
210	0x3ba84441	0.0051350896
211	0x3d7b67ad	0.06137817
212	0xbd76a6c7	-0.060217645
213	0x3d2056dd	0.03914534
214	0x3d447b74	0.047969297
215	0x3dc33cc4	0.095330745
216	0x3deabfa3	0.11462333
217	0x3da06725	0.07832173
218	0x3da2b16e	0.07943998
219	0x3ca9916e	0.02069923
220	0x3d17e170	0.03708023
221	0x3de9d972	0.114184275
222	0x3cea3348	0.028588906
223	0x3dc08edb	0.094022475
224	0xbbf1f268	-0.0073836334
225	0xbdbd56d3	-0.09245076
226	0x3da7b765	0.081892766
227	0x3cbe0185	0.023194084
228	0xbddb5b8e	-0.10710822
229	0x3d2fc801	0.042915348
230	0xbd9e6da6	-0.077357575
231	0xbcef01bc	-0.029175632
232	0xbd31c848	-0.043403894
233	0x3cde93bb	0.027170053
234	0xbdab3425	-0.08359555
235	0xbda5ca0f	-0.0809518
236	0x3cb84a4a	0.022496361
237	0xbd83a1c2	-0.06427337
238	0xbcff06d2	-0.031131182
239	0xbde0c025	-0.10974149
240	0xbda06a16	-0.07832734
241	0x3d3c5b3f	0.045985457
242	0x3dc6dcef	0.097101085
243	0x3dae64d0	0.08515322
244	0x3de95c65	0.11394576
245	0xbce7b5f8	-0.028285012
246	0x3d4de794	0.05026968
247	0x3db76225	0.089542665
248	0x3d23dbe6	0.040004633
249	0x3d975aff	0.07390403
250	0x3d4ec849	0.050483976
251	0x3d02124d	0.031755734
252	0xbdbbfde2	-0.09179284
253	0x3dd7fbf8	0.10546106
254	0x3dd3e418	0.1034624
255	0x3de3755d	0.1110637

bias f4 [32]
0	0x3d646d9a	0.055768587
1	0x3cc4c418	0.024019286
2	0xbc5e3082	-0.01356137
3	0xbcc4ad7a	-0.024008501
4	0x3d9914ab	0.07474645
5	0x3d9807eb	0.07423385
6	0xbd67b0ff	-0.05656528
7	0x3d9ff87c	0.078110665
8	0xbddaf5d7	-0.106914215
9	0x3dbf524c	0.09341869
10	0x3db6d720	0.089277506
11	0xbda3c3c3	-0.07996323
12	0xbd68ab31	-0.056803886
13	0xbc24b3ad	-0.010052604
14	0x3dbd48a8	0.09242374
15	0x3c988f7d	0.018623108
16	0x3d0ec8c6	0.03485944
17	0xbd8dff42	-0.06933452
18	0x3ca489d1	0.020085247
19	0x3dcca7c9	0.0999294
20	0x3d806517	0.06269281
21	0xbc89a06c	-0.016800128
22	0x3d8c9e65	0.06866149
23	0x3ddf0496	0.108895466
24	0xbd8c3175	-0.06845371
25	0xbd9c5518	-0.07633418
26	0x3d38c877	0.045113053
27	0xbdfd39d5	-0.12364546
28	0xbd958bdc	-0.07302067
29	0xbc8732ba	-0.01650368
30	0xbe1ec5af	-0.15505098
31	0x3da9e0ea	0.08294852

weight f4 [32, 32, 5, 5]
0	0xbca4a0f9	-0.020096289
1	0xbd07fa46	-0.033197664
2	0x3b8e71eb	0.004347076
3	0x3d079876	0.033104382
4	0xbce6cfa5	-0.028175185
5	0xbd0d8ec6	-0.034559987
6	0xbb8e35ed	-0.0043399245
7	0x3c92a5b2	0.017901275
8	0xbc9cb6f1	-0.019130202
9	0x3ca8e5a5	0.020617316
10	0xbc9972c5	-0.018731484
11	0x3cabc76b	0.020969113
12	0xbd1beda2	-0.03806842
13	0x3c24f296	0.010067603
14	0xbcffdb63	-0.031232541
15	0xbc8a4c93	-0.016882217
16	0xbcd6c1e0	-0.026215494
17	0xbb0212bd	-0.0019847595
18	0x3c7ca2fa	0.015419716
19	0xbbe46464	-0.0069699753
20	0x3cc2408e	0.023712423
21	0x3c01e01c	0.007926967
22	0xbd040d49	-0.032239232
23	0xbc67821b	-0.014130141
24	0xbaf3a3c5	-0.0018588236
25	0xbd02e1bf	-0.03195357
26	0xbcdbb90c	-0.026821636
27	0x39ec170d	0.00045030602
28	0xbcf93dd5	-0.030424992
29	0x3ced23e2	0.028947774
30	0x3a3b4a96	0.0007144598
31	0xbca86e58	-0.020560429
32	0xbd078d3a	-0.03309367
33	0x3cb26fb9	0.02178179
34	0x3c83e25d	0.01609915
35	0x3bc9bd76	0.0061566187
36	0xbc3af3da	-0.011410678
37	0xbd0ed1ea	-0.03486816
38	0x3c66b5fc	0.014081474
39	0x3c0bdf1c	0.00853708
40	0xbcfc1125	-0.030769894
41	0xbb0d90f8	-0.00216013
42	0xbba5a76b	-0.005055358
43	0xbc4f59da	-0.0126557
44	0x3ca27910	0.019833118
45	0xbcf2a19e	-0.02961808
46	0x3c8b910d	0.017036939
47	0xbacda736	-0.0015690092
48	0xbc5da022	-0.013526948
49	0xbca4e70e	-0.020129707
50	0xbb7e19a4	-0.0038772607
51	0xbd06d4c0	-0.032917738
52	0x3cc684dc	0.024233274
53	0xbc16bbba	-0.009200031
54	0x3d0c62b1	0.034273807
55	0xbcfb0b16	-0.030644935
56	0x3c275f4f	0.010215594
57	0x3d050d7f	0.032483574
58	0xbcb78b1a	-0.022405196
59	0x3cfd8073	0.030945038
60	0xbb9556e8	-0.004557479
61	0x3cebbf90	0.028777868
62	0x3cf24646	0.029574525
63	0x3ceda82c	0.029010855
64	0x3d050c4c	0.03248243
65	0x3b2d9678	0.0026487391
66	0x3c97a356	0.018510502
67	0xbcfcff8c	-0.030883573
68	0xbb4314ad	-0.0029766962
69	0xbceef21e	-0.029168185
70	0x3cfbbe48	0.030730382
71	0x3b580e2b	0.003296743
72	0xba9c132d	-0.001190757
73	0xbbe485d6	-0.0069739623
74	0x3d038275	0.032106835
75	0xbd0bdc03	-0.034145366
76	0xbc9a7df4	-0.018858887
77	0xbafb73ff	-0.001918435
78	0xbd0c2730	-0.03421706
79	0x3cf06fae	0.029350128
80	0x3c31a035	0.010841419
81	0xbc4b77d1	-0.012418703
82	0x3928376d	0.00016042376
83	0xbcf64cff	-0.030066011
84	0x3cc2aa7f	0.02376294
85	0xba8bdb3d	-0.0010670196
86	0xbd079245	-0.033098478
87	0x3cc7fb0a	0.024411697
88	0xbcba9f28	-0.02278097
89	0xbc8d456e	-0.01724502
90	0x3b97ad6e	0.0046288287
91	0xbc4d5932	-0.012533473
92	0xbb9a54b2	-0.0047098035
93	0x3c3c0b44	0.011477295
94	0xbc1c1de0	-0.009528607
95	0xbd05739f	-0.032580968
96	0xbcf993e5	-0.03046603
97	0xbccf6afd	-0.02531957
98	0xbc0fcba8	-0.008776583
99	0xbce82613	-0.028338468
100	0xbc9ecf11	-0.019385846
101	0xbd03abd7	-0.0321463
102	0xba3652fe	-0.0006955116
103	0xbc7b4717	-0.015336773
104	0xbb34fada	-0.002761534
105	0x3c07157d	0.008244869
106	0xbc1b68ea	-0.009485463
107	0x3c74ab4c	0.0149334185
108	0x3c0740a5	0.008255159
109	0xbd068f26	-0.03285136
110	0xbcaf8d97	-0.02142982
111	0xbcfd98ab	-0.030956587
112	0xbd274cd4	-0.040844753
113	0x3b82ef78	0.003995832
114	0x3c03af82	0.00803745
115	0x3c39e50f	0.011346116
116	0x3ba5f71b	0.0050648577
117	0xbd199c16	-0.03750237
118	0x3c970a08	0.0184374
119	0x3c4dcd4a	0.012561152
120	0x3bf9adb5	0.0076195844
121	0x3c5b64d8	0.013390742
122	0x3b01e40b	0.0019819762
123	0x3c9e2977	0.019306881
124	0x3a0dc6fe	0.00054083753
125	0xbc9b88e8	-0.01898618
126	0xbd0843d6	-0.03326782
127	0xba427617	-0.00074181095
128	0x3c3153d2	0.010823207
129	0x3b93861b	0.0045020706
130	0xbd03f6c3	-0.032217752
131	0x3ca9ee38	0.020743474
132	0xbc0538b4	-0.008131195
133	0x3c8ef977	0.017452938
134	0x3c60cbe5	0.013720487
135	0xbd12b082	-0.035812862
136	0x3b96de71	0.004604154
137	0xbd1674f8	-0.036732644
138	0xbcfc1364	-0.030770965
139	0xbb0c4f40	-0.0021409541
140	0xbd0d46f4	-0.034491494
141	0xbd06a6c8	-0.0328739
142	0xbc64b413	-0.013958949
143	0x3cbb1f0d	0.022841955
144	0x3c544c20	0.012957603
145	0x3c56e578	0.013116233
146	0x3c80d233	0.01572523
147	0xbc85a8c4	-0.016315825
148	0x3acb275b	0.00154994
149	0x3cf478cd	0.029842759
150	0xbacd60cf	-0.001566911
151	0x3c26b5a1	0.01017514
152	0xbc1f90df	-0.00973913
153	0xbbe28549	-0.0069128615
154	0x3c2ccf49	0.0105474675
155	0x3cfd6abd	0.030934686
156	0x3b8e5b32	0.0043443674
157	0xbbb7fb55	-0.005614678
158	0xbccfe880	-0.02537942
159	0xbb512e4d	-0.0031918467
160	0x3cf21121	0.029549183
161	0x3c9fdd80	0.0195148
162	0x3c3e8151	0.011627511
163	0x3c78860d	0.015168679
164	0xbce69531	-0.028147312
165	0x3ce5c7a2	0.028049294
166	0x3ced693c	0.028980844
167	0xbcd27e53	-0.025695002
168	0x3bf6b7bc	0.007529227
169	0xbcc183b6	-0.023622375
170	0x3bc33591	0.0059573133
171	0x3c9d2357	0.01918189
172	0x3b3b2c37	0.002856029
173	0xbcaa8c92	-0.020818982
174	0x3c25e943	0.010126415
175	0x3ccc3dbf	0.024931787
176	0x3c8451f5	0.016152361
177	0xbc4fa57a	-0.01267373
178	0xbca59857	-0.020214243
179	0x3cebf62c	0.028803907
180	0x3cb5c37b	0.022187939
181	0xbc4afdfd	-0.012389657
182	0xba8f0079	-0.0010910175
183	0x3ac43dd4	0.001497204
184	0x3ccf68c3	0.025318509
185	0x3ca3aea4	0.019980736
186	0xbd10ecae	-0.035381965
187	0xbc49d784	-0.012319449
188	0x3cdaea04	0.026722915
189	0xbb275837	-0.0025534758
190	0xbcbf1dae	-0.023329582
191	0xbd11fa67	-0.035639193
192	0xbb9b1d3c	-0.0047337096
193	0x3d01c239	0.031679366
194	0xbcc3e8f9	-0.023914801
195	0x3ba02431	0.004887127
196	0xbce8e57d	-0.028429741
197	0x3c47559a	0.012166405
198	0x3c8243d3	0.015901482
199	0xbcab61dd	-0.020920688
200	0x3cb1572a	0.021648008
201	0xbc8bdb6a	-0.017072398
202	0x3cff7bcd	0.031186963
203	0x3c537508	0.01290632
204	0x3bf94e05	0.0076081776
205	0x3d05e17a	0.032685734
206	0x3bbd0e28	0.00576951
207	0x3afe7256	0.0019412737
208	0xbc0647c0	-0.0081958175
209	0x3c19d506	0.009389168
210	0x3c4900b3	0.012268233
211	0x3d0b47d4	0.034004048
212	0x3b7ecda4	0.0038879896
213	0xbc10572c	-0.008809846
214	0x3c90deea	0.017684419
215	0x3ad5874c	0.0016290932
216	0x3d140189	0.036134277
217	0x3cd45fb4	0.025924541
218	0x3be21595	0.0068995454
219	0x3a99db30	0.0011738297
220	0xbca17dc3	-0.019713288
221	0x3d16c732	0.03681106
222	0x3ccbc3cb	0.024873635
223	0x3d208e82	0.039198406
224	0x3c6d7547	0.014493293
225	0xbbd732be	-0.0065673282
226	0xbcf18816	-0.029483836
227	0x3b4e8705	0.0031513583
228	0xbcefb96f	-0.029263226
229	0x3cade873	0.021229004
230	0xbd344b70	-0.044017255
231	0xbced6a1b	-0.02898126
232	0xbc902a27	-0.017598225
233	0x3c9022c4	0.017594703
234	0x3cc5eb4f	0.024160055
235	0xbc729965	-0.01480708
236	0x3bb83445	0.0056214654
237	0xbd1f7503	-0.03892995
238	0xbcdb8d1f	-0.02680069
239	0xbd19edb6	-0.037580214
240	0x3c4b8f2b	0.012424271
241	0xbcd77097	-0.026298804
242	0xbb962ddf	-0.004583105
243	0xbbaa8489	-0.0052037877
244	0xbc8e544f	-0.017374186
245	0x3c989b9a	0.018628884
246	0xbd2721e2	-0.040803798
247	0xbd15cc40	-0.03657174
248	0xbc8358c8	-0.016033545
249	0xbcaca23d	-0.021073455
250	0xbd21e273	-0.0395226
251	0xbd048775	-0.032355744
252	0xbce21f0c	-0.027602695
253	0x3c673a55	0.0141130285
254	0x3c731b74	0.014838088
255	0x3c236e6f	0.00997506

bias f4 [32]
0	0xbc2155e2	-0.009847136
1	0xbd11c5a9	-0.035588894
2	0xbcaacdd7	-0.020850105
3	0xbd19250c	-0.037388846
4	0x3cb4f402	0.022089008
5	0xbc1ca5ab	-0.009560983
6	0xbd0c5fcc	-0.034271047
7	0xbc893fd1	-0.016754063
8	0xbb20b367	-0.0024520995
9	0x3c1d4b28	0.009600438
10	0xbc7ea322	-0.015541824
11	0xbcaf2f1e	-0.021384772
12	0x3cdbce9f	0.026831923
13	0xbd031ae4	-0.032008067
14	0xbcc7b7d0	-0.02437964
15	0xbc30ebfb	-0.01079845
16	0x3cc1a217	0.02363686
17	0xbd2cef0a	-0.042220153
18	0xbcc7f3f6	-0.024408322
19	0x3c2391e2	0.009983512
20	0x3ccb8939	0.024845706
21	0xbd5c9a4e	-0.053858094
22	0x3af31a34	0.0018547238
23	0xbc003762	-0.007825704
24	0xbbd96c04	-0.006635191
25	0xbd33a6f3	-0.043860387
26	0xbc90907e	-0.017647024
27	0x3c42b50d	0.011883986
28	0x3d18f47a	0.037342526
29	0xbd219021	-0.039444093
30	0x3c28e8f9	0.010309451
31	0x3cbce209	0.023057

weight f4 [64, 32, 5, 5]
0	0xbc20c1ca	-0.009811828
1	0x3c73bfa8	0.014877237
2	0xbc96b9b4	-0.018399097
3	0x3bdbf0b6	0.0067120446
4	0x3c73985c	0.014867868
5	0xbc92dd63	-0.017927831
6	0x3add184c	0.0016868203
7	0x3b80ad70	0.0039269254
8	0xb999be91	-0.00029324417
9	0x3b1125c8	0.0022147764
10	0xbc44d4d9	-0.012013637
11	0x3c9799bb	0.018505922
12	0xbc8df190	-0.0173271
13	0x3d00dc57	0.031460132
14	0x3d0fef66	0.035140418
15	0xbcfa226a	-0.030533988
16	0x3c8327ba	0.016010154
17	0xbc49cf0b	-0.012317429
18	0xbcfbcf22	-0.030738417
19	0xb8cdbb6e	-9.810073e-05
20	0xbad3ef31	-0.0016169307
21	0x3c66073d	0.014039812
22	0xbc1fb2d5	-0.009747227
23	0x3c92b11f	0.017906724
24	0xbce2866c	-0.027651988
25	0x3be38985	0.006943884
26	0xbbccc1b0	-0.0062486753
27	0x3d333ab9	0.043757174
28	0x3c872850	0.016498715
29	0x3c7d41ae	0.015457554
30	0x3c2fad55	0.010722478
31	0xbcd3d980	-0.025860548
32	0x3c515f05	0.012779002
33	0x3c8fd956	0.017559689
34	0x3c21e619	0.00988152
35	0xbcdfb61d	-0.027308518
36	0xbd1ddca9	-0.038540516
37	0xbcbd1969	-0.023083406
38	0x3ba0f730	0.0049122795
39	0xbbd67000	-0.006544113
40	0x3d05e6a4	0.03269066
41	0x3bca7efb	0.006179688
42	0xbcb63e9f	-0.022246657
43	0xbbc3deea	-0.005977501
44	0x3ca1d7a8	0.019756153
45	0x3cc17f46	0.023620259
46	0xbcbd763b	-0.023127666
47	0xbd0f213f	-0.034943815
48	0x3d00a770	0.03140968
49	0x3c978971	0.018498154
50	0x3ca2ba55	0.01986424
51	0x3d0394ed	0.03212445
52	0xbc7f37c1	-0.015577258
53	0x3b857080	0.004072249
54	0x3ce62823	0.02809531
55	0xbb508b35	-0.0031821255
56	0xbc92d4ae	-0.01792368
57	0xbc13638f	-0.008995905
58	0xbca517c8	-0.020152941
59	0x3cf789a7	0.030217005
60	0x3cc1f951	0.023678454
61	0x3cad8113	0.021179711
62	0xbccc6552	-0.024950657
63	0xbcdcce98	-0.02695398
64	0x3cd2f6d1	0.025752457
65	0xbcd0f754	-0.02550856
66	0x3c2806ea	0.010255555
67	0x3d0374d0	0.032093823
68	0xbc933b5b	-0.017972639
69	0x3cc2ce2b	0.02377995
70	0xbbbfd49f	-0.005854204
71	0x3c00b44a	0.007855484
72	0x3c905cd5	0.01762239
73	0x3a061323	0.0005114546
74	0xbd0b941b	-0.03407679
75	0x3cb5bd73	0.022185063
76	0x3cb340b5	0.02188144
77	0xbcabfea6	-0.02099545
78	0xbcc71753	-0.024303114
79	0x3ca1550e	0.019693878
80	0x3bc5b45d	0.006033464
81	0xbccae4ce	-0.024767306
82	0x3c584ae8	0.013201453
83	0x3d087346	0.03331306
84	0xbbf2e382	-0.007412375
85	0x3bfe604f	0.0077629457
86	0x3c91aaf0	0.017781705
87	0x3d2b18f0	0.04177183
88	0x3b93b8e1	0.0045081233
89	0x3cebf2e8	0.02880235
90	0x3ca1054d	0.019655848
91	0x3cac15eb	0.021006545
92	0xbcfaa9ca	-0.03059854
93	0xbcc556ee	-0.024089303
94	0x3c7f898b	0.015596758
95	0xbd03530e	-0.03206163
96	0x3c8f305a	0.01747911
97	0x3ce8fc4e	0.02844062
98	0x3ba0c144	0.0049058516
99	0xbc57aa8b	-0.013163219
100	0x395b78a4	0.0002093041
101	0xbb27c823	-0.0025601469
102	0x3cb67bf6	0.022275906
103	0x3c3968f9	0.011316531
104	0xbb15ab52	-0.002283771
105	0x3c598c5b	0.013278092
106	0x3c86a6c2	0.016436938
107	0x3c92d227	0.017922474
108	0x3cdb94f4	0.026804425
109	0x3ce47bde	0.027891096
110	0xbc87c180	-0.01657176
111	0xbca4e30a	-0.020127792
112	0x3cc32ec9	0.02382602
113	0xbc381dc8	-0.011237569
114	0x3c265eee	0.010154469
115	0xbd0e3d2f	-0.034726318
116	0x3bca1a97	0.0061677205
117	0xbcf37df2	-0.029723141
118	0xbd0ae040	-0.033905268
119	0xbbc69e8e	-0.0060613817
120	0x3bf3cb44	0.0074400026
121	0xbcb5aa1c	-0.022175841
122	0x3ce7b169	0.028282838
123	0x3bae531a	0.005319965
124	0x3c7534d9	0.014966213
125	0xbcd96ee0	-0.026542127
126	0xbcee6174	-0.029099204
127	0xbd1b5d8a	-0.037931003
128	0xbd0d97a2	-0.034568436
129	0xbccffed7	-0.025390072
130	0xbc5aa2a8	-0.013344444
131	0xbd001b04	-0.031275764
132	0x3cd89c1e	0.02644163
133	0x3c89263c	0.016741864
134	0xbbff55a7	-0.007792193
135	0xbcbbb750	-0.022914559
136	0x3c1576b7	0.009122542
137	0xbcd6c702	-0.026217941
138	0x3cbb5f9d	0.02287274
139	0xbba62b83	-0.005071105
140	0xbc99282d	-0.018695915
141	0x3c4a8ea6	0.012363112
142	0xbce0cf69	-0.02744265
143	0x3cfcedb4	0.030875064
144	0xbd17542a	-0.0369455
145	0xbd017905	-0.031609554
146	0x3d067042	0.0328219
147	0x3cc6a484	0.024248369
148	0xbcac4be9	-0.02103229
149	0xbc5560b3	-0.013023543
150	0xbc5476ef	-0.012967809
151	0x3d100a74	0.03516622
152	0x3caac491	0.020845683
153	0x3cb19f7f	0.021682499
154	0xbbe55a5d	-0.0069992975
155	0x3bf85084	0.0075779576
156	0x3d0aca39	0.03388426
157	0x3d18d066	0.03730812
158	0x3d1312af	0.03590649
159	0x3d2245e7	0.039617445
160	0x3cb85d1b	0.022505334
161	0x3d4b2cf1	0.049603406
162	0x3d3025b6	0.043004714
163	0x3d0572dd	0.032580245
164	0x3d31d7ec	0.04341881
165	0xbb9e9959	-0.004840058
166	0xbb857070	-0.0040722415
167	0x3c9ce9bd	0.019154424
168	0x3d008fd4	0.031387165
169	0x3cef5af5	0.029218176
170	0x3c285eb1	0.010276482
171	0x3c474a90	0.012163773
172	0xbcb83926	-0.022488188
173	0x3d06c55f	0.03290307
174	0xbce66969	-0.028126435
175	0xb96a23bb	-0.0002232929
176	0x3a35712f	0.0006921468
177	0x3c0a1db0	0.00842993
178	0xbcd58f6b	-0.026069364
179	0x3c021a96	0.007940909
180	0x3d21645f	0.039402362
181	0xbc44e14e	-0.012016607
182	0xbc86c737	-0.016452415
183	0x3be94c66	0.007119703
184	0xbcac666e	-0.021044936
185	0x3c5ad886	0.013357287
186	0x3ce4134a	0.027841229
187	0xbba42808	-0.005009655
188	0xbc29f461	-0.010373206
189	0xbc87efca	-0.016593833
190	0xbc1acacb	-0.009447764
191	0xbcb6d39f	-0.022317706
192	0xbbd57569	-0.0065142405
193	0xbb1dd92d	-0.0024085746
194	0x3c8a5804	0.016887672
195	0xbd0c12ab	-0.03419749
196	0xbce7e805	-0.028308878
197	0x3d0a93a0	0.033832192
198	0x3893dd65	7.050744e-05
199	0xba4b0821	-0.0007745047
200	0x3a3d867a	0.00072298164
201	0x3d26f125	0.040757317
202	0x3b1953f0	0.0023395978
203	0x3d3263c1	0.043552164
204	0xbaaa82d9	-0.0013008966
205	0x3cb40023	0.021972721
206	0xbc99196b	-0.018688878
207	0xbc997728	-0.018733576
208	0x3d2c04eb	0.041996878
209	0xbc34177f	-0.01099193
210	0x3d01c995	0.031686384
211	0xbc42879d	-0.011873153
212	0x3d1f7d35	0.038937766
213	0x3ce73384	0.028222807
214	0x3b758e43	0.0037468828
215	0xbb226069	-0.0024776703
216	0x3ca5764c	0.02019801
217	0xbc7ecbca	-0.015551517
218	0xbca81331	-0.020516964
219	0x3be538bc	0.0069952887
220	0xbca88450	-0.020570904
221	0x3ccaa0a8	0.02473481
222	0xbc4f593c	-0.0126555525
223	0xbce62e27	-0.028098179
224	0xbbe443fd	-0.0069661126
225	0xbc35437b	-0.011063452
226	0xbc397927	-0.011320389
227	0x3cdaa5cb	0.026690384
228	0x3ca418c5	0.020031342
229	0xbcaf10cb	-0.021370312
230	0x3d0b1b9d	0.03396188
231	0xbcc01b92	-0.023450647
232	0xbc288938	-0.010286622
233	0xbd0cd426	-0.034382008
234	0xbc5dcf0d	-0.013538134
235	0x3c61ca97	0.013781211
236	0xbcc2131d	-0.023690755
237	0x3cf4e6d6	0.029895227
238	0x3b2be3c9	0.00262283
239	0x3d157078	0.03648421
240	0xbcc5e7b1	-0.02415833
241	0x3b76a3bc	0.0037634214
242	0xbb84fbe2	-0.004058347
243	0x3b9fce8b	0.0048769168
244	0x3d0421c4	0.032258764
245	0x3c475561	0.012166352
246	0xbcf18eb7	-0.029486997
247	0xbc70bbaa	-0.01469318
248	0x3c8039e2	0.0156526
249	0xba836df7	-0.0010027279
250	0x3c54ecd5	0.012995918
251	0xbc969dcb	-0.018385788
252	0x3d09e160	0.0336622
253	0x3a92e83a	0.0011208125
254	0xbc1f7ff8	-0.0097351
255	0x3b177142	0.0023108278

bias f4 [64]
0	0xbd2e814e	-0.042603783
1	0xbd1d6fee	-0.038436823
2	0x3c4a6549	0.01235325
3	0xbc1a7a7b	-0.009428616
4	0xbcb3177f	-0.02186179
5	0x3c8e4c80	0.017370462
6	0xbbc80a5e	-0.0061047515
7	0x3cedf9cc	0.029049776
8	0xba5b8bd6	-0.0008375024
9	0xbbf7562d	-0.0075481148
10	0xbcaf8235	-0.021424392
11	0x3cadaa4b	0.021199366
12	0xbba0dad0	-0.004908897
13	0xbcfd50e4	-0.03092236
14	0xbd21a7b8	-0.03946659
15	0x3d16a094	0.036774233
16	0xbcc513ed	-0.024057353
17	0x3cacf34f	0.021112112
18	0xbd157756	-0.03649076
19	0xbcc5adac	-0.024130665
20	0x3cd667a0	0.02617246
21	0xbcea33b1	-0.028589102
22	0x3ce04455	0.027376333
23	0x3c4312ec	0.011906367
24	0x3cefd144	0.02927459
25	0xbc483568	-0.012219764
26	0x3cf5f389	0.030023353
27	0x3c31b71a	0.0108468775
28	0xbc821ea4	-0.015883751
29	0x3cd6c227	0.026215626
30	0x3cc36c5a	0.023855377
31	0x3bdc2d88	0.006719295
32	0xbcc9fb08	-0.024655834
33	0x3c150d2b	0.009097378
34	0xbcb1e691	-0.021716388
35	0xbc10b61c	-0.008832481
36	0xbc15688b	-0.009119163
37	0xbcfeafc8	-0.031089678
38	0xbd2dffcf	-0.042480286
39	0x3d13b88c	0.03606467
40	0x3cf7330c	0.030175708
41	0xbc7c93be	-0.015416084
42	0x3d278488	0.040897876
43	0xbbf8dd40	-0.0075947344
44	0xbca0f583	-0.01964832
45	0x3c4407aa	0.011964718
46	0x3d1c8cc8	0.038220197
47	0xbca98c26	-0.02069671
48	0x3cf73cf5	0.030180434
49	0x3cb97b02	0.022641663
50	0xbcca3a43	-0.024685984
51	0xbc717ef3	-0.01473974
52	0x3bbaf617	0.0057056057
53	0xbbd03d21	-0.0063549434
54	0x3bf6f674	0.0075367037
55	0x3ce8b829	0.028408127
56	0x3d10a919	0.035317514
57	0xbcb3c822	-0.021946017
58	0x3c2ba195	0.010475536
59	0xbc8a7926	-0.016903471
60	0xbc3afe87	-0.011413223
61	0xbc0c70e3	-0.008571836
62	0xbc3b09fe	-0.011415957
63	0x3c80d007	0.015724195

weight f4 [64, 1024]
0	0xbc95aa63	-0.018269723
1	0x3b516264	0.0031949515
2	0xbc870acd	-0.016484642
3	0xbb963587	-0.0045840177
4	0xbc8e4d3e	-0.017370816
5	0xbb6a27fb	-0.0035729397
6	0xbcb457b4	-0.022014476
7	0xbcdb2d31	-0.026754947
8	0xbc488056	-0.012237629
9	0x3b9a1b38	0.0047029518
10	0xbd01cb2f	-0.03168791
11	0x3cdfc696	0.027316373
12	0xbcf9de0b	-0.030501386
13	0x3b125b8d	0.00223324
14	0x3ca82f44	0.02053035
15	0xbbd53909	-0.0065070433
16	0x3bb7f67b	0.0056140996
17	0xbcae265b	-0.021258524
18	0x3c07f874	0.008298982
19	0xbcabda91	-0.020978244
20	0xbceb1dbf	-0.028700707
21	0x3c1034b0	0.008801624
22	0x3c67c34e	0.014145685
23	0x3c83476c	0.016025268
24	0x3c0871d3	0.008327919
25	0xbcf55629	-0.02994831
26	0xbc15a406	-0.0091333445
27	0x3c5bcf1b	0.013416077
28	0xbcb92fa3	-0.022605723
29	0x3c611578	0.013738029
30	0x3c521263	0.012821767
31	0x3c44e64f	0.0120178005
32	0xbc357796	-0.011075875
33	0x3cd9403e	0.02651989
34	0xbcb42c8c	-0.021993898
35	0x3c5602db	0.013062204
36	0x3c50530e	0.012715114
37	0xbc9cce43	-0.019141322
38	0x3cdd9616	0.027049106
39	0x3c1011ec	0.008793335
40	0xbc263861	-0.010145278
41	0xbc4dcdde	-0.01256129
42	0xbc25831e	-0.010102062
43	0xbc4d5eff	-0.012534856
44	0xbc9bea1e	-0.019032534
45	0xbce9df79	-0.028548943
46	0x3c9f935c	0.019479446
47	0x3cc8d4a8	0.024515465
48	0x3c77cbf0	0.015124306
49	0xbc98dc66	-0.018659782
50	0x3cc15f78	0.023605093
51	0xbce73d85	-0.028227577
52	0x3ca47f9f	0.020080386
53	0x3c0887da	0.008333171
54	0xbbe0c651	-0.0068595787
55	0x3cf9e137	0.030502899
56	0x3ca85021	0.020546021
57	0x3ca5c688	0.020236269
58	0xbcdc3d29	-0.026884632
59	0xbbc7e13e	-0.006099849
60	0x3c4a5a16	0.01235058
61	0x3c904b63	0.017614072
62	0x3c33d70a	0.010976562
63	0x3d0821be	0.033235304
64	0x3cd96548	0.026537552
65	0x3b8729ea	0.0041248696
66	0xbbdec950	-0.0067989007
67	0x3cbb4e54	0.022864498
68	0xbc3d445b	-0.011551942
69	0xbcc1298e	-0.023579385
70	0xbc3285d5	-0.010896166
71	0xbc710d8e	-0.014712704
72	0x3a0579ee	0.00050917163
73	0xbc13a915	-0.00901248
74	0xbbcb8462	-0.0062108496
75	0x3c4efb96	0.012633225
76	0x3c5d77ff	0.013517379
77	0xbcd9cade	-0.026585992
78	0xbcdd1413	-0.026987111
79	0xbcc46d7a	-0.023977984
80	0xbb269226	-0.00254167
81	0xbbafa8d1	-0.0053607007
82	0x3bfa31e6	0.007635343
83	0x3c9016b7	0.017588956
84	0xbcd66760	-0.02617234
85	0x3ccc393f	0.02492964
86	0x3cdda692	0.027056966
87	0xbc668dec	-0.014071923
88	0x3cc05669	0.023478704
89	0xbaeb3bd1	-0.0017946904
90	0xbbd1471e	-0.0063866517
91	0x3cb477d7	0.0220298
92	0x3b3a0d98	0.002838945
93	0x3cbb2ccd	0.022848511
94	0xbc4576f8	-0.01205229
95	0xbc3a6500	-0.011376619
96	0xbcc12cbc	-0.023580901
97	0xb9d06147	-0.0003974533
98	0xbcc3a108	-0.023880497
99	0xbc7ae6f6	-0.015313854
100	0xbcd256af	-0.0256761
101	0x3cfee167	0.03111334
102	0x3c90a21c	0.017655425
103	0x3b426e85	0.0029667926
104	0xbcee444c	-0.0290853
105	0x3cc236e1	0.023707809
106	0x3cf8f147	0.030388488
107	0x3bfd8812	0.007737168
108	0xbcf11416	-0.029428523
109	0xbcb107d1	-0.021610172
110	0xbcbaa9b7	-0.022786004
111	0x3cd6703c	0.026176564
112	0xbc1cd305	-0.009571795
113	0xbc806006	-0.015670788
114	0xbcb59f40	-0.022170663
115	0x39dde275	0.00042321128
116	0x3c9a2e2a	0.01882084
117	0x3cf30244	0.029664166
118	0xbc9e6496	-0.019335072
119	0x3cca2f16	0.024680655
120	0xbc4533be	-0.012036262
121	0xbc961133	-0.018318748
122	0xbcc32be5	-0.023824641
123	0xbce13ff5	-0.027496317
124	0x3cfe8b80	0.031072378
125	0xbcc1735e	-0.023614582
126	0x3bee69ad	0.007275781
127	0x3cb66193	0.022263324
128	0x3b9010a1	0.0043965136
129	0x3ce3ee72	0.02782366
130	0xbc26e82f	-0.010187193
131	0x3b8c1f21	0.004276172
132	0xbb7f63ea	-0.0038969466
133	0xbbfdd28a	-0.0077460455
134	0x3cd48d06	0.025946151
135	0xbc9ec808	-0.019382492
136	0x3c93a266	0.018021774
137	0xbce14577	-0.027498944
138	0x3c53a22c	0.012917083
139	0xbc9ddcd3	-0.019270336
140	0x3cc110c7	0.02356757
141	0xbc8d59cc	-0.017254733
142	0x3c55e6db	0.0130555285
143	0x3b8e491a	0.0043422105
144	0x3d00c260	0.03143537
145	0x3cb2e5f3	0.021838164
146	0xbc0e5fd6	-0.008689841
147	0xbc4df4fc	-0.012570616
148	0x3b86eb62	0.0041174153
149	0xbc664c2a	-0.014056245
150	0xbaa6bb5d	-0.0012720634
151	0x3d05ed98	0.03269729
152	0x3bf0480b	0.007332807
153	0xb9827a0d	-0.00024886467
154	0xbc09d262	-0.008411976
155	0xbcb38234	-0.021912672
156	0x3ccfe716	0.025378745
157	0x3b4cbf74	0.0031242045
158	0xbcb9c536	-0.022677045
159	0x3cb84f7a	0.022498835
160	0x3c62fae3	0.013853761
161	0x3cdac619	0.026705788
162	0x3c1c2cec	0.009532195
163	0xbbfdcfc8	-0.0077457167
164	0xbc5f0fbd	-0.013614592
165	0xbcbe9dac	-0.023268543
166	0xbc024484	-0.007950906
167	0x3cc4633c	0.0239731
168	0xbc1e710f	-0.00967051
169	0x3c7193d7	0.01474472
170	0x3cb2cb6a	0.021825511
171	0x3ba36872	0.004986816
172	0xbcd2abc1	-0.025716664
173	0xba2b1207	-0.00065258186
174	0xbc969347	-0.018380774
175	0x3c4187c1	0.011812151
176	0xbc2e20ae	-0.010627909
177	0x3c37ef3b	0.011226471
178	0xbca97ce2	-0.020689432
179	0x3c8566d7	0.01628439
180	0x3cea7dbe	0.028624412
181	0x3c262a5c	0.010141935
182	0x3ce39c92	0.02778462
183	0x3cb65b1b	0.02226024
184	0xbcb35b5d	-0.021894151
185	0x3ce3dbb2	0.02781472
186	0x3d19d03b	0.0375521
187	0x3cb0552b	0.021524986
188	0xbcb95f95	-0.022628585
189	0x3c2b35eb	0.010449867
190	0x3cd3a407	0.02583505
191	0x3bdecbca	0.006799196
192	0xbc8c43d9	-0.017122196
193	0x3cdd6171	0.027024003
194	0x3cf24e7e	0.029578444
195	0xbba9d076	-0.005182321
196	0xbcd48edf	-0.025947032
197	0xbc77086b	-0.015077691
198	0xbc837104	-0.016045101
199	0xbc8f79fe	-0.017514225
200	0xbc9e96b1	-0.019358965
201	0xbab14bb0	-0.0013526585
202	0xbc6b9efb	-0.014381166
203	0xbcf97600	-0.030451775
204	0x3bd4696c	0.006482294
205	0x3b0bedbe	0.0021351422
206	0xbcc2f8db	-0.023800304
207	0xbbb66806	-0.0055666
208	0x3c68b076	0.014202228
209	0xbcc64906	-0.024204742
210	0x3a0dbce8	0.00054068724
211	0xbb969cb3	-0.0045963167
212	0xbcc05538	-0.023478135
213	0x3c88d048	0.016700879
214	0xbc6aeecc	-0.01433916
215	0x3cbf1bad	0.023328627
216	0xbcae361d	-0.021266038
217	0x3c2b6ab6	0.010462454
218	0x3b984516	0.0046469076
219	0xbc04b7f5	-0.008100499
220	0x3ad3ced9	0.0016159668
221	0xbc6345da	-0.013871634
222	0xbb06eafa	-0.0020586834
223	0x3ceb5a03	0.028729444
224	0xbcab7e68	-0.020934299
225	0xbc67a7e6	-0.014139151
226	0xbcd168cd	-0.025562668
227	0xbcb18823	-0.02167136
228	0x3cc09477	0.023508294
229	0x3cac711e	0.021050032
230	0xbc9a45e4	-0.018832155
231	0xbccff38b	-0.025384685
232	0x3cd46d7d	0.025931114
233	0xbc873f46	-0.016509663
234	0x3cce5dea	0.025191266
235	0xbacb8624	-0.0015527648
236	0x3c8c306d	0.017112935
237	0xbc29dfd7	-0.010368309
238	0x3c34f3e8	0.01104448
239	0x3cbfce4a	0.023413796
240	0xbca34496	-0.019930165
241	0x3cb5e7b3	0.02220521
242	0x3cef7b9d	0.029233748
243	0x3c2956b0	0.010335609
244	0x3bf91ba9	0.0076021743
245	0xbca8ca23	-0.020604199
246	0xbc2b9b5a	-0.01047405
247	0x3c1ac687	0.009446747
248	0xbb80759b	-0.0039202697
249	0xbcc0b1e6	-0.023522329
250	0xbcc56b76	-0.024099093
251	0xbb56b5b1	-0.0032762105
252	0xbb36c5a3	-0.0027888797
253	0x3cd101e3	0.025513595
254	0x3c3f2e30	0.011668727
255	0xbc9a9ecc	-0.018874548

bias f4 [64]
0	0xbcc86984	-0.024464376
1	0xbc2d4e57	-0.01057776
2	0x3c8ee83e	0.017444726
3	0xbbf8d17c	-0.007593332
4	0x3c6c811a	0.014435077
5	0x3d1d11af	0.038346943
6	0xbd141074	-0.036148503
7	0xbc5b70f6	-0.013393631
8	0x3c006802	0.007837297
9	0x3c9026ea	0.01759668
10	0xbc269673	-0.010167706
11	0x3ba8caef	0.0051511447
12	0x3d0ca91d	0.034340966
13	0xbd029628	-0.03188148
14	0x3ba7b958	0.0051185302
15	0x3bb5f162	0.0055524567
16	0x3bdaebdd	0.006680949
17	0x3ad9c38d	0.0016614065
18	0x3c91cdfb	0.017798414
19	0xbd1a9fa7	-0.037749913
20	0xbcb20acc	-0.021733664
21	0x3cb472a9	0.02202733
22	0x3c90f44b	0.017694613
23	0x3c0068a0	0.007837445
24	0x3bcd938a	0.0062736915
25	0xbc093d96	-0.0083765
26	0x3bee704b	0.00727657
27	0x3af740e5	0.0018863945
28	0xbc28caa1	-0.010302217
29	0xbc5d79ff	-0.013517856
30	0xba9380b6	-0.0011253569
31	0x3c8ae251	0.01695362
32	0x3d0ce88b	0.034401458
33	0xbc923230	-0.017846197
34	0xbc0b2c4d	-0.008494449
35	0xbd0e4ec7	-0.034743097
36	0xbb658beb	-0.0035026025
37	0xbd13d14b	-0.03608827
38	0x3ce136e4	0.027491994
39	0x3cd8a575	0.026446084
40	0x3c6fa9d3	0.014627892
41	0xbc8221be	-0.01588523
42	0xbcc73ba4	-0.024320431
43	0x3c9a5d80	0.018843412
44	0x3b066c50	0.0020511337
45	0x3cc2d243	0.023781901
46	0x3cd3724d	0.025811339
47	0xbce28ace	-0.027654078
48	0x3b903230	0.004400514
49	0x3ccec835	0.02524195
50	0xbd0e22cb	-0.03470115
51	0x3ce0c993	0.027439868
52	0x3a85d248	0.0010209763
53	0xbce820dd	-0.028335983
54	0xbc47577b	-0.012166853
55	0xbc85fc6a	-0.016355712
56	0x3a43c409	0.0007467871
57	0xbc94af1d	-0.018149907
58	0xbc0905aa	-0.008363167
59	0xbd027ba6	-0.0318562
60	0x3d1b9416	0.037983023
61	0xbcc15bb9	-0.023603307
62	0xbcf86067	-0.030319406
63	0x3bdd530a	0.006754284

weight f4 [10, 64]
0	0x3c7d787c	0.01547062
1	0xbe01f773	-0.1269205
2	0x3de45374	0.1114873
3	0xbd7d3f2d	-0.061827827
4	0xbd5981aa	-0.053102173
5	0xbd825429	-0.063637085
6	0xbd6d2cb8	-0.057903975
7	0x3d40a5e0	0.04703319
8	0x3c882d6c	0.016623221
9	0x3e069c97	0.13145672
10	0x3700252c	7.638049e-06
11	0xbe15088a	-0.14554039
12	0x3d19a787	0.037513282
13	0x3d3405b0	0.043950737
14	0xbd264dbc	-0.040601477
15	0x3d96b883	0.073594116
16	0xbd8e799b	-0.06956788
17	0x3d5bf3f0	0.053699434
18	0x3de33b9f	0.11095356
19	0x3ddd4a78	0.108052194
20	0x3c6362b8	0.013878517
21	0xbd5d83f6	-0.054080926
22	0x3e03d691	0.1287482
23	0x3d583c39	0.052791808
24	0xbc4f1802	-0.012640001
25	0xbd74d4ed	-0.059773374
26	0xbd7ab147	-0.06120422
27	0xbc71890a	-0.014742145
28	0x3ce7de34	0.028304197
29	0x3d0a2362	0.03372515
30	0xbd0b85d0	-0.03406316
31	0x3dabcaeb	0.08388313
32	0xbbbcc6c8	-0.0057610013
33	0x3dc07313	0.09396949
34	0x3d628df0	0.055311143
35	0x3dca0d2f	0.09865796
36	0x3e11e559	0.14247645
37	0xbd2ec557	-0.042668667
38	0x3da623e1	0.08112312
39	0xbe04dc9b	-0.1297478
40	0xbd13b4b7	-0.036061015
41	0xbd5e1b2e	-0.05422514
42	0x3dbaab66	0.09114723
43	0x3cc2c6fd	0.023776526
44	0xbe1834e5	-0.14863928
45	0xbd4876fb	-0.048941594
46	0x3d1d7687	0.038443115
47	0xbdc30b8a	-0.09523685
48	0xbd5d05e6	-0.053960703
49	0xbd9398c8	-0.07206875
50	0x3cd56422	0.026048724
51	0x3db48f72	0.088164225
52	0xbdb8aa83	-0.090168975
53	0x3c4fa605	0.0126738595
54	0x3c3b8f2c	0.011447709
55	0xbd8baf70	-0.068205714
56	0xbd8d1528	-0.06888801
57	0xbe0ba392	-0.13636616
58	0xbe07fba3	-0.13279586
59	0x3de3214f	0.110903375
60	0xbdf1ce30	-0.11806905
61	0x3dd418f5	0.10356323
62	0x3db6081e	0.08888267
63	0x3e0cb8f9	0.13742436
64	0xbd7f42d2	-0.062319584
65	0x3dc6447f	0.09681033
66	0xbdc26cd6	-0.09493415
67	0xbe03ad27	-0.12859021
68	0xbd9357e4	-0.07194498
69	0x3db7d8fb	0.089769326
70	0xbd7f02dc	-0.062258586
71	0xbe17ce56	-0.14824805
72	0xbd971b53	-0.073782586
73	0xbceb0991	-0.028691085
74	0x3dfed631	0.124431975
75	0x3de87236	0.11349909
76	0xbd07bceb	-0.03313915
77	0x3c6e7cf0	0.014556155
78	0xbe0622a3	-0.1309915
79	0xbd88bfa6	-0.06677179
80	0xbda55add	-0.080739714
81	0xbd83ca0f	-0.06435024
82	0x3d908d45	0.07058195
83	0xbcaeb419	-0.021326112
84	0x3c2d2563	0.010567996
85	0xbdba8046	-0.091064975
86	0xbde6115c	-0.1123378
87	0x3c7e7414	0.015530605
88	0x3e0603a5	0.13087328
89	0xbd066c32	-0.032818027
90	0x3ce99f05	0.02851821
91	0xbda2cea2	-0.07949568
92	0x3e2d6ebc	0.16936773
93	0xbd92a651	-0.071606286
94	0x3dcab3a9	0.09897549
95	0x3da810bb	0.08206316
96	0x3c6cd43c	0.0144548975
97	0x3d2e9eba	0.042631842
98	0x3e245bf3	0.16050701
99	0xbd7f0fc3	-0.06227089
100	0xbdb1d25b	-0.086827
101	0x3d6317d8	0.05544266
102	0x3e0436fb	0.12911598
103	0xbe044e02	-0.12920383
104	0x3de53f39	0.111936994
105	0xbcd7feee	-0.026366677
106	0xbcfdd360	-0.03098458
107	0x3d813d7d	0.06310556
108	0xbdecd43e	-0.115639195
109	0xbe10e5d4	-0.14150172
110	0xbdb36f31	-0.087614425
111	0x3d995ffb	0.0748901
112	0x3c814812	0.015781436
113	0x3db6848d	0.08912001
114	0xbe0db4f3	-0.13838558
115	0x3e08eb77	0.13371073
116	0xbdff6d29	-0.124719925
117	0xbd414ea4	-0.04719414
118	0xbdfe79ed	-0.12425599
119	0x3d41326e	0.047167234
120	0x3d9b7edf	0.07592558
121	0x3d6b64fd	0.057469357
122	0x3bfe680e	0.007763869
123	0xbd57b769	-0.052665148
124	0x3db2098d	0.08693228
125	0x3df0f190	0.117648244
126	0x3e031a0e	0.12802908
127	0xbdd6a156	-0.10479991
128	0x3dc3aa4b	0.09553965
129	0x3d331ace	0.043726735
130	0x3ddf7714	0.10911384
131	0x3d041ee4	0.032256022
132	0xbda8791b	-0.08226224
133	0xbda3f426	-0.08005552
134	0xbcbff7cd	-0.02343359
135	0xbdc1ee3e	-0.09469269
136	0xbd4805d8	-0.048833698
137	0x3e09453b	0.13405316
138	0xbe0d7269	-0.13813175
139	0x3d6f6f18	0.058455557
140	0x3e071e14	0.13195068
141	0xbddcf1fa	-0.10788341
142	0xbdc3d6bc	-0.09562442
143	0x3d8ddb31	0.06926573
144	0x3d166d2c	0.03672521
145	0xbc6294b0	-0.013829395
146	0xbe0ba954	-0.13638812
147	0xbd543c00	-0.051815033
148	0x3dc5f594	0.09665981
149	0xbdb50fa3	-0.08840873
150	0x3d116b59	0.035502765
151	0x3bd0d1ed	0.0063726814
152	0xbe08cfff	-0.13360594
153	0xbdb921d5	-0.09039656
154	0x3e099219	0.13434638
155	0x3db0c0b8	0.08630508
156	0xbe11beba	-0.14232913
157	0xbde1135f	-0.10990023
158	0xbe127202	-0.14301303
159	0xbdc5e882	-0.09663488
160	0x3d1917c5	0.037376184
161	0x3d828e28	0.063747704
162	0xbd3b799b	-0.04577027
163	0x3d5eb670	0.054373205
164	0x3dafda36	0.08586542
165	0xbe187a9c	-0.14890522
166	0x3ddb5be8	0.10710889
167	0x3cc4ad29	0.02400835
168	0xbd612afc	-0.054972634
169	0xbe00a160	-0.1256156
170	0xbc06ee55	-0.008235534
171	0x3d3c19d8	0.045923084
172	0x3d01e448	0.031711847
173	0x3de96c13	0.11397567
174	0xbe02c20a	-0.12769333
175	0xbe1426c9	-0.1446792
176	0xbced1c96	-0.028944295
177	0xbda27d41	-0.079340465
178	0x3c7fb542	0.01560718
179	0x3def8b2d	0.116964675
180	0x3d96deaa	0.073666885
181	0x3bbd469c	0.0057762396
182	0xbdcf7b51	-0.101309426
183	0x3d69fc25	0.05712523
184	0xbc2edbfc	-0.010672566
185	0x3d2c8465	0.04211845
186	0x3df8d542	0.12150051
187	0x3e0a5743	0.1350985
188	0x3ccaa9b7	0.02473913
189	0x3d7453df	0.0596503
190	0xbb8a979e	-0.0042295
191	0x3dfead3c	0.124353856
192	0x3d879e18	0.06621951
193	0x3da816d2	0.08207478
194	0xbde88bdf	-0.11354803
195	0xbddbc14f	-0.1073023
196	0xbdae5e67	-0.085140996
197	0x3d8fbf9f	0.07018971
198	0x3ddd654a	0.10810335
199	0x3d4d84dc	0.050175533
200	0xbe032774	-0.12808019
201	0x3d0ac0ee	0.0338754
202	0x3da1d673	0.07902231
203	0x3d128767	0.03577366
204	0xbb947b85	-0.0045313262
205	0xbe0217af	-0.12704347
206	0x3d568396	0.052371584
207	0x3d6fb5bc	0.058522925
208	0x3e0e7fe7	0.13915978
209	0x3ca6c9b0	0.020359844
210	0x3cd7e8ac	0.026356064
211	0x3dd70ba5	0.10500268
212	0xbd3797cd	-0.044822503
213	0x3db9ba79	0.0906877
214	0x3da94436	0.08264963
215	0x3bf052ee	0.0073341047
216	0xbde7b0ea	-0.113130406
217	0x3c682ee2	0.014171334
218	0x3dcd0032	0.10009803
219	0xbdb1f1aa	-0.08688672
220	0xbd00f755	-0.031485874
221	0x3df82e01	0.121181495
222	0xbdc6693c	-0.096880406
223	0x3dcdf1e9	0.10055906
224	0xbe02f74b	-0.12789647
225	0x3dfcfaf0	0.1235255
226	0xbdaf96e3	-0.08573701
227	0xbd622124	-0.055207387
228	0xbd8f9b36	-0.07012026
229	0xbc7387ec	-0.014863949
230	0x3da9abb4	0.08284703
231	0x3c727dde	0.014800517
232	0xbcb8e7ae	-0.022571411
233	0x3dcd8d94	0.100367695
234	0x3debae47	0.1150785
235	0x3c24ca54	0.010058004
236	0x3e1182a8	0.14209998
237	0x3ceff513	0.029291665
238	0xbd0ff00a	-0.03514103
239	0xbdcdd5f1	-0.10050572
240	0x3d9953e3	0.07486703
241	0xbc3ecb54	-0.011645157
242	0x3daaffd0	0.083495736
243	0x3e0f36fe	0.13985822
244	0xbdaec91b	-0.085344516
245	0xbc588fe6	-0.013217902
246	0xbacf0749	-0.0015795018
247	0xbd7bbeec	-0.061461374
248	0x3c4730e2	0.012157651
249	0x3c914ef5	0.017737845
250	0xbd0cc949	-0.034371648
251	0xbd8e7f4c	-0.06957874
252	0xbbb7ad2b	-0.00560536
253	0xbdc37c24	-0.09545162
254	0xbc8ea251	-0.017411383
255	0x3dc48033	0.095947646

bias f4 [10]
0	0xbdc6966c	-0.096966594
1	0xbdb3a1fb	-0.0877113
2	0xbcd52773	-0.026019787
3	0x3d8ce8e1	0.068803556
4	0x3b3d3405	0.0028870117
5	0x3cb5655a	0.022143055
6	0xbd829f52	-0.06378044
7	0xbdc15291	-0.094395764
8	0x3b740688	0.0037235338
9	0xbdcdad0d	-0.100427724
