PytorchLearning/learn1/vggmodel/vgg_1.pth (torch, 587335 bytes, 10 tensors)

weight f4 [32, 3, 5, 5]
0.11439273 -0.10388935 -0.058250204 -0.03522982 -0.08733582 -0.006846962 0.023345634 -0.029835798
-0.074131794 0.0884707 0.11046636 -0.008013089 -0.019992488 0.05703254 -0.052960034 -0.106872566
0.06374661 -0.10653807 0.098271325 0.088407665 -0.07671525 0.045559727 0.042698253 0.10194679
-0.06931199 -0.044336963 -0.035338648 0.09822244 0.036525887 -0.10832724 0.062054973 -0.011937668
-0.10294723 -0.080489084 0.08042663 -0.025586866 -0.09133339 0.03870003 -0.08890865 0.07232866
0.030937415 0.082794875 0.06631865 0.07503084 -0.043234874 -0.036781907 0.04904094 0.10449586
-0.073893115 -0.04666484 -0.0007987259 0.02639871 -0.0815551 -0.040711157 -0.040941205 0.017519835
0.09593251 -0.011069803 0.09809736 0.058034807 -0.03411843 0.06730241 -0.07477928 -0.11461935
0.023277657 0.108189374 0.07338189 -0.041439917 -0.00155994 0.108075134 -0.007940342 0.113592
0.030462146 0.024974566 0.03496385 -0.048125837 0.11356625 0.033864368 -0.03157156 0.044076927
0.06821308 -0.054809712 -0.061053786 0.08403716 -0.08436221 0.015352848 -0.0058591347 -0.07823259
-0.075708814 0.0041316375 0.01960678 0.11181995 0.045120347 -0.108092085 -0.0045327866 -0.024694007
0.06984199 -0.098791145 0.065715075 -0.06780185 -0.018576385 -0.05579555 0.08124109 -0.10727849
0.026142236 -0.05022676 0.013952732 0.09612844 -0.112090014 -0.06268884 0.061792262 -0.028901137
-0.073604666 -0.0040411926 -0.077439316 0.08863218 0.11401442 -0.014172986 0.013464465 0.03496289
-0.102209084 0.084031515 0.069836676 -0.07576647 0.040359087 -0.11356794 -0.095970035 -0.08788097
0.043980863 0.038073298 -0.08573968 -0.005310059 0.078590095 -0.08374058 -0.10344169 0.10820639
0.039890576 -0.03331096 0.091332465 -0.0975312 0.0009933366 0.09121409 -0.001783695 -0.065497845
-0.014941533 -0.059693426 0.0015361801 0.09366872 -0.02094706 0.08459088 -0.04588274 -0.092884876
0.10137765 -0.038526867 0.0017310883 -0.088818654 -0.10216415 -0.0680931 -0.098909676 -0.06700183
-0.0532633 0.10884254 0.0044313245 0.010583199 0.044763986 0.03943054 0.007535346 0.021542951
-0.07427699 -0.0880322 0.0915754 0.022530403 -0.06012717 0.084467076 0.095791996 -0.040400002
0.019146271 0.10656938 -0.053590693 0.017675336 0.06443925 0.10622038 0.087388046 -0.041801013
-0.033337258 -0.109094016 -0.05621112 -0.09770356 0.059036415 0.017913926 0.07599085 -0.08665698
0.044745542 -0.06069942 0.10103869 -0.049723677 0.0750875 -0.04926661 0.0769877 0.09725456
0.08083178 -0.057388235 -0.02287181 -0.013262621 0.103413716 0.090980224 -0.057091262 0.09127267
-0.0970666 0.009609482 -0.011432854 0.046875387 -0.07902594 0.019449672 0.030871006 0.07451958
0.091540225 0.04909961 0.05437533 -0.0009818859 0.017121157 0.091345094 -0.0018048851 0.07133208
-0.0277205 -0.08861313 0.084600896 0.024228161 -0.10604226 0.044579707 -0.07817939 -0.03086266
-0.046107575 0.023830026 -0.087089255 -0.0844375 0.019449553 -0.068034485 -0.035348505 -0.11406839
-0.0828949 0.042678364 0.09326655 0.08105113 0.11010345 -0.03163174 0.04770502 0.08679321
0.03693551 0.07110465 0.045879204 0.02531712 -0.099959575 0.097576074 0.09634472 0.102205545
00000000: bc46 ea3d f1c3 d4bd c497 6ebd 254d 10bd
00000010: 1fdd b2bd 7b5c e0bb 583f bf3c 346a f4bc
00000020: 69d2 97bd 2030 b53d 303c e23d 5549 03bc
00000030: 49c7 a3bc f49a 693d 9fec 58bd 01e0 dabd
00000040: 958d 823d a230 dabd 7a42 c93d 140f b53d
00000050: e31c 9dbd d69c 3a3d 5de4 2e3d 7bc9 d03d
00000060: 72f3 8dbd ad9a 35bd 42bf 10bd d928 c93d
00000070: 2b9c 153d acda ddbd 5b2d 7e3d 3596 43bc
00000080: ffd5 d2bd 76d7 a4bd b8b6 a43d 8c9b d1bc
00000090: 000d bbbd ec83 1e3d bd15 b6bd 0c21 943d
000000a0: 7670 fd3c 5c90 a93d 13d2 873d c5a9 993d
000000b0: 0d17 31bd a0a8 16bd 27df 483d ed01 d63d
000000c0: 4655 97bd a223 3fbd 9661 51ba 1c42 d83c
000000d0: 5c06 a7bd bec0 26bd f7b1 27bd c285 8f3c
000000e0: 4478 c43d 1e5e 35bc 45e7 c83d e8b5 6d3d
000000f0: c4bf 0bbd d9d5 893d e125 99bd 8dbd eabd
00000100: c9b0 be3c 6492 dd3d 3f49 963d e7bc 29bd
00000110: e776 ccba 7f56 dd3d 3518 02bc eca2 e83d
00000120: c08b f93c 7697 cc3c 4136 0f3d 991f 45bd
00000130: 6c95 e83d 5db5 0a3d 2e51 01bd 028a 343d
00000140: 4db3 8b3d 2680 60bd 8913 7abd ad1b ac3d
00000150: 18c6 acbd 838a 7b3c fcfd bfbb 6838 a0bd
00000160: 390d 9bbd b062 873b 669e a03c dc01 e53d
00000170: 1dd0 383d 625f ddbd c587 94bb 164b cabc
00000180: 5109 8f3d 0353 cabd a095 863d b2db 8abd
00000190: 812d 98bc e089 64bd bb61 a63d d3b4 dbbd
000001a0: 3e28 d63c 93ba 4dbd 009a 643c fdde c43d
000001b0: 738f e5bd 0263 80bd e219 7d3d 14c2 ecbc
000001c0: 0bbe 96bd fb6b 84bb 8198 9ebd ca84 b53d
000001d0: 6480 e93d d035 68bc 0f9a 5c3c 3f35 0f3d
000001e0: ff52 d1bd b718 ac3d 8806 8f3d 732b 9bbd
000001f0: 924f 253d 4f96 e8bd f08b c4bd f0fa b3bd
00000200: 4725 343d bff2 1b3d 4998 afbd 0100 aebb
00000210: d8f3 a03d 2e80 abbd 3dd9 d3bd 509b dd3d
00000220: 4d64 233d 1371 08bd 840c bb3d 70be c7bd
00000230: d832 823a 74ce ba3d dfca e9ba bc23 86bd
00000240: 55cd 74bc 1881 74bd a759 c93a 63d5 bf3d
00000250: 2b99 abbc fc3d ad3d 8aef 3bbd 6d3a bebd
00000260: 169f cf3d 59ce 1dbd afe5 e23a 8ee6 b5bd
00000270: 703b d1bd 6574 8bbd 2891 cabd 4138 89bd
00000280: 9e2a 5abd d6e8 de3d a534 913b 2765 2d3c
00000290: 715a 373d eb81 213d 10eb f63b d87a b03c
000002a0: 891e 98bd 3a4a b4bd e28b bb3d ae91 b83c
000002b0: e847 76bd 13fd ac3d 982e c43d 797a 25bd
000002c0: a4d8 9c3c 0c41 da3d ea81 5bbd decb 903c
000002d0: baf8 833d 128a d93d 81f8 b23d 8a37 2bbd
000002e0: a68c 08bd af6c dfbd a23d 66bd ce18 c8bd
000002f0: 2bd0 713d 3ac0 923c 17a1 9b3d 3779 b1bd
00000300: 1a47 373d f49f 78bd 5fed ce3d 0eab 4bbd
00000310: 7ac7 993d c9cb 49bd baab 9d3d 662d c73d
00000320: 228b a53d ed0f 6bbd a95d bbbc 774b 59bc
00000330: 92ca d33d d753 ba3d 87d8 69bd 2aed ba3d
00000340: dbca c6bd 1771 1d3c de50 3bbc 6800 403d
00000350: 5ad8 a1bd eb54 9f3c 31e5 fc3c b99d 983d
00000360: 7179 bb3d ac1c 493d abb8 5e3d a0b2 80ba
00000370: ab41 8c3c 2313 bb3d e591 ecba 8e16 923d
00000380: 1a16 e3bc cd7a b5bd 3c43 ad3d 237a c63c
00000390: af2c d9bd 3699 363d 841c a0bd b0d3 fcbc
000003a0: 4cdb 3cbd 3037 c33c da5b b2bd 91ed acbd
000003b0: ab54 9f3c aa55 8bbd 98c9 10bd b09c e9bd
000003c0: cdc4 a9bd 82cf 2e3d 8802 bf3d 23fe a53d
000003d0: eb7d e13d 4990 01bd 5766 433d a3c0 b13d
000003e0: b049 173d 519f 913d d5eb 3b3d d965 cf3c
000003f0: 9bb7 ccbd f7d5 c73d 6150 c53d 2451 d13d

bias f4 [32]
0.07726981 0.046174873 0.023700293 -0.018988345 0.0687814 0.06384617 -0.03086982 0.110994
-0.062248882 0.10490728 0.068232425 -0.062187083 0.011169448 0.020949276 0.1017904 0.019201353
0.068084255 -0.07828963 0.018095993 0.08447734 0.07301833 0.031315908 0.063475035 0.09846974
-0.09643609 -0.03988312 0.053686995 -0.05405377 -0.05354028 0.023001254 -0.09925642 0.08242589
00000000: a23f 9e3d dd21 3d3d 1e27 c23c 728d 9bbc
00000010: 43dd 8c3d c8c1 823d b4e2 fcbc d350 e33d
00000020: aff8 7ebd a1d9 d63d 71bd 8b3d e2b7 7ebd
00000030: 0f00 373c d19d ab3c 7c77 d03d 284c 9d3c
00000040: c26f 8b3d 5056 a0bd 0c3e 943c 7502 ad3d
00000050: a28a 953d 1c45 003d 33ff 813d 81aa c93d
00000060: 4980 c5bd 7c5c 23bd e5e6 5b3d 7c67 5dbd
00000070: 0d4d 5bbd 206d bc3c f346 cbbd e8ce a83d

weight f4 [32, 32, 5, 5]
-0.018157411 -0.031910647 0.006761719 0.035001073 -0.026999678 -0.030819599 -0.00082339806 0.022206515
-0.01620033 0.022598583 -0.014226809 0.025430433 -0.034089223 0.0135299275 -0.029926375 -0.013189287
-0.023012726 0.0008491632 0.018415844 -0.006335295 0.025371585 0.009385691 -0.030313764 -0.012317005
-0.0012212154 -0.029256959 -0.023599641 0.0043660505 -0.026012605 0.03400737 0.0025552877 -0.018648192
-0.03024051 0.025971826 0.01984337 0.0063466146 -0.01149665 -0.033265695 0.01748368 0.010944689
-0.030915314 -0.0023408434 -0.0035867218 -0.009866594 0.023151552 -0.030606713 0.016716992 -0.0008336913
-0.011273169 -0.016766047 -0.0043773837 -0.033728324 0.023548948 -0.009942022 0.03321292 -0.030352905
0.010634367 0.03264145 -0.022261811 0.03000526 -0.004679664 0.02847767 0.028974626 0.028352205
0.030141411 0.0015705545 0.017055118 -0.032188416 -0.004550668 -0.03179296 0.02771636 0.00019428601
-0.0038524794 -0.0095159905 0.029085606 -0.03152832 -0.016449442 0.0009542514 -0.032252185 0.030552711
0.015044625 -0.008466902 0.0046160584 -0.027336603 0.025379026 0.0035759197 -0.02917893 0.028904479
-0.020446364 -0.016415175 0.008525654 -0.009424395 -0.0009550633 0.013918015 -0.009124176 -0.030635541
-0.02874244 -0.02290458 -0.00725503 -0.028333047 -0.014850567 -0.02809664 0.0034372238 -0.0113086505
0.0001773233 0.013118306 -0.00500228 0.019828742 0.0130841285 -0.02970476 -0.0152432015 -0.02464277
-0.035007454 0.009884935 0.012459485 0.016904524 0.011456194 -0.032454584 0.02345372 0.016698
0.013025608 0.018950062 0.0066573224 0.023572575 0.0039982446 -0.013596371 -0.027697654 0.0049323044
0.015893709 0.008932979 -0.02683135 0.026955271 -0.0026160094 0.022207292 0.018210802 -0.03047577
0.011009779 -0.031798556 -0.026216928 0.0023842354 -0.029629745 -0.02717912 -0.009544289 0.026921429
0.017403523 0.017198762 0.020278644 -0.0123984255 0.0049923644 0.03403115 -0.0025917531 0.009488872
-0.010070677 -0.0068762577 0.011178332 0.028378068 0.0021897857 -0.0074335015 -0.02688613 -0.002982031
0.026620794 0.017247569 0.009120431 0.013833207 -0.02761604 0.025909476 0.02734312 -0.027170425
0.006994662 -0.022607073 0.0054611927 0.01890394 0.003033691 -0.020334717 0.011727728 0.028794374
0.020350737 -0.008413576 -0.016455214 0.03243362 0.02740991 -0.0068622087 0.0039136615 0.005476224
0.029056704 0.026045706 -0.029380016 -0.0069796923 0.031024035 0.0012410657 -0.01802933 -0.030832127
-0.00030823794 0.035310157 -0.020760609 0.008733222 -0.0247258 0.015501859 0.019125355 -0.017902523
0.016234089 -0.02207309 0.02685641 0.009577064 0.0052091386 0.025556147 -0.0005071795 -0.004088981
-0.013047222 0.006029654 0.0028233738 0.025747411 -0.0044763703 -0.015757928 0.012828234 -0.007478668
0.028191892 0.01762036 0.0006008231 -0.003122802 -0.028336747 0.028861422 0.01675683 0.033043746
0.010415847 0.0010706743 -0.022280836 0.009802875 -0.022927424 0.027099086 -0.034366164 -0.019999431
-0.009416026 0.02631557 0.0309972 -0.0027325125 0.016654765 -0.02799245 -0.015989158 -0.029721322
0.024659324 -0.015564635 0.0069593745 0.005314104 -0.009675929 0.030042937 -0.030393513 -0.02563732
-0.005814532 -0.013510623 -0.03244903 -0.024990408 -0.020596601 0.020517152 0.020198062 0.018388811
00000000: dabe 94bc bdb4 02bd 6991 dd3b 495d 0f3d
00000010: 6e2e ddbc 6279 fcbc 4fd9 57ba 70ea b53c
00000020: 8eb6 84bc aa20 b93c 9017 69bc 7c53 d03c
00000030: 24a1 0bbd a1ac 5d3c 2828 f5bc e117 58bc
00000040: 2f85 bcbc 619a 5e3a d3dc 963c 4e98 cfbb
00000050: 12d8 cf3c 71c6 193c 9254 f8bc 43cd 49bc
00000060: 3011 a0ba 4aac efbc 0954 c1bc 1611 8f3b
00000070: 6318 d5bc 504b 0b3d 9d76 273b 18c4 98bc
00000080: f2ba f7bc dec2 d43c 908e a23c 43f7 cf3b
00000090: 725c 3cbc 9c41 08bd ef39 8f3c 5a51 333c
000000a0: 1d42 fdbc d668 19bb 350f 6bbb 7fa7 21bc
000000b0: 53a8 bd3c eeba fabc 13f2 883c 138c 5aba
000000c0: 19b3 38bc f358 89bc 2870 8fbb b626 0abd
000000d0: b9e9 c03c dde3 22bc 450a 083d a8a6 f8bc
000000e0: c53b 2e3c 0bb3 053d 675e b6bc 97cd f53c
000000f0: de57 99bb 014a e93c 325c ed3c e242 e83c
00000100: 1feb f63c 10db cd3a 2db7 8b3c 00d8 03bd
00000110: c51d 95bb 5639 02bd 6b0d e33c 41b9 4b39
00000120: e179 7cbb f5e8 1bbc f044 ee3c d723 01bd
00000130: fbc0 86bc ba26 7a3a de1a 04bd ae49 fa3c
00000140: bb7d 763c c3b8 0abc 4e42 973b 03f1 dfbc
00000150: ade7 cf3c fa59 6a3b a708 efbc 16c9 ec3c
00000160: 227f a7bc 1e79 86bc 2faf 0b3c c768 1abc
00000170: 375d 7aba 6308 643c 917d 15bc 63f7 fabc
00000180: 4475 ebbc 63a2 bbbc 9abb edbb b51a e8bc
00000190: cb4f 73bc ed2a e6bc 0c43 613b eb47 39bc
000001a0: dcef 3939 2aee 563c 2bea a3bb e36f a23c
000001b0: d05e 563c 6657 f3bc 9fbe 79bc a2df c9bc
000001c0: fa63 0fbd 6cf4 213c de22 4c3c 5b7b 8a3c
000001d0: c3b2 3b3c 19ef 04bd 0422 c03c 3eca 883c
000001e0: 5c69 553c 293d 9b3c ab25 da3b 461b c13c
000001f0: b503 833b 50c3 5ebc 31e6 e2bc 2b9f a13b
00000200: 8633 823c a15b 123c 6bcd dbbc 4dd1 dc3c
00000210: 5b71 2bbb 11ec b53c d22e 953c 52a8 f9bc
00000220: 5c62 343c 343f 02bd e2c4 d6bc d540 1c3b
00000230: 14ba f2bc bfa6 debc a65f 1cbc 548a dc3c
00000240: d591 8e3c 6be4 8c3c 661f a63c c422 4bbc
00000250: fd96 a33b 3f64 0b3d 67da 29bb 3777 1b3c
00000260: 7bff 24bc 3b52 e1bb 5325 373c 1f79 e83c
00000270: 8282 0f3b bb94 f3bb 4d40 dcbc 2e6e 43bb
00000280: da13 da3c c64a 8d3c dc6d 153c ada4 623c
00000290: 093b e2bc 1c40 d43c aefe df3c 8394 debc
000002a0: 7a33 e53b 7832 b9bc cef3 b23b 70dc 9a3c
000002b0: e4d0 463b fe94 a6bc a825 403c 2ee2 eb3c
000002c0: 97b6 a63c 18d9 09bc 16cd 86bc 1ed9 043d
000002d0: bf8a e03c 61dc e0bb 2c3e 803b e571 b33b
000002e0: 5308 ee3c ce5d d53c 5cae f0bc e7b5 e4bb
000002f0: 1e26 fe3c 41ab a23a 3fb2 93bc a893 fcbc
00000300: ff9a a1b9 62a1 103d 2712 aabc ca15 0f3c
00000310: c38d cabc 82fb 7d3c c7ac 9c3c 50a8 92bc
00000320: 5afd 843c a0d2 b4bc f901 dc3c 1ee9 1c3c
00000330: 6cb1 aa3b 205b d13c 3df4 04ba dcfc 85bb
00000340: 04c4 55bc 6794 c53b 5a08 393b 3cec d23c
00000350: 84ae 92bb c516 81bc 832d 523c 9d0f f5bb
00000360: aff2 e63c 9358 903c 8e80 1d3a eca7 4cbb
00000370: 7722 e8bc ca6e ec3c 9f45 893c e158 073d
00000380: 3ba7 2a3c de55 8c3a 4d86 b6bc 3d9c 203c
00000390: 4bd2 bbbc e7fe dd3c 89c3 0cbd d9d5 a3bc
000003a0: ad45 1abc c093 d73c d7ed fd3c f413 33bb
000003b0: 936f 883c 6c50 e5bc b2fb 82bc 217a f3bc
000003c0: 5a02 ca3c d002 7fbc 770b e43b ef21 ae3b
000003d0: ca87 1ebc 9b1c f63c d1fb f8bc 5b05 d2bc
000003e0: d487 bebb a95b 5dbc 46e9 04bd afb8 ccbc
000003f0: 34ba a8bc 9613 a83c 6876 a53c 22a4 963c

bias f4 [32]
-0.008502782 -0.02893694 -0.0077418843 -0.024513576 0.008018365 -0.015729344 -0.0010001096 -0.008136747
0.019494943 0.022016535 -0.0037661593 -0.008217475 0.02408296 -0.01891559 -0.00875519 -0.008546391
0.024999395 -0.030489152 -0.022387354 -0.013155419 0.024334086 -0.022837 0.0052290773 -0.015591175
0.0055713663 -0.019623755 -0.014571544 0.031738568 0.025720999 -0.024724169 0.011202659 0.02207387
00000000: 414f 0bbc 290d edbc a2af fdbb b2d0 c8bc
00000010: 765f 033c d3da 80bc 1c16 83ba fe4f 05bc
00000020: dcb3 9f3c 055c b43c abd1 76bb 97a2 06bc
00000030: a149 c53c def4 9abc ee71 0fbc 2906 0cbc
00000040: 88cb cc3c 63c4 f9bc af65 b7bc d489 57bc
00000050: 4758 c73c a914 bbbc ae58 ab3b 2172 7fbc
00000060: 0290 b63b ffc1 a0bc 7cbd 6ebc 4d00 023d
00000070: d8b4 d23c 578a cabc 5c8b 373c 43d4 b43c

weight f4 [64, 32, 5, 5]
-0.009262672 0.013798276 -0.01756046 0.0070179175 0.013407676 -0.017596327 -0.0014226987 0.0025431537
-0.0013830792 -0.0011943397 -0.010539224 0.017525228 -0.017308239 0.031324513 0.034084074 -0.031834193
0.012991879 -0.014257708 -0.03320493 -0.002393898 -0.003980728 0.011008522 -0.011375755 0.01660951
-0.029647496 -0.0009684987 -0.015393375 0.031988163 0.007717459 0.008091544 0.0054973057 -0.032390073
0.0041130334 0.01150539 0.0069148177 -0.023932012 -0.033971086 -0.018389424 0.0103456 0.0012750088
0.03366609 0.008200675 -0.020907361 -0.0029636708 0.022549883 0.023327112 -0.02098559 -0.032841284
0.03380316 0.019546019 0.016839175 0.027238347 -0.021440858 0.0036006777 0.029786458 -0.005037825
-0.020845981 -0.012466757 -0.019320667 0.03173535 0.021001898 0.017212812 -0.029647587 -0.027563624
0.023560252 -0.026122816 0.0079320455 0.029473526 -0.017822063 0.02181212 -0.004590067 0.007293401
0.017518379 0.0018055788 -0.03419855 0.02045566 0.019073118 -0.024998737 -0.025639346 0.020407444
0.0034205993 -0.02773954 0.008620437 0.03141361 -0.007747748 0.0011969185 0.011087945 0.034381416
-0.0009529094 0.024049187 0.01787401 0.019108333 -0.0340689 -0.026334217 0.012875296 -0.03085634
0.017702162 0.027954813 0.005354952 -0.0125192925 0.00480803 0.0036067006 0.02949784 0.016336605
0.0011092671 0.014232166 0.018579667 0.02041165 0.027416185 0.02789207 -0.017596858 -0.020307431
0.024848204 -0.012397971 0.009679475 -0.03386351 0.008099072 -0.027322872 -0.033160295 -0.0031637766
0.008151621 -0.021134725 0.029482797 0.005788225 0.017614571 -0.023021871 -0.025702965 -0.032892313
-0.027212534 -0.018424246 -0.009779111 -0.028792273 0.029126989 0.022290522 -0.004542967 -0.020137653
0.011375521 -0.023432383 0.028572839 -0.0027752735 -0.015646676 0.014619115 -0.024483506 0.03451636
-0.035084587 -0.029017162 0.033212896 0.025018543 -0.019234115 -0.011728363 -0.01715793 0.03183877
0.017615922 0.019649057 -0.009034578 -0.0064353147 0.017009802 0.017315404 0.01762671 0.023535721
0.010156621 0.034653492 0.026573462 0.017372617 0.029572915 -0.0067785815 -0.007014191 0.014226348
0.02595919 0.024938455 0.010430485 0.011390698 -0.024317477 0.032119583 -0.028804397 -0.0018095478
-0.0018387305 0.0066115363 -0.027570529 0.005813624 0.034836557 -0.019816535 -0.02411179 0.0006334925
-0.028051943 0.01034607 0.023444239 -0.009059555 -0.013423684 -0.018979777 -0.009682654 -0.023978153
-0.0083285 -0.0035091988 0.016612016 -0.034926217 -0.03019457 0.032511227 0.00030023328 -0.0011311171
-0.008526203 0.030691212 -0.008385968 0.031661235 -0.011337462 0.0109082265 -0.031661276 -0.0320254
0.027805828 -0.02208402 0.02680327 -0.017385686 0.032424152 0.02096851 0.0005053714 -0.0044545946
0.01759574 -0.018976204 -0.023865445 0.005710985 -0.021820875 0.025505818 -0.011764216 -0.027955288
-0.0066994606 -0.012401777 -0.012689088 0.02555394 0.021441672 -0.01761842 0.03368865 -0.023377446
-0.010146587 -0.031418595 -0.008598766 0.009047125 -0.029650256 0.02388723 -0.0013906958 0.032490376
-0.030699695 -0.0036677695 -0.012372147 -0.0021442722 0.024766972 0.010125125 -0.032212306 -0.01846984
0.012001058 -0.004975956 0.009758665 -0.023009049 0.028482772 -0.0013228081 -0.011186603 -1.2257469e-05
00000000: 76c2 17bc 2a12 623c f4da 8fbc 8ff6 e53b
00000010: deab 5b3c 2c26 90bc d979 baba 0aab 263b
00000020: 7048 b5ba 648b 9cba b6ac 2cbc 1191 8f3c
00000030: 02ca 8dbc 224e 003d be9b 0b3d 9264 02bd
00000040: e4db 543c 2999 69bc e501 08bd f2e2 1cbb
00000050: c470 82bb 165d 343c 6061 3abc ab10 883c
00000060: 4edf f2bc d9e2 7dba 7f34 7cbc 0506 033d
00000070: bde2 fc3b 6592 043c be22 b43b 74ab 04bd
00000080: a0c6 863b 1a81 3c3c b295 e23b 110d c4bc
00000090: 4425 0bbd 6ba5 96bc 9780 293c 321e a73a
000000a0: 74e5 093d 205c 063c ea45 abbc 253a 42bb
000000b0: 88ba b83c 8018 bf3c f9e9 abbc 9584 06bd
000000c0: 2f75 0a3d f91e a03c 4ff2 893c f422 df3c
000000d0: bda4 afbc 59f9 6b3b bb02 f43c 5714 a5bb
000000e0: 31c5 aabc 5e41 4cbc 6046 9ebc edfc 013d
000000f0: 2c0c ac3c e201 8d3c 7fdf f2bc 1ccd e1bc
00000100: 6e01 c13c 84ff d5bc 69f5 013c 7772 f13c
00000110: 93ff 91bc 55af b23c 4668 96bb 7bfd ee3b
00000120: b482 8f3c 2ca9 ec3a c713 0cbd a192 a73c
00000130: 3a3f 9c3c 27ca ccbc 9b09 d2bc 832d a73c
00000140: 222c 603b 083e e3bc bc3c 0d3c 8fab 003d
00000150: d2e0 fdbb ece1 9c3a 36aa 353c 87d3 0c3d
00000160: abcc 79ba cd02 c53c 846c 923c 1489 9c3c
00000170: d58b 0bbd dbba d7bc e8f2 523c 6fc6 fcbc
00000180: 2004 913c 7e01 e53c 9878 af3b b81d 4dbc
00000190: ae8c 9d3b 655e 6c3b 74a5 f13c 58d4 853c
000001a0: d464 913a 082e 693c 6334 983c 5536 a73c
000001b0: e897 e03c e97d e43c 4927 90bc c55b a6bc
000001c0: 768e cb3c dc20 4bbc a996 1e3c 77b4 0abd
000001d0: f8b1 043c 37d4 dfbc 17d3 07bd 5d57 4fbb
000001e0: 608e 053c bb22 adbc e885 f13c 27ab bd3b
000001f0: 6f4c 903c 5d98 bcbc 068f d2bc 17ba 06bd
00000200: d2ec debc 72ee 96bc 9038 20bc c6dd ebbc
00000210: b99b ee3c 9d9a b63c 2bdd 94bb b8f7 a4bc
00000220: 6560 3a3c 45f5 bfbc 9611 ea3c 5de1 35bb
00000230: 752d 80bc 0385 6f3c a291 c8bc 0761 0d3d
00000240: dbb4 0fbd 66b5 edbc 3f0a 083d b0f3 cc3c
00000250: dd90 9dbc 5228 40bc ca8e 8cbc 5f69 023d
00000260: 444f 903c 0ff7 a03c c405 14bc 55df d2bb
00000270: 2458 8b3c 09d9 8d3c e465 903c fccd c03c
00000280: f567 263c d2f0 0d3d 97b0 d93c 0551 8e3c
00000290: e642 f23c dd1e debb 4cd7 e5bb a115 693c
000002a0: 5ea8 d43c bb4b cc3c a0e4 2a3c 0da0 3a3c
000002b0: 7235 c7bc d38f 033d 33f7 ebbc 592e edba
000002c0: 8f01 f1ba 96a5 d83b 97db e1bc 3680 be3b
000002d0: c7b0 0e3d 4956 a2bc 1786 c5bc f610 263a
000002e0: 30cd e5bc 9082 293c 220e c03c 876e 14bc
000002f0: 03ef 5bbc 7a7b 9bbc ffa3 1ebc d56d c4bc
00000300: 4374 08bc 96fa 65bb ec15 883c cb0e 0fbd
00000310: 9a5a f7bc 7e2a 053d a168 9d39 fe41 94ba
00000320: 7db1 0bbc 236c fb3c 4d65 09bc 36af 013d
00000330: c3c0 39bc 6bb8 323c 41af 01bd 112d 03bd
00000340: 0cc9 e33c 8ce9 b4bc 8892 db3c 6d6c 8ebc
00000350: 30cf 043d 27c6 ab3c e77a 043a d9f7 91bb
00000360: f124 903c fc73 9bbc 7781 c3bc 3723 bb3b
00000370: b1c1 b2bc 94f1 d03c b3be 40bc 7d02 e5bc
00000380: 2687 dbbb d330 4bbc e4e5 4fbc 7f56 d13c
00000390: 72a6 af3c 8154 90bc 1cfd 093d 0f82 bfbc
000003a0: df3d 26bc c9b0 00bd d7e1 0cbc 643a 143c
000003b0: 18e5 f2bc 27af c33c 0248 b6ba a114 053d
000003c0: ed7d fbbc f65e 70bb 8cb4 4abc eb86 0cbb
000003d0: 1be4 ca3c dae3 253c 0df1 03bd 104e 97bc
000003e0: 16a0 443c 580d a3bb cfe2 1f3c 797d bcbc
000003f0: b454 e93c 1362 adba 0448 37bc 6ea5 4db7

bias f4 [64]
-0.02929905 -0.028018879 0.0064185564 -0.012411267 -0.019232476 0.025201507 -0.0028872143 0.031068247
-9.413106e-05 -0.011464056 -0.018568072 0.0134774335 -0.0075176707 -0.020651286 -0.030231876 0.034189988
-0.013699267 0.015335325 -0.031636078 -0.024489157 0.026564067 -0.024433346 0.02837478 0.012664074
0.02908651 -0.0027532435 0.01942738 0.013073713 -0.027150279 0.015753608 0.031669524 0.01593808
-0.031719126 0.012392554 -0.019000774 -0.0023759003 -0.010509266 -0.021579111 -0.028769208 0.03173435
0.033733334 -0.023177281 0.036720145 -0.0012927986 -0.021952715 0.008181735 0.033322513 -0.012289011
0.02181951 0.022329034 -0.017955018 -0.013692718 0.009418312 -0.004475038 0.0063506584 0.027299935
0.031026432 -0.02544624 0.007451187 -0.012555578 -0.013880563 -0.0069838 -0.010424783 0.016947398
00000000: 9004 f0bc d987 e5bc c152 d23b a058 4bbc
00000010: 6d8d 9dbc 6473 ce3c 6b37 3dbb d682 fe3c
00000020: 3a68 c5b8 bcd3 3bbc 121c 98bc 74d0 5c3c
00000030: cb56 f6bb e32c a9bc d7a8 f7bc cd0a 0c3d
00000040: e472 60bc 0441 7b3c d594 01bd 7c9d c8bc
00000050: e39c d93c 7128 c8bc 3a72 e83c fa7c 4f3c
00000060: d546 ee3c c36f 34bb 2b26 9f3c 2033 563c
00000070: 436a debc b60d 813c e7b7 013d 9490 823c
00000080: eaeb 01bd 240a 4b3c 83a7 9bbc feb4 1bbb
00000090: 0e2f 2cbc adc6 b0bc 67ad ebbc e1fb 013d
000000a0: f72b 0a3d 48de bdbc dd67 163d 1f73 a9ba
000000b0: 2ed6 b3bc af0c 063c 307d 083d d957 49bc
000000c0: d4be b23c 61eb b63c 6716 93bc 6c57 60bc
000000d0: 444f 1a3c 57a3 92bb 2f19 d03b 1da4 df3c
000000e0: 252b fe3c a274 d0bc 1629 f43b e9b5 4dbc
000000f0: 4d6b 63bc 5cd8 e4bb b6cc 2abc 45d5 8a3c

weight f4 [64, 1024]
-0.01668796 0.004901347 -0.0145330345 -0.004639804 -0.015684122 -0.0005583031 -0.018214602 -0.023921909
-0.0084000975 0.009447382 -0.02707115 0.030045459 -0.024397897 0.011054145 0.03063601 -0.0009197599
0.006357775 -0.018335162 0.010680818 -0.020499969 -0.024748597 0.015165995 0.017703297 0.015568907
0.01151611 -0.027522875 -0.007349908 0.01434113 -0.018096568 0.02080208 0.016500551 0.011879886
-0.013086211 0.024382638 -0.026066609 0.011336444 0.009440126 -0.025171831 0.019808272 0.006631939
-0.014201351 -0.016109068 -0.014246124 -0.01397588 -0.0202988 -0.029520344 0.018363472 0.022379428
0.01418035 -0.020431764 0.020645764 -0.030633835 0.020445291 0.007175772 -0.008781054 0.028380089
0.021879734 0.019126426 -0.02768889 -0.006691976 0.0131465485 0.014891534 0.007506053 0.031543393
0.027074592 0.006549965 -0.0040898463 0.02448462 -0.010886184 -0.024019599 -0.012354488 -0.015220236
0.002169326 -0.007266331 -0.010743789 0.009596439 0.01309755 -0.025020534 -0.02623302 -0.022479769
-0.0026791152 -0.0061579063 0.008268363 0.017722465 -0.02536665 0.023653556 0.024973363 -0.013520547
0.028552348 0.0019961218 -0.0014051788 0.027150597 0.004943515 0.027792262 -0.007817838 -0.008231026
-0.02428752 -0.003112792 -0.02713476 -0.017246736 -0.025947008 0.025485186 0.011531823 0.004286196
-0.029379245 0.01958994 0.026463898 0.008069449 -0.029414998 -0.02102955 -0.020372778 0.027984269
-0.008079502 -0.014442843 -0.018501934 0.0020236026 0.017723422 0.025599005 -0.019502454 0.025707098
-0.010181141 -0.015661519 -0.018467797 -0.023709707 0.030113442 -0.022623766 0.008181255 0.025471272
0.002937402 0.026288217 -0.013107102 0.0035045047 -0.0039476315 -0.012695707 0.023669166 -0.015539665
0.02050138 -0.027978057 0.013680029 -0.0131898075 0.029678492 -0.010695078 0.022947151 0.007828299
0.030928204 0.01972887 -0.009714845 -0.013518952 0.0020688137 -0.019415388 -0.0061125173 0.030192249
0.00899266 0.007627872 -0.0045300946 -0.0192525 0.025984094 0.0024720542 -0.024050904 0.021100326
0.014026912 0.02443734 0.0069645075 -0.008039619 -0.011094297 -0.028339606 -0.012487113 0.026960835
-0.004936266 0.012270087 0.015758878 0.007875632 -0.022426313 0.0032798713 -0.012000807 0.013011926
-0.011558489 0.008941458 -0.024378205 0.011909717 0.026263922 0.0057340064 0.023353184 0.016861767
-0.024148855 0.019882435 0.029340817 0.016540203 -0.023563793 0.007661791 0.022377487 0.006673847
-0.016911818 0.026229016 0.028218815 -0.0040489663 -0.025370635 -0.014729505 -0.015539985 -0.015888028
-0.017412823 0.0011034732 -0.012906339 -0.030243704 0.0065103495 0.0036817384 -0.021722954 -0.0032006858
0.013663599 -0.023893353 0.0012823981 -0.004527084 -0.021041417 0.019295147 -0.010375573 0.024119303
-0.01882187 0.013837416 0.0055555915 -0.0074118134 0.0020850953 -0.014964457 -0.0038368634 0.02740473
-0.019845827 -0.012037771 -0.024172626 -0.022329127 0.026838096 0.02609274 -0.013699122 -0.023143794
0.029088326 -0.012561323 0.029177956 -0.0015853627 0.019345855 -0.009293241 0.010749994 0.021608924
-0.02269657 0.018002022 0.027290668 0.007108276 0.0066096717 -0.021334292 -0.012454164 0.0059922747
-0.0070874705 -0.028824074 -0.02584163 -0.0057172943 -0.007990169 0.020158375 0.0105913235 -0.019812223
00000000: 30b5 88bc 7b9b a03b f71b 6ebc 7f09 98bb
00000010: fd7b 80bc 165b 12ba ca36 95bc e1f7 c3bc
00000020: 90a0 09bc 31c9 1a3c 51c4 ddbc e521 f63c
00000030: 19de c7bc 721c 353c 5ff8 fa3c 0b1c 71ba
00000040: e254 d03b 9f33 96bc 99fe 2e3c 8def a7bc
00000050: 92bd cabc cb7a 783c 8106 913c bb14 7f3c
00000060: 11ae 3c3c a777 e1bc 7fd7 f0bb 0ff7 6a3c
00000070: 413f 94bc 2069 aa3c 2a2c 873c daa3 423c
00000080: 8c67 56bc 19be c73c a489 d5bc 7ebc 393c
00000090: c2aa 1a3c 2835 cebc f544 a23c bd50 d93b
000000a0: c9ac 68bc 2af7 83bc 9368 69bc 17fb 64bc
000000b0: ab49 a6bc a6d4 f1bc fe6e 963c 1055 b73c
000000c0: b354 683c 8460 a7bc 4e21 a93c cff3 fabc
000000d0: e27c a73c bd22 eb3b 69de 0fbc 5c7d e83c
000000e0: 213d b33c 06af 9c3c d0d3 e2bc 5d48 dbbb
000000f0: 9f64 573c 9ffb 733c 56f5 f53b a533 013d
00000100: 89cb dd3c 17a1 d63b 1e04 86bb f893 c83c
00000110: f75b 32bc c0c4 c4bc 7a6a 4abc 4c5e 79bc
00000120: 402b 0e3b 671a eebb b806 30bc 623a 1d3c
00000130: 1b97 563c ddf7 ccbc a1e6 d6bc 7e27 b8bc
00000140: 1894 2fbb 43c8 c9bb 0778 073c b42e 913c
00000150: b9cd cfbc 1ac5 c13c f094 cc3c 4985 5dbc
00000160: 9de6 e93c 5ed1 023b fa2d b8ba ee6a de3c
00000170: 36fd a13b 99ac e33c 6416 00bc 6ddb 06bc
00000180: 9ff6 c6bc fcff 4bbb b749 debc 0749 8dbc
00000190: d28e d4bc 4fc6 d03c f9ef 3c3c 3873 8c3b
000001a0: beac f0bc 157b a03c d1ca d83c b935 043c
000001b0: b9f7 f0bc 2a46 acbc d0e4 a6bc 443f e53c
000001c0: e35f 04bc ada1 6cbc 5e91 97bc 6b9e 043b
000001d0: b630 913c 01b5 d13c 9cc3 9fbc b197 d23c
000001e0: cdce 26bc 964c 80bc c749 97bc dc3a c2bc
000001f0: 77b0 f63c 7a55 b9bc ac0a 063c 21a9 d03c
00000200: 6e81 403b 635a d73c 2cbf 56bc d5ab 653b
00000210: 225b 81bb a801 50bc d7e5 c13c 149a 7ebc
00000220: 83f2 a73c 3d32 e5bc 3322 603c 101a 58bc
00000230: 4f20 f33c 693a 2fbc aafb bb3c 4442 003c
00000240: 255d fd3c 709e a13c 032b 1fbc 987e 5dbc
00000250: ef94 073b 050d 9fbc 834b c8bb bc55 f73c
00000260: f355 133c 3af3 f93b 3071 94bb 6bb7 9dbc
00000270: 98dc d43c 3002 223b 6706 c5bc 97da ac3c
00000280: 22d1 653c d130 c83c 8636 e43b 9bb8 03bc
00000290: dbc4 35bc 7628 e8bc bf96 4cbc f8dc dc3c
000002a0: 67c0 a1bb 7a08 493c c318 813c cb08 013c
000002b0: 63b7 b7bc 1cf3 563b 089f 44bc f92f 553c
000002c0: d15f 3dbc 317f 123c cdb4 c7bc f920 433c
000002d0: 7027 d73c 55e4 bb3b 2d4f bf3c b021 8a3c
000002e0: d2d3 c5bc 7de0 a23c 275c f03c 527f 873c
000002f0: db08 c1bc c30f fb3b fe50 b73c 49b0 da3b
00000300: a78a 8abc 3cde d63c 252b e73c 31ad 84bb
00000310: 14d6 cfbc 0654 71bc 6c9b 7ebc 9c27 82bc
00000320: 56a5 8ebc 6ba2 903a 1c75 53bc a5c1 f7bc
00000330: c554 d53b 5249 713b 56f4 b1bc 99c2 51bb
00000340: 4add 5f3c febb c3bc 2416 a83a ef57 94bb
00000350: 0d5f acbc db10 9e3c 4ffe 29bc d895 c53c
00000360: 5330 9abc 54b6 623c ae0b b63b ccde f2bb
00000370: 18a6 083b 7b2d 75bc e373 7bbb e27f e03c
00000380: b793 a2bc 123a 45bc ac05 c6bc 93eb b6bc
00000390: 91db db3c 71c0 d53c 4872 60bc 0e98 bdbc
000003a0: a44a ee3c 02ce 4dbc 9c06 ef3c f2cb cfba
000003b0: 337b 9e3c ae42 18bc be20 303c 3305 b13c
000003c0: 28ee b9bc fa78 933c ae90 df3c 8aec e83b
000003d0: f295 d83b 41c5 aebc 8d0c 4cbc d85a c43b
000003e0: 033e e8bb 7720 ecbc d3b1 d3bc 2458 bbbb
000003f0: 33e9 02bc 2d23 a53c 3b87 2d3c 3e4d a2bc

bias f4 [64]
-0.028295266 -0.016809482 0.022170633 -0.011474038 0.008963987 0.028248725 -0.025066987 -0.014132871
0.0025957637 0.022095613 -0.006485726 -0.0046763816 0.030650541 -0.029911608 0.013429386 0.0025710056
-0.0018531639 0.008985828 0.024586808 -0.025105966 -0.02532037 0.025738552 0.023829656 -0.0003471789
0.014381976 -0.0022185 0.0007763494 -0.0017846699 -0.010298246 -0.0018047875 0.00041121684 0.015714489
0.030036414 -0.019905128 -0.0061813854 -0.027686423 -0.00334186 -0.028686848 0.03081531 0.024455369
0.014371777 -0.01796073 -0.017448694 0.018340485 -0.0020307878 0.01870591 0.028711334 -0.017498814
0.003773395 0.016469534 -0.027607335 0.022856683 -0.004040929 -0.02231767 -0.0072886813 -0.017758373
0.0025566155 -0.0134088835 -0.016968876 -0.024119183 0.030676544 -0.023260742 -0.020342039 0.011578966
00000000: 79cb e7bc 0ab4 89bc 309f b53c 9afd 3bbc
00000010: b0dd 123c df69 e73c 4859 cdbc 8f8d 67bc
00000020: b01d 2a3b dc01 b53c 3786 d4bb 553c 99bb
00000030: d816 fb3c 3009 f5bc ed06 5c3c 517e 283b
00000040: dde5 f2ba 4b39 133c 466a c93c 07ab cdbc
00000050: aa6c cfbc a8d9 d23c 6936 c33c 9005 b6b9
00000060: 61a2 6b3c 4164 11bb ed83 4b3a 96eb e9ba
00000070: f9b9 28bc 9f8e ecba 9798 d739 acbb 803c
00000080: ed0e f63c 1410 a3bc 388d cabb a3ce e2bc
00000090: 1b03 5bbb ae00 ebbc 6470 fc3c a056 c83c
000000a0: 9a77 6b3c 6122 93bc 90f0 8ebc c93e 963c
000000b0: f716 05bb 233d 993c 0834 eb3c ac59 8fbc
000000c0: 104b 773b 1eeb 863c c728 e2bc f03d bb3c
000000d0: c569 84bb 8cd3 b6bc e4d5 eebb 027a 91bc
000000e0: e48c 273b efb0 5bbc 5002 8bbc 9895 c5bc
000000f0: 604d fb3c 508d bebc 59a4 a6bc b4b5 3d3c

weight f4 [10, 64]
0.018798525 -0.10657693 0.07462274 -0.06427538 -0.032069195 -0.046747614 -0.06312289 0.03260129
0.0069476888 0.11917521 0.0003324889 -0.12083344 0.055846307 0.025220813 -0.04682061 0.06528471
-0.033394903 0.0418462 0.09827434 0.08906828 0.025141979 -0.07049615 0.11041034 0.057019323
-0.04076859 -0.07557855 -0.0597437 -0.024623683 0.02031891 0.03250949 -0.033553943 0.08378324
-0.004507888 0.08432836 0.041139696 0.07151427 0.117321774 -0.043678217 0.08159918 -0.0951457
-0.040747255 -0.020423397 0.07736324 0.030617874 -0.11781362 -0.039725594 0.015243274 -0.08794706
-0.04791242 -0.06616651 0.015893409 0.096196964 -0.07044119 -0.0014186474 0.0013149413 -0.077364884
-0.065426774 -0.121633165 -0.10575522 0.08656709 -0.091336645 0.06539536 0.057878096 0.11252563
-0.046921063 0.07511362 -0.08958223 -0.10566906 -0.082799435 0.09056821 -0.06346804 -0.11293637
-0.04765353 0.0030880484 0.0758983 0.10827009 -0.0110601075 0.0007772746 -0.108212374 -0.049567666
-0.056686703 -0.052021116 0.056993358 -0.028594926 0.036543686 -0.07196552 -0.091765866 0.026585266
0.08319272 -0.046474617 0.03641733 -0.05663922 0.11928281 -0.061268177 0.07813401 0.0793567
-0.0012927713 0.039087992 0.12492599 -0.036394093 -0.05144918 0.02876814 0.11224991 -0.11439116
0.079862006 -0.0040516546 -0.034919884 0.04824768 -0.090518974 -0.12236757 -0.08182502 0.04978102
0.01043878 0.04967508 -0.11299522 0.12300257 -0.09299594 -0.0437453 -0.101693526 0.03929325
0.04573175 0.037934214 -0.0031424724 -0.034152534 0.07668272 0.095778 0.1074759 -0.05868689
0.08841067 0.05262089 0.09768851 0.03435502 -0.080081046 -0.075842544 -0.016917048 -0.0895545
-0.05560639 0.111256994 -0.11682354 0.061717775 0.10145745 -0.08671355 -0.10990864 0.05304369
0.021086087 -0.014754736 -0.12034027 -0.035084426 0.08792772 -0.08635467 0.020112665 0.005435112
-0.1089191 -0.07644776 0.11421527 0.064405955 -0.103538394 -0.0904928 -0.119427934 -0.09283282
0.03082973 0.051563717 -0.029585239 0.040547602 0.0641133 -0.12157736 0.108371064 0.018879116
-0.04152617 -0.11600556 -0.0027511497 0.044570938 0.021813879 0.091449834 -0.12394347 -0.09707979
-0.032736726 -0.05577886 0.007371008 0.11203819 0.041431684 0.006504483 -0.093429536 0.051128212
0.0092466725 0.04991312 0.111190416 0.123847164 0.03132368 0.051612906 0.006276197 0.10460332
0.059419166 0.06952629 -0.090910465 -0.10724877 -0.084866144 0.06937546 0.09768757 0.050461113
-0.11240567 0.035574093 0.06881919 0.022592338 -0.008497569 -0.113931894 0.061168414 0.069371074
0.12527603 0.018190214 0.038755614 0.10064331 -0.051425103 0.09470307 0.08553829 0.021150814
-0.099506475 0.0031442333 0.104517065 -0.07807441 -0.035883285 0.09581393 -0.09652399 0.095960975
-0.110114105 0.11812554 -0.081462674 -0.036407396 -0.043916397 -0.025567787 0.07168038 -0.005433479
-0.023600508 0.07830737 0.108917564 0.0046863244 0.12358658 0.032294944 -0.014964222 -0.115133695
0.06091043 -0.010882312 0.07873488 0.12475899 -0.09619732 -0.00533251 0.011515303 -0.06378634
0.006115729 0.0035232923 -0.037525427 -0.05288911 -0.017353468 -0.07275522 0.004176304 0.10282108
00000000: 5dff 993c 0145 dabd cfd3 983d cfa2 83bd
00000010: fd5a 03bd 6d7a 3fbd 9346 81bd ee88 053d
00000020: 70a9 e33b 2212 f43d e851 ae39 8677 f7bd
00000030: 19bf 643d e19b ce3c f8c6 3fbd fdb3 853d
00000040: 18c9 08bd ec66 2b3d 0f44 c93d 6e69 b63d
00000050: 8df6 cd3c 4960 90bd d11e e23d 188d 693d
00000060: f7fc 26bd edc8 9abd cfb5 74bd 9bb7 c9bc
00000070: d873 a63c ac28 053d dc6f 09bd 8c96 ab3d
00000080: e8b6 93bb 59b4 ac3d 1982 283d 1376 923d
00000090: 6646 f03d eee7 32bd 791d a73d c0db c2bd
000000a0: 98e6 26bd f84e a7bc 9e70 9e3d 56d2 fa3c
000000b0: 4448 f1bd 4eb7 22bd edbe 793c 971d b4bd
000000c0: d03f 44bd 4f82 87bd e532 823c ea02 c53d
000000d0: 7843 90bd e8f1 b9ba 1c5a ac3a 7b71 9ebd
000000e0: 79fe 85bd cf1a f9bd 3196 d8bd 164a b13d
000000f0: b50e bbbd 01ee 853d 9511 6d3d d673 e63d
00000100: 4d30 40bd 2bd5 993d e376 b7bd 0569 d8bd
00000110: c092 a9bd d37b b93d 88fb 81bd 2f4b e7bd
00000120: 5930 43bd db60 4a3b 9170 9b3d b5bc dd3d
00000130: 7435 35bc 04c2 4b3a 739e ddbd 7707 4bbd
00000140: 5130 68bd 1814 55bd de71 693d e83f eabc
00000150: d5ae 153d a962 93bd beef bbbd 58c9 d93c
00000160: f260 aa3d 2b5c 3ebd 572a 153d 87fe 67bd
00000170: 8c4a f43d 57f4 7abd b904 a03d c485 a23d
00000180: 3572 a9ba bb1a 203d 33d9 ff3d f911 15bd
00000190: 60bc 52bd 2aab eb3c 48e3 e53d ea45 eabd
000001a0: b18e a33d bec3 84bb 2708 0fbd 5c9f 453d
000001b0: 0362 b9bd d99b fabd e093 a7bd 2fe7 4b3d
000001c0: 6b07 2b3c 1978 4b3d 0a6a e7bd c5e8 fb3d
000001d0: a874 bebd 462e 33bd b244 d0bd f5f1 203d
000001e0: 3751 3b3d e860 1b3d f0f1 4dbb 87e3 0bbd
000001f0: d40b 9d3d 4227 c43d 531c dc3d aa61 70bd
00000200: a710 b53d 0189 573d ea10 c83d d9b7 0c3d
00000210: 8801 a4bd 5653 9bbd 9f95 8abc 5a68 b7bd
00000220: 87c3 63bd b5da e33d 2e41 efbd c7cb 7c3d
00000230: ecc8 cf3d e096 b1bd c817 e1bd 5744 593d
00000240: bbbc ac3c d9bd 71bc f674 f6bd b0b4 0fbd
00000250: 7313 b43d b8da b0bd 51c3 a43c 0619 b23b
00000260: fa10 dfbd a590 9cbd b2e9 e93d 45e7 833d
00000270: f00b d4bd 4a54 b9bd a296 f4bd 221f bebd
00000280: a18e fc3c 7a34 533d be5c f2bc 3e15 263d
00000290: d54d 833d 8dfd f8bd a6f1 dd3d 60a8 9a3c
000002a0: 5817 2abd 5394 edbd a24c 34bb 0490 363d
000002b0: 05b3 b23c 0d4a bb3d 13d6 fdbd c5d1 c6bd
000002c0: f216 06bd 6078 64bd 7f88 f13b 4774 e53d
000002d0: 45b4 293d 8f23 d53b fc57 bfbd d16b 513d
000002e0: 5b7f 173c b371 4c3d cdb7 e33d 95a3 fd3d
000002f0: 424d 003d 0e68 533d 8ea8 cd3b 443a d63d
00000300: 8361 733d cd63 8e3d 442f babd 3ea5 dbbd
00000310: 4dce adbd b914 8e3d 6c10 c83d 50b0 4e3d
00000320: f234 e6bd 24b6 113d 13f1 8c3d 9113 b93c
00000330: 6339 0bbc 2055 e9bd bb8b 7a3d 6c12 8e3d
00000340: 5c48 003e a503 953c 35be 1e3d 141e ce3d
00000350: 21a3 52bd aff3 c13d b32e af3d 7944 ad3c
00000360: 0dca cbbd 7b0f 4e3b 0b0d d63d 7ae5 9fbd
00000370: 5afa 12bd 183a c43d 5fae c5bd 3087 c43d
00000380: 8183 e1bd ceeb f13d e7d5 a6bd ec1f 15bd
00000390: aee1 33bd 8973 d1bc 2acd 923d 530b b2bb
000003a0: da55 c1bc 9d5f a03d 2c10 df3d bd8f 993b
000003b0: f61a fd3d b447 043d 7f2c 75bc 37cb ebbd
000003c0: 377d 793d ba4b 32bc c13f a13d a481 ff3d
000003d0: 1a03 c5bd 56bc aebb aeaa 3c3c 6aa2 82bd
000003e0: 7466 c83b 09e7 663b 43b4 19bd 40a2 58bd
000003f0: dc28 8ebc b000 95bd 61d9 883b dc93 d23d

bias f4 [10]
-0.04630601 -0.10840811 -0.04895266 0.066689424 -0.033110533 0.05604237 -0.10028981 -0.095614955
0.04594344 -0.107737295
00000000: 5fab 3dbd 1205 debd 9682 48bd 7794 883d
00000010: e99e 07bd af8c 653d be64 cdbd c6d1 c3bd
00000020: 302f 3c3d 5fa5 dcbd
