PytorchLearning/learn1/vggmodel/vgg_0.pth (torch, 587335 bytes, 10 tensors)

weight f4 [32, 3, 5, 5]
000000 78 43 ea 3d c1 cf d4 bd fb ca 6e bd 4f 89 10 bd
       0.1143865 -0.103911884 -0.058299046 -0.035287198
000010 0f 13 b3 bd a0 cd e3 bb 36 1b be 3c 8d ce f5 bc
       -0.087438695 -0.0069520026 0.023206335 -0.030005718
000020 0f 2f 98 bd 01 c2 b4 3d 5b da e1 3d c4 c4 06 bc
       -0.07430851 0.08826066 0.11027976 -0.0082256235
000030 ef c2 a5 bc e6 91 68 3d fe 0f 5a bd 82 62 db bd
       -0.020234553 0.056779765 -0.053237908 -0.10712148
000040 00 05 82 3d 19 c1 da bd 48 ad c8 3d 9d 6d b4 3d
       0.0634861 -0.10681362 0.09798676 0.088099696
000050 18 7f 9d bd 79 c9 39 3d 67 17 2e 3d 47 62 d0 3d
       -0.07690257 0.045358155 0.042502787 0.10174995
000060 6c 6c 8e bd f1 85 35 bd 8f b9 10 bd 03 21 c9 3d
       -0.069542736 -0.04431719 -0.035333212 0.098207496
000070 18 92 15 3d 6b f3 dd bd d1 dd 7d 3d 3d 85 45 bc
       0.03651628 -0.10837444 0.06197912 -0.012055692
000080 9b 22 d3 bd 56 20 a5 bd e9 61 a4 3d 52 e2 d2 bc
       -0.10309335 -0.08062808 0.080264874 -0.025742684
000090 5b 71 bb bd ca 9e 1d 3d 3a 87 b6 bd 28 a9 93 3d
       -0.0915248 0.03848151 -0.08912511 0.07209998
0000a0 13 bf fb 3c 79 19 a9 3d d8 53 87 3d 68 2b 99 3d
       0.03073076 0.08256812 0.06607789 0.07478982
0000b0 83 1f 32 bd 40 3e 17 bd 32 31 48 3d 77 ae d5 3d
       -0.043487083 -0.0369246 0.04887504 0.10433667
0000c0 83 a5 97 bd bb dc 3f bd a0 0a 30 ba a8 6b d9 3c
       -0.07404616 -0.046841364 -0.00067154504 0.026540592
0000d0 fc c5 a6 bd 01 3c 26 bd 11 57 27 bd 80 db 8f 3c
       -0.08143231 -0.040584568 -0.040854517 0.01756072
0000e0 7b 86 c4 3d d2 59 35 bc a5 ea c8 3d 01 a0 6d 3d
       0.095959626 -0.011068778 0.0981038 0.05801392
0000f0 56 e0 0b bd b9 c1 89 3d a9 47 99 bd 3e df ea bd
       -0.03414949 0.06726403 -0.07484371 -0.11468361
000100 7a 08 be 3c e8 6b dd 3d f1 26 96 3d 80 0f 2a bd
       0.023197401 0.10811597 0.07331646 -0.04151869
000110 02 13 d7 ba 1f 24 dd 3d 06 5c 02 bc 04 9e e8 3d
       -0.0016408863 0.10797905 -0.00795651 0.11358264
000120 a1 87 f9 3c e9 9f cc 3c d3 1b 0f 3d 7c b6 44 bd
       0.03046018 0.024978595 0.034938645 -0.048025593
000130 66 ac e8 3d 32 e6 0a 3d 28 3a 01 bd 02 a7 34 3d
       0.113610074 0.033910938 -0.031549603 0.044104584
000140 b5 ef 8b 3d 2e 4a 60 bd af c6 79 bd 2e 3d ac 3d
       0.0683283 -0.054758243 -0.060980495 0.084101066
000150 c9 a8 ac bd 33 ec 7e 3c c4 65 bb bb 4e e0 9f bd
       -0.08430631 0.015559244 -0.0057189185 -0.078064546
000160 9c b0 9a bd 2f 01 8d 3b 02 3f a2 3c 97 42 e5 3d
       -0.07553217 0.0043031196 0.019805435 0.11194342
000170 61 6d 39 3d ee 0d dd bd 99 8e 8f bb b7 26 c9 bc
       0.045270327 -0.107936725 -0.0043810126 -0.024554593
000180 8a 29 8f 3d 14 29 ca bd e4 bd 86 3d 46 b7 8a bd
       0.06990345 -0.09871116 0.065791875 -0.06773238
000190 ab 04 96 bc 6a c3 63 bd 79 c1 a6 3d b5 6d db bd
       -0.018312773 -0.055606283 0.08142371 -0.10714284
0001a0 fe 48 d7 3c 66 98 4c bd 07 cc 67 3c 27 4b c5 3d
       0.026279923 -0.049950026 0.014147765 0.09633475
0001b0 59 32 e5 bd fe 0b 80 bd f8 a9 7e 3d 43 51 ea bc
       -0.11191244 -0.06252287 0.062173814 -0.028603202
0001c0 46 17 96 bd 28 a5 74 bb f6 fb 9d bd b2 48 b6 3d
       -0.07328658 -0.0037329886 -0.07714073 0.08900584
0001d0 c3 13 ea 3d bc 4d 63 bc 75 47 61 3c d3 54 10 3d
       0.114295505 -0.013873514 0.013749947 0.035237145
0001e0 a0 a7 d0 bd 42 91 ac 3d c5 81 8f 3d 34 bd 9a bd
       -0.10188222 0.08426143 0.070071734 -0.07555619
0001f0 6c 1a 26 3d 42 1c e8 bd 37 38 c4 bd 68 ab b3 bd
       0.04055254 -0.11333515 -0.09581035 -0.087729275
000200 f4 87 34 3d c3 55 1c 3d 6a 1e af bd 82 e8 a8 bb
       0.044074968 0.038167726 -0.08550723 -0.00515467
000210 6e 4b a1 3d c7 3a ab bd b2 9a d3 bd 3e 4b de 3d
       0.07875715 -0.0836082 -0.1033224 0.10854195
000220 4e 73 24 3d c6 49 07 bd 9c 9a bb 3d 4b 36 c7 bd
       0.040149026 -0.03302934 0.09160349 -0.097271524
000230 f6 3d ab 3a 0e 47 bb 3d 84 78 c8 ba 36 a4 85 bd
       0.001306473 0.09144412 -0.0015294706 -0.065254614
000240 2f 02 71 bc 5a 6b 73 bd 9b 9d e0 3a df 37 c0 3d
       -0.014709993 -0.05942855 0.0017136814 0.093856566
000250 95 39 aa bc 2d 8d ad 3d 02 af 3c bd 87 8f be bd
       -0.02077941 0.08474193 -0.046065338 -0.093047194
000260 b0 57 cf 3d 94 6a 1e bd f5 ab cd 3a c4 07 b6 bd
       0.10124147 -0.03867586 0.0015691506 -0.088882
000270 e0 4b d1 bd 24 70 8b bd fa 8d ca bd 0b 3e 89 bd
       -0.1021955 -0.068084985 -0.09890361 -0.06701287
000280 6a 89 5a bd a4 c3 de 3d 8b f2 8f 3b bf 0e 2d 3c
       -0.053353705 0.10877159 0.004392927 0.010562598
000290 47 35 37 3d b2 28 21 3d d1 39 f4 3b 23 fe af 3c
       0.044728544 0.03934545 0.0074531813 0.021483487
0002a0 b8 26 98 bd 8f 55 b4 bd c2 6e bb 3d bf 21 b8 3c
       -0.0742926 -0.088053815 0.09151985 0.022477029
0002b0 96 74 76 bd 43 02 ad 3d 62 32 c4 3d be 48 27 bd
       -0.06016978 0.08447697 0.09579922 -0.040840857
0002c0 c7 4e 99 3c fe 6b d9 3d 50 2a 5d bd 77 63 8d 3c
       0.018714322 0.10616301 -0.05399543 0.017259343
0002d0 29 50 83 3d 9b eb d8 3d 43 6d b2 3d 22 41 2c bd
       0.06411774 0.10591813 0.08712246 -0.042054303
0002e0 30 a4 09 bd 51 21 e0 bd 3a a4 67 bd 66 be c8 bd
       -0.033603847 -0.109438546 -0.056553103 -0.098019406
0002f0 8d 9f 70 3d 5f 48 90 3c 50 f6 9a 3d 20 2e b2 bd
       0.05874591 0.017612634 0.07566512 -0.08700204
000300 88 eb 35 3d 15 c9 79 bd a7 57 ce 3d df d1 4c bd
       0.044414073 -0.060982782 0.10075312 -0.050004836
000310 02 27 99 3d 3c 07 4b bd ba 2b 9d 3d 98 ad c6 3d
       0.07478143 -0.049567446 0.07674356 0.09701079
000320 b4 4c a3 3d 62 8c 6f bd a6 13 c4 bc f8 b5 6a bc
       0.07973614 -0.05848349 -0.02393515 -0.014325611
000330 4d 9d d1 3d 38 52 b8 3d 3f cf 6d bd ad 07 b9 3d
       0.10235081 0.09000057 -0.058058973 0.09034667
000340 cc ab c8 bd a4 65 0e 3c e2 09 4c bc ff d0 3b 3d
       -0.09798393 0.008691225 -0.012453528 0.04585361
000350 66 e1 a3 bd 21 53 97 3c 7a e8 f4 3c 9b 95 96 3d
       -0.08001976 0.018472256 0.02989601 0.07352754
000360 1e 66 b9 3d 93 05 45 3d e0 c7 5a 3d 2c 8d fd ba
       0.090526804 0.04810102 0.053413272 -0.0019344441
000370 f2 89 84 3c 9a 17 b9 3d 8c 36 35 bb 21 37 90 3d
       0.016179059 0.09037705 -0.002765092 0.07041765
000380 b8 7d ea bc 57 0c b6 bd a9 bf ac 3d 1a 63 c4 3c
       -0.0286244 -0.088890724 0.08434994 0.023973037
000390 bb 91 d9 bd af c6 35 3d 17 c5 a0 bd 54 5b ff bc
       -0.10623499 0.044378933 -0.07850092 -0.031171478
0003a0 cb 3a 3e bd 77 ec c0 3c 58 f6 b2 bd 3e 86 ad bd
       -0.046442788 0.023550255 -0.087383926 -0.0847287
0003b0 7e dd 9c 3c ac 01 8c bd 43 e4 11 bd 62 31 ea bd
       0.019148584 -0.068362564 -0.035618078 -0.114352
0003c0 3b 58 aa bd c8 93 2d 3d 45 5a be 3d 0c 79 a5 3d
       -0.0831761 0.042377263 0.09294561 0.080797285
0003d0 bb f2 e0 3d 7a bf 02 bd 23 1b 42 3d 01 14 b1 3d
       0.10983797 -0.031920888 0.04738916 0.086463936
0003e0 d4 35 16 3d 46 10 91 3d 29 9e 3a 3d 1e 07 cd 3c
       0.03667243 0.07083182 0.04556099 0.025027808
0003f0 8d 50 cd bd f2 5b c7 3d 14 d3 c4 3d da 8e d0 3d
       -0.100251295 0.09734334 0.096105725 0.10183497

bias f4 [32]
000000 83 1e 9e 3d 26 85 3e 3d 09 66 c3 3c 59 f6 9d bc
       0.077206634 0.0465137 0.023852365 -0.019282507
000010 75 18 8c 3d 1c c6 82 3d 18 cd fa bc 34 51 e3 3d
       0.06840602 0.063854426 -0.030615374 0.11099473
000020 ee 5e 7e bd 63 ee d6 3d 34 5b 8b 3d 20 7e 7d bd
       -0.06210225 0.104946874 0.06804505 -0.06188786
000030 c5 1e 37 3c 63 ff aa 3c b1 04 d0 3d c9 d2 99 3c
       0.01117677 0.020873731 0.10157145 0.018777268
000040 e2 9c 8b 3d b6 b2 a0 bd 9b c8 91 3c 85 8f ad 3d
       0.068170324 -0.078465864 0.017795851 0.0847464
000050 ef 8b 95 3d 68 05 00 3d 9b f9 81 3d 5f 0f c9 3d
       0.07302081 0.031255156 0.063464366 0.09817385
000060 64 b5 c5 bd 25 c3 23 bd f9 70 5c 3d a0 f8 5e bd
       -0.09653738 -0.039981026 0.053818677 -0.054436326
000070 ca a9 5b bd 23 3c bc 3c b0 9e ca bd 4b 1d a9 3d
       -0.05362872 0.022977894 -0.098935485 0.0825754

weight f4 [32, 32, 5, 5]
000000 1e 37 95 bc 39 ff 02 bd e8 e3 df 3b 42 ac 0f 3d
       -0.018214758 -0.03198168 0.0068325885 0.035076387
000010 54 73 dc bc 66 2c fd bc 24 0d 6c ba fb 44 b6 3c
       -0.026910461 -0.03090496 -0.00090046437 0.02224969
000020 43 1e 84 bc 10 67 b9 3c 22 d7 6b bc 8a 0f cf 3c
       -0.016127711 0.022632152 -0.014394553 0.025275964
000030 3c e0 0b bd 68 c8 5c 3c ea 17 f6 bc 03 0d 5a bc
       -0.034149393 0.013475515 -0.0300407 -0.013308766
000040 c3 a7 bd bc 6b 30 4f 3a 80 a5 96 3c 66 7b d1 bb
       -0.023151284 0.0007903638 0.018389463 -0.006392884
000050 76 45 ce 3c 96 fd 16 3c 65 e6 f8 bc e0 b0 4a bc
       0.025179606 0.009215733 -0.030383298 -0.012371272
000060 9d 00 ae ba 01 5d ef bc 45 e7 c0 bc 19 a9 92 3b
       -0.0013275329 -0.029219152 -0.023547778 0.0044757244
000070 5b 1a d4 bc 90 a7 0b 3d a4 c3 23 3b 2e ee 98 bc
       -0.025891474 0.034095347 0.0024988437 -0.01866826
000080 f2 95 f7 bc 33 d7 d4 3c 2b 86 a2 3c 1d 53 cc 3b
       -0.030222867 0.025981521 0.019839367 0.006235494
000090 d3 db 3d bc 30 72 08 bd 2f fb 8e 3c 0a 95 32 3c
       -0.011588055 -0.033312023 0.017453758 0.0108997915
0000a0 69 8f fd bc 89 45 1b bb 71 9f 6a bb 5a 31 21 bc
       -0.030952172 -0.002369257 -0.00358006 -0.0098384265
0000b0 82 cf bd 3c f1 58 fb bc fb 81 88 3c 11 98 55 ba
       0.023170236 -0.030682059 0.016663542 -0.0008147965
0000c0 33 61 37 bc 41 f1 88 bc 17 f5 92 bb 27 9b 0a bd
       -0.011192608 -0.016716601 -0.0044847834 -0.03383937
0000d0 75 d9 c0 3c 2a f9 22 bc 86 07 08 3d a5 dc f9 bc
       0.023541192 -0.009947101 0.0332103 -0.03050072
0000e0 43 ee 2b 3c 03 97 05 3d 45 58 b6 bc 5b bf f5 3c
       0.010493818 0.03261472 -0.022258887 0.029998472
0000f0 35 8a 9f bb b4 9c e7 3c 1b 71 ec 3c 2a 65 e7 3c
       -0.0048687705 0.028272964 0.028862527 0.028246481
000100 ea d8 f5 3c 41 64 ae 3a 7c c0 89 3c db 83 04 bd
       0.03001066 0.0013305024 0.016815417 -0.03235231
000110 63 88 9a bb b4 f0 02 bd 00 59 e0 3c de e6 ec b8
       -0.0047159656 -0.031967834 0.027386189 -0.00011296359
000120 29 da 85 bb 85 49 1f bc bb 3d ec 3c 9a e4 00 bd
       -0.0040848446 -0.009722118 0.02883803 -0.03146801
000130 53 78 86 bc e6 5b 90 3a b7 d2 03 bd e0 db fa 3c
       -0.016414797 0.0011013716 -0.032183375 0.030622423
000140 02 1f 77 3c f8 12 0a bc f6 53 9c 3b 70 37 df bc
       0.015083076 -0.008427374 0.004770751 -0.027248114
000150 a5 55 d0 3c 05 07 6b 3b 9a 02 ef bc a8 91 ed 3c
       0.025431463 0.0035862338 -0.029176045 0.029000118
000160 f4 5b a7 bc e4 ca 86 bc 7c 19 0b 3c 3f 11 1b bc
       -0.020429589 -0.016454168 0.008489963 -0.009464561
000170 aa ca 71 ba 2f a6 63 3c cb 7c 16 bc 52 e8 fb bc
       -0.00092236197 0.013894602 -0.009185026 -0.030750427
000180 f0 3d ec bc 29 e3 bb bc b9 72 f0 bb ac 1f e9 bc
       -0.028838128 -0.022935467 -0.0073378948 -0.028457485
000190 95 3a 72 bc 55 68 e5 bc 39 cb 68 3b 14 f9 37 bc
       -0.014784475 -0.028003851 0.003552152 -0.011228818
0001a0 d5 58 56 39 ca b4 58 3c 3f 0c a0 bb 95 87 a3 3c
       0.00020441723 0.013226697 -0.0048842723 0.019962111
0001b0 9b 5f 58 3c d4 7b f2 bc ad dc 76 bc 1d 73 c8 bc
       0.013206388 -0.029600061 -0.015067262 -0.024468953
0001c0 e7 a4 0e bd 1b 00 25 3c 3f 16 4e 3c bf b7 8b 3c
       -0.034825232 0.010070826 0.012578546 0.01705539
0001d0 9e 59 3e 3c d9 1d 04 bd f9 85 c1 3c 32 a5 89 3c
       0.011618046 -0.032255027 0.023623453 0.016802404
0001e0 1c 77 57 3c 8a 04 9c 3c e0 c1 dd 3b 44 da c1 3c
       0.0131509565 0.019045133 0.0067674965 0.023663647
0001f0 84 17 84 3b c3 a8 5b bc 62 86 e1 bc 8f 2e a6 3b
       0.0040311236 -0.013406935 -0.027529899 0.005071468
000200 25 62 83 3c 69 07 14 3c 1a 63 da bc 89 0c de 3c
       0.01603801 0.00903497 -0.026658583 0.027105587
000210 4f 29 23 bb 0b c1 b6 3c 65 ab 95 3c cd 7b f8 bc
       -0.0024896448 0.022308847 0.018270204 -0.03033247
000220 55 4d 36 3c ad db 01 bd 3a 38 d6 bc d7 65 1c 3b
       0.011126836 -0.03170364 -0.026149858 0.0023864412
000230 06 2c f1 bc 27 62 dd bc 04 54 1a bc da 4c dd 3c
       -0.029439937 -0.027024342 -0.009419445 0.027014185
000240 f9 ef 8e 3c e1 1f 8e 3c 39 09 a7 3c 22 a8 49 bc
       0.017448412 0.017349185 0.02039014 -0.012308152
000250 7c f8 a5 3b 18 8d 0b 3d db f9 31 bb b5 57 19 3c
       0.005065022 0.034070104 -0.0027156982 0.00935929
000260 0a cf 26 bc be 85 e6 bb 93 9b 35 3c e3 79 e7 3c
       -0.010181198 -0.0070349863 0.011084455 0.028256362
000270 ab 54 07 3b 83 91 f7 bb 00 72 dd bc ec 4a 4a bb
       0.0020649831 -0.007555188 -0.027031898 -0.003086741
000280 e9 8e d9 3c 89 c4 8c 3c c8 53 14 3c b3 0c 61 3c
       0.026557403 0.017183559 0.009053178 0.013735938
000290 2b 8a e2 bc 49 d6 d3 3c b1 68 df 3c 3d 0a df bc
       -0.027653774 0.025859015 0.0272716 -0.027226562
0002a0 9c f8 e2 3b 3b 39 b9 bc 05 bf b3 3b 82 ed 9a 3c
       0.006926609 -0.022610297 0.005485418 0.01891208
0002b0 21 79 46 3b ac ab a6 bc c3 b3 40 3c 54 ef ec 3c
       0.00302846 -0.020345531 0.0117616085 0.028922714
0002c0 18 81 a7 3c d7 a3 07 bc f4 86 86 bc 44 20 05 3d
       0.020447299 -0.008278809 -0.016421773 0.032501474
0002d0 44 6e e1 3c 3f f6 dd bb 58 67 83 3b 92 4f b3 3b
       0.027518399 -0.0067737396 0.0040101223 0.005472132
0002e0 42 22 ee 3c 94 c8 d5 3c 7c 79 f0 bc 62 6f e3 bb
       0.02906907 0.02609662 -0.029354803 -0.006940768
0002f0 55 96 fd 3c f4 87 99 3a 38 c9 92 bc 5a f5 fb bc
       0.030955473 0.0011713491 -0.017918214 -0.030756641
000300 3a 67 7c b9 4f 7d 10 3d 6f 20 aa bc 63 54 10 3c
       -0.00024071048 0.035275754 -0.020767419 0.008809182
000310 41 12 ca bc d2 c8 7e 3c de 74 9c 3c c6 b9 92 bc
       -0.024666907 0.015550809 0.019098695 -0.01791085
000320 d5 ae 81 3c cf 57 b8 bc aa bc d8 3c 46 3b 17 3c
       0.015830437 -0.022502808 0.02645715 0.0092304405
000330 50 f5 a2 3b 7a 9d cd 3c 87 af 80 ba 27 33 95 bb
       0.004973091 0.025099505 -0.0009817936 -0.004553217
000340 24 98 5c bc 47 83 bb 3b 54 b4 16 3b c6 75 ce 3c
       -0.0134640075 0.0057224366 0.0022995668 0.025202643
000350 40 0c a4 bb e5 0d 85 bc 5b 43 4c 3c ed 44 02 bc
       -0.005006343 -0.016241977 0.012467231 -0.0079510035
000360 96 d2 e2 3c eb 48 8c 3c 13 8a 20 39 c2 7c 5f bb
       0.027688306 0.017124614 0.00015310226 -0.003410146
000370 dc 61 eb bc c9 e3 e8 3c 0e ed 85 3c 36 e9 05 3d
       -0.028733186 0.028428929 0.016348388 0.03269311
000380 ba 98 27 3c e3 1d a5 3a 32 eb b4 bc 5e 94 24 3c
       0.010229284 0.0012597408 -0.022084806 0.010045139
000390 60 99 b9 bc df b2 df 3c 04 f7 0b bd d0 fc a1 bc
       -0.022656143 0.027306972 -0.03417112 -0.01977387
0003a0 61 40 16 bc 1f f3 d9 3c 62 9a ff 3c 99 72 22 bb
       -0.009170623 0.026605187 0.031201545 -0.0024787544
0003b0 45 86 8a 3c 03 06 e3 bc 8f 94 80 bc 89 e8 f1 bc
       0.016909728 -0.027712828 -0.015695838 -0.029529827
0003c0 bc 0d cc 3c 1c cf 7a bc 3e 50 ed 3b df 53 b8 3b
       0.024908893 -0.015308168 0.0072422316 0.0056252326
0003d0 d5 5c 1b bc 2a 98 f7 3c 42 23 f7 bc 2b 26 d0 bc
       -0.009482582 0.030223925 -0.03016818 -0.025408825
0003e0 d3 7e b6 bb e5 f5 5b bc 4c b7 03 bd 32 49 ca bc
       -0.005569318 -0.013425325 -0.032157227 -0.024693105
0003f0 68 c7 a5 bc 6e 23 aa 3c 26 da a6 3c 64 06 99 3c
       -0.020236686 0.020768847 0.020367693 0.018679805

bias f4 [32]
000000 5c 0d 0a bc f2 51 eb bc a0 95 fe bb e8 e4 c5 bc
       -0.008426037 -0.028725598 -0.0077693015 -0.024157003
000010 6d 13 01 3c ae 94 7d bc f8 bb 4f ba 2e ce 08 bc
       0.007878167 -0.0154773425 -0.0007924433 -0.008349938
000020 be d7 a2 3c 9a 8a b8 3c 00 ec 63 bb fc 8d fb bb
       0.019878265 0.022527028 -0.0034778118 -0.007676838
000030 88 61 c3 3c 2b e2 9d bc 07 76 07 bc 37 11 0f bc
       0.023850217 -0.019272884 -0.008267886 -0.008732132
000040 1f 30 ca 3c ad 8f fa bc 7b f3 b5 bc fd e7 5f bc
       0.024681149 -0.030586088 -0.022210827 -0.01366615
000050 b8 6a c6 3c 94 53 bd bc c7 db b9 3b c9 32 7e bc
       0.02422081 -0.023111142 0.0056719515 -0.015515038
000060 75 18 ac 3b 0e 12 a0 bc 00 66 71 bc 5d 91 01 3d
       0.005251939 -0.01953986 -0.014733791 0.03163277
000070 97 30 d1 3c 5c ee c6 bc 51 85 33 3c a8 63 b3 3c
       0.025535865 -0.02428358 0.010957078 0.021898106

weight f4 [64, 32, 5, 5]
000000 77 b8 17 bc 6c 14 61 3c e2 07 91 bc ba 10 e9 3b
       -0.009260288 0.013737779 -0.017703954 0.0071125897
000010 23 9a 5b 3c 9b 12 90 bc e6 eb c0 ba 29 5e 1c 3b
       0.013403448 -0.017586997 -0.0014718741 0.0023859835
000020 c8 c6 a5 ba 24 7b 9c ba 82 fc 2c bc 1e 43 8f 3c
       -0.0012647742 -0.0011938554 -0.010558249 0.017488059
000030 9a 17 8f bc 3e 8c 00 3d 78 81 0b 3d 80 7c 02 bd
       -0.017467309 0.031383745 0.034059018 -0.031857014
000040 1d 6f 54 3c 14 6c 6b bc 75 60 08 bd 6c 70 23 bb
       0.012965945 -0.01436903 -0.033295114 -0.0024938835
000050 02 0f 84 bb e5 fd 33 3c 04 6b 3b bc fb 76 87 3c
       -0.0040301094 0.010985826 -0.011439089 0.016536226
000060 6c 46 f3 bc 5d be 87 ba a9 02 7d bc b8 9a 02 3d
       -0.029696666 -0.0010356415 -0.015442529 0.031885833
000070 cc 9e fd 3b d4 85 05 3c 7a f8 b4 3b a9 6a 04 bd
       0.0077398773 0.008149583 0.005522785 -0.03232828
000080 61 47 86 3b 2a 18 3e 3c 32 42 e6 3b 97 90 c2 bc
       0.0040978645 0.011602441 0.007026934 -0.023750586
000090 3b 45 0a bd 6d 4c 95 bc 89 3f 2c 3c 8c 84 cc 3a
       -0.03375743 -0.01822492 0.010513195 0.0015603467
0000a0 06 6b 0b 3d 5e 7b 0d 3c f0 05 a8 bc 8c 38 28 bb
       0.034037612 0.00863537 -0.020510644 -0.002566847
0000b0 7c fe bb 3c a4 f6 c0 3c 97 3e a9 bc e3 3c 05 bd
       0.022948496 0.023555107 -0.020659728 -0.03252877
0000c0 f5 b7 0b 3d d4 a1 a1 3c ee d6 89 3c 34 f8 de 3c
       0.034110982 0.019730486 0.01682612 0.027217962
0000d0 28 b7 b1 bc 6b 9e 64 3b a5 07 f4 3c 6e 48 a3 bb
       -0.021693781 0.0034884464 0.029788801 -0.0049829995
0000e0 06 36 aa bc 93 22 4f bc 72 e5 9e bc c6 16 02 3d
       -0.020777714 -0.0126425205 -0.019396517 0.03176
0000f0 08 53 ad 3c 6c 7d 8e 3c a4 4b f3 bc 57 3d e1 bc
       0.021157756 0.01739379 -0.029699154 -0.02749507
000100 f9 42 c1 3c 4e ee d4 bc 27 fe 04 3c a3 08 f2 3c
       0.023591505 -0.025992539 0.008117235 0.029545134
000110 14 fe 90 bc 65 33 b3 3c 51 f1 94 bb 54 1c f2 3b
       -0.017699279 0.021875093 -0.0045453687 0.007388631
000120 92 78 8f 3c f9 1c ef 3a 26 18 0c bd 2c a5 a7 3c
       0.017513547 0.0018242887 -0.034202717 0.020464502
000130 f6 89 9c 3c fb 03 ce bc 6e fd d2 bc c2 23 a7 3c
       0.019108754 -0.025148382 -0.02575561 0.020402793
000140 32 74 5e 3b 65 4a e3 bc 78 6f 09 3c cb fb ff 3c
       0.003394377 -0.027745435 0.008388393 0.031247994
000150 df 66 fe bb a6 65 9a 3a d3 33 36 3c 79 ae 0c 3d
       -0.007763728 0.0011779561 0.011120754 0.034346078
000160 6b 74 8d ba bf 58 c4 3c 9f 93 92 3c a7 79 9d 3c
       -0.0010792142 0.023968099 0.017892657 0.019223047
000170 1c 55 0b bd 55 00 d8 bc 9f 1c 52 3c 0f c5 fc bc
       -0.034016714 -0.026367346 0.012824207 -0.030855684
000180 19 2d 91 3c 7b e3 e4 3c e3 4e b0 3b fb c9 4b bc
       0.0177217 0.027940502 0.005380498 -0.012438293
000190 c4 80 a0 3b 1b 3a 73 3b 71 38 f3 3c 91 01 87 3c
       0.0048981626 0.003711349 0.02969 0.01648024
0001a0 02 5b 9d 3a 94 f4 68 3c d5 22 98 3c 81 36 a8 3c
       0.0012005272 0.014218468 0.018571297 0.020533802
0001b0 a3 3e e1 3c 85 c6 e4 3c 96 0e 91 bc 3d 29 a7 bc
       0.027495688 0.027926693 -0.01770715 -0.020405406
0001c0 87 36 cc 3c de 58 4b bc df f2 1d 3c a1 6a 0b bd
       0.024928344 -0.012411324 0.0096404245 -0.034037236
0001d0 7b f7 01 3c f0 1d e0 bc ee 39 08 bd a3 42 54 bb
       0.007932539 -0.027358025 -0.03325837 -0.0032388351
0001e0 e9 eb 04 3c f5 b5 ad bc 62 93 f1 3c ed 4c bd 3b
       0.008112886 -0.021204928 0.029489223 0.0057769925
0001f0 da c7 90 3c a3 56 bb bc 07 4e d1 bc 90 ac 06 bd
       0.017673422 -0.02286846 -0.025549902 -0.032879412
000200 f7 10 de bc c0 e2 95 bc 0d 5b 1d bc bd b9 ea bc
       -0.027107699 -0.0182966 -0.009604228 -0.02865302
000210 9e 4a ee 3c 20 6a b7 3c dc 79 91 bb 34 70 a3 bc
       0.029088315 0.022389472 -0.0044395756 -0.019950964
000220 54 81 3d 3c 08 49 bf bc 8b e7 eb 3c d2 68 2b bb
       0.011566479 -0.023350254 0.028796932 -0.0026155007
000230 1e 01 7e bc 93 57 72 3c d5 be c7 bc 78 ee 0d 3d
       -0.015503196 0.014791387 -0.024382988 0.03465125
000240 cb 55 0f bd 5c d0 ec bc 03 8a 08 3d 13 36 cd 3c
       -0.034993928 -0.028907947 0.033334743 0.025050199
000250 72 55 9d bc 4d 29 3f bc 99 94 8c bc 8a 52 02 3d
       -0.019205783 -0.011667562 -0.0171607 0.031816997
000260 df 82 8e 3c 7a d6 9f 3c 84 b1 14 bc 35 9b d8 bb
       0.017396389 0.01951145 -0.009075526 -0.006610299
000270 96 a9 89 3c d3 0c 8a 3c cc 4c 8d 3c 13 d8 be 3c
       0.016804498 0.016851818 0.017248534 0.023296392
000280 67 2e 25 3c 9e a6 0d 3d e4 db d7 3c c2 3a 8d 3c
       0.010081864 0.034582727 0.02634997 0.017239932
000290 fd 85 f0 3c ce af e2 bb 49 a0 ea bb f9 7d 64 3c
       0.029360766 -0.00691793 -0.0071602208 0.01394605
0002a0 0d bd d2 3c 03 30 ca 3c ae 79 2a 3c 70 59 39 3c
       0.025724912 0.024681097 0.010404987 0.0113128275
0002b0 24 29 c9 bc 6c 03 03 3d 15 be ec bc 5f 87 ea ba
       -0.02455575 0.031985685 -0.028899232 -0.0017893127
0002c0 7e 47 fb ba 3f e4 d5 3b 3c 82 e1 bc 12 da bf 3b
       -0.0019171087 0.006527453 -0.02752792 0.0058548534
0002d0 7a 5a 0e 3d f6 dd a3 bc f8 13 c7 bc 86 8a 20 3a
       0.034754254 -0.0200033 -0.024301514 0.0006124157
0002e0 af 11 e6 bc c4 cc 26 3c f1 6d be 3c 94 9e 17 bc
       -0.028084604 0.010180656 0.023245784 -0.009254117
0002f0 d9 fc 5c bc 9b d7 9b bc 29 db 1f bc e0 4e c5 bc
       -0.013488018 -0.019023707 -0.009756842 -0.024085462
000300 c1 0a 0b bc 87 57 6d bb 09 ee 87 3c 70 15 0f bd
       -0.008486451 -0.00362155 0.016592996 -0.034932554
000310 3c e3 f7 bc 0e e8 04 3d f4 59 8d 39 34 46 8e ba
       -0.030259721 0.032447867 0.00026960636 -0.0010854662
000320 78 f3 0d bc 99 20 fa 3c ba 5e 0c bc e5 bf 00 3d
       -0.0086640045 0.030533122 -0.008567506 0.031433005
000330 dc a2 3b bc 9f bd 2f 3c 98 77 02 bd 82 f9 03 bd
       -0.011452403 0.010726362 -0.031852335 -0.03222037
000340 ce 7c e1 3c 58 3e b6 bc f3 3a da 3c 66 db 8f bc
       0.027525332 -0.022246525 0.026639437 -0.017560672
000350 ae 0a 04 3d 1d 6b a9 3c 24 68 c1 39 e3 19 94 bb
       0.032236747 0.020680958 0.0003688942 -0.0045196875
000360 c1 a0 8f 3c e2 4e 9c bc 46 a6 c4 bc 28 51 ba 3b
       0.017532708 -0.019080583 -0.024005067 0.005685944
000370 1b b2 b2 bc 73 3e d1 3c 37 9e 40 bc 4d 1f e5 bc
       -0.021813443 0.025542473 -0.011756471 -0.027969027
000380 af e4 d9 bb ac 06 4d bc ac 87 51 bc b8 35 cf 3c
       -0.0066495757 -0.012513798 -0.012788694 0.02529417
000390 d9 f7 ad 3c 9e 16 91 bc 89 f0 09 3d 14 9f bf bc
       0.021236347 -0.01771098 0.033676658 -0.023391284
0003a0 e5 31 2a bc 3f 78 01 bd b4 e2 0d bc aa 46 14 3c
       -0.010387872 -0.031608816 -0.008660007 0.009050051
0003b0 36 43 f3 bc e3 9b c1 3c 10 bb ce ba 41 72 04 3d
       -0.029695135 0.023633903 -0.0015772302 0.032335524
0003c0 59 9f fb bc ae 7a 71 bb f6 e6 4d bc b3 c0 17 bb
       -0.030715631 -0.0036846804 -0.012567272 -0.002315563
0003d0 b5 10 c9 3c 23 e6 24 3c dc 26 04 bd 97 58 99 bc
       0.0245441 0.0100646345 -0.03226362 -0.018719
0003e0 d5 7d 40 3c 6f ab ac bb 26 05 20 3c 72 0f bd bc
       0.011748751 -0.00526946 0.0097668525 -0.023078654
0003f0 39 44 e8 3c f1 a9 ae ba d2 8a 37 bc ba 01 02 36
       0.028352844 -0.0013325793 -0.011202531 1.9372515e-06

bias f4 [64]
000000 07 b8 e9 bc ff 77 dc bc 2d 08 e3 3b 9f a9 49 bc
       -0.028530134 -0.026912687 0.006928465 -0.012308507
000010 d9 5b 9b bc eb 30 cb 3c c7 7f 29 bb 4f ae f9 3c
       -0.018964695 0.0248036 -0.0025863515 0.030478625
000020 8e fb dd b9 39 ff 40 bc 69 71 94 bc 0a 84 5a 3c
       -0.00042339828 -0.0117796 -0.018120484 0.013337145
000030 93 fa f5 bb 5b 46 a4 bc 5e fb f4 bc fd 1f 0d 3d
       -0.0075066774 -0.02005308 -0.029905017 0.034454335
000040 eb 78 56 bc 46 bb 6f 3c 90 84 02 bd 15 50 ca bc
       -0.0130903525 0.014632052 -0.031864703 -0.02469639
000050 cd 8a da 3c b4 1c c3 bc a0 2c e8 3c e3 c3 4e 3c
       0.026677513 -0.023817398 0.028341591 0.012619945
000060 73 af ec 3c 2f b3 37 bb 13 f0 99 3c 8b dc 5c 3c
       0.028892254 -0.0028030386 0.018791234 0.013480316
000070 56 53 e3 bc 69 20 82 3c fa b1 02 3d c3 29 87 3c
       -0.027749699 0.015884595 0.031908013 0.016499406
000080 41 4f 03 bd 57 0d 4f 3c 47 66 98 bc d5 08 06 bb
       -0.032058004 0.012637458 -0.018603457 -0.0020452042
000090 39 fc 31 bc 49 39 af bc 0e 27 f0 bc 56 aa ff 3c
       -0.010863357 -0.02138962 -0.029315498 0.031209152
0000a0 bb 7a 0a 3d 6d cd bd bc 12 e5 13 3d 28 92 fe ba
       0.03380845 -0.023169244 0.03610713 -0.001942222
0000b0 3c 57 b2 bc d5 fc e2 3b da 44 0b 3d 5b 14 44 bc
       -0.021770112 0.0069271126 0.03400121 -0.011967744
0000c0 09 b0 b0 3c 63 77 b5 3c 42 97 93 bc d4 61 5f bc
       0.021568315 0.022151655 -0.018016461 -0.013634164
0000d0 82 fc 22 3c 48 5e 96 bb 0e df c4 3b 4c f0 de 3c
       0.009947898 -0.004588876 0.0060080355 0.027214192
0000e0 fa 81 f9 3c 43 e4 d1 bc ef ae fc 3b 8e cc 3c bc
       0.030457485 -0.025621539 0.0077112834 -0.011523379
0000f0 f3 7d 66 bc 27 52 e4 bb 1c 92 23 bc f2 f2 8d 3c
       -0.014068115 -0.006967801 -0.009983566 0.01732776

weight f4 [64, 1024]
000000 6f 0b 87 bc 8f ea a5 3b 96 25 6b bc 8d e6 94 bb
       -0.016484944 0.005063362 -0.014352223 -0.0045440854
000010 d2 24 7f bc 94 8e c6 b9 98 ca 93 bc e1 c9 c2 bc
       -0.0155727435 -0.00037871732 -0.01804094 -0.023777904
000020 8b de 07 bc c2 bd 1c 3c 57 94 dc bc 8e 5a f7 3c
       -0.0082928045 0.009566726 -0.026926203 0.030194547
000030 40 ef c5 bc 0f c7 39 3c 05 8f fd 3c 8d 76 41 ba
       -0.024161935 0.011338963 0.030951986 -0.0007380031
000040 2e 90 d1 3b d4 bc 95 bc 0e ba 2e 3c 8a 6d a8 bc
       0.0063953614 -0.018278517 0.010664476 -0.020560045
000050 61 c5 c9 bc bf 6b 79 3c c9 06 91 3c 31 11 7d 3c
       -0.02463025 0.015223443 0.01770343 0.015445993
000060 ae 56 3e 3c a4 e1 e0 bc 23 aa ed bb 50 61 6a 3c
       0.011617346 -0.027451344 -0.007252948 0.014305428
000070 ec 5e 92 bc 1a b4 ac 3c 35 62 88 3c 70 a8 42 3c
       -0.017867528 0.021081973 0.016648391 0.011880979
000080 a4 59 58 bc ac 09 c5 3c d3 5e d8 bc ec 37 36 3c
       -0.013204966 0.024052463 -0.026412403 0.011121731
000090 ba 66 18 3c 45 3f d0 bc 15 2b a0 3c bb 9f d7 3b
       0.009301836 -0.025420794 0.019551793 0.0065803207
0000a0 f5 fd 6a bc 8a 5f 83 bc 9c 06 68 bc 90 db 62 bc
       -0.014342775 -0.016036768 -0.014161732 -0.013846293
0000b0 da d8 a7 bc e7 fc f2 bc 9f 73 95 3c 21 d1 b6 3c
       -0.020489145 -0.029661609 0.018243609 0.022316517
0000c0 8b a7 68 3c fd ad a7 bc af 8b a8 3c 9d 9a fb bc
       0.014200102 -0.020468706 0.020574419 -0.030713374
0000d0 fc 8a a7 3c 1f 72 e5 3b fc 2f 13 bc f4 8d e6 3c
       0.020452015 0.0070021297 -0.008983608 0.02814386
0000e0 75 fc b2 3c f6 ed 9a 3c 3b b2 e4 bc 74 8c e2 bb
       0.021848897 0.018912297 -0.027917018 -0.006913716
0000f0 6e 1b 56 3c 1a ed 70 3c 8e 28 ee 3b 32 73 00 3d
       0.013068063 0.014704967 0.007268018 0.03135986
000100 bd 3f df 3c f6 ea dc 3b a4 b8 7d bb 92 0e ca 3c
       0.027252072 0.0067418767 -0.003871479 0.02466515
000110 a1 75 2c bc 85 7a c2 bc 88 ea 46 bc 5a ab 77 bc
       -0.010526092 -0.023740062 -0.012140878 -0.015116537
000120 61 96 18 3b d9 26 e6 bb 01 38 2f bc c5 30 1d 3c
       0.0023282992 -0.007023674 -0.010694505 0.009594147
000130 d8 f4 52 3c 74 24 cd bc 0c 12 d7 bc 2b e3 b7 bc
       0.012875758 -0.025041796 -0.026253723 -0.02244719
000140 ce 6d 32 bb 65 5a c6 bb a4 ce 09 3c d1 09 92 3c
       -0.0027226093 -0.0060532563 0.008411083 0.017826946
000150 45 b8 ce bc 7a 16 c2 3c 2c 7b cc 3c 58 4e 5e bc
       -0.025234351 0.023692358 0.024961077 -0.013568483
000160 08 2f ec 3c 73 7f 0e 3b c5 f2 a5 ba 73 9d de 3c
       0.02883102 0.0021743446 -0.0012660852 0.027174687
000170 65 90 a2 3b 87 bf e3 3c 89 94 01 bc b7 ae 07 bc
       0.004961061 0.027801288 -0.007908949 -0.008281401
000180 e5 11 c7 bc 54 d7 58 bb 00 1e e0 bc 92 8d 8e bc
       -0.024300525 -0.003308733 -0.027358055 -0.01740149
000190 4d d8 d5 bc b0 b0 ce 3c 97 fc 38 3c 1e c5 89 3b
       -0.026104117 0.025230736 0.011290691 0.0042044064
0001a0 ab c6 f1 bc c8 6a 9f 3c 32 e5 d7 3c aa 9e 04 3c
       -0.029513678 0.019460097 0.026354406 0.008094469
0001b0 00 56 f1 bc f3 15 ac bc d4 2b a6 bc f2 75 e6 3c
       -0.029459953 -0.02100656 -0.02028457 0.028132413
0001c0 94 60 03 bc 52 53 69 bc a7 5f 95 bc 29 19 18 3b
       -0.0080186315 -0.0142410565 -0.018234087 0.0023208356
0001d0 ca 17 91 3c ac 90 d2 3c dd 3e 9d bc 19 80 d5 3c
       0.017711539 0.02570375 -0.019195015 0.026062058
0001e0 5a 01 26 bc 3c 1a 80 bc c2 65 96 bc fb a0 c1 bc
       -0.010132158 -0.01563751 -0.018359069 -0.023636332
0001f0 cf 0a f6 3c 35 30 ba bc ce cf 03 3c 6b 22 d0 3c
       0.03003445 -0.022728065 0.00804515 0.025407037
000200 0b 1c 41 3b 88 0e d7 3c 63 e6 57 bc f6 67 61 3b
       0.0029466178 0.026252046 -0.013177487 0.003439424
000210 a8 62 84 bb 97 37 52 bc d2 ff c0 3c c1 06 7e bc
       -0.004040081 -0.012830636 0.023559485 -0.01550454
000220 7d a3 a7 3c 74 f2 e5 bc 31 a4 5f 3c 7d be 55 bc
       0.0204637 -0.028069712 0.013649986 -0.013045904
000230 c6 ff f3 3c 65 64 2e bc 7f 16 bd 3c 87 65 01 3c
       0.029785048 -0.010644053 0.023082016 0.007897741
000240 5d ee fc 3c 42 bf a0 3c cf d4 1f bc bd 93 5d bc
       0.03087538 0.019622449 -0.009755327 -0.013523993
000250 80 7d 02 3b 38 a7 a0 bc 1c 36 cf bb 35 11 f6 3c
       0.001991123 -0.019610986 -0.006323589 0.030037502
000260 89 29 13 3c d8 40 fa 3b 93 5b 98 bb d9 c2 9e bc
       0.008982071 0.0076371245 -0.0046495884 -0.01938002
000270 3d 56 d3 3c f9 d8 11 3b 8d 36 c7 bc ce 7d ab 3c
       0.025797958 0.002225457 -0.024318004 0.020934012
000280 b0 36 64 3c 83 26 c6 3c 61 30 db 3b cd df 05 bc
       0.013929054 0.024188286 0.006689117 -0.008171034
000290 fe 5f 38 bc b8 5f eb bc af c1 52 bc 4f db db 3c
       -0.011253355 -0.028732166 -0.012863561 0.026837973
0002a0 31 d9 a2 bb e1 22 47 3c 86 de 7f 3c d6 db 01 3c
       -0.004969739 0.012154312 0.015617019 0.007925948
0002b0 6d 7f b5 bc 91 da 6e 3b 7e 18 3e bc 76 10 57 3c
       -0.022155488 0.0036446194 -0.011602519 0.013126483
0002c0 8a e2 3a bc 2e 13 12 3c 41 75 c8 bc 31 73 3f 3c
       -0.01140655 0.008915706 -0.024469974 0.011685179
0002d0 76 f6 d7 3c 12 20 ba 3b da f6 be 3c 5b e3 88 3c
       0.026362639 0.0056800926 0.023311067 0.016709974
0002e0 20 84 c7 bc ff bb 9f 3c b1 12 ed 3c 6b 8d 85 3c
       -0.024354994 0.019498823 0.028939577 0.016302785
0002f0 dd d2 c2 bc d7 b2 f3 3b ed 75 b5 3c b0 f2 d9 3b
       -0.023782188 0.007437091 0.022150958 0.006651245
000300 6c 7b 8b bc 72 8e d5 3c 0a 00 e6 3c a2 ba 84 bb
       -0.017026626 0.0260689 0.02807619 -0.0040505687
000310 53 ca cf bc cf c9 70 bc b3 e6 7d bc 59 b3 81 bc
       -0.02536503 -0.014696552 -0.0154968975 -0.01583259
000320 a8 d4 8d bc 48 46 ad 3a bd e6 50 bc 3f df f6 bc
       -0.017313316 0.0013219798 -0.012750325 -0.030135749
000330 55 71 d8 3b 88 2a 82 3b e2 80 af bc 84 ae 3c bb
       0.006605307 0.0039723553 -0.02142376 -0.0028790543
000340 3e 30 63 3c e5 32 c2 bc 65 e5 c3 3a e0 9d 90 bb
       0.013866482 -0.023705909 0.0014945684 -0.0044133514
000350 5f 06 aa bc b2 3f a0 3c 52 7f 25 bc 3f 7b c6 3c
       -0.020754991 0.019561622 -0.010101156 0.02422869
000360 3c ad 99 bc 82 37 64 3c 52 f2 b6 3b dc f6 f2 bb
       -0.018759362 0.01392925 0.005583086 -0.007414682
000370 d5 3b 04 3b 78 31 77 bc 3b 28 83 bb 44 01 e0 3c
       0.0020177264 -0.015087478 -0.0040025986 0.027344353
000380 15 9f a0 bc 0c d4 40 bc a3 6d c4 bc 47 7a b5 bc
       -0.019607106 -0.011769306 -0.02397806 -0.022153033
000390 e1 92 dd 3c 9e 2d d8 3c 4d 25 5b bc 8b 0c bc bc
       0.027047576 0.02638894 -0.013375592 -0.0229552
0003a0 9d 7a ee 3c 2c ee 4d bc de 58 ef 3c 34 b4 db ba
       0.029111201 -0.012568992 0.02921718 -0.0016762079
0003b0 52 ec 9c 3c c8 1a 1c bc a3 24 2c 3c 9f 7b af 3c
       0.019155655 -0.0095278695 0.010506782 0.021421252
0003c0 76 05 ba bc b9 39 93 3c 87 b0 df 3c 58 fd e6 3b
       -0.022707682 0.01797186 0.027305854 0.007049244
0003d0 a8 86 d6 3b 84 92 af bc 8a 9c 4c bc 4d ae c3 3b
       0.006546814 -0.021432169 -0.012488494 0.005971706
0003e0 00 5c f5 bb f3 79 ee bc c0 16 d5 bc 8c 1c bb bb
       -0.007487774 -0.029110884 -0.026011825 -0.00571019
0003f0 c4 7e 08 bc ca a5 a2 3c c7 19 2a 3c d8 1d a3 bc
       -0.0083310045 0.019854445 0.010382122 -0.019911692

bias f4 [64]
000000 3a 37 ee bc 01 3f 91 bc 22 98 b7 3c 0b 61 43 bc
       -0.029079068 -0.017730238 0.02241141 -0.011924992
000010 a3 ab 0b 3c 36 c3 e4 3c d4 02 bc bc f6 1c 6f bc
       0.008524808 0.027925115 -0.022950567 -0.014594307
000020 29 fd a9 3a 19 e5 b4 3c 81 66 bd bb 9a 0f c0 bb
       0.0012969124 0.022081899 -0.0057800417 -0.005861235
000030 4f 24 f8 3c e5 aa f3 bc 3b 48 7a 3c a7 2a 3b 3b
       0.03029075 -0.029744575 0.01527601 0.0028559358
000040 14 bb 15 bb cf 91 1a 3c 37 39 cd 3c cb fb c1 bc
       -0.0022847103 0.009434178 0.025051696 -0.023679635
000050 3e 23 d5 bc 4b 1b db 3c 17 b4 ca 3c 5b c4 d5 ba
       -0.026017781 0.026746413 0.024744077 -0.0016309129
000060 d8 dd 79 3c b2 7a b9 ba 3a 31 2c 3a 76 b3 2c bb
       0.015250646 -0.0014150946 0.00065686146 -0.0026352084
000070 7b a9 26 bc 44 82 f4 36 38 0d 18 3a 25 13 80 3c
       -0.010172243 7.2869316e-06 0.00058003096 0.015634129
000080 38 d3 f8 3c 8e d4 a7 bc 90 42 d3 bb 3f 8c e2 bc
       0.030374154 -0.020487096 -0.006447144 -0.027654765
000090 e7 be 8b bb 6a 1d e8 bc 0a 33 fc 3c 55 64 d0 3c
       -0.0042647007 -0.028334338 0.030786056 0.025438467
0000a0 c2 52 6f 3c 83 cb 94 bc 7c 33 8c bc 5e 6b 94 3c
       0.014607133 -0.018163448 -0.017114393 0.018117603
0000b0 dd 26 b3 ba fb 5c 9a 3c ab 5c f1 3c d7 37 87 bc
       -0.0013668198 0.018843165 0.029463133 -0.016506119
0000c0 c0 84 81 3b 9f 0a 80 3c 9f e6 da bc 89 da b8 3c
       0.0039525926 0.015630065 -0.026721297 0.022565143
0000d0 0b 04 70 bb b8 13 ad bc 50 21 d5 bb 5e c9 8f bc
       -0.0036623504 -0.021127567 -0.0065042153 -0.017552074
0000e0 38 f6 38 3b f6 40 46 bc c9 cd 87 bc c7 c3 c5 bc
       0.002822293 -0.012100449 -0.016577618 -0.024141205
0000f0 a2 58 f1 3c 69 45 c9 bc 83 15 a1 bc f2 1e 3a 3c
       0.029461209 -0.02456923 -0.019663578 0.011359917

weight f4 [10, 64]
000000 e9 dd 97 3c 9d 90 da bd db 50 96 3d e0 5a 84 bd
       0.018538432 -0.10672114 0.07339641 -0.064626455
000010 ac b4 06 bd 2f 25 39 bd ae a2 80 bd 9e bf ff 3c
       -0.032887146 -0.045201477 -0.06281029 0.0312193
000020 3c 29 cc 3b 14 98 f3 3d 4d 10 67 39 23 17 f7 bd
       0.0062305015 0.11894241 0.00022035949 -0.1206496
000030 bc e6 63 3d 0b 18 be 3c ee e4 3c bd 1c 16 86 3d
       0.055639967 0.023204824 -0.046116762 0.06547186
000040 d3 9e 00 bd 9a c4 28 3d da b0 c9 3d ca 03 b6 3d
       -0.031401467 0.04120312 0.09848185 0.088874415
000050 fa 68 cb 3c 33 93 90 bd ec b4 df 3d e0 10 6a 3d
       0.02483033 -0.07059326 0.1092318 0.057145
000060 5d 2b 2c bd 77 e5 9c bd 1f 0b 74 bd 40 eb c4 bc
       -0.042033542 -0.076609544 -0.05958092 -0.024037957
000070 87 97 91 3c 8e b1 ff 3c 0a c0 0b bd bf 3e aa 3d
       0.01777245 0.031212594 -0.03411869 0.08312749
000080 3e 3a 8d bb 43 c0 ab 3d 78 51 1f 3d 0c 25 92 3d
       -0.0043099215 0.083862804 0.038896054 0.071359724
000090 c2 9b ed 3d 16 20 36 bd 84 8a a6 3d ab 08 c1 bd
       0.11601974 -0.044464193 0.081318885 -0.094254814
0000a0 32 c5 2c bd be fa 9c bc e9 a0 9c 3d ea 22 f7 3c
       -0.042180248 -0.019162532 0.07647879 0.030168016
0000b0 57 49 f0 bd e0 a0 21 bd da d8 6e 3c e3 49 b3 bd
       -0.117327385 -0.039460063 0.014578069 -0.08754327
0000c0 5a 41 46 bd 7e e7 89 bd 94 f5 85 3c 47 69 c7 3d
       -0.048402168 -0.06733607 0.016352452 0.09736877
0000d0 02 df 8e bd fd cd e4 ba 9c 77 92 3a 0c 03 9e bd
       -0.06976129 -0.0017456409 0.0011174562 -0.07715425
0000e0 82 9c 89 bd 60 ce f7 bd f9 a9 d6 bd 62 98 af 3d
       -0.067193046 -0.1209991 -0.104816385 0.085739866
0000f0 82 f5 b9 bd d4 ec 81 3d 27 25 6c 3d 09 71 e6 3d
       -0.0908003 0.063439995 0.05765262 0.112520285
000100 a6 14 3c bd 2a bb 98 3d 41 67 b9 bd 77 4c d8 bd
       -0.04591813 0.07457574 -0.09052897 -0.105614595
000110 9c 80 ab bd b7 75 ba 3d 62 99 81 bd 56 8c e7 bd
       -0.0837414 0.091044836 -0.063280836 -0.11306064
000120 b9 de 40 bd 41 5c 5e 3b 12 bb 98 3d f8 b2 dd 3d
       -0.047087405 0.00339295 0.07457556 0.10825151
000130 0b 45 2b bc a8 b0 c5 39 c4 22 dd bd 43 1e 4b bd
       -0.010453473 0.00037706387 -0.10797647 -0.049589407
000140 ba 33 68 bd 45 e6 56 bd 31 c3 69 3d 0c 1f ed bc
       -0.056689955 -0.052465696 0.057070915 -0.028945468
000150 5f ed 17 3d d2 4f 92 bd dc 93 bc bd 18 2b d8 3c
       0.03709161 -0.07144131 -0.092078894 0.026387736
000160 cc 63 a9 3d b0 0b 40 bd 39 4e 17 3d 60 d2 65 bd
       0.08270988 -0.046886146 0.036939833 -0.056108832
000170 d4 b4 f2 3d 9f b0 79 bd d8 a0 9f 3d 22 75 a2 3d
       0.118508965 -0.060959455 0.077943504 0.079324976
000180 fb 24 cc ba 54 05 21 3d 90 9c fe 3d 8d 73 13 bd
       -0.0015574986 0.039311722 0.12432206 -0.03599887
000190 69 c2 4f bd f7 e6 e7 3c 78 ed e5 3d e0 c8 e9 bd
       -0.050722513 0.028308375 0.11226934 -0.11415267
0001a0 fa 49 a2 3d ce 7b 70 bb 83 23 10 bd 22 75 41 3d
       0.07924266 -0.0036694887 -0.035190117 0.047230847
0001b0 1e 87 b9 bd 44 1a fa bd 92 f4 a7 bd 55 ca 4a 3d
       -0.09058975 -0.12212041 -0.08200945 0.049509365
0001c0 85 25 2e 3c a4 d6 46 3d e8 c0 e6 bd 1b d8 fb 3d
       0.010629063 0.04854454 -0.11267263 0.12297078
0001d0 5a 43 bd bd 64 52 32 bd cb fc cf bd e5 06 21 3d
       -0.09241362 -0.043535605 -0.10155638 0.039313216
0001e0 34 f3 39 3d d4 4e 1a 3d e7 48 38 bb ac 8a 0c bd
       0.045397952 0.037672833 -0.0028119625 -0.034311935
0001f0 14 c8 9d 3d ca 3b c3 3d b4 21 db 3d 8f bc 6d bd
       0.077041775 0.09532888 0.10699788 -0.05804115
000200 6f d0 b3 3d 92 12 59 3d a5 39 c9 3d 11 dd 0c 3d
       0.0877999 0.052996226 0.09825448 0.034390513
000210 2b 2c a3 bd a9 57 9b bd b0 aa 8a bc 98 dc b6 bd
       -0.07967409 -0.07585079 -0.016927093 -0.08928794
000220 14 14 65 bd c1 10 e3 3d bc 04 ee bd dc 3e 7c 3d
       -0.05592735 0.1108718 -0.11621997 0.061583385
000230 b3 1d ce 3d bb db b0 bd de a5 e1 bd 03 f0 59 3d
       0.100642584 -0.0863566 -0.11017965 0.05320741
000240 b3 9c ac 3c 46 39 6d bc 2f 67 f6 bd b4 14 0e bd
       0.021070814 -0.014478987 -0.120313995 -0.034687713
000250 8b 9c b3 3d 0c a2 b1 bd 78 d1 a5 3c e7 e4 b4 3b
       0.087700926 -0.08673486 0.020241484 0.0055204513
000260 b7 b8 de bd 39 85 9c bd 87 0a e9 3d fb ce 83 3d
       -0.10875075 -0.07642598 0.11378961 0.06435963
000270 dd 40 d3 bd 1b 56 b9 bd 42 59 f4 bd 0b 35 be bd
       -0.10315106 -0.090496264 -0.11931087 -0.09287461
000280 ad ea fb 3c d3 e2 51 3d 59 03 f2 bc 8d 2b 26 3d
       0.03075155 0.051241707 -0.029542612 0.040568877
000290 2e 29 82 3d 57 24 f8 bd d9 12 de 3d be f9 97 3c
       0.06355511 -0.12116306 0.10843439 0.018551704
0002a0 0b f1 29 bd 5b 9b ed bd ef ce 24 bb c4 89 37 3d
       -0.041489642 -0.11601897 -0.0025147756 0.044809118
0002b0 bc 27 b3 3c 30 67 ba 3d 62 be fd bd 90 8d c5 bd
       0.021869533 0.09101713 -0.12389828 -0.096461415
0002c0 3f 6a 07 bd 0c e4 62 bd 98 7d f7 3b 3c 5f e6 3d
       -0.03306031 -0.055393264 0.0075528137 0.11248633
0002d0 37 aa 28 3d 5d 2b da 3b 52 7e bf bd 4a 12 52 3d
       0.041177955 0.0066580013 -0.093502656 0.051286973
0002e0 6b 2f 17 3c 20 ca 4d 3d 1e 86 e3 3d cb a7 fd 3d
       0.009227614 0.05024159 0.11109565 0.123855196
0002f0 11 a2 fc 3c 50 88 53 3d 28 90 d7 3b 15 49 d5 3d
       0.030838998 0.05164367 0.006578464 0.1041433
000300 96 4c 71 3d 5b d0 8e 3d fe db b8 bd 8f de db bd
       0.05891093 0.069733344 -0.09026335 -0.10735809
000310 c4 f0 ab bd 09 c1 8c 3d f4 b1 c7 3d ef 67 4f 3d
       -0.08395532 0.06872756 0.09750739 0.05063623
000320 10 e0 e5 bd bf 5c 11 3d c3 cc 8d 3d 6d be b6 3c
       -0.11224377 0.03548884 0.06923821 0.022307599
000330 d7 51 0c bc 7e 53 e7 bd 10 df 79 3d 37 42 8e 3d
       -0.008564434 -0.11295222 0.061003745 0.06946223
000340 ce 4f ff 3d d5 2e 96 3c dd 94 1f 3d bd 26 ce 3d
       0.124663934 0.018332878 0.038960326 0.100659825
000350 3a 3c 54 bd 32 ce c1 3d a1 0f b0 3d 0e a5 ad 3c
       -0.05181525 0.09463157 0.08596731 0.021196868
000360 9e a1 ca bd 7f c0 5f 3b 87 74 d5 3d 20 15 a1 bd
       -0.09894107 0.0034141836 0.104226165 -0.078653574
000370 3e 92 0d bd 82 b6 c4 3d 7b 47 c5 bd 07 e1 c4 3d
       -0.034563296 0.09605123 -0.096327744 0.09613233
000380 e6 45 e0 bd 7e d8 f1 3d 57 ba a4 bd 5d f5 14 bd
       -0.10950832 0.11808871 -0.08043354 -0.03636681
000390 f2 f0 31 bd 77 51 cf bc e1 dc 92 3d e9 7d bd bb
       -0.043442674 -0.0253074 0.071710356 -0.005782832
0003a0 72 a0 bc bc e8 03 9f 3d 83 d5 df 3d 5f 9d af 3b
       -0.023025725 0.07764417 0.10929396 0.0053593363
0003b0 b4 1d fc 3d 22 b9 03 3d 2a df 68 bc 36 9b ec bd
       0.12310353 0.03215898 -0.014213363 -0.11553042
0003c0 46 44 7a 3d e3 c4 22 bc 17 a1 a0 3d ce c7 fd 3d
       0.061100267 -0.009934637 0.078432254 0.12391625
0003d0 d4 c0 c6 bd 89 75 a7 bb 51 41 3e 3c 29 71 83 bd
       -0.09704748 -0.005110447 0.011612252 -0.06418068
0003e0 45 d2 e4 3b 76 5e 4c 3b e2 84 1a bd af f0 56 bd
       0.006983074 0.0031184233 -0.037724383 -0.052475628
0003f0 ae 24 93 bc b6 d0 92 bd 5d 6e 88 3b a5 9c d2 3d
       -0.017961826 -0.07168715 0.004163547 0.10283784

bias f4 [10]
000000 be b3 3b bd 2e 76 e2 bd 42 43 58 bd 79 78 8e 3d
       -0.045825712 -0.11057697 -0.052798517 0.06956572
000010 88 67 11 bd f0 b8 75 3d 5e 23 d2 bd 5b 05 cb bd
       -0.035499126 0.059990823 -0.10260652 -0.09913131
000020 c7 99 5d 3d 7d 28 df bd
       0.05410173 -0.108963944
