PytorchLearning/learn1/vggmodel/vgg_13.pth (torch, 587335 bytes, 10 tensors)

weight f4 [32, 3, 5, 5]
00000000: a3cd df3d ea82 dcbd 78e8 7bbd ea24 1bbd
00000010: 259d b6bd 11c4 c1bb 54b5 d63c e435 cbbc
00000020: 1450 8dbd 9d9a bd3d 59b3 f23d 9eeb ea3a
00000030: 5c58 ffbb bc63 8d3d f067 2fbd 3734 bcbd
00000040: aa5f a23d 0afc b6bd 1362 ec3d 2385 d63d
00000050: c961 78bd b3a8 7a3d 1661 6f3d 0e08 f33d
00000060: d207 56bd 07cc 54bd 2c2b 28bd 2f86 be3d
00000070: 8c23 023d 3402 e6bd 90ba 763d 6315 39bc
00000080: 6134 cdbd 094f 9fbd 1844 a83d ff73 afbc
00000090: e0dd adbd 852d 423d 9d1d a5bd 5d9f a13d
000000a0: afc7 283d 15d1 c03d 46f1 a13d 66e2 b23d
000000b0: d3c8 01bd de25 dbbc fa1b 723d 0743 ea3d
000000c0: 7fe6 81bd 6373 12bd 0ab5 91bb 9d93 c83c
000000d0: 340a aabd 21c8 2bbd 361c 2abd 4559 a43c
000000e0: b259 ce3d b0d7 89bb 4481 d63d 4d2f 823d
000000f0: 63f2 d5bc ac55 9e3d 502c 80bd 82d2 d2bd
00000100: 6bc2 073d c69d f93d c5e1 b33d 7f54 d2bc
00000110: 8fc1 603c 22ed fa3d 5fca a43b 2f3d 013e
00000120: 8956 2f3d 8613 1b3d e6b1 453d add6 3ebd
00000130: 0406 ee3d 8bab 193d 5ff1 f2bc 20ee 423d
00000140: 3f77 893d 44cc 63bd a4a4 7fbd ebd9 a23d
00000150: 16c4 b4bd a194 843c db91 a8bb 59b2 a5bd
00000160: 315b a8bd c8cd cbba a2f9 c83c 8b23 f33d
00000170: 749e 453d 7137 e0bd 7982 9abb 8c35 a0bc
00000180: 4c5e 9e3d e29e bfbd 469a 8a3d ff9c 83bd
00000190: 4cf4 10bd eab0 93bd 532e 873d 19c1 fdbd
000001a0: 74f4 3c3c c28b 89bd 22d1 46bb 2e1c a13d
000001b0: e3cd 07be b9bd a8bd a0b5 473d c17a 2dbd
000001c0: f41e b9bd f45b c8bc 679f c6bd db45 a73d
000001d0: 97bb de3d f32b bdbc ea50 d939 6872 be3c
000001e0: 37e9 dbbd b5cd a53d 9483 843d 475f abbd
000001f0: b0d1 0b3d 066d 04be 0bbe e3bd af66 d0bd
00000200: d402 ef3c 8576 cf3c 2faf cebd 3b15 a8bc
00000210: 5488 813d 9125 d0bd 189b f6bd 4d71 c63d
00000220: 0e67 e63c 34e1 44bd 0868 963d af57 eabd
00000230: aac2 76bb 0c33 b43d dde1 09bc 364d 9bbd
00000240: 6b51 c3bc a5c4 7ebd 6d20 723a f2b2 ba3d
00000250: a49c d4bc ee7d a63d a443 68bd 7937 d5bd
00000260: aa6f b03d 7434 3ebd d204 0abc 5ec3 d2bd
00000270: 2d8b f3bd 923b b1bd 8231 e2bd a848 a5bd
00000280: d345 80bd 2c65 c73d a770 50bb 8142 7f3b
00000290: 7be4 133d 01b9 1b3d 8c4f f43b eddc d93c
000002a0: 98aa 95bd 437d b7bd ef18 c33d 6fe9 e23c
000002b0: 6581 46bd 4ddf b73d 9aa6 cb3d 6eb8 3dbd
000002c0: 192c 563c 2cc1 c43d 010a 69bd 3893 463c
000002d0: 503a 5e3d 9ea6 bf3d 3e06 953d f322 4cbd
000002e0: 397a 33bd f95a f0bd 4250 88bd ecf7 d4bd
000002f0: 5361 5d3d 1bac 323c a0b4 933d b38d b5bd
00000300: d934 463d 5ed2 77bd b896 c93d 0b0c 56bd
00000310: a3f8 993d 9545 2dbd bd68 9e3d 23ee c33d
00000320: da0d c83d 23d0 24bd 30e3 27bc 075a c03b
00000330: 8db7 f53d bee2 d53d a115 3bbd abf7 cd3d
00000340: c0ba a7bd 318d b43c 265c ae3b d140 7d3d
00000350: 42d2 76bd 35d6 1f3d cb7e 453d 2f2d c23d
00000360: 8843 e93d 6b5e 9d3d f0a9 a03d ea16 a53c
00000370: 3054 163d b997 e83d c167 dd3c be45 bf3d
00000380: 6368 fdbb 3142 bcbd d19f a83d 302f c13c
00000390: 728a dabd aa6f 313d f9fe 9dbd 1bc4 edbc
000003a0: d66d 31bd 23b4 de3c 5528 abbd 3027 a6bd
000003b0: 7161 b73c 800b 84bd 45b3 00bd cd4e e1bd
000003c0: 3762 a1bd f704 3b3d c910 c63d 797a ad3d
000003d0: 0296 e83d f569 eabc 89d9 4c3d 4dd2 b63d
000003e0: 6c93 223d 1adf 963d 17b2 4e3d 146c 013d
000003f0: 9f72 bcbd 6195 d73d df8c d33d 87c8 e23d
0.10927894 -0.107671574 -0.061500996 -0.037877 -0.08916692 -0.0059132655 0.02620951 -0.02480597
-0.06900039 0.09258006 0.11850614 0.0017923003 -0.0077925157 0.069037884 -0.042823732 -0.09189647
0.07928403 -0.089347914 0.11542144 0.104746126 -0.06064013 0.06119604 0.058442198 0.11866771
-0.05225355 -0.05195239 -0.041056797 0.09302937 0.03177218 -0.11230889 0.060236514 -0.011296603
-0.10019756 -0.07778747 0.08216113 -0.021417616 -0.08489585 0.047406692 -0.08062289 0.07891724
0.041206058 0.09414879 0.079073474 0.08734588 -0.03168566 -0.026751455 0.05910871 0.11438566
-0.06342792 -0.035754573 -0.0044466304 0.02448445 -0.08302727 -0.041938905 -0.04153081 0.020062098
0.10075702 -0.00420662 0.10473874 0.06356678 -0.026116556 0.07731184 -0.06258452 -0.102940574
0.033144396 0.12188296 0.087832965 -0.025675057 0.013718023 0.12252261 0.0050290073 0.12620996
0.042807136 0.037860416 0.04826536 -0.04659145 0.11622241 0.03751711 -0.02965611 0.047590375
0.067121975 -0.055614725 -0.062412873 0.07951721 -0.08826463 0.016184153 -0.0051443405 -0.08090658
-0.082205184 -0.0015548998 0.024533097 0.11872014 0.048246816 -0.109480746 -0.0047152606 -0.019556783
0.077328295 -0.09356476 0.067677066 -0.06426429 -0.03538923 -0.07211478 0.066006325 -0.12390346
0.011532892 -0.0671611 -0.0030337055 0.07866703 -0.13262133 -0.08239312 0.048757195 -0.042353395
-0.09039107 -0.02445791 -0.09698372 0.08167621 0.10875624 -0.023092246 0.0004144975 0.023247913
-0.107378416 0.08095876 0.06470409 -0.08367782 0.03413552 -0.12932214 -0.11120232 -0.10175835
0.029176153 0.02532507 -0.10092007 -0.020517936 0.06324831 -0.10163415 -0.120413005 0.09689579
0.028125312 -0.048066333 0.07344061 -0.114425056 -0.003765265 0.08798799 -0.008415666 -0.07583086
-0.023842534 -0.062199254 0.0009236399 0.09116162 -0.025953598 0.08129488 -0.056705132 -0.10410971
0.08615048 -0.046436742 -0.008424001 -0.102911696 -0.1189178 -0.0865394 -0.11044599 -0.08070499
-0.06263318 0.09736094 -0.0031805427 0.0038949552 0.036106568 0.03801823 0.007455772 0.026594603
-0.07307929 -0.08959439 0.0952624 0.0276992 -0.048463244 0.08978138 0.09943886 -0.046318464
0.013072037 0.09607157 -0.056894306 0.012120061 0.05425483 0.093579516 0.07276581 -0.049838018
-0.043817732 -0.11736102 -0.06655933 -0.1039885 0.054047894 0.010905291 0.07212186 -0.088649176
0.048390243 -0.060503356 0.098432004 -0.05225758 0.07518127 -0.042302687 0.07734821 0.09566905
0.09768267 -0.040237557 -0.010247037 0.005870107 0.119979 0.10443638 -0.045674924 0.100570045
-0.081899166 0.022039982 0.0053210435 0.061829392 -0.06025911 0.039022643 0.048216622 0.09481274
0.11389834 0.076840244 0.07844913 0.020152528 0.03670138 0.11357064 0.027027013 0.09339474
-0.007733391 -0.091923125 0.082336076 0.023582071 -0.106709376 0.04331938 -0.07714648 -0.029024174
-0.04331764 0.027185505 -0.08357302 -0.08112943 0.02238533 -0.06447506 -0.031420965 -0.11001358
-0.07880061 0.04565903 0.0967117 0.084706254 0.11356737 -0.028614977 0.050012145 0.089268304
0.039691374 0.07366772 0.05046281 0.031597212 -0.0920155 0.10526539 0.103296034 0.11073404

bias f4 [32]
00000000: a8dd 763d 8382 fc3c 4f20 49bc 054a c3bc
00000010: 3bc1 9d3d b71c a03d 0cf5 4fbd 434a b33d
00000020: c9d5 d1bd 4cde ce3d 4e1c ba3d 8a90 a0bd
00000030: 1510 42bd 28ff 4abb 138e ce3d 23ac 9c3c
00000040: 0cbc 253d 99f6 93bd 2830 c03c b61c c73d
00000050: acfb 833d 9027 48bc a8cf 923d 84d1 e73d
00000060: 2857 94bd ca13 91bd a974 493d 1447 e3bd
00000070: 0fb6 89bd d26b 2bbc dab8 17be dc4a b23d
0.06026998 0.030823952 -0.012275769 -0.023839006 0.077028714 0.07817977 -0.050770804 0.08754399
-0.102458544 0.101009935 0.0908743 -0.07840069 -0.04737862 -0.003097484 0.10085692 0.01912505
0.04046254 -0.07224769 0.023460463 0.09722273 0.06444487 -0.012216464 0.071685135 0.11319259
-0.07243186 -0.070838526 0.04918352 -0.110975415 -0.06724178 -0.010462718 -0.14816609 0.087056845

weight f4 [32, 32, 5, 5]
00000000: e822 a4bc 1cc1 07bd ca3f 923b 57c4 073d
00000010: ab1c e7bc f85f 0cbd dd39 84bb 1727 953c
00000020: 66b0 9bbc 0d25 a93c 6264 96bc fa1d af3c
00000030: 5fa9 1abd f5e9 273c 010c 00bd 63b7 87bc
00000040: 7014 d4bc 9d15 e5ba 6ce7 7e3c 33ee e7bb
00000050: 00f9 c23c 0fa5 033c b6b1 03bd 9c75 67bc
00000060: a7bc 01bb 501f 02bd 55e9 d9bc 92e2 3d3a
00000070: 117f f6bc c85e f03c f0f1 5c3a f169 a7bc
00000080: b1b1 06bd 9a18 b53c 5e2b 863c d029 c83b
00000090: 36cf 3bbc ce5b 0ebd 0128 6b3c f11e 0f3c
000000a0: e481 fcbc 5dc7 0fbb 6104 a1bb e9d1 4abc
000000b0: a045 a53c bcff f3bc b798 8a3c dc5d c9ba
000000c0: d56d 5abc cc6e a2bc 6c80 7cbb 63a2 06bd
000000d0: 68dc c63c e19a 16bc 6f55 0c3d d2da f9bc
000000e0: 9082 2a3c b18c 053d 1313 b7bc 1e58 fd3c
000000f0: 6ac7 92bb 1cae ec3c 92a7 f23c f981 ed3c
00000100: e674 043d ab4a 2b3b 3574 973c 1e9e fdbc
00000110: 9e08 4dbb b0d2 f0bc 0227 fa3c f5ef 4c3b
00000120: a9e8 b2ba f929 ebbb c3ad 023d 9f29 0bbd
00000130: e4df 98bc 6db2 dbba 7ba5 0bbd 26dc f03c
00000140: 676a 373c 0697 45bc 70c0 0f3a c0d7 f4bc
00000150: b25e c33c 66bc 31ba d709 06bd 015d cb3c
00000160: d760 b9bc f322 8dbc dd11 a33b ab08 48bc
00000170: e0f7 8ebb 4c16 3e3c 83ff 1cbc 21ab 04bd
00000180: 61dd f7bc 655f cdbc a480 0ebc e090 e8bc
00000190: 1ba4 9dbc c341 03bd a8dc 16ba e69b 79bc
000001a0: 64f0 33bb fdb0 093c 89dd 18bc a2ec 773c
000001b0: 391a 0a3c 897a 06bd 3123 adbc 4ada fabc
000001c0: 1f20 26bd 090f 8c3b 5729 063c d8f3 3d3c
000001d0: f167 b03b e4cc 18bd e0a4 983c 7255 4f3c
000001e0: 10d6 003c a180 5f3c d5d3 0b3b 351b 9f3c
000001f0: 4558 113a fca7 99bc c74b 07bd 8af1 05ba
00000200: f57d 343c 242f 983b 8a15 03bd 322a ac3c
00000210: 1020 02bc 762f 903c b813 633c 01c8 11bd
00000220: 28ad a03b d5d8 15bd a9b7 fabc e8eb 00bb
00000230: cc77 0cbd 7a9a 05bd 317c 62bc 9567 bc3c
00000240: dc63 573c e2a9 583c 35e2 813c 5e38 85bc
00000250: ae2c d43a a38d f53c 32fe c4ba 57f3 273c
00000260: 22c8 1dbc dec3 ddbb ac24 303c 3766 fc3c
00000270: 1ef2 8a3b 4698 b9bb 65b5 cfbc 8eae 44bb
00000280: 7cb4 f03c 75ef 9e3c 281c 3d3c 2d7f 793c
00000290: 96a3 e4bc 02f6 e43c 68fc ec3c a788 d2bc
000002a0: 64d2 fa3b cb3d bfbc e0e7 c23b 1b30 9d3c
000002b0: 5b3c 403b 0d61 a9bc 3146 2a3c 958a cd3c
000002c0: 26cd 853c 4e72 4cbc 2c70 a4bc cfd5 ec3c
000002d0: 7b67 b83c edbb 45bc cab0 59ba 6ae7 d53a
000002e0: 092c d03c 0853 a73c 8f39 0fbd 4f4c 44bc
000002f0: 0cbd dc3c fb0c 1ebb f331 bcbc 79c2 10bd
00000300: bfed 92bb d959 023d ba42 c3bc c283 a43b
00000310: 58f6 e7bc c968 483c 9375 823c 256d abbc
00000320: 2bdf b13c 4611 8bbc c016 003d 2233 563c
00000330: 0ed6 003c 3c81 053d 03bb bb3b 066a f33a
00000340: 04a2 05bc fdf8 1c3c 8dab 433c cb3b 0a3d
00000350: 6110 6b3b f499 12bc 9152 913c c486 a93a
00000360: 70f8 123d 4ffa d13c 8d82 df3b f8aa a93a
00000370: 3d68 a4bc b47c 153d 85ea c83c b411 203d
00000380: e10f 6f3c 8c5d cfbb ad9d efbc 9cff 5b3b
00000390: a256 eebc c9da ae3c 4882 32bd c315 eabc
000003a0: 3f21 8dbc 743a 933c a888 c73c b2c3 67bc
000003b0: 0cc0 cc3b 5fd5 1cbd b5c1 d6bc 8dc3 18bd
000003c0: 686b 573c c01a d2bc b962 7dbb 4a03 98bb
000003d0: 301b 8cbc 70db 9d3c 19ba 24bd 2131 13bd
000003e0: 0067 7ebc 0ab4 aabc 31fd 20bd 6080 03bd
000003f0: 9024 e0bc 4294 6a3c f180 743c 3a4c 293c
-0.020036176 -0.033143148 0.0044631707 0.03314623 -0.028211912 -0.03427121 -0.004035218 0.018207116
-0.019005012 0.02064755 -0.018358413 0.021376599 -0.03775918 0.010248651 -0.031261448 -0.016566938
-0.025888652 -0.0017477755 0.015558105 -0.007077956 0.023800373 0.0080349585 -0.0321519 -0.014127161
-0.0019796283 -0.031768143 -0.02660052 0.00072435394 -0.030089887 0.02934207 0.00084283855 -0.020436259
-0.032884303 0.022106458 0.016378101 0.0061085 -0.011462977 -0.03475552 0.014352799 0.008735404
-0.030823655 -0.0021938898 -0.004913852 -0.012379148 0.020174801 -0.02978503 0.016918523 -0.0015363055
-0.01333185 -0.019828223 -0.0038528694 -0.032869708 0.02427502 -0.009192199 0.034261163 -0.03049985
0.010407105 0.032604877 -0.022347962 0.030925807 -0.0044793384 0.028891616 0.02962092 0.02899264
0.032338046 0.0026137035 0.018488029 -0.030959185 -0.0031285654 -0.029397339 0.030536178 0.0031270955
-0.001364966 -0.0071766344 0.031903993 -0.03397524 -0.018661447 -0.0016761549 -0.03409336 0.02940185
0.011194802 -0.012059933 0.00054836925 -0.029888034 0.023848865 -0.0006780088 -0.032724228 0.024824621
-0.022629185 -0.01722858 0.0049764947 -0.012209098 -0.004363045 0.011601996 -0.009582403 -0.032389764
-0.030256929 -0.025069902 -0.0086976625 -0.028389394 -0.01924329 -0.032045137 -0.0005754926 -0.015234923
-0.0027456516 0.008404014 -0.009330162 0.015132101 0.0084291035 -0.032831702 -0.021134945 -0.030621666
-0.040557977 0.0042742533 0.008188567 0.011593781 0.0053834845 -0.037304774 0.018633306 0.012654649
0.0078635365 0.013641507 0.0021335979 0.019422153 0.0005544464 -0.018756859 -0.03303125 -0.00051095395
0.011016359 0.0046442915 -0.032002963 0.021016214 -0.007942215 0.017600756 0.013859682 -0.03559113
0.0049034543 -0.03658374 -0.030605154 -0.001967186 -0.034293935 -0.032618023 -0.013823555 0.02299861
0.013146367 0.013224097 0.015854934 -0.01626223 0.0016187632 0.029974764 -0.0015029369 0.010250888
-0.009630235 -0.006767734 0.010750931 0.030810459 0.0042402884 -0.0056639044 -0.02535505 -0.003001127
0.029382937 0.019401291 0.0115423575 0.015228075 -0.027910035 0.027949337 0.02892895 -0.025699927
0.007654475 -0.023344895 0.005948052 0.019187978 0.002933285 -0.02067616 0.0103927115 0.025090495
0.016333174 -0.012478424 -0.020073019 0.028910546 0.02251028 -0.012068731 -0.00083042367 0.0016319577
0.025411623 0.020425335 -0.034967 -0.011981084 0.026945613 -0.0024116624 -0.022973036 -0.035341714
-0.004483908 0.031823967 -0.023835529 0.0050205896 -0.028315708 0.012232014 0.015925204 -0.020926068
0.02171286 -0.01697601 0.031271696 0.013073714 0.007863535 0.03259395 0.0057290806 0.0018571026
-0.008156303 0.009580848 0.011942756 0.03374843 0.0035867917 -0.008947838 0.017739566 0.001293384
0.03588146 0.025632052 0.006820983 0.0012944629 -0.020069236 0.03649588 0.02452589 0.039079383
0.014591188 -0.0063282903 -0.02924999 0.0033569103 -0.029094044 0.02134456 -0.043581277 -0.02857483
-0.017227767 0.017972209 0.024357155 -0.0141457785 0.0062484797 -0.038289424 -0.026215414 -0.037295867
0.013148166 -0.025647521 -0.003866358 -0.004639064 -0.017102808 0.019269675 -0.04021654 -0.035935525
-0.015527487 -0.020837802 -0.039303962 -0.03210485 -0.027361184 0.014317574 0.01492332 0.010333115

bias f4 [32]
00000000: 475f 45bc 3487 09bd 23cc 95bc 53a3 0fbd
00000010: 5f4a a83c 1192 17bc 1032 02bd 5328 81bc
00000020: d8c8 86b9 d3a8 073c bd2c 5fbc bac2 afbc
00000030: 8fea e03c 6ac5 e9bc 31ae c0bc b080 1bbc
00000040: 6d46 dc3c 04c4 1dbd adbd b5bc 6815 fa3b
00000050: 41a2 d63c a987 4dbd 5d80 a53b 67c8 06bc
00000060: 7013 d0bb 1263 28bd 0c34 8dbc d8df 583c
00000070: 68ba 133d a4d7 14bd cafa 763c d6d5 c73c
-0.012046642 -0.033576205 -0.018285817 -0.035067867 0.020543275 -0.009251134 -0.031786025 -0.015766298
-0.00025708112 0.008279997 -0.013621506 -0.021455158 0.027455596 -0.028536517 -0.023520561 -0.009491131
0.02688905 -0.038517013 -0.022185171 0.0076319464 0.026200416 -0.050178204 0.0050507025 -0.008226491
-0.0063499734 -0.041110106 -0.017236732 0.013236962 0.036066443 -0.036338463 0.015074441 0.024393957

weight f4 [64, 32, 5, 5]
00000000: c83c 1dbc 60fc 763c b5dc 93bc 62f1 e73b
00000010: 5bf8 773c e8b8 8fbc 5bf0 ed3a 9d63 8b3b
00000020: 6230 a338 6b28 233b 34e6 3fbc 550f 983c
00000030: df81 8bbc 1ce3 013d b7bc 103d 258a fcbc
00000040: 66a0 7e3c ec45 4dbc d708 fdbc 3d8c a6b9
00000050: e89d ebba c1df 613c e010 20bc 8d7e 933c
00000060: d2b8 e2bc 9c73 dd3b 3c7d d7bb d8f4 303d
00000070: 2121 853c 03a3 7c3c 8bcd 2b3c 61a4 d7bc
00000080: 6999 463c d710 8d3c 7ff7 233c b388 e1bc
00000090: 7cda 1dbd cd00 bebc 9e7e a03b e956 d2bb
000000a0: 7041 053d b34f c93b 0d9d b7bc f817 c3bb
000000b0: c708 a23c 2249 c03c 5f5a bdbc 1867 0fbd
000000c0: 6bbb 003d 8557 973c 3296 a23c ede0 023d
000000d0: 49a7 82bc 55a7 893b 7361 e93c da06 6cbb
000000e0: a2d6 96bc 5058 1ebc ad36 a7bc 9037 f63c
000000f0: 965e be3c 81c7 a83c f507 d3bc 6cb6 dfbc
00000100: 04d5 cf3c eb9d cebc c11e 283c 654b 033d
00000110: 6b8b 90bc 842b c43c 1772 b4bb abb9 013c
00000120: 6d49 913c ea87 603a 3fb7 0abd 2b7b b53c
00000130: 2d87 b23c 5a1c aebc 801f c7bc 756c a33c
00000140: 4848 b83b d595 cebc 39a8 4d3c 54d7 063d
00000150: f885 fcbb 39e8 e73b 3bd6 8a3c 9426 273d
00000160: 6a40 803b 2e91 e73c f17e a23c 6cbb ac3c
00000170: 612d fbbc f61f c4bc 4d59 803c abc7 01bd
00000180: c40f 913c fbda e93c 5bd2 a83b 7aa9 53bc
00000190: 2da7 9d39 ba50 1bbb 0a50 b93c c02e 3c3c
000001a0: 2c9f 18bb 456d 5b3c 224e 883c 2bdb 943c
000001b0: fca3 dc3c 00f5 e43c baf4 86bc 130e a3bc
000001c0: 5173 c53c 8072 35bc a4b2 2a3c dc3a 0ebd
000001d0: ebbc d13b d82e f2bc 57eb 0abd c2d6 bdbb
000001e0: a3f9 ee3b 3f8e b5bc 8e9c e73c 22ba a83b
000001f0: 4321 773c ab9b d9bc ab3f eebc d726 1bbd
00000200: d944 0cbd a288 cdbc 4cdb 5abc ba61 00bd
00000210: 313b d73c ffc5 893c a0f6 00bc e852 babc
00000220: 1e77 163c 66b8 d6bc 66db bd3c 4a49 a2bb
00000230: 4f88 96bc c703 4c3c b490 dfbc 5ad0 ff3c
00000240: e0a8 16bd 763b 01bd 3d86 053d eb0b c53c
00000250: f4c7 abbc e835 56bc e1fa 5cbc d7b7 0e3d
00000260: 1210 aa3c a9a0 b13c 4ff0 e8bb c761 d23b
00000270: e71c 043d d0e4 103d 020d 0c3d 4693 1c3d
00000280: 25b9 b23c 13d4 463d 74ac 2b3d e4e7 013d
00000290: f25d 2f3d 3a3c 97bb 53cd 81bb 27c7 9d3c
000002a0: dcb7 003d 6600 f03c 495c 303c 74f1 4d3c
000002b0: fae7 b3bc e067 093d 9efa e1bc e921 a3b9
000002c0: 3f8a 2f3a 1076 0a3c 66e1 d4bc 8971 033c
000002d0: 2b87 203d 7dd2 4cbc 781f 8bbc 26d0 dc3b
000002e0: 99ab aebc 0613 593c abe0 e13c 899a a9bb
000002f0: 4790 2abc 4d97 87bc 8a6b 1bbc 6ff9 b7bc
00000300: 542d d6bb af46 1abb 729a 8a3c d719 0cbd
00000310: 609f e8bc 95e4 0a3d 6089 8b39 9ed2 30ba
00000320: 3beb 9f39 81b2 243d a703 e83a cc31 303d
00000330: 9c43 d6ba 3622 af3c 0c7e a0bc 1e67 a0bc
00000340: e000 293d db3d 39bc 8d62 003d 7e71 48bc
00000350: 38f2 1d3d aaf1 e33c 243a 6d3b c040 27bb
00000360: c6f8 a43c 48e6 7ebc 749b a7bc ca95 e93b
00000370: e3b1 a6bc 4de3 cd3c ea96 47bc 9153 e2bc
00000380: af6f d6bb 956a 2dbc 04d1 31bc 3924 df3c
00000390: 50c9 a93c 604e a8bc 04b1 0b3d 8d5e bebc
000003a0: feb6 23bc 0aca 0abd cce6 53bc b0a3 5a3c
000003b0: 1738 c6bc 878e f03c 5fc2 133b 99ff 133d
000003c0: 3d0b c9bc 1caf 533b 235f 96bb 2570 953b
000003d0: d8bb 023d 970a 4a3c 169d f1bc a66b 6fbc
000003e0: 92fb 813c 9934 61ba 2066 533c aa67 98bc
000003f0: 3d88 083d 4f25 8c3a b9d0 1dbc 513a 013b
-0.009597011 0.015074819 -0.018049577 0.0070783356 0.015134896 -0.017544225 0.0018153297 0.004253818
7.781458e-05 0.0024895917 -0.0117126 0.018561998 -0.0170297 0.03171073 0.035336222 -0.030827591
0.015541172 -0.012528878 -0.030888004 -0.00031766473 -0.0017976137 0.013786257 -0.009769648 0.01800468
-0.02767602 0.0067581665 -0.0065762084 0.04320225 0.016251149 0.015419724 0.010486017 -0.0263235
0.012121537 0.017219944 0.010007738 -0.027531004 -0.03853844 -0.023193741 0.0048979064 -0.006419052
0.03253311 0.006143534 -0.022413755 -0.005953785 0.019779576 0.023472372 -0.023114381 -0.035010427
0.031428736 0.01847435 0.01984701 0.031952787 -0.015948908 0.0042008557 0.02848885 -0.0036014826
-0.018412892 -0.00966461 -0.020411814 0.030055791 0.023238461 0.020602943 -0.02576063 -0.027308665
0.025370128 -0.025221786 0.010261239 0.032054324 -0.017644605 0.023946531 -0.0055067646 0.007917802
0.017735207 0.00085651746 -0.033866163 0.022153458 0.021792972 -0.021253753 -0.024307013 0.019949177
0.005623851 -0.02521793 0.012552314 0.032920197 -0.0077064 0.0070772436 0.016947856 0.040808275
0.0039139288 0.02826747 0.019835921 0.021085463 -0.030661287 -0.023941021 0.015667582 -0.03168456
0.017707713 0.0285468 0.0051520295 -0.012918824 0.0003006993 -0.002369924 0.022621173 0.011485755
-0.0023288233 0.013392751 0.01663882 0.018170914 0.026933663 0.027948856 -0.016474117 -0.019904172
0.024102839 -0.011074662 0.010418568 -0.0347241 0.0064006946 -0.029563352 -0.033915844 -0.0057934234
0.0072929426 -0.022162555 0.028272893 0.005149142 0.015083614 -0.026563486 -0.029083094 -0.037878837
-0.034245346 -0.025089566 -0.0133579485 -0.0313432 0.026273342 0.016818045 -0.0078713 -0.02274461
0.009183673 -0.026210975 0.023175906 -0.0049525844 -0.018375544 0.012452072 -0.02729068 0.03122728
-0.036782146 -0.031550847 0.032598723 0.024053534 -0.020969369 -0.013074376 -0.013487549 0.034843292
0.020759616 0.021683054 -0.007108725 0.0064203474 0.032254126 0.035374463 0.034192093 0.03822639
0.0218168 0.048542093 0.04191251 0.03171529 0.042814203 -0.004615334 -0.003961244 0.019260002
0.031425342 0.029297065 0.01076419 0.012569774 -0.021961201 0.03354633 -0.027585324 -0.00031115048
0.00066963205 0.008451 -0.025986385 0.008022674 0.039191406 -0.012501356 -0.016982779 0.0067386804
-0.021322059 0.013249164 0.02757295 -0.0051758927 -0.010410375 -0.016551638 -0.0094860885 -0.022457806
-0.0065361653 -0.0023540666 0.016919348 -0.03420433 -0.028396308 0.0339094 0.00026614498 -0.00067452516
0.00030502104 0.040209297 0.0017701284 0.04301624 -0.0016347053 0.021378618 -0.019591354 -0.01958042
0.0412606 -0.011306251 0.031343985 -0.01223409 0.038561076 0.027825195 0.0036197985 -0.0025520772
0.020138156 -0.015557833 -0.020459868 0.007128452 -0.020348495 0.0251328 -0.012181977 -0.027627738
-0.0065440754 -0.010584493 -0.010853056 0.027238952 0.020725876 -0.020545185 0.034104362 -0.023238445
-0.009992359 -0.033884086 -0.012933444 0.01334469 -0.024196668 0.029364837 0.0022546274 0.03613243
-0.024541492 0.0032300418 -0.004588978 0.004560488 0.031917423 0.012331626 -0.02949385 -0.014613068
0.015867028 -0.00085909065 0.0129027665 -0.018604118 0.033333052 0.0010692271 -0.009632283 0.0019718597

bias f4 [64]
00000000: 0558 2cbd fe7c 1dbd 4445 4a3c 66ad 18bc
00000010: 4250 b6bc 2b69 993c 8732 adbb ce69 f53c
00000020: 49ff 9d3a dc1e 00bc c33b 9dbc df18 ae3c
00000030: 364e abbb 6119 00bd bba3 20bd 8160 163d
00000040: 9e6e bfbc 596f aa3c a6c8 13bd 1a01 bebc
00000050: b41d d53c 2814 e7bc 4e56 e53c eb88 4c3c
00000060: 85ce f03c 5a97 36bc e2aa f33c 4a29 2f3c
00000070: 5508 84bc 93c2 d33c 135b cb3c 88bf 043c
00000080: c402 c6bc 9bf7 fb3b 7e18 b4bc 112e e7bb
00000090: 102a 12bc 1c7f f3bc 2b20 2bbd 93ac 153d
000000a0: 14f9 fc3c c654 7abc 0443 2a3d e249 fabb
000000b0: 0d29 9bbc a0e9 493c ea04 1b3d 6427 a3bc
000000c0: 088d f53c f82c b93c b263 bfbc 1fa1 6dbc
000000d0: 04a5 b03b 434e b0bb cf8e 043c 7dde e43c
000000e0: 8a91 0e3d 88d5 b5bc 3f65 393c 3834 8abc
000000f0: 8abd 35bc 9527 11bc bf8e 2ebc 1779 793c
-0.04207613 -0.03844928 0.012345616 -0.009318685 -0.022255067 0.018726906 -0.0052855643 0.029957678
0.001205423 -0.007819857 -0.019193536 0.021252094 -0.0052278293 -0.031274203 -0.039218646 0.036713127
-0.023368176 0.020805048 -0.036080025 -0.023193885 0.02601514 -0.028207853 0.027995255 0.012483816
0.029395351 -0.011144483 0.02974457 0.010690996 -0.016117254 0.025849616 0.024823701 0.008102305
-0.02417124 0.007689429 -0.021984335 -0.007055052 -0.008921161 -0.029723696 -0.041778725 0.036541533
0.030880488 -0.015279001 0.041567817 -0.007638202 -0.018940473 0.012323767 0.037846483 -0.019916244
0.029974476 0.02260445 -0.023362968 -0.014503746 0.005390765 -0.0053804233 0.008090689 0.027938122
0.034806766 -0.022196546 0.011315643 -0.016870603 -0.011092553 -0.008859535 -0.0106541505 0.015226624

weight f4 [64, 1024]
00000000: 9c5e 96bc 7083 483b 5869 87bc 28db 9bbb
00000010: 93f4 90bc f853 89bb 6a50 b7bc 240b dcbc
00000020: 7ccc 43bc 93af ae3b 2b11 00bd b68a e03c
00000030: c200 f8bc f07f 213b cd46 ab3c a3bf d0bb
00000040: da3b b43b 3500 aebc d84a 073c 9673 acbc
00000050: 9968 e9bc 4275 163c a779 693c 86e4 813c
00000060: 7832 0a3c 238a f5bc 2c8a 18bc 2dd4 5a3c
00000070: 50ba b8bc a1a3 633c dcf5 523c cf97 433c
00000080: f874 34bc 2a0e da3c 1220 b4bc 3da3 553c
00000090: d2b8 4e3c 526b 9ebc f3dd dc3c 03ab 143c
000000a0: 2fdc 26bc 2395 50bc d33c 2abc 158c 4ebc
000000b0: b015 9abc 6f65 e7bc f54b a03c 6553 c83c
000000c0: a621 773c 11f7 98bc 5963 c03c 2fad e7bc
000000d0: 9ecc a43c d793 073c 77ba e8bb 7506 f93c
000000e0: 447f aa3c 77b2 a73c e84b d8bc 25fc bcbb
000000f0: 6023 4d3c c45d 903c 1e25 353c a77c 083d
00000100: 286d da3c 33f3 8c3b 8a34 dcbb 5e24 bb3c
00000110: bc15 3fbc 738d c4bc 3cd1 36bc 8e80 73bc
00000120: 9062 083a f355 17bc f40b e0bb 1ae9 483c
00000130: fd05 5f3c 38d7 d9bc a5a6 ddbc 9cee c3bc
00000140: 1b40 35bb 3d98 babb 7dd2 f13b a263 8f3c
00000150: a111 d7bc a93d ca3c e61b da3c 5ae5 69bc
00000160: a1b8 c23c d129 d5ba 9b67 c8bb 6c8f b73c
00000170: ed69 403b 322c bd3c bb72 3fbc 2936 35bc
00000180: c5ec c0bc 3430 02ba 5523 c5bc 7d4f 7cbc
00000190: 3a3a d2bc 4106 f93c 8b84 8b3c b384 493b
000001a0: d2f1 ecbc 7587 c13c 391f f93c fe6c 003c
000001b0: 24d2 f0bc 4484 b1bc f323 babc fc09 d63c
000001c0: 3d0c 1ebc 224d 82bc bf21 b5bc 497d aa39
000001d0: b99a 9a3c 96dc ef3c 795f a0bc 8d86 c83c
000001e0: 089d 44bc 41a7 97bc eea0 c1bc 40ca dfbc
000001f0: 2e91 ff3c 21ba bfbc e6ad f43b b824 b93c
00000200: f260 893b 5742 e13c debe 2dbc 46f6 863b
00000210: 43a8 89bb a1d1 0bbc 607d d03c a436 9cbc
00000220: 9bdd 963c 7dde ddbc 139b 573c 4bf4 99bc
00000230: 9a1a c43c 5b8a 89bc 78b2 613c 9646 9a3b
00000240: dafb 003d 5954 b23c b353 0ebc 62ff 50bc
00000250: 230d 893b 3f9b 67bc 0465 96ba e91e 063d
00000260: 4ef6 f03b 627c 8039 f9e9 05bc 8bdb b0bc
00000270: a366 d23c 3fa4 5e3b d98f b7bc dfbb b93c
00000280: eac7 633c d5f3 d73c 57d2 143c 1ca9 ffbb
00000290: 73f5 5ebc 490d c4bc 7d86 0abc 8ff1 c63c
000002a0: 411b 1abc f298 723c 38d0 ae3c e31d aa3b
000002b0: a642 d3bc 17d2 3cba 9f56 95bc e8b3 423c
000002c0: 38f6 2cbc f139 3a3c eb5a a9bc ccfc 833c
000002d0: bcff e83c d322 223c 0c79 e33c d5dc b43c
000002e0: fed8 b4bc 3826 e03c ded6 183d 3b2e af3c
000002f0: 99c8 b6bc d659 2f3c 20cf d53c b86c e33b
00000300: 2b3e 8cbc 14ee db3c bf41 f03c 23a1 a8bb
00000310: dd9b d3bc 4ec1 73bc 6fd3 81bc de0f 8fbc
00000320: 48ea 9dbc 37f3 b0ba c292 6abc 112b fabc
00000330: 57e1 d13b cdc7 093b 65a7 c2bc ef1b b7bb
00000340: b0a4 683c c898 c5bc 034a 243a 2f32 99bb
00000350: cec4 c0bc 1293 873c c905 6abc 372b be3c
00000360: 5791 adbc a985 2b3c 09db 923b 2980 05bc
00000370: 0f66 dd3a ca49 64bc c576 0cbb cfa8 ea3c
00000380: f16e acbc 97af 68bc a79f d1bc b1aa b2bc
00000390: e0f4 bf3c ef1b ab3c 0800 9cbc ea1d d1bc
000003a0: fcea d33c 12f1 88bc 3a3b cd3c 2821 e5ba
000003b0: 5549 8d3c 884a 2abc 78d8 343c add0 be3c
000003c0: 60f9 a3bc 1550 b43c 7c80 ef3c 8025 263c
000003d0: 551d f43b ec50 aabc 193a 2abc 521d 1a3c
000003e0: 2b7e 72bb 1bef c2bc fc20 c5bc ed21 5dbb
000003f0: eb98 35bb 01db d03c fb99 403c 95ad 9abc
-0.01835566 0.003059592 -0.016529724 -0.00475635 -0.017694747 -0.004190918 -0.022377212 -0.026860781
-0.011950608 0.0053309887 -0.031266373 0.027409893 -0.030273799 0.0024642907 0.020907784 -0.006370501
0.005500299 -0.021240333 0.00825759 -0.02105121 -0.028492259 0.00918323 0.014250196 0.015856039
0.008434884 -0.029973095 -0.0093102865 0.013356251 -0.022549778 0.013893993 0.012876 0.011938049
-0.011014216 0.026618082 -0.021987949 0.013039407 0.012617307 -0.019338284 0.026961302 0.0090739755
-0.010184332 -0.012730869 -0.010390478 -0.01260664 -0.01880917 -0.02824661 0.01956747 0.024453828
0.015083706 -0.018672498 0.023484873 -0.028280823 0.0201171 0.008274994 -0.0071023065 0.030398587
0.020812638 0.02047084 -0.026403382 -0.0057673627 0.012520641 0.017622836 0.011056213 0.033322003
0.026663378 0.0043014525 -0.0067201303 0.02284449 -0.011662897 -0.02399323 -0.011158284 -0.014862193
0.0005202675 -0.0092368005 -0.0068373624 0.012262607 0.013612268 -0.026591882 -0.027057001 -0.023917489
-0.0027656618 -0.0056944177 0.0073798285 0.017503563 -0.026253523 0.024687605 0.026624631 -0.014275873
0.023769679 -0.0016263073 -0.0061158664 0.022407256 0.0029360012 0.023092363 -0.011685069 -0.011060276
-0.0235504 -0.0004966289 -0.0240647 -0.015399811 -0.02566253 0.03039849 0.017030975 0.003074926
-0.028923903 0.023624161 0.030410396 0.007838486 -0.029397078 -0.021669514 -0.02272222 0.026127808
-0.0096464725 -0.01590592 -0.022110818 0.00032518271 0.018872606 0.029279988 -0.019576775 0.024478221
-0.01200033 -0.01851237 -0.023636308 -0.02731812 0.031197157 -0.023404183 0.0074670194 0.022600517
0.004192465 0.027497454 -0.010604588 0.0041187136 -0.0042009666 -0.008533866 0.025450408 -0.019069023
0.018416217 -0.02708363 0.013159531 -0.018793246 0.023938466 -0.016789606 0.01377546 0.0047081215
0.031490184 0.021768736 -0.008686948 -0.0127562005 0.004182474 -0.014136135 -0.0011474197 0.032744322
0.0073535806 0.00024506735 -0.008173459 -0.021589061 0.025683707 0.003397241 -0.02240746 0.022672592
0.013902644 0.026361385 0.009083352 -0.007802142 -0.013608324 -0.023932116 -0.008454916 0.024285106
-0.009405912 0.014806973 0.02133952 0.005191551 -0.025788616 -0.00072029367 -0.01822978 0.011883713
-0.01055675 0.011366353 -0.020673236 0.016111754 0.028442256 0.009895998 0.02776768 0.022077957
-0.022076126 0.027361974 0.03731429 0.02138435 -0.02231245 0.010702571 0.026099741 0.0069404505
-0.017119488 0.026846923 0.029328225 -0.005146162 -0.025831157 -0.01487763 -0.01584789 -0.01746362
-0.019276753 -0.0013500218 -0.014317216 -0.030538114 0.0064050364 0.0021023632 -0.02376146 -0.0055880467
0.014199421 -0.024120703 0.0006267132 -0.004675172 -0.023531344 0.01654962 -0.014283606 0.023213966
-0.021187468 0.010468879 0.0044816774 -0.008148232 0.0016891378 -0.013933608 -0.0021433097 0.028644947
-0.021048995 -0.01420202 -0.025588823 -0.021809908 0.023432195 0.020887343 -0.019042984 -0.02552696
0.025868885 -0.016716514 0.025052655 -0.0017481195 0.017246881 -0.010393746 0.011037938 0.023292864
-0.020016372 0.022010842 0.02923607 0.010140777 0.0074497857 -0.02079054 -0.010389828 0.009406405
-0.0037001472 -0.023795655 -0.02406358 -0.0033742145 -0.0027709554 0.025495054 0.011755462 -0.018881598

bias f4 [64]
00000000: 1475 c7bc cec1 20bc c4f3 863c 01f5 fbbb
00000010: 8b41 6c3c 6609 1d3d 5941 13bd bc04 59bc
00000020: 3fd9 fc3b 27d5 8b3c 3217 23bc 20a8 c23b
00000030: 5448 0b3d 2bdb 02bd 44b9 a23b 0bd1 943b
00000040: c95f e03b 48a3 ef3a 72dd 933c c099 1abd
00000050: 8ea8 b2bc eff1 b43c f9f6 8c3c 5992 003c
00000060: 1f82 ce3b f4d5 03bc 05bb e43b d7f4 af3a
00000070: e9d1 24bc a5a4 51bc b848 6bba 3002 8d3c
00000080: a18f 093d c23a 94bc 1336 0bbc e1b1 0ebd
00000090: 9563 83bb a155 0fbd 7d32 e33c 137d da3c
000000a0: 002b 723c cd79 70bc 4b0d c5bc 5423 9c3c
000000b0: bab4 163b 3169 bd3c 6231 d23c 6ba4 d8bc
000000c0: 69ea 923b 2992 d13c f5bd 0ebd 800c de3c
000000d0: 0b1b bc39 19bc ecbc ed6f 43bc 2aec 8abc
000000e0: e1f8 a03a f1ce 90bc d99b 17bc 948a 03bd
000000f0: 914d 1e3d b8b5 c3bc 3cae f8bc a4ba d53b
-0.02434782 -0.009811832 0.016473658 -0.007689119 0.014419924 0.03833904 -0.035950992 -0.013245758
0.0077163274 0.017069412 -0.009954261 0.005940452 0.034004524 -0.031947296 0.004965933 0.0045415214
0.006847356 0.0018282915 0.01804993 -0.037744284 -0.021808889 0.02208802 0.01720761 0.007847392
0.0063021327 -0.008046616 0.0069803023 0.0013424408 -0.010059812 -0.012795602 -0.00089753745 0.017212957
0.03358424 -0.018094424 -0.008496779 -0.034837607 -0.004009674 -0.03499377 0.027734036 0.026670968
0.01478076 -0.014677477 -0.02405419 0.019059815 0.0022995905 0.023121448 0.025658313 -0.026445588
0.0044835103 0.02558239 -0.034849126 0.02710557 0.00035878303 -0.028898286 -0.011928541 -0.016958315
0.0012281203 -0.017676802 -0.009253466 -0.03211458 0.03864819 -0.023890361 -0.030356519 0.0065224934

weight f4 [10, 64]
00000000: 62d6 713c eed9 01be 238e e53d 822b 7fbd
00000010: 9112 5bbd e025 84bd e88c 67bd 870c 403d
00000020: 8854 7d3c 9d45 083e a00f a6ba 8ef3 15be
00000030: 361e 1b3d e72e 313d 1d04 27bd 9f7f 963d
00000040: dd1a 8ebd 8743 5d3d c965 df3d ff5c df3d
00000050: d31a 5e3c f86f 63bd bd52 053e 5627 4f3d
00000060: 2305 64bc bf99 76bd 78a2 7dbd 49a8 78bc
00000070: 20db e63c 45fe 153d a79c 0fbd 8f82 aa3d
00000080: bf19 a1bb 4577 c03d fd8b 633d 3fdb c73d
00000090: 4630 103e 1e1e 2dbd bef2 a93d 6948 03be
000000a0: 99bf 14bd 583e 5ebd 5a2a bc3d 7183 c43c
000000b0: 78e6 16be 1de9 46bd 32c3 193d ba01 c2bd
000000c0: 4b7c 5cbd d1ec 96bd 9e49 e63c b541 b63d
000000d0: ac77 b5bd e244 563c 846b 323c bdf8 8bbd
000000e0: 57b6 8dbd 8b07 0abe 6363 06be 4470 e33d
000000f0: ca3a f3bd dd2c d13d 4a97 b23d 316e 0c3e
00000100: 1b08 7cbd 3bdf c63d 1269 c5bd ac18 02be
00000110: b4c3 93bd a4b5 b73d c462 7fbd 0742 16be
00000120: 821f 97bd 60d3 e9bc 0a36 fd3d a7bc eb3d
00000130: e582 07bd b9fa 663c 32a4 05be 0df7 89bd
00000140: f8a5 a0bd a6a6 82bd d99a 8f3d 0f7e a8bc
00000150: cf85 3c3c 73ae b7bd 2cda e5bd ad0a 813c
00000160: d435 043e c440 05bd c003 ea3c 63c7 a1bd
00000170: 5996 2c3e 00da 8fbd b097 c93d 7c34 a93d
00000180: 974f 473c 9e0c 293d 6dba 223e 71ad 80bd
00000190: 3f0a b3bd ba18 643d c666 033e 4015 03be
000001a0: e46f e33d f163 bfbc 8483 febc eddc 813d
000001b0: aae1 e7bd fc1e 11be 5f40 b3bd 187d 9b3d
000001c0: f4b1 803c 1dea b53d 0cac 0dbe 6044 083e
000001d0: a74e ffbd be1b 44bd 5f72 f9bd 0a67 3d3d
000001e0: 385a 9a3d 3b4a 6d3d 05fc d83b aba8 57bd
000001f0: d4b6 b43d aa53 ed3d 0d27 033e 3190 d3bd
00000200: 3810 c23d d578 333d a50a de3d 1d2a 073d
00000210: 40b8 a6bd c9ec a2bd e454 c2bc ca17 c0bd
00000220: 9675 45bd 6bc1 063e f11e 0dbe 045e 6c3d
00000230: 3c12 043e 651c d7bd 6f8d c5bd 9069 8c3d
00000240: 98db 133d 446a 6dbc 0aef 09be 69c2 52bd
00000250: 7d2a c33d 7af5 b4bd 533b 0b3d c4a2 ef3b
00000260: 3265 07be 7b6b b9bd e243 083e 892b ac3d
00000270: a8a0 0ebe f6a5 dfbd ff50 10be 31f0 c6bd
00000280: 40a2 1d3d e0d7 7f3d ab79 37bd dfb4 5a3d
00000290: bc95 ae3d 92e8 16be 945e d83d c5a7 c43c
000002a0: 6fda 5cbd 5028 febd d1f1 05bc e6e9 393d
000002b0: 4be6 f53c bc3b e73d 470e 00be 499b 11be
000002c0: 3a6a f3bc 2eaf 9dbd 5245 773c 3526 ec3d
000002d0: 9058 923d b1fe b63b 1edf ccbd f59c 653d
000002e0: 97a8 1fbc 78ce 283d 1a0f f83d 187f 093e
000002f0: 1089 cc3c 2d59 713d 7b7f aebb aad4 fa3d
00000300: dcc6 873d b68b a53d ef32 e5bd 095b dabd
00000310: b5d3 aebd 752a 903d ba4d d83d 620a 513d
00000320: 8a18 00be d368 0b3d 0c07 9f3d ab4c 113d
00000330: fec5 9bbb ae39 01be c490 5a3d e6be 713d
00000340: d0f5 0c3e d507 a93c 4493 e93c 7a4a d33d
00000350: 85aa 35bd 31a8 bb3d 628b a63d 4c97 233c
00000360: 3923 e4bd 76c4 613c 8106 cf3d 0315 aebd
00000370: a0ce 05bd 35ca ed3d 9655 c4bd 31a4 cc3d
00000380: 986d 02be 5871 fc3d ad56 afbd 0c0d 58bd
00000390: 584c 87bd 93dc 80bc bf0f a53d 45c7 3d3c
000003a0: 431b bcbc 1384 c83d 6bed e93d 04f5 143c
000003b0: 1db2 0e3e c7f4 f13c d76d 0bbd cc36 d1bd
000003c0: 2b6b 963d 70c5 39bc 55eb a73d ae12 0d3e
000003d0: a0ad b1bd 733e 55bc 304c e0b9 b459 7abd
000003e0: 1259 3f3c 7c90 773c 164c 14bd 02a7 89bd
000003f0: 6a80 b0bb dff6 bbbd 29bd 63bc 05e8 c73d
0.0147605855 -0.1268079 0.11208751 -0.06229735 -0.053484503 -0.064525366 -0.056530863 0.046886947
0.015462048 0.13307805 -0.0012669452 -0.1464369 0.03787061 0.04325762 -0.040775407 0.073485605
-0.069387175 0.054019477 0.10908086 0.109064095 0.0135562 -0.055526704 0.13019843 0.050574623
-0.01391724 -0.060205217 -0.06192252 -0.015176841 0.028180659 0.036619443 -0.035061505 0.08325683
-0.0049163993 0.09397749 0.055553425 0.09758615 0.14080915 -0.04226505 0.082982525 -0.12820591
-0.036315534 -0.054258674 0.091877654 0.023988457 -0.14736354 -0.048562158 0.03753967 -0.094729856
-0.053829473 -0.07369388 0.028111275 0.08899251 -0.08860716 0.013077946 0.010889892 -0.068345524
-0.06919544 -0.1347944 -0.1312385 0.11105397 -0.118764475 0.10213635 0.08720262 0.1371391
-0.061531167 0.097105466 -0.09639181 -0.12704724 -0.07215062 0.08970192 -0.06235005 -0.14673625
-0.073790565 -0.028543174 0.12363823 0.11510592 -0.033083815 0.014097863 -0.13050917 -0.06736574
-0.07844156 -0.06379442 0.07011957 -0.020567922 0.011506512 -0.089688204 -0.112232536 0.01575216
0.12911159 -0.03253247 0.028566241 -0.07899358 0.16854228 -0.07024002 0.09843385 0.08261964
0.012164972 0.0412718 0.15891428 -0.06283081 -0.08742189 0.055687644 0.12832174 -0.12801075
0.11105326 -0.023363085 -0.03106857 0.063409664 -0.11322339 -0.14171976 -0.08752512 0.07592219
0.015709855 0.08882544 -0.13835162 0.13307333 -0.124661736 -0.04787802 -0.12180018 0.046240844
0.07536739 0.05793212 0.00662184 -0.05265109 0.08823934 0.11588223 0.12807865 -0.10330237
0.0947575 0.043816406 0.10841874 0.032999147 -0.08140612 -0.079553194 -0.02372212 -0.093795374
-0.04820784 0.1315972 -0.13781334 0.057706848 0.12897581 -0.10503463 -0.09646117 0.06856072
0.036098093 -0.014490668 -0.13470092 -0.051454935 0.09529588 -0.088358834 0.033992123 0.0073131043
-0.13222197 -0.090537034 0.13307145 0.08406741 -0.13928473 -0.109203264 -0.14093398 -0.097137816
0.03848481 0.062461734 -0.044793766 0.05339515 0.08524653 -0.14737156 0.10564914 0.02400578
-0.053919252 -0.12410033 -0.008175329 0.04538908 0.030017039 0.1129069 -0.12505446 -0.14219393
-0.029713739 -0.076994285 0.015092211 0.11530725 0.07145798 0.005584561 -0.10003494 0.05605789
-0.009744785 0.04121253 0.121122554 0.13427389 0.0249677 0.058922935 -0.0053252554 0.12247594
0.06629726 0.08083288 -0.111913554 -0.10661895 -0.08536474 0.07039348 0.105617 0.051035292
-0.12509361 0.034035515 0.07765016 0.035473507 -0.004753827 -0.1261966 0.053360716 0.059019946
0.13765645 0.020633617 0.028512605 0.1031694 -0.044352073 0.09162939 0.08132054 0.009984802
-0.11139531 0.01377975 0.101086624 -0.085001014 -0.032667756 0.116108336 -0.09586637 0.099922545
-0.12737119 0.12326306 -0.08561454 -0.052746817 -0.06606358 -0.015730178 0.08059644 0.011583154
-0.022962218 0.09790816 0.11422237 0.009091619 0.13935132 0.029535664 -0.0340403 -0.1021553
0.073446594 -0.011338577 0.08199183 0.13776657 -0.086756945 -0.013015377 -0.00042781373 -0.061120704
0.011678951 0.015110131 -0.036205374 -0.06721307 -0.005386402 -0.09177946 -0.01390008 0.09761051

bias f4 [10]
00000000: 0a15 c8bd 4f7b b2bd cd4f e9bc fa50 8e3d
00000010: 7894 1c3a 99d1 cb3c 4535 82bd 7db6 bdbd
00000020: c4bb 223b 8219 ccbd
-0.09769638 -0.087149255 -0.028480435 0.06949039 0.00059730513 0.024880217 -0.063578166 -0.092633225
0.0024831155 -0.09965803
