PytorchLearning/learn1/vggmodel/vgg_17.pth (torch, 587335 bytes, 10 tensors)

weight f4 [32, 3, 5, 5]
000000 65 75 d4 3d fe ee e7 bd f8 dc 88 bd 1d d8 2f bd
       0.10373954 -0.11324881 -0.066827714 -0.04293071
000010 1a 52 c0 bd 3d 7a 1b bc 4f 50 bd 3c 1e 17 d9 bc
       -0.0939066 -0.009489593 0.023109583 -0.026500281
000020 bd dc 90 bd 18 47 b8 3d 03 af f2 3d 3a 18 25 3b
       -0.070733525 0.08997935 0.11849787 0.0025191442
000030 d8 ec ad bb 3e 94 91 3d e2 3d 2d bd 96 48 b5 bd
       -0.005307775 0.07108353 -0.042295344 -0.08851735
000040 ea 54 a9 3d 39 41 ad bd 90 5d f5 3d be 51 de 3d
       0.08268149 -0.08459706 0.11980736 0.10855435
000050 39 95 6a bd e2 a7 82 3d 08 22 7b 3d 24 4c fa 3d
       -0.057271216 0.06379677 0.06131175 0.12221554
000060 32 bf 45 bd 2f a3 66 bd 31 98 38 bd 9e d2 b6 3d
       -0.04827804 -0.056307968 -0.045067016 0.08926891
000070 d4 9b e6 3c 9f fe ec bd f9 8f 6c 3d aa e8 54 bc
       0.028150477 -0.115720026 0.05775449 -0.012994925
000080 7b e7 cd bd 7e 58 a0 bd cb 6c a5 3d a9 72 ab bc
       -0.10053917 -0.078293785 0.08077391 -0.020928698
000090 24 d5 aa bd e5 ff 4e 3d 06 fb 9f bd f6 c6 a3 3d
       -0.083414346 0.05053701 -0.07811551 0.07996933
0000a0 cd 48 37 3d df a8 c8 3d 1e 2a ac 3d f2 b6 bb 3d
       0.044747163 0.097978346 0.08406471 0.091657534
0000b0 b4 5c e5 bc e1 3a c5 bc c1 dd 7a 3d 04 cb ee 3d
       -0.027998306 -0.024075927 0.061246637 0.11659816
0000c0 5c 33 79 bd d1 29 06 bd f6 79 13 bc 2b 9f a6 3c
       -0.060839996 -0.032754723 -0.009001246 0.02033957
0000d0 b3 23 b2 bd 53 a5 3b bd 24 01 39 bd a3 4f 8d 3c
       -0.08698215 -0.045811962 -0.045167103 0.017249888
0000e0 b7 29 ca 3d 87 3e a1 bb 55 9f d4 3d 97 fe 7c 3d
       0.09871238 -0.004920784 0.10381953 0.061766233
0000f0 54 fa d7 bc 4c 95 9f 3d bc 5a 77 bd 33 8b cf bd
       -0.026364483 0.07792148 -0.060389265 -0.10133972
000100 fc a4 08 3d 81 ef fe 3d 63 5e b9 3d 1f 80 b3 bc
       0.033360466 0.124480255 0.09051206 -0.021911679
000110 66 24 8a 3c 1b 2c 00 3e 6d 93 dc 3b be 31 02 3e
       0.01686306 0.12516825 0.0067314417 0.12714288
000120 de 24 33 3d ad b9 20 3d 65 9b 4d 3d c1 4a 3b bd
       0.04373633 0.039239574 0.050197024 -0.045725588
000130 db 8c f1 3d e9 17 23 3d b4 ce e7 bc 67 56 4c 3d
       0.11794444 0.039817724 -0.028296806 0.049887087
000140 c6 a4 88 3d d0 4f 64 bd 18 96 80 bd e5 e0 9e 3d
       0.06672053 -0.055740178 -0.06278628 0.07757739
000150 d0 74 b7 bd c5 e1 89 3c 2b 18 8c bb 6a d0 a6 bd
       -0.08957827 0.016831288 -0.004275342 -0.081452206
000160 79 75 ad bd a6 11 5d bb 17 6e df 3c b7 25 fb 3d
       -0.08469672 -0.0033732443 0.027274175 0.12263053
000170 f2 20 50 3d f1 41 df bd 9d 25 7d bb 3f 88 91 bc
       0.05081267 -0.10901249 -0.0038627156 -0.017765163
000180 76 eb a3 3d 61 0f bc bd e1 99 8b 3d c9 56 81 bd
       0.08003895 -0.09182621 0.068164594 -0.06315381
000190 aa 14 21 bd 35 b6 9a bd 46 6b 81 3d 97 d3 02 be
       -0.039326347 -0.075542845 0.06319289 -0.12776028
0001a0 5d db 12 3c 96 b8 91 bd c5 a5 e1 bb dc ba 98 3d
       0.008963433 -0.07115285 -0.0068862163 0.074575156
0001b0 68 ee 0d be db 55 b3 bd 1b b8 40 3d 12 df 33 bd
       -0.13860476 -0.0875661 0.047050577 -0.04391391
0001c0 23 48 bf bd 80 55 f3 bc 47 fb cf bd 16 ef a9 3d
       -0.09339931 -0.029703856 -0.10155349 0.08297555
0001d0 c0 c9 e3 3d 8b e2 b3 bc a0 99 38 ba 8c df b8 3c
       0.11122465 -0.02195861 -0.0007041935 0.022567533
0001e0 a9 07 da bd 01 b8 a9 3d 67 a0 86 3d 0e f5 ab bd
       -0.10645992 0.08287049 0.06573563 -0.0839635
0001f0 57 8e 0d 3d 2b b6 09 be fa 70 ed bd 01 59 d8 bd
       0.034559574 -0.13448398 -0.11593814 -0.10563851
000200 47 e7 ca 3c 44 8b b5 3c 1b 54 d8 bd ff c3 cd bc
       0.024768485 0.022161134 -0.10562917 -0.025117872
000210 8b 8c 70 3d fb 2c dc bd 69 87 00 be 5d 29 c2 3d
       0.058727782 -0.10750767 -0.12551655 0.09480546
000220 3f 38 d6 3c 67 87 51 bd 57 7e 8c 3d 95 03 f3 bd
       0.026149867 -0.05115452 0.06860035 -0.118659176
000230 ed ee 31 bb c5 74 b8 3d 03 a8 f1 bb a9 ce 9c bd
       -0.0027150468 0.09006647 -0.007374765 -0.07656605
000240 45 31 c6 bc 60 cd 79 bd f1 7d 42 3b 9c 87 bd 3d
       -0.024193415 -0.060986876 0.0029677118 0.09254381
000250 c5 f7 d0 bc 29 b7 a8 3d f9 e2 7c bd b3 09 e0 bd
       -0.02550877 0.0823806 -0.061739895 -0.1093935
000260 62 dd a1 3d 4b dc 4c bd e2 e8 5b bc 7e 39 e0 bd
       0.079035535 -0.050014775 -0.013422223 -0.10948466
000270 58 fa 01 be 97 f6 c3 bd 03 ff ed bd 15 36 b4 bd
       -0.12693155 -0.09568518 -0.11620905 -0.08799378
000280 67 2d 8a bd 55 23 bb 3d 66 e3 ef bb 84 ea a6 39
       -0.06746941 0.091375984 -0.007320809 0.00031836715
000290 c8 db fd 3c 89 32 1a 3d 2c 7a f9 3b 84 90 f2 3c
       0.030988589 0.03764585 0.007613441 0.029609926
0002a0 22 52 93 bd 37 e8 b8 bd de ab c6 3d 9b 8f f4 3c
       -0.071934 -0.090286665 0.0970075 0.029853633
0002b0 27 54 2e bd a1 e9 bc 3d 7d ac ce 3d f3 4f 41 bd
       -0.042560723 0.09224249 0.10091493 -0.047195386
0002c0 51 7a 47 3c 6f d1 be 3d d9 0a 67 bd 6b e2 35 3c
       0.012175159 0.0931729 -0.05640683 0.0111013455
0002d0 11 4d 53 3d 22 a4 b7 3d fc 86 8a 3d bd 48 54 bd
       0.051587168 0.08966853 0.067640275 -0.05182718
0002e0 fe cb 42 bd 8c 35 f4 bd 49 51 8e bd ac d8 d6 bd
       -0.047557823 -0.11924276 -0.06949098 -0.10490546
0002f0 58 2e 5c 3d 05 05 13 3c 5c de 95 3d 62 ab b1 bd
       0.053755134 0.008973365 0.07317802 -0.08675267
000300 1c f6 5a 3d 3a 5d 6a bd 24 68 cc 3d a6 22 50 bd
       0.053457364 -0.057217814 0.09980801 -0.050814293
000310 e0 e5 9e 3d 0c 16 13 bd b9 0e a4 3d 33 37 c7 3d
       0.07758689 -0.035909697 0.080106206 0.09727325
000320 c3 f9 c6 3d cb 9a 26 bd 9e 9c 50 bc e7 d6 d5 3b
       0.09715607 -0.040674966 -0.012732653 0.0065258625
000330 50 c7 f3 3d 6a 0e d2 3d 3f 6b 47 bd 40 3a c5 3d
       0.1190325 0.102566555 -0.048686262 0.09630251
000340 9a c2 aa bd cb 5c 99 3c 06 9f 94 3b 16 f8 75 3d
       -0.083378986 0.018721005 0.0045355586 0.060051046
000350 c6 59 76 bd 6f 76 21 3d 3e 30 40 3d 9b 98 c5 3d
       -0.06014421 0.039419588 0.046921007 0.09648248
000360 45 89 ee 3d ef e6 a8 3d 4b 06 a8 3d 40 56 b2 3c
       0.11647276 0.08247172 0.08204325 0.021769643
000370 97 26 1a 3d b6 71 ec 3d 23 55 06 3d 9e 2d c3 3d
       0.03763446 0.11545126 0.032796036 0.09530185
000380 ac 90 e7 bb bf 9e c0 bd 5c 19 a5 3d 3e 4c b4 3c
       -0.007066807 -0.094052784 0.080614775 0.022009011
000390 5d e4 dd bd 23 cb 2a 3d be 0a a0 bd d2 33 f3 bc
       -0.108345725 0.041697633 -0.07814549 -0.029687796
0003a0 72 2d 33 bd 6f fd dc 3c 3b ab ab bd df 19 a5 bd
       -0.043744512 0.026976315 -0.08382269 -0.08061575
0003b0 0a 81 ba 3c d3 80 82 bd 3e a0 f8 bc 9b 48 df bd
       0.022766609 -0.063722275 -0.030349847 -0.1090252
0003c0 a0 8c 9d bd 43 f4 40 3d 06 98 c9 3d e1 61 b1 3d
       -0.07692838 0.047107946 0.09843449 0.08661247
0003d0 30 da eb 3d 70 f2 de bc 27 1b 52 3d 8f a1 b9 3d
       0.11516225 -0.027215213 0.051295426 0.09064018
0003e0 7a 8e 28 3d be 23 99 3d 44 15 4f 3d 73 2c 04 3d
       0.0411515 0.074775204 0.05055739 0.032268953
0003f0 82 b5 ba bd fd 16 d9 3d b0 de d4 3d 04 3d e5 3d
       -0.09116651 0.10600088 0.10394037 0.111932784

bias f4 [32]
000000 ed ff 3f 3d 84 40 2b 3c ae 63 64 bc f8 6f ce bc
       0.04687493 0.010452393 -0.013939781 -0.025199875
000010 93 7d 8d 3d a4 cf 82 3d 15 bf 89 bd 9a bf 70 3d
       0.06908717 0.063872606 -0.06725899 0.058776475
000020 de b2 e6 bd 5d 25 9c 3d 6d 35 a9 3d 03 a8 a9 bd
       -0.11264585 0.07624314 0.08262143 -0.08283999
000030 ef e3 95 bd af 58 ab bc b4 b8 9b 3d 0c fa 8f 3c
       -0.073188655 -0.020916311 0.07603589 0.017575286
000040 05 b9 c6 3c 4f 83 84 bd 02 b9 25 3c f4 09 d8 3d
       0.024258146 -0.064703576 0.01011491 0.105487734
000050 74 60 77 3d 1f 64 b5 bc 4f 3e 7b 3d ea 8c c8 3d
       0.06039472 -0.022142468 0.06133872 0.09792502
000060 a0 cb 81 bd 9a bd ab bd 02 e7 0e 3d f5 f4 16 be
       -0.063376665 -0.08385773 0.034888275 -0.14741881
000070 2b 29 af bd 0b 59 d3 bc 64 dc 29 be 96 49 96 3d
       -0.08552774 -0.025799295 -0.16587979 0.07338254

weight f4 [32, 32, 5, 5]
000000 ef e7 a8 bc 6b 24 0a bd 0e 06 70 3b c7 b8 05 3d
       -0.020618407 -0.033726137 0.0036624703 0.03264692
000010 1f c4 e8 bc 2e 49 12 bd f5 e7 b6 bb da 86 88 3c
       -0.02841383 -0.03571432 -0.0055818507 0.016665865
000020 6f db a1 bc 1d 9a a5 3c 6b 0e a4 bc 6b ea 9f 3c
       -0.019757954 0.020215089 -0.020026406 0.019520959
000030 9d ea 20 bd 70 64 17 3c d7 ef 00 bd e0 d8 94 bc
       -0.039286245 0.009240255 -0.03147873 -0.01816982
000040 f8 02 e2 bc c2 11 4d bb ee 19 6f 3c 5e 5c e7 bb
       -0.027589306 -0.0031291102 0.014593584 -0.0070605716
000050 72 8e bd 3c 5c ac ee 3b 1d 6b 06 bd 14 40 6c bc
       0.023139212 0.0072837304 -0.032816995 -0.014419574
000060 e6 52 e8 ba db 92 05 bd 5a 21 e2 bc 34 16 02 ba
       -0.0017724901 -0.032610755 -0.027603794 -0.0004962415
000070 fe 3a 01 bd 50 65 e2 3c 55 cb b9 39 fe 7e ab bc
       -0.0315504 0.0276362 0.00035437444 -0.020934578
000080 ca 3d 0a bd 97 6a aa 3c 30 5f 7a 3c 69 9b ce 3b
       -0.033750333 0.02080278 0.0152814835 0.0063051474
000090 5e ee 38 bc b3 7f 10 bd 44 56 58 3c aa 9d 01 3c
       -0.0112873 -0.035278033 0.013204161 0.007911125
0000a0 10 89 fb bc f4 1c 0c bb b4 2f b5 bb 33 59 5d bc
       -0.030705005 -0.0021379562 -0.0055293683 -0.013510036
0000b0 77 c9 99 3c 1b fd ed bc 23 49 8f 3c 87 73 cd ba
       0.018772824 -0.029051354 0.017490929 -0.0015674689
0000c0 3b 2b 65 bc 29 59 ab bc 90 2c 90 bb aa 59 09 bd
       -0.013987358 -0.020916538 -0.0043998435 -0.033532776
0000d0 76 bd c1 3c 61 30 1e bc 8f 9f 0a 3d d3 f2 00 bd
       0.023649912 -0.009655089 0.033843573 -0.031481575
0000e0 92 e6 16 3c d9 d9 01 3d be 1a bc bc 95 66 fa 3c
       0.009210246 0.031701896 -0.02296197 0.030566493
0000f0 5c 82 a7 bb 4b 0c e6 3c f0 d4 ed 3c 02 98 ea 3c
       -0.0051119756 0.028082034 0.0290322 0.028636936
000100 f7 e4 04 3d 0c 49 15 3b 5c 28 94 3c 92 31 ff bc
       0.03244492 0.0022779135 0.018085651 -0.031151567
000110 9a cc 45 bb a5 9e ed bc c6 a9 fd 3c c8 4c 62 3b
       -0.0030181766 -0.029006312 0.030964743 0.0034530628
000120 6d f0 84 ba 3c 00 dc bb 90 78 04 3d 31 92 0e bd
       -0.0010142453 -0.006713895 0.03234154 -0.034807388
000130 35 d3 a0 bc 05 23 37 bb 53 55 0e bd 2b b6 ed 3c
       -0.019631961 -0.0027944457 -0.03474934 0.029017529
000140 0f 7b 1d 3c 13 c1 60 bc f0 0c 9b ba ad 04 fc bc
       0.009611859 -0.0137179075 -0.0011829417 -0.030763948
000150 39 eb be 3c 44 f6 19 bb 56 fc 0c bd 15 1a bc 3c
       0.023305522 -0.0023492733 -0.034420334 0.022961656
000160 3e 05 c0 bc 98 9e 8f bc b6 d5 5b 3b 89 03 62 bc
       -0.02344 -0.017531678 0.003354413 -0.013794788
000170 36 9f c5 bb 01 cb 31 3c b0 ca 1d bc e2 c4 08 bd
       -0.0060309423 0.010851623 -0.009630844 -0.033390887
000180 c6 67 00 bd fc 76 d7 bc a5 dd 16 bc 4c 87 e8 bc
       -0.031348966 -0.026301853 -0.009208118 -0.028384827
000190 af 04 a2 bc 49 e1 04 bd 9b f9 8b ba e0 eb 7f bc
       -0.019777624 -0.03244141 -0.0010679247 -0.015620202
0001a0 31 eb 37 bb 5e a9 fd 3b a7 a6 23 bc 47 9e 69 3c
       -0.002806377 0.0077411374 -0.0099884635 0.014258928
0001b0 2b 9a fb 3b 4f ff 06 bd 78 b0 b6 bc 0c e6 02 bd
       0.0076782904 -0.032958325 -0.022300944 -0.03195767
0001c0 e3 eb 2a bd 24 c3 4e 3b 33 78 f7 3b 80 f4 2d 3c
       -0.041728865 0.0031549418 0.0075521707 0.010617375
0001d0 00 e7 87 3b 22 24 1c bd 80 0e 92 3c 5a cb 48 3c
       0.0041474104 -0.038120396 0.01782918 0.012255514
0001e0 1a 14 e1 3b 4a ae 4e 3c 9f 62 bd 3a cc d7 9a 3c
       0.0068688514 0.012614796 0.0014448947 0.018901728
0001f0 dd f8 f0 39 62 c9 a0 bc 1f fe 0a bd fa 5d b5 ba
       0.00045961785 -0.019627277 -0.033933755 -0.0013837211
000200 ff 58 28 3c 2d 71 86 3b f0 4d 06 bd 5a 05 a4 3c
       0.010275125 0.004102847 -0.03278917 0.020022083
000210 84 0a 0d bc 3d dc 8b 3c 76 f2 5a 3c 80 0f 15 bd
       -0.008608464 0.017072791 0.013363471 -0.036391735
000220 da 45 7a 3b 87 e5 17 bd ff d5 ff bc e4 fc 2a bb
       0.0038188607 -0.03708413 -0.031229971 -0.0026090676
000230 ab 87 0f bd 7e 68 09 bd ae 3d 6a bc bc c4 b7 3c
       -0.035041492 -0.033546917 -0.014296932 0.022432677
000240 21 77 4c 3c e0 aa 52 3c 68 47 7d 3c 67 f7 85 bc
       0.012479574 0.012858123 0.015458919 -0.016353322
000250 94 56 be 3a 88 84 f2 3c fc df d6 ba b9 f7 24 3c
       0.0014521652 0.029604211 -0.0016393657 0.010068827
000260 90 28 23 bc aa 4d ed bb 1e b8 24 3c 77 bb 00 3d
       -0.009958401 -0.0072419243 0.010053663 0.03142878
000270 42 2b 9c 3b 77 e5 af bb 49 0c d0 bc 57 d4 71 bb
       0.004765899 -0.0053679305 -0.025396483 -0.0036900246
000280 d8 fc f5 3c 61 b6 a2 3c 66 f2 42 3c 81 f2 75 3c
       0.030027792 0.019862356 0.011898613 0.015011431
000290 a5 0d ec bc f2 38 e9 3c 31 de ef 3c 88 f8 d0 bc
       -0.0288151 0.028469536 0.029280754 -0.025509134
0002a0 c3 71 f0 3b cb c7 c6 bc af b5 cc 3b 85 fa 9e 3c
       0.00733778 -0.02426519 0.0062472443 0.019406566
0002b0 37 60 3c 3b 5c 2f ac bc 01 28 1c 3c 5d 75 c7 3c
       0.0028743872 -0.021018676 0.009531022 0.024347955
0002c0 7c 42 7e 3c d5 b6 5a bc 26 ba a9 bc bd a1 e8 3c
       0.015518781 -0.013349255 -0.020718645 0.028397435
0002d0 f4 68 ad 3c 70 6b 5b bc c2 e0 fa ba da 77 8d 3a
       0.02116821 -0.013392314 -0.0019140469 0.0010793165
0002e0 90 ea cc 3c 8b 05 99 3c bf e2 15 bd 37 d6 5a bc
       0.025014192 0.0186794 -0.036593195 -0.013356737
0002f0 60 72 d5 3c ad c7 41 bb 09 b4 c8 bc 6d ff 15 bd
       0.026055515 -0.002956848 -0.02449991 -0.036620546
000300 86 0c b7 bb a4 57 ff 3c 58 26 c6 bc d9 e2 91 3b
       -0.0055862097 0.03116972 -0.024188206 0.004452091
000310 86 b5 eb bc 48 69 44 3c 0c 4e 82 3c e3 84 aa bc
       -0.02877308 0.011987992 0.015906356 -0.020815318
000320 82 5a ad 3c 6d a4 90 bc c9 66 fb 3c 4e 1d 47 3c
       0.021161322 -0.01765653 0.03068866 0.012152983
000330 31 03 d8 3b 4a 23 06 3d 3c 73 ba 3b c3 ca 04 3b
       0.0065921773 0.032748498 0.0056900065 0.0020262457
000340 3a 24 0b bc aa 8f 0d 3c 0b 2d 55 3c 1c 9d 0d 3d
       -0.008492524 0.008640209 0.013011227 0.03457366
000350 31 33 97 3b ab a6 0c bc 18 23 8e 3c d7 6b 1b 3b
       0.004614257 -0.008584659 0.017350718 0.00237154
000360 e1 33 16 3d 57 e4 d9 3c 13 05 e4 3b 73 f0 27 3a
       0.03667057 0.026598139 0.0069586127 0.0006406374
000370 f5 d0 99 bc 37 4c 1a 3d 78 d0 d3 3c bb ce 21 3d
       -0.018776396 0.03767034 0.025856242 0.039503794
000380 e1 a1 67 3c 99 b7 e8 bb fd ba f5 bc 44 8f 2e 3b
       0.014137716 -0.0071019647 -0.02999639 0.0026635686
000390 c6 a0 f2 bc 85 3b ac 3c aa 26 39 bd 93 a9 f6 bc
       -0.029617678 0.021024475 -0.04520289 -0.030110156
0003a0 4d da 98 bc 68 a7 87 3c 85 d2 c1 3c 83 44 88 bc
       -0.018658781 0.016559318 0.023659954 -0.016634231
0003b0 10 59 7c 3b f7 1c 27 bd 57 69 e9 bc 35 09 1d bd
       0.0038505234 -0.040799107 -0.028492613 -0.03833886
0003c0 0d cd 2a 3c 4d aa e6 bc c1 9b da bb c9 ed df bb
       0.0104248645 -0.028157378 -0.0066713993 -0.006833766
0003d0 3e 56 94 bc 0a fe 89 3c 1d fe 2d bd 0e 7b 1d bd
       -0.01810753 0.016844768 -0.04247867 -0.038447432
0003e0 6f 78 8f bc 53 e1 b1 bc 45 41 24 bd b5 76 07 bd
       -0.017513482 -0.021713888 -0.04010131 -0.033072192
0003f0 9c c1 e7 bc d6 58 5d 3c 1b 1a 6f 3c 62 88 12 3c
       -0.028290562 0.01350995 0.014593626 0.008943649

bias f4 [32]
000000 94 48 9b bb 9b e1 1e bd 6b a0 d9 bc c9 a8 2d bd
       -0.0047388766 -0.038789373 -0.026565751 -0.042397294
000010 d8 66 cb 3c ff c2 34 bc 58 07 14 bd d3 2d 98 bc
       0.024829313 -0.011032819 -0.036139816 -0.018576538
000020 98 df a1 bb 48 5f 45 3c e7 f5 a0 bc 2e 64 af bc
       -0.0049399845 0.012046643 -0.019648505 -0.021410074
000030 e0 18 d7 3c 3b fd 1c bd c8 c4 d1 bc 1f f7 6a bc
       0.026256979 -0.038327437 -0.025606528 -0.014341145
000040 da a2 8e 3c e9 e9 4a bd 71 b8 f4 bc ac 07 4f 3c
       0.017411638 -0.04953948 -0.029873105 0.012636106
000050 75 2f b4 3c 75 5e 78 bd 40 e9 a1 bb 02 69 f2 bb
       0.021995286 -0.060636956 -0.0049411356 -0.007397772
000060 20 95 ad bb 65 dc 45 bd 9c 0c 9a bc 59 ad 2b 3c
       -0.005297318 -0.048305888 -0.01880484 0.010478341
000070 8a 2e 22 3d 10 43 39 bd 92 96 41 3a e5 03 a4 3c
       0.039595164 -0.04522997 0.00073848024 0.020021388

weight f4 [64, 32, 5, 5]
000000 03 90 2b bc e4 95 6a 3c 8e ba 9d bc 2c c3 b6 3b
       -0.010471347 0.014317963 -0.019253995 0.0055774655
000010 ec bb 62 3c 8d 86 9d bc f7 07 a8 3a 49 d3 47 3b
       0.013838749 -0.019229198 0.0012819757 0.0030490926
000020 b5 71 be ba c1 2b a0 3a bf 66 51 bc 46 f5 97 3c
       -0.0014529737 0.0012220071 -0.012780844 0.018549573
000030 31 06 94 bc 91 ed fb 3c 08 e2 0d 3d 95 aa f1 bc
       -0.018069359 0.030752929 0.03463939 -0.029500285
000040 a4 d7 8f 3c 68 af 3e bc 9d 5e f8 bc f7 5c 41 3a
       0.01755888 -0.0116385 -0.030318553 0.00073762186
000050 93 8a 7f ba 0d c4 74 3c 24 22 1d bc 7d 6f 90 3c
       -0.0009748127 0.01493932 -0.009590659 0.017631287
000060 1a 3f e0 bc 81 69 e5 3b f3 8b bd bb e8 56 38 3d
       -0.02737384 0.0070011024 -0.0057845055 0.045004755
000070 58 88 8a 3c 27 f0 7a 3c 22 37 34 3c a3 67 cc bc
       0.016910717 0.015316046 0.010999473 -0.024951762
000080 60 9d 6a 3c ab 23 96 3c 92 3e 19 3c 6a 01 d8 bc
       0.014319748 0.018327555 0.009353297 -0.026367862
000090 2d 82 1d bd b1 2d b9 bc f2 f4 ab 3b 75 3c d5 bb
       -0.038454223 -0.022604795 0.0052477056 -0.006507451
0000a0 98 38 07 3d de eb c9 3b 7c db b0 bc 65 10 be bb
       0.033012956 0.0061621508 -0.021589033 -0.005800294
0000b0 b6 d7 a2 3c 67 cf c2 3c 2d 64 bf bc 51 0e 0f bd
       0.01987825 0.023780538 -0.023363197 -0.034925763
0000c0 d7 93 fe 3c 2e d9 94 3c 2c 12 a1 3c 3a 42 03 3d
       0.031076355 0.018169966 0.019661985 0.03204558
0000d0 4b de 6f bc 14 dd 74 3b c3 28 dd 3c 06 e5 f9 ba
       -0.014640401 0.0037363218 0.026996976 -0.0019065447
0000e0 34 08 8a bc 34 4c e4 bb 6d a9 9d bc 12 c1 fb 3c
       -0.016849615 -0.006967092 -0.019245828 0.030731712
0000f0 4f fe ca 3c 9f c4 b8 3c e8 ff b8 bc 86 b9 d5 bc
       0.024779467 0.022554694 -0.022582963 -0.026089441
000100 58 06 d9 3c d7 07 d9 bc 0d cf 23 3c 21 95 03 3d
       0.026492283 -0.026492996 0.009998095 0.032124642
000110 09 44 9d bc 13 81 bb 3c 03 ff e0 bb f5 1f fa 3b
       -0.01919748 0.022888696 -0.0068663373 0.007633204
000120 79 b0 8c 3c cd 3e 54 ba c9 9a 0f bd 48 08 b5 3c
       0.017173992 -0.0008096516 -0.035059724 0.022098675
000130 4b a5 b1 3c 03 eb a7 bc 26 04 c8 bc 07 a6 9a 3c
       0.021685263 -0.020497805 -0.02441604 0.018877996
000140 f7 19 ec 3b a7 f1 c1 bc f6 dc 75 3c d1 b9 0c 3d
       0.0072052437 -0.0236748 0.0150062945 0.034356896
000150 06 5e d8 bb 6b 96 1a 3c 05 6c a2 3c fd 7f 35 3d
       -0.0066030053 0.0094352765 0.019826898 0.044311512
000160 41 23 c0 3b 10 30 f5 3c 99 64 9b 3c 0d 0b a8 3c
       0.0058635776 0.029930145 0.018968867 0.020513082
000170 b3 6e fa bc 92 04 cb bc 7b d4 76 3c c0 17 08 bd
       -0.030570364 -0.024782453 0.015065308 -0.033225775
000180 09 47 89 3c a3 db e5 3c 00 18 83 3b 53 7e 67 bc
       0.016757505 0.028058833 0.0040006638 -0.014129239
000190 38 a5 3a 39 e6 21 2c bb cb 55 b0 3c 34 0f 32 3c
       0.00017799891 -0.0026265322 0.021525284 0.0108678825
0001a0 30 6b 06 bb 2f f2 54 3c ea ea 83 3c a3 e6 8c 3c
       -0.0020510666 0.012997194 0.016103227 0.01719982
0001b0 4c 33 d7 3c f3 3d e2 3c f4 70 89 bc ed ec a8 bc
       0.026269577 0.02761743 -0.016777493 -0.020620788
0001c0 f1 c1 bc 3c 5f b0 3f bc 3b 30 19 3c d1 8a 0d bd
       0.023041697 -0.011699765 0.009349878 -0.034556214
0001d0 df b3 b7 3b a5 01 f7 bc 7b 09 0a bd a4 97 dc bb
       0.005606159 -0.030152151 -0.033700448 -0.006731944
0001e0 01 67 02 3c 6a 12 b6 bc 96 6a e8 3c 08 4c c8 3b
       0.007959128 -0.022225577 0.028371137 0.0061125793
0001f0 d0 e8 72 3c da 1a d9 bc ff 55 f1 bc aa 7a 1b bd
       0.014826015 -0.026502062 -0.029459951 -0.03795878
000200 ad 8b 10 bd 91 4e d6 bc df d9 58 bc bf 53 00 bd
       -0.035289455 -0.02616051 -0.013235538 -0.031329866
000210 44 87 dd 3c 4a 45 88 3c 1d ba fa bb 44 14 c0 bc
       0.027042039 0.016634602 -0.007651581 -0.023447163
000220 47 98 10 3c af f9 d5 bc 94 04 b4 3c 6c 4b b6 bb
       0.008825368 -0.026120035 0.02197484 -0.00556319
000230 4b d7 9f bc cd 0f 48 3c 4d 6f e2 bc c1 44 f4 3c
       -0.01951184 0.012210798 -0.027640963 0.02981794
000240 87 85 19 bd 66 bd 01 bd 38 7d 09 3d 03 72 cb 3c
       -0.037480857 -0.031674765 0.033566684 0.024834638
000250 0d 45 af bc bf 8d 54 bc 03 0a 36 bc bc db 14 3d
       -0.02139523 -0.012973248 -0.011110785 0.036342368
000260 b6 bf ad 3c bf 08 b2 3c a3 46 d8 bb 69 6d 2a 3c
       0.021209579 0.021732686 -0.0066002174 0.010402062
000270 c9 b9 1c 3d 6c 8e 2e 3d 63 22 25 3d d8 83 2f 3d
       0.038263116 0.042616293 0.040315997 0.042850345
000280 92 a4 c0 3c b6 60 54 3d 71 80 39 3d 86 9b 0b 3d
       0.023515973 0.051850043 0.045288507 0.034083866
000290 9e 67 34 3d e1 52 bf bb 56 76 9b bb 29 d8 94 3c
       0.04404413 -0.0058387374 -0.0047443314 0.01816948
0002a0 ef a7 f9 3c 01 68 e7 3c 99 87 0f 3c 55 56 32 3c
       0.030475585 0.028247835 0.008760356 0.010884841
0002b0 cf 0c c7 bc 0e d0 fb 3c ac ab f4 bc 23 63 63 38
       -0.0242981 0.030738857 -0.029867016 5.4213346e-05
0002c0 97 43 41 3a 62 2e 0a 3c 00 ca d7 bc d1 72 f7 3b
       0.00073724374 0.00843391 -0.026341438 0.007551529
0002d0 bf 23 23 3d 60 81 2f bc d9 b7 74 bc 9e d7 04 3c
       0.039829012 -0.010711998 -0.014936411 0.008108048
0002e0 10 1c a8 bc e9 b7 5d 3c 5c 41 ea 3c e9 f5 97 bb
       -0.020521194 0.013532617 0.028595619 -0.004637469
0002f0 82 39 2b bc 66 24 8a bc 92 94 1a bc 83 4b b4 bc
       -0.010450723 -0.01686306 -0.009434836 -0.022008663
000300 5b c8 db bb 00 9a 36 bb 29 c2 88 3c 23 48 0c bd
       -0.006707234 -0.0027862787 0.016694145 -0.034248482
000310 cd f9 e5 bc cd 14 09 3d 89 6d 20 ba 9d 2a 8f ba
       -0.028073216 0.033467103 -0.00061198376 -0.0010922734
000320 b4 39 c7 3a 1d 5b 2c 3d 95 6e 75 3b 7c 44 37 3d
       0.0015199692 0.04207908 0.0037449945 0.044743046
000330 03 ab 3a ba 99 eb bd 3c f2 69 86 bc ee 73 88 bc
       -0.00071208196 0.02318363 -0.01640794 -0.016656842
000340 6f e3 32 3d 6f a0 2d bc ac cf 05 3d 9b 66 32 bc
       0.04367393 -0.010597332 0.032668754 -0.010888721
000350 83 18 23 3d 6f 57 ef 3c ae 17 84 3b f5 f3 23 bb
       0.039818298 0.029216496 0.004031143 -0.0025017236
000360 a9 12 a5 3c 8a 78 81 bc 77 1f ab bc 81 ea d3 3b
       0.0201505 -0.015804548 -0.020889027 0.006467164
000370 b2 74 af bc c1 38 c0 3c a3 23 69 bc cd d3 f3 bc
       -0.02141795 0.023464562 -0.014229688 -0.02976408
000380 5a 39 0b bc df 36 4d bc a2 82 52 bc 6c 73 cd 3c
       -0.00849756 -0.012525289 -0.012848528 0.025079452
000390 0a 78 94 3c 25 b2 c1 bc 74 ae 09 3d 84 d1 c5 bc
       0.018123645 -0.023644516 0.033613637 -0.024147756
0003a0 ae 95 34 bc 7a 00 12 bd 01 9c 77 bc c7 c8 76 3c
       -0.011022015 -0.035644986 -0.015112878 0.0150625175
0003b0 91 d5 b6 bc 26 30 01 3d d4 bc 72 3b e6 54 19 3d
       -0.022318633 0.03154006 0.003703882 0.03743448
0003c0 5f 60 bc bc 99 df ad 3b a4 85 21 bb ea 05 b9 3b
       -0.022995172 0.005306196 -0.0024646306 0.005646457
0003d0 e3 23 07 3d 57 d2 42 3c 45 85 ef bc 9b f1 72 bc
       0.03299321 0.011890969 -0.029238353 -0.014828111
0003e0 d7 6a 74 3c e2 5f cc ba 37 d6 54 3c c9 ba 94 bc
       0.014918051 -0.001559254 0.012990526 -0.018155472
0003f0 44 a8 0c 3d bb 82 98 3a c7 8b 25 bc a2 ec 57 3b
       0.034340158 0.001163564 -0.010104126 0.003294744

bias f4 [64]
000000 e6 4b 31 bd 5c 52 1b bd 2c 7c 46 3c 0b f8 19 bc
       -0.043285273 -0.03792034 0.012114566 -0.009397517
000010 c9 18 ae bc 2f d6 6b 3c 25 61 0c bc a4 f7 de 3c
       -0.021252053 0.014394327 -0.008568083 0.027217694
000020 3c 36 9e bb c5 46 ca bb 53 9c dd bc 65 73 a9 3c
       -0.0048282426 -0.006172987 -0.02705208 0.020684907
000030 b0 a5 87 bb 18 9a fa bc c8 fa 22 bd 24 0f 15 3d
       -0.0041396245 -0.030591056 -0.039789945 0.036391392
000040 b2 86 d3 bc 10 eb b1 3c 68 3d 1a bd e1 9a d8 bc
       -0.025821064 0.021718532 -0.037656218 -0.02644104
000050 34 27 da 3c 8d d7 ef bc 89 ca db 3c 64 94 2f 3c
       0.026630022 -0.029277587 0.026829975 0.010716531
000060 75 d0 ee 3c 5d 0d 51 bc ce 87 f6 3c 00 09 39 3c
       0.029152134 -0.012759534 0.030094054 0.01129365
000070 41 66 7b bc 7d d2 db 3c 4d 33 b2 3c dc cf 78 3b
       -0.015344203 0.026833767 0.021752978 0.003796569
000080 a7 db cd bc d6 bb 49 3c cd 01 ac bc 6d 57 49 bc
       -0.025129152 0.01231285 -0.020996952 -0.01228891
000090 59 2f 1c bc 32 91 0a bd 58 4a 30 bd cc b2 12 3d
       -0.009532773 -0.033829875 -0.04303965 0.035815045
0000a0 2f bd e8 3c 0e a8 81 bc df 67 22 3d 5f 81 d0 bb
       0.028410522 -0.015827205 0.03964984 -0.0063630785
0000b0 d1 e1 a8 bc de 3b 44 3c cc f1 1d 3d e0 58 b0 bc
       -0.02061549 0.011977164 0.038560674 -0.021526754
0000c0 4b 37 fa 3c cc 62 b8 3c 7f 7f e1 bc 2c 01 83 bc
       0.030543944 0.022508048 -0.027526615 -0.01599177
0000d0 a8 da d9 3b e4 99 0a bc f5 50 c2 3b ff 91 f1 3c
       0.0066483803 -0.008459542 0.005930061 0.029488562
0000e0 14 c0 12 3d be 3c ab bc b9 fe 02 3c 63 88 8b bc
       0.03582771 -0.020902988 0.007995301 -0.017032808
0000f0 89 32 46 bc 6f c2 04 bc 75 06 5b bc cf 79 8b 3c
       -0.012097009 -0.008102997 -0.013368239 0.017025856

weight f4 [64, 1024]
000000 b7 e5 92 bc d5 6b 77 3b 96 23 85 bc 6d fe 82 bb
       -0.017931802 0.0037753482 -0.01625232 -0.003997615
000010 d0 56 86 bc 58 14 db ba e9 19 ab bc e9 ba d7 bc
       -0.016398817 -0.0016714437 -0.020886378 -0.026334243
000020 2b c6 56 bc 6f 57 2b 3b f0 21 07 bd cb 03 de 3c
       -0.01310877 0.0026144644 -0.03299135 0.027101418
000030 3b 33 fc bc 1f 38 0a 3b f0 7c a4 3c 42 90 d5 bb
       -0.030786147 0.002109058 0.020079106 -0.006517441
000040 40 0c c6 3b 2f a4 ad bc f9 6f 0b 3c 25 c5 a9 bc
       0.006043941 -0.021196453 0.008510583 -0.020723889
000050 84 8d f0 bc c4 e6 fb 3b 3e c4 60 3c 7b c1 87 3c
       -0.029364355 0.0076874215 0.013718663 0.01657175
000060 81 8b 02 3c 9f 85 f5 bc 95 24 0d bc 0d 56 5d 3c
       0.007967831 -0.029970942 -0.008614679 0.013509286
000070 32 d9 b8 bc 19 3b 5e 3c 76 f2 52 3c 50 93 48 3c
       -0.022564504 0.013563895 0.01287519 0.012242153
000080 fe 36 39 bc 6c 4f d6 3c 5a 57 b6 bc b9 d6 54 3c
       -0.011304615 0.026160918 -0.02225845 0.012990647
000090 b5 3f 53 3c 37 2b 98 bc 7c da de 3c c3 2d 00 3c
       0.012893607 -0.018575294 0.02720379 0.00782341
0000a0 9c 66 28 bc f3 74 49 bc d3 b0 1b bc ae 30 4f bc
       -0.01027837 -0.012295949 -0.009502607 -0.0126458835
0000b0 32 c9 a3 bc 28 f7 f3 bc 89 40 9c 3c c8 bb c8 3c
       -0.019993398 -0.02978094 0.019073742 0.024503604
0000c0 1e 9d 79 3c 2d e3 98 bc a2 e7 c3 3c 21 66 e6 bc
       0.015235214 -0.018663013 0.023914162 -0.02812487
0000d0 28 8c a3 3c 51 32 09 3c d6 9b cb bb b2 0d fc 3c
       0.019964293 0.008373813 -0.0062136455 0.03076825
0000e0 1a 88 a1 3c f6 bc 9f 3c bc 8d ea bc 29 8c eb bb
       0.019718219 0.019499283 -0.028632037 -0.0071883393
0000f0 61 88 43 3c 05 e6 90 3c fe 10 2f 3c b9 81 07 3d
       0.011934371 0.017687807 0.010685204 0.033082698
000100 4a 45 d6 3c 83 5f 72 3b 41 b2 e2 bb 3f 5b bc 3c
       0.026156086 0.00369832 -0.006918222 0.022992728
000110 4e 7c 38 bc b2 c8 b4 bc 74 5c 27 bc f5 06 6b bc
       -0.011260105 -0.022068355 -0.010214914 -0.01434492
000120 8a 64 a2 39 fe d2 08 bc d9 9c 97 bb f8 90 5c 3c
       0.00030973955 -0.008351086 -0.004626852 0.013462298
000130 27 69 56 3c 73 c4 d9 bc cc d2 db bc 16 5a c7 bc
       0.013086594 -0.026582932 -0.026833914 -0.024334949
000140 bf eb ee ba c4 99 8b bb ce 8f 0c 3c de 30 92 3c
       -0.0018228217 -0.0042602737 0.008579208 0.017845567
000150 48 39 d4 bc 28 88 d1 3c b4 39 e8 3c 0e a7 5c bc
       -0.02590622 0.02557762 0.028347827 -0.013467563
000160 bc 2f b9 3c 74 57 1b bb 34 e1 ea bb 08 4d ac 3c
       0.02260577 -0.002370325 -0.0071679596 0.021032825
000170 40 04 39 3b 6a c7 b9 3c 75 89 50 bc 50 b0 44 bc
       0.0028231293 0.022678096 -0.012728085 -0.012004927
000180 f8 69 c2 bc 76 06 08 b9 42 1c bf bc 30 d9 76 bc
       -0.02373217 -0.00012972378 -0.023328904 -0.01506643
000190 bc a6 d2 bc d9 0d 09 3d 38 43 9f 3c ba 33 3e 3b
       -0.02571427 0.03346047 0.019441232 0.002902253
0001a0 85 54 f1 bc 34 64 c5 3c f6 29 f8 3c d4 3c fb 3b
       -0.029459247 0.024095632 0.030293446 0.0076671634
0001b0 3b 86 f0 bc c3 43 ad bc 5d cc b9 bc 5e 74 d9 3c
       -0.029360881 -0.021150475 -0.022680456 0.026544746
0001c0 39 f8 18 bc c1 4a 75 bc a9 9c b6 bc 3e a4 3b 3a
       -0.009336525 -0.014971436 -0.022291498 0.0007157958
0001d0 20 f3 98 3c 5c 03 fc 3c 39 c2 98 bc be 6f ce 3c
       0.018670619 0.03076332 -0.0186473 0.025199767
0001e0 92 05 44 bc 33 bd 8d bc 0b e8 c4 bc 72 b4 e4 bc
       -0.011964219 -0.017302131 -0.024036428 -0.027918074
0001f0 90 b7 fb 3c d8 cb c4 bc 5f 70 e4 3b 51 4a b0 3c
       0.030727178 -0.024022982 0.0069714035 0.021519812
000200 f8 d8 a0 3b ce 5f ea 3c 75 9b 14 bc 2c ab 98 3b
       0.004908677 0.028610136 -0.009070267 0.004659077
000210 fd 53 3a bb df f3 b6 bb c8 0d e1 3c c9 3d a4 bc
       -0.0028431409 -0.005583271 0.027472392 -0.020048993
000220 13 82 8c 3c 53 43 eb bc 15 11 4b 3c 24 5a a7 bc
       0.017151868 -0.028718626 0.012394209 -0.020428725
000230 a4 ed bb 3c 68 d5 94 bc 3e eb 3b 3c e4 19 6a 3b
       0.022940464 -0.018168166 0.01146966 0.0035720998
000240 9b 4a 00 3d 80 ab b4 3c 27 bf 0e bc 30 1d 43 bc
       0.03132115 0.022054434 -0.008712566 -0.011908814
000250 fe 65 77 3b cd ee 64 bc 6b a5 fd ba 81 01 05 3d
       0.003775 -0.01397295 -0.0019351667 0.032472137
000260 05 07 ee 3b e3 d8 ca ba fe b4 13 bc 28 95 bb bc
       0.0072640204 -0.0015476014 -0.00901532 -0.022898272
000270 e6 9c c8 3c 65 a1 19 3b 7c 2e c1 bc bb cf b2 3c
       0.024488878 0.0023442146 -0.023581736 0.02182757
000280 35 c1 5f 3c ce e9 e3 3c f7 62 33 3c 5d ff f8 bb
       0.013656904 0.027821448 0.010948888 -0.007598801
000290 fc 11 5c bc 9a 04 ae bc 7e c2 d0 bb 34 e6 be 3c
       -0.013432022 -0.021242429 -0.0063708415 0.023303129
0002a0 b8 48 27 bc c6 f7 6c 3c 88 15 bf 3c 6d 4e 96 3b
       -0.010210209 0.014463371 0.023325697 0.004586986
0002b0 67 d4 cd bc 07 05 57 b8 a1 f4 95 bc 8b 04 3f 3c
       -0.025125695 -5.1264677e-05 -0.018305125 0.011658798
0002c0 e2 14 31 bc 83 e4 30 3c 87 56 ab bc 61 05 89 3c
       -0.0108082015 0.010796669 -0.020915283 0.016726198
0002d0 19 b5 ee 3c d4 a3 33 3c 63 dd e1 3c 39 83 ba 3c
       0.029139088 0.010964353 0.027571386 0.02276765
0002e0 22 1f ae bc 1f 34 ef 3c c1 0c 1b 3d 8a c3 b2 3c
       -0.02125508 0.029199658 0.03785396 0.021821756
0002f0 61 23 c2 bc 3a db 1c 3c 5b e5 ca 3c c0 00 cd 3b
       -0.02369851 0.009573752 0.024767568 0.006256193
000300 81 f0 8b bc c2 af e2 3c 7c 41 f9 3c a3 31 aa bb
       -0.017082455 0.027671698 0.030426733 -0.0051939054
000310 ef 49 d7 bc 04 51 81 bc a7 93 89 bc a3 35 8f bc
       -0.026280371 -0.015785702 -0.016794039 -0.01748163
000320 b2 5d a1 bc 8c cd bb ba 80 f9 71 bc 1a 2e f7 bc
       -0.019697998 -0.0014328226 -0.014768958 -0.03017335
000330 5a c9 dd 3b 88 fb 12 3b 02 76 c4 bc 11 e9 b1 bb
       0.0067683877 0.0022427756 -0.023982052 -0.005429395
000340 30 9a 69 3c 9d 27 c8 bc 93 16 97 39 cf 3a 8c bb
       0.014257953 -0.024432952 0.00028817783 -0.0042794715
000350 e1 f4 be bc 38 25 8c 3c 44 70 6f bc c2 09 c2 3c
       -0.023310127 0.017107591 -0.014614169 0.023686294
000360 73 2e b0 bc b8 b3 2c 3c a4 8c a9 3b 0c 27 03 bc
       -0.021506524 0.010540895 0.0051742364 -0.008004915
000370 2f 72 c5 3a 71 25 5e bc c0 f7 dd ba 74 b7 ed 3c
       0.0015063937 -0.013558731 -0.0016934797 0.029018141
000380 55 2e a8 bc ab 25 63 bc 06 c7 d0 bc 0a 83 ae bc
       -0.020529905 -0.013863961 -0.025485527 -0.021302719
000390 95 a6 c2 3c 0b 1d b1 3c 80 f2 94 bc 57 96 cd bc
       0.023761073 0.021620294 -0.01818204 -0.025096102
0003a0 af d0 d6 3c c7 ea 7f bc 06 bb d2 3c eb f4 84 ba
       0.026222555 -0.01561994 0.025723945 -0.0010143792
0003b0 fe 98 8b 3c 6e 66 21 bc e1 2f 38 3c 0d dc c2 3c
       0.017040726 -0.009851081 0.011241884 0.023786569
0003c0 74 be a1 bc 52 06 ba 3c e9 61 ef 3c 0b eb 32 3c
       -0.019744135 0.022708092 0.029221492 0.010920296
0003d0 3c c3 02 3c b1 49 a3 bc 3e 67 36 bc 62 b2 18 3c
       0.007981118 -0.0199326 -0.011133013 0.0093198735
0003e0 85 7c 9e bb 95 96 ba bc 99 84 c7 bc 18 9d 51 bb
       -0.004836621 -0.022776881 -0.02435522 -0.0031984504
0003f0 3b f8 48 bb 13 03 d0 3c 8c 14 3d 3c cf 91 9a bc
       -0.0030665535 0.02539209 0.011540543 -0.018868355

bias f4 [64]
000000 9f 18 cd bc af f5 47 bc 2e 69 a3 3c c8 db f5 bb
       -0.025036154 -0.012204572 0.019947615 -0.0075030066
000010 03 f9 6d 3c b2 8b 1d 3d e9 f1 15 bd 1c 00 6d bc
       0.014524701 0.038463302 -0.036607657 -0.014465358
000020 d3 25 01 3c 63 42 97 3c 1f b1 26 bc 89 01 4e 3b
       0.007882553 0.018464273 -0.010174065 0.003143402
000030 e9 38 0e 3d b8 71 00 bd 84 57 a6 3b 70 91 03 3c
       0.034722243 -0.03135845 0.0050763506 0.0080302805
000040 8c 11 c2 3b fb e1 6c 3a 4b aa 8c 3c 54 d5 1a bd
       0.005922502 0.0009036359 0.017171046 -0.0378011
000050 1e 03 b4 bc bc 20 b2 3c 09 ef 97 3c 75 6c f4 3b
       -0.021974143 0.021744125 0.018546598 0.007459218
000060 15 6c e4 3b 03 32 15 bc fc 91 05 3c fa 01 47 3b
       0.006970892 -0.009106162 0.008152481 0.0030366168
000070 9b 7f 26 bc ca 1e 80 bc 8d 80 b3 ba ca 47 84 3c
       -0.010162259 -0.015639681 -0.0013694927 0.016147513
000080 6b 36 17 3d 98 14 8d bc fd 4b 02 bc e5 e6 0f bd
       0.03691713 -0.017221734 -0.007952687 -0.035132308
000090 fe c7 2d bb b0 cf 1e bd 3c ac dd 3c af c0 d2 3c
       -0.002651691 -0.038772285 0.027059667 0.025726644
0000a0 47 84 71 3c ab b9 9d bc 14 a9 ce bc 3c 76 96 3c
       0.01474101 -0.019253572 -0.025227107 0.018366925
0000b0 83 ad 8a 3a 78 b6 ce 3c 98 a3 d8 3c bc a3 fa bc
       0.0010580275 0.025233492 0.026445195 -0.030595653
0000c0 a4 37 91 3b 71 52 cd 3c 11 68 0e bd a8 73 e9 3c
       0.0044316817 0.025063725 -0.034767214 0.028497532
0000d0 a6 9f 21 3b 5a d6 db bc 38 33 59 bc fd f5 6c bc
       0.0024661808 -0.02683561 -0.01325684 -0.014462945
0000e0 07 44 cf 37 b5 60 9c bc 85 d2 b7 bb 52 f9 00 bd
       2.4708e-05 -0.019089082 -0.0056098127 -0.03148777
0000f0 fd 61 15 3d 7c fe b7 bc 4d 17 f8 bc e3 51 d9 3b
       0.036470402 -0.022460215 -0.030284548 0.006632076

weight f4 [10, 64]
000000 8e 23 8e 3c a1 0b 04 be 74 99 e6 3d cb ac 77 bd
       0.017350938 -0.12895061 0.112597376 -0.060467523
000010 81 b0 55 bd 38 eb 7e bd ae 32 7e bd 8f 81 41 3d
       -0.05217028 -0.06223604 -0.06206005 0.047242697
000020 e6 30 a5 3c 61 cd 01 3e a3 51 91 3b b7 31 15 be
       0.020164918 0.12676002 0.0044347807 -0.14569746
000030 74 96 11 3d aa 75 41 3d c4 e1 20 bd aa d3 99 3d
       0.035543874 0.047231354 -0.039277807 0.07511075
000040 88 82 94 bd 33 56 5c 3d f1 81 f0 3d cb f7 d9 3d
       -0.07251459 0.053793143 0.11743534 0.10642966
000050 18 11 6c 3c e7 21 4a bd d7 56 00 3e 64 a1 6f 3d
       0.014408372 -0.049348738 0.12533127 0.058503523
000060 90 22 f5 bb 2c 1c 6f bd 9b 48 74 bd a3 45 60 bc
       -0.007480927 -0.058376476 -0.059639554 -0.013688478
000070 7f 8d ec 3c 46 3e c9 3c 62 2c f8 bc 97 f8 ae 3d
       0.028876064 0.024565827 -0.0302946 0.085435085
000080 fa 3a 00 bc c1 6d bf 3d d6 c2 61 3d 49 5d d3 3d
       -0.007826561 0.09347106 0.05511745 0.10320527
000090 71 11 18 3e bd 4b 35 bd b4 d7 99 3d 56 16 0b be
       0.14850403 -0.044261683 0.07511845 -0.13582739
0000a0 94 8c 10 bd 26 e4 64 bd c5 5c b5 3d 4f fc ba 3c
       -0.035290316 -0.05588164 0.08855585 0.022825388
0000b0 10 0b 1e be 3a 04 52 bd 63 c5 2e 3d 39 94 c7 bd
       -0.15433908 -0.051273562 0.04266871 -0.09745068
0000c0 b6 30 5c bd 7b e7 89 bd bd 50 a7 3c 96 e7 af 3d
       -0.053757392 -0.067336045 0.020424241 0.085890934
0000d0 9f 1b c2 bd 3f 45 51 3c ee 75 48 3c bc 15 88 bd
       -0.094779246 0.012772857 0.012235148 -0.066447705
0000e0 35 17 8c bd 12 b7 11 be 41 c4 0c be 7a e2 e4 3d
       -0.06840364 -0.14229992 -0.1374674 0.111760095
0000f0 b9 1f f2 bd d9 1a e0 3d 1e 1c c2 3d 98 8f 0d 3e
       -0.11822457 0.10942621 0.09478019 0.13824308
000100 68 e0 82 bd 9a b1 c4 3d db 0f bc bd 57 8a 07 be
       -0.06390458 0.09604187 -0.09182712 -0.13236366
000110 88 e8 91 bd 0c a5 b9 3d 17 62 81 bd 3e 84 1a be
       -0.0712443 0.09064683 -0.06317537 -0.15089509
000120 89 4e 92 bd e9 9e ec bc 51 b4 fe 3d c8 51 e1 3d
       -0.07143886 -0.028884368 0.124367364 0.11001927
000130 86 fd 01 bd 86 bd 7a 3c 77 9d 06 be 33 2d 85 bd
       -0.03173592 0.015303975 -0.13146006 -0.06502762
000140 b2 85 af bd 17 c7 86 bd 93 02 94 3d 84 56 d4 bc
       -0.08570422 -0.06580942 0.072270535 -0.02592016
000150 10 9f 1d 3c 2e da c0 bd 8a e5 e7 bd 66 7b 8d 3c
       0.009620443 -0.094166145 -0.11323078 0.017270755
000160 d2 10 09 3e 23 4b 10 bd 44 59 eb 3c 1f c8 a5 bd
       0.13385323 -0.035227906 0.028729089 -0.08094811
000170 72 c1 2d 3e c3 95 9f bd be 1e cf 3d de 19 a4 3d
       0.16968325 -0.07792237 0.101132855 0.08012746
000180 9d 1c aa 3c ee de 3b 3d 7b 69 27 3e e2 53 74 bd
       0.020765597 0.0458669 0.16348831 -0.05965031
000190 e4 29 a9 bd 2c ef 5a 3d 5b a0 04 3e cd 19 07 be
       -0.08259943 0.05345075 0.12951796 -0.13193436
0001a0 1f 06 e7 3d 63 d4 08 bd 77 ee 03 bd ae b2 7b 3d
       0.112804644 -0.033405673 -0.03220984 0.0614497
0001b0 85 18 f9 bd 9e 5d 0f be a7 e3 b4 bd e9 13 93 3d
       -0.1216288 -0.14000556 -0.08832484 0.07181532
0001c0 45 cd 79 3c 8b 81 b7 3d d1 81 0e be ea 18 09 3e
       0.015246694 0.08960255 -0.13916709 0.1338841
0001d0 2a fb fd bd 9b b3 3b bd 74 e4 05 be 2e fc 49 3d
       -0.12401421 -0.045825582 -0.13075429 0.049312763
0001e0 78 19 9d 3d b8 8d 60 3d d5 66 2e 3c 47 61 55 bd
       0.076708734 0.054822654 0.010644634 -0.052094724
0001f0 27 01 ac 3d 6a eb fa 3d 47 c0 01 3e 8f 2e dd bd
       0.08398657 0.12251933 0.12671004 -0.10799896
000200 4c d8 c6 3d 68 c8 37 3d 6c 64 de 3d b6 1f f0 3c
       0.09709224 0.044868857 0.10858998 0.029311996
000210 9d 9a ac bd b1 7a a6 bd fa 4c a3 bc e9 7c ca bd
       -0.08427928 -0.0812887 -0.019934166 -0.09887106
000220 44 c7 59 bd e3 26 0f 3e 30 53 0b be 63 89 7e 3d
       -0.05316855 0.13979678 -0.13605952 0.06214274
000230 03 3d 0e 3e 5e 99 ed bd b4 a6 be bd 20 c5 8c 3d
       0.13890462 -0.11601518 -0.0930914 0.06873536
000240 7e 45 16 3d 44 c1 3f bc 01 f2 0f be cd 30 52 bd
       0.036687367 -0.011703793 -0.14057161 -0.05131607
000250 b7 bc cc 3d f1 86 b4 bd 3b ec 1c 3d 4a 45 eb 3a
       0.09996932 -0.088148005 0.038311224 0.0017949727
000260 1c 71 0a be c4 45 b3 bd b0 c2 0b 3e 7d 20 ba 3d
       -0.1351971 -0.08753541 0.13648486 0.09088228
000270 02 db 17 be ac 97 e0 bd a2 f8 17 be 8d 28 c0 bd
       -0.14829639 -0.10966429 -0.1484094 -0.093827344
000280 a7 86 03 3d d6 bd 88 3d bc 9b 42 bd df c9 63 3d
       0.032110836 0.06676833 -0.0475118 0.05561244
000290 f6 30 ac 3d 61 43 19 be b1 ca e7 3d 94 de c9 3c
       0.08407776 -0.1496711 0.11317957 0.024642266
0002a0 30 26 65 bd b4 6c 03 be 6c 8d f9 bb e0 c1 45 3d
       -0.05594462 -0.12834436 -0.0076157358 0.048280597
0002b0 9a a3 19 3d 02 39 eb 3d 42 e4 0b be db 00 16 be
       0.03750954 0.11485483 -0.13661292 -0.14648764
0002c0 ae b2 d9 bc 15 08 ae bd 6a dc 8a 3c 6e 60 f8 3d
       -0.026574459 -0.08497635 0.016950805 0.121277675
0002d0 cd 20 9f 3d 83 3b c7 3b a3 a4 d8 bd c5 08 73 3d
       0.07769928 0.0060800924 -0.10578277 0.059334535
0002e0 54 ef 29 bc 32 14 44 3d 71 22 f8 3d 46 23 0b 3e
       -0.010372002 0.047870822 0.12115944 0.13587674
0002f0 00 10 ce 3c b2 1e 79 3d bd 47 cd 39 ba fb 02 3e
       0.025154114 0.06082029 0.00039154096 0.12791339
000300 2e 7d 87 3d 73 03 ae 3d 77 0e f3 bd 67 f1 df bd
       0.06615673 0.08496752 -0.11867993 -0.10934716
000310 9b 38 ad bd 57 d1 90 3d 75 d5 ed 3d 62 13 46 3d
       -0.08458062 0.070711784 0.11612979 0.04835833
000320 e6 68 0c be 9d 3d 0e 3d 96 6d a7 3d 93 55 18 3d
       -0.1371189 0.034726728 0.08175199 0.037190985
000330 b8 23 02 bb 89 f7 05 be 72 32 4d 3d 95 8f 6e 3d
       -0.0019857716 -0.13082708 0.050096937 0.0582424
000340 f3 de 14 3e c5 b8 97 3c 4e 96 97 3c 47 2c e2 3d
       0.14538173 0.018520722 0.018504288 0.110436015
000350 31 b6 39 bd 32 2a b3 3d 54 48 b4 3d 06 32 06 b8
       -0.045339767 0.087482825 0.08802858 -3.1994678e-05
000360 9a 77 f6 bd 60 ff 6a 3c e1 54 c8 3d 58 60 bb bd
       -0.12034531 0.014343113 0.09781814 -0.091492355
000370 a7 33 f3 bc d4 38 0d 3e 88 93 d0 bd ec a6 d2 3d
       -0.029687716 0.1379121 -0.10184389 0.10285744
000380 80 19 04 be 62 5b 00 3e b9 2b b2 bd 9f 96 7d bd
       -0.12900352 0.1253486 -0.08699746 -0.06191122
000390 94 4f a7 bd e1 a3 67 bc 3d 0b b9 3d a5 29 cf 3c
       -0.08169475 -0.014138193 0.09035347 0.025288412
0003a0 96 65 b7 bc 82 eb dc 3d 8b f6 f1 3d 8c 88 4e 3c
       -0.022387307 0.10787107 0.118146025 0.0126057975
0003b0 42 a5 1b 3e 0f 76 fa 3c 65 f4 20 bd 39 ad c6 bd
       0.1519976 0.030573873 -0.039295573 -0.09701008
0003c0 03 1f a0 3d b3 3e 78 bc 59 25 b6 3d 44 05 16 3e
       0.07818415 -0.015151667 0.08893842 0.14650446
0003d0 6d 9d a3 bd 03 f8 63 bc d0 22 7a bb ae 25 82 bd
       -0.07989011 -0.013914111 -0.0038167723 -0.06354843
0003e0 cc ed 48 3c cd 33 d5 3c 8f a0 e6 bc b4 03 9e bd
       0.012263726 0.026025677 -0.028152732 -0.0771555
0003f0 cd 88 dd bb 12 43 de bd be d2 e5 bc 47 a2 bc 3d
       -0.0067606927 -0.108526364 -0.028054591 0.092106394

bias f4 [10]
000000 86 87 c5 bd ec ce b1 bd 8e 1c a0 bc bf 26 89 3d
       -0.0964499 -0.08682045 -0.019544866 0.06696843
000010 11 46 06 3c 81 27 63 3c bf e7 83 bd 2f f0 cb bd
       0.008195416 0.013864399 -0.064406864 -0.09957921
000020 3b e9 eb 3b be 32 cf bd
       0.007199434 -0.101171
