PytorchLearning/learn1/vggmodel/vgg_3.pth (torch, 587335 bytes, 10 tensors)

weight f4 [32, 3, 5, 5]
000000 a8 92 ea 3d 34 2a d4 bd f2 24 6d bd 42 96 0e bd
       0.11453754 -0.10359612 -0.057896562 -0.034811266
000010 c5 c7 b1 bd d9 66 d3 bb de 26 c4 3c cb d9 ee bc
       -0.08680681 -0.0064514694 0.023944315 -0.029156586
000020 9d 57 96 bd 1d d0 b6 3d b9 84 e3 3d 72 47 ec bb
       -0.0734093 0.08926413 0.11109299 -0.0072106654
000030 a5 98 9c bc 14 64 6d 3d b0 f1 54 bd 67 34 d9 bd
       -0.019115755 0.05795677 -0.051988304 -0.10605698
000040 dc 7b 84 3d 6f 2c d8 bd 2e 5e cb 3d e3 40 b7 3d
       0.06468937 -0.1055535 0.09930073 0.08947923
000050 3b 92 9b bd bf 2e 3e 3d 71 6c 32 3d f0 a1 d2 3d
       -0.075962506 0.0464313 0.04356045 0.102847934
000060 5a f8 8b bd b3 b3 34 bd 48 3f 0f bd e8 02 ca 3d
       -0.06834479 -0.044116687 -0.03497246 0.098638356
000070 32 7a 17 3d 92 bb dc bd 19 18 80 3d 14 ec 37 bc
       0.03698177 -0.10777964 0.06254596 -0.011225719
000080 4f 39 d1 bd 06 30 a3 bd 8b 77 a6 3d 8b bc cb bc
       -0.10216009 -0.07968144 0.0812827 -0.024870178
000090 53 2d b9 bd c9 8a 22 3d e5 02 b4 bd ea 3e 96 3d
       -0.09041848 0.039683137 -0.087896146 0.07336219
0000a0 e2 51 02 3d 24 ab ab 3d fb 00 8a 3d 0b ea 9b 3d
       0.03181637 0.08382252 0.06738468 0.076129995
0000b0 c5 83 2c bd 27 67 13 bd bc b4 4c 3d 63 e7 d7 3d
       -0.042117853 -0.035987046 0.04997705 0.105421804
0000c0 6f 60 95 bd 5d 0c 3b bd 6b 7c 0f ba ac e5 da 3c
       -0.07293784 -0.045666087 -0.0005473557 0.026720844
0000d0 69 44 a6 bd 71 13 25 bd 41 a7 25 bd 95 ff 93 3c
       -0.08118517 -0.040301744 -0.04044271 0.018066207
0000e0 42 e5 c5 3d 38 d8 28 bc ff 82 ca 3d 01 25 71 3d
       0.09662868 -0.010305457 0.09888267 0.05887318
0000f0 3f a9 08 bd c7 a4 8b 3d 0e 36 97 bd d7 bd e8 bd
       -0.03336453 0.06818538 -0.07383357 -0.11364334
000100 2e df c6 3c 04 66 df 3d 67 48 98 3d 39 99 25 bd
       0.024276342 0.1090813 0.07435685 -0.040429328
000110 a3 19 07 ba f6 83 df 3d 92 48 ea bb 3a 67 ea 3d
       -0.00051536615 0.109138414 -0.0071497643 0.1144547
000120 c5 42 00 3d a7 c7 d3 3c cd ff 12 3d b3 38 48 bd
       0.031313676 0.025852038 0.035888482 -0.048882198
000130 ea 20 e7 3d c4 d5 07 3d ac 45 04 bd b4 a1 31 3d
       0.11285575 0.033162847 -0.032293007 0.043367103
000140 e4 0b 8a 3d 89 ad 63 bd bf 7f 7d bd e1 3e aa 3d
       0.06740549 -0.055585418 -0.061889406 0.083127744
000150 3e a4 ae bd 81 e3 6c 3c d6 dc dc bb f5 4f a2 bd
       -0.085274205 0.014458538 -0.006740193 -0.07925407
000160 21 66 9d bd b7 77 43 3b cc 0e 9a 3c 88 8b e3 3d
       -0.07685495 0.0029825994 0.018805884 0.11110598
000170 32 48 35 3d 85 6e df bd c7 f4 b4 bb 9a 8f cf bc
       0.044258304 -0.10909752 -0.005522344 -0.02533703
000180 85 f9 8d 3d 1e 8b cb bd 0d 26 85 3d af 3d 8c bd
       0.06932358 -0.09938644 0.06501398 -0.06847703
000190 ce 4d a4 bc af 4e 6a bd ef 8c a3 3d 8a 7d de bd
       -0.020056631 -0.057203945 0.07985865 -0.108637884
0001a0 cf 36 cb 3c 64 ec 53 bd 90 e4 4c 3c dd d2 c1 3d
       0.024806408 -0.05173911 0.012505665 0.09464047
0001b0 d3 af e8 bd 60 80 83 bd 04 6d 76 3d 3e bd f9 bc
       -0.11361661 -0.0642097 0.06016256 -0.030485746
0001c0 8c 3e 9a bd 3b 4d bf bb 40 43 a2 bd c4 69 b2 3d
       -0.07531461 -0.005838064 -0.07922983 0.087115794
0001d0 9b a2 e6 3d c4 a0 80 bc f7 ec 41 3c ad a9 08 3d
       0.11261483 -0.015701659 0.011836282 0.03336494
0001e0 ba 1c d4 bd c3 9f a9 3d 84 73 8c 3d f9 db 9d bd
       -0.10357042 0.08282425 0.0685797 -0.07707972
0001f0 1c 1a 20 3d b4 e4 eb bd c2 b2 c7 bd e7 12 b7 bd
       0.0390874 -0.11518231 -0.09750892 -0.08939152
000200 7f 27 2e 3d 26 13 16 3d 26 e8 b2 bd 0d e8 e0 bb
       0.042518135 0.036639355 -0.08735685 -0.0068636
000210 22 b1 9d 3d 08 cc ae bd 77 1e d7 bd f3 f6 d9 3d
       0.07699801 -0.085350096 -0.105038576 0.10642805
000220 ba 3f 1c 3d ec 19 10 bd 6d 11 b7 3d e5 b1 cb bd
       0.038146712 -0.03518097 0.089388706 -0.0994604
000230 aa 9b 25 ba 08 ad b7 3d 11 f0 61 bb af bc 89 bd
       -0.0006317446 0.0896855 -0.0034475366 -0.06725442
000240 6d 84 88 bc ed 75 7a bd fb 5f 5d 39 e9 00 bd 3d
       -0.016664708 -0.06114762 0.00021111958 0.09228689
000250 f4 63 b7 bc f2 60 aa 3d 13 53 3c bd f3 74 be bd
       -0.022386529 0.08319272 -0.045977663 -0.0929965
000260 5b 0c cf 3d 81 47 1e bd b1 c2 d1 3a f4 d8 b6 bd
       0.101097785 -0.03864241 0.0016003457 -0.08928099
000270 33 53 d2 bd 17 c8 8c bd de 97 cb bd b4 43 8a bd
       -0.10269775 -0.068741016 -0.09941076 -0.067511946
000280 5b d7 5b bd 60 fa dd 3d 2f 49 82 3b e7 9b 25 3c
       -0.053672176 0.10838771 0.0039760093 0.010107971
000290 f0 5f 35 3d 9b 19 1f 3d 3f 7b e5 3b f0 68 ac 3c
       0.044280946 0.03884278 0.0070032175 0.021046132
0002a0 3d 6c 99 bd 82 9d b5 bd 9a e6 b9 3d 63 75 b2 3c
       -0.07491348 -0.08867933 0.09077187 0.02178449
0002b0 06 0f 79 bd 39 2e ab 3d 21 67 c2 3d 94 b9 1f bd
       -0.060805343 0.08358426 0.094923265 -0.03899534
0002c0 3b 74 a8 3c 59 d2 dc 3d c1 c6 55 bd 44 1f 9c 3c
       0.020563236 0.10782308 -0.0521915 0.019057877
0002d0 fd 16 86 3d c8 94 db 3d 3d cc b4 3d bf 0d 27 bd
       0.065473534 0.10721737 0.08828018 -0.040784594
0002e0 0d 73 04 bd 31 29 dd bd d3 b7 61 bd 0f cf c5 bd
       -0.032336283 -0.10798872 -0.05510695 -0.09658634
0002f0 3a 45 76 3d b2 88 9b 3c 3d 69 9d 3d ce 75 af bd
       0.060124613 0.01898608 0.07686088 -0.08567391
000300 c7 83 3b 3d 8d f8 74 bd 27 b6 d0 3d 05 54 49 bd
       0.04577997 -0.05980735 0.10190993 -0.049152393
000310 71 36 9b 3d 10 9c 46 bd 98 d6 9e 3d d6 58 c8 3d
       0.07578743 -0.048488677 0.07755774 0.09782569
000320 da 4d ae 3d 8b 48 59 bd 75 32 99 bc 8a da 12 bc
       0.08510943 -0.053047698 -0.018700818 -0.008963237
000330 1b 7f dc 3d 61 59 c2 3d 50 c2 59 bd 91 bb c2 3d
       0.10766431 0.09489704 -0.053163826 0.09508432
000340 90 c1 be bd 89 f6 5c 3c e9 54 f0 bb 9d ea 50 3d
       -0.09314263 0.013486513 -0.007334341 0.051004995
000350 f4 60 99 bd 24 12 c1 3c e2 21 0f 3d 6a 74 a0 3d
       -0.074891955 0.02356822 0.034944423 0.07834704
000360 04 96 c3 3d e8 82 59 3d ae a9 6e 3d da c6 3b 3b
       0.095500976 0.053103358 0.058267288 0.002865246
000370 b2 bf a8 3c b9 7d c2 3d 13 b8 f6 3a ec 48 99 3d
       0.02059922 0.09496636 0.0018823169 0.07484612
000380 74 78 c6 bc 61 90 b3 bd 5d 46 af 3d 4c 19 cf 3c
       -0.024227358 -0.087677725 0.085583426 0.025280617
000390 eb 5d d7 bd 2a 2e 3a 3d 67 cf 9d bd 0a 13 f3 bc
       -0.1051596 0.04545418 -0.077055745 -0.029672164
0003a0 77 b5 37 bd 67 79 cc 3c 7d f3 af bd ee d9 aa bd
       -0.044850793 0.024960233 -0.085913636 -0.08342348
0003b0 11 12 a8 3c 8d 09 89 bd 71 c1 0c bd 59 80 e7 bd
       0.020516427 -0.06691275 -0.034364168 -0.11303777
0003c0 ad d5 a7 bd 3f d9 32 3d ae 18 c1 3d a4 c2 a7 3d
       -0.08195052 0.043664213 0.094285354 0.08191422
0003d0 7e 55 e3 3d 2d 98 fc bc f7 e7 46 3d 48 88 b3 3d
       0.11100291 -0.030834282 0.048561063 0.08766228
0003e0 79 40 1a 3d e8 2e 93 3d f4 ca 41 3d 34 a9 db 3c
       0.037659142 0.07186681 0.04731269 0.02681408
0003f0 28 84 c9 bd 36 ac ca 3d 84 1f c8 3d 8d b0 d4 3d
       -0.0983966 0.09896128 0.09771636 0.10385237

bias f4 [32]
000000 2f e1 9e 3d 10 a8 3e 3d 38 93 a2 3c e8 79 9d bc
       0.07757794 0.046546996 0.01984559 -0.019223168
000010 b1 8d 8f 3d e1 be 88 3d 50 fe fe bc df 31 e4 3d
       0.07009447 0.06677032 -0.031127125 0.11142325
000020 34 fd 82 bd 3b 67 da 3d 97 ca 8f 3d e7 17 83 bd
       -0.06395951 0.10664221 0.07021063 -0.064010434
000030 5a 6b 05 3c ac fd b6 3c 6f 76 d8 3d df 1f a6 3c
       0.00814327 0.022337757 0.105694644 0.02027887
000040 21 55 88 3d c5 8c a2 bd 37 c7 a2 3c 48 fb ac 3d
       0.06656862 -0.07937006 0.019870384 0.084463656
000050 75 22 94 3d 94 c9 e8 3c f9 a7 85 3d 3f f3 cf 3d
       0.07233135 0.028416432 0.06526179 0.101538174
000060 96 3a c4 bd eb ac 24 bd f6 c0 5a 3d 87 e3 64 bd
       -0.09581487 -0.04020397 0.05340668 -0.05588105
000070 b0 36 5c bd ae 95 b0 3c 31 34 d1 bd c9 cf ab 3d
       -0.05376309 0.021555748 -0.10215033 0.08389241

weight f4 [32, 32, 5, 5]
000000 3c 04 98 bc c1 25 04 bd 5d 4a cc 3b 55 6d 0d 3d
       -0.018556707 -0.032262567 0.0062344507 0.034528095
000010 2e 5c e0 bc 55 12 00 bd a4 96 a4 ba 79 ac b0 3c
       -0.027387705 -0.031267483 -0.0012557101 0.021566616
000020 b1 a8 89 bc 0a 73 b5 3c 7e 6c 6c bc 66 b4 ce 3c
       -0.016804071 0.022149581 -0.014430163 0.025232505
000030 9d dc 0c bd 5f 40 59 3c b9 b0 f5 bc 38 fb 5d bc
       -0.03439008 0.013259976 -0.029991494 -0.013548665
000040 c7 f4 be bc 14 1f fa 39 87 6c 93 3c 80 55 d7 bb
       -0.023310078 0.0004770687 0.017996086 -0.0065714717
000050 71 a6 ce 3c cb 21 17 3c bf bc fa bc 3f 8f 4e bc
       0.02522585 0.009224365 -0.03060758 -0.012607395
000060 0c ef b0 ba 41 56 f0 bc b8 6c c2 bc 5b b4 85 3b
       -0.0013498976 -0.029338004 -0.023733482 0.004080338
000070 e3 56 d8 bc 88 f0 09 3d e2 da 2d 3b 7a 59 98 bc
       -0.026408618 0.033676654 0.002652817 -0.018597353
000080 90 82 f8 bc de e3 d2 3c 96 17 a1 3c fc 9b d8 3b
       -0.030335695 0.025743421 0.019664567 0.0066103917
000090 22 e7 37 bc a6 cd 07 bd 47 e6 8e 3c 44 39 34 3c
       -0.01122454 -0.033155106 0.01744379 0.010999981
0000a0 be 7f fc bc 46 04 11 bb 3f 5a 6c bb 34 e3 23 bc
       -0.030822631 -0.0022127791 -0.0036064533 -0.0100029
0000b0 7f b3 bc 3c ef 85 f8 bc ea d6 8a 3c 0f ac 4b ba
       0.02303481 -0.030337302 0.016948182 -0.0007769474
0000c0 db db 3a bc 35 5d 8a bc 09 c4 94 bb 9a b4 0a bd
       -0.011404957 -0.016890148 -0.004539971 -0.03386364
0000d0 cc 27 bf 3c e3 6c 25 bc e8 ac 07 3d 6a 35 fa bc
       0.023334406 -0.010096761 0.03312388 -0.030543048
0000e0 38 13 2b 3c b8 61 04 3d ec f6 b8 bc ea 29 f4 3c
       0.010441594 0.032319754 -0.022578679 0.029805142
0000f0 83 61 9b bb 96 28 e9 3c fc 7d ec 3c e9 90 e7 3c
       -0.004741849 0.028461736 0.028868668 0.02826734
000100 96 94 f7 3c 87 82 cc 3a 77 bf 8b 3c ac 33 04 bd
       0.030222218 0.0015602865 0.017059071 -0.03227584
000110 25 da 95 bb af d2 01 bd f8 6d e5 3c 13 5a ef 39
       -0.004573124 -0.031695064 0.028006539 0.00045652743
000120 78 37 71 bb 10 1d 19 bc 74 d7 f0 3c 4b 53 03 bd
       -0.0036806744 -0.009345308 0.029399611 -0.032061856
000130 35 a0 8a bc 21 c4 da 39 97 b1 05 bd e0 f1 f7 3c
       -0.016922096 0.00041726328 -0.032640066 0.030266702
000140 45 b3 6c 3c 8e 13 14 bc 1f 98 80 3b 91 41 e4 bc
       0.014447038 -0.009037865 0.0039243842 -0.027863296
000150 bd f6 cc 3c 0a 6e 47 3b 8c d7 f2 bc e2 49 e8 3c
       0.025019998 0.0030430579 -0.029643796 0.028355543
000160 91 81 aa bc 95 f2 87 bc c6 ad 03 3c 38 6d 21 bc
       -0.020813735 -0.016595164 0.008037036 -0.0098527
000170 80 ad bc ba e2 0c 5e 3c c2 4c 18 bc c3 c9 fc bc
       -0.0014394969 0.013552876 -0.009295644 -0.030857926
000180 75 33 ed bc 20 af bd bc 5e 00 f3 bb 6f f8 e7 bc
       -0.0289552 -0.023154795 -0.0074158153 -0.028316705
000190 ec 9c 7c bc 0e eb ea bc 06 ca 3b 3b 00 94 41 bc
       -0.015418272 -0.028676536 0.002865435 -0.011815071
0001a0 55 b5 4d b9 71 27 4c 3c 7e dd b8 bb cc 32 9d 3c
       -0.00019617875 0.012460575 -0.0056416383 0.01918926
0001b0 0e de 4c 3c d6 44 f7 bc ca 49 83 bc 2a 39 d0 bc
       0.012504114 -0.03018419 -0.016026396 -0.025417883
0001c0 17 6f 12 bd 65 51 16 3c 43 72 43 3c 75 b6 84 3c
       -0.035750475 0.009174679 0.011929098 0.016200284
0001d0 b3 3e 2f 3c d3 f3 07 bd 16 c2 ba 3c fe 85 84 3c
       0.010696101 -0.033191513 0.022797626 0.016177174
0001e0 99 b4 49 3c 00 9c 95 3c eb 07 c5 3b 18 8c bc 3c
       0.012311124 0.018262863 0.006012907 0.02301602
0001f0 63 d3 69 3b 51 4f 69 bc 7a de e7 bc 4e 1e 90 3b
       0.0035678975 -0.014240102 -0.028304327 0.004398144
000200 31 c5 7b 3c 92 0a 0b 3c c5 b8 e0 bc 37 f9 d7 3c
       0.015366838 0.008486407 -0.027431855 0.026363952
000210 d3 55 4c bb 81 40 b2 3c 0c 06 92 3c 12 d0 fd bc
       -0.0031179085 0.021759273 0.017825149 -0.030983005
000220 a2 31 2c 3c 9b c6 03 bd b3 3f d9 bc f8 1e 0e 3b
       0.01050988 -0.032171827 -0.026519632 0.002168594
000230 8b d3 f7 bc b7 75 e3 bc 56 ac 23 bc 2f 7a d9 3c
       -0.030252239 -0.027766092 -0.009989819 0.02654752
000240 2c fc 8b 3c 94 b5 88 3c 2d 72 a2 3c d9 ea 50 bc
       0.017088018 0.016688146 0.019829834 -0.012751305
000250 ed 1c 9a 3b 3f 43 0a 3d 04 39 0a bb bf 86 23 3c
       0.0047031553 0.033755537 -0.0021091113 0.009980856
000260 1b 00 1e bc d9 79 d3 bb be af 3b 3c 57 af ec 3c
       -0.00964358 -0.0064537344 0.011455474 0.028892202
000270 56 ab 31 3b df 5d e3 bb 78 12 d8 bc 5f c6 2b bb
       0.002711018 -0.0069386805 -0.026375994 -0.0026210768
000280 15 2f dd 3c f0 70 90 3c f3 da 1b 3c c5 b9 68 3c
       0.02699999 0.017631978 0.009512651 0.014204447
000290 04 a4 e0 bc 84 6b d7 3c 1c 8e e3 3c 1e 39 db bc
       -0.027421959 0.026296385 0.027777724 -0.026760634
0002a0 29 1c f1 3b a5 a0 b7 bc d1 95 b8 3b d4 a5 9c 3c
       0.0073580933 -0.022415468 0.005633094 0.019122042
0002b0 df a8 54 3b 7e 15 a5 bc 95 fd 40 3c 78 87 e6 3c
       0.0032449288 -0.02015185 0.011779209 0.028140768
0002c0 bc ad a1 3c a9 70 13 bc b4 3b 8a bc 2e 11 03 3d
       0.019736163 -0.008999028 -0.016874172 0.031998806
0002d0 a7 53 db 3c 19 4d f5 bb a1 7f 5a 3b 36 1b a6 3b
       0.026773287 -0.0074859974 0.0033340233 0.0050691618
0002e0 aa b8 ea 3c ba 5e d1 3c 5c 38 f4 bc b0 b9 f0 bb
       0.028652508 0.025557864 -0.02981203 -0.0073463544
0002f0 38 b2 fc 3c e0 c7 8f 3a 1d 09 99 bc 5f 8f 00 bd
       0.0308467 0.0010969602 -0.018681103 -0.03138673
000300 83 83 4c ba 3a 6b 0f 3d 1a 82 ac bc 82 69 06 3c
       -0.0007801579 0.03501437 -0.021058131 0.008203866
000310 4e 6f ce bc b7 be 77 3c fa 75 9a 3c 25 d3 94 bc
       -0.025199559 0.015121154 0.018855084 -0.018167088
000320 78 37 90 3c 70 3d a9 bc 85 6a e6 3c 8e 1b 2f 3c
       0.017604575 -0.020659178 0.028126964 0.010687722
000330 2a 22 c6 3b fd b9 dd 3c 76 47 84 3a e1 b7 2f bb
       0.006046553 0.027066225 0.0010092098 -0.0026812481
000340 a8 08 41 bc 8d 9e e5 3b f9 5c 93 3b 07 ad e0 3c
       -0.011781849 0.007007426 0.004497167 0.027426256
000350 2c 8b 3b bb cb d4 69 bc d9 1b 65 3c 5e ac c1 bb
       -0.0028616888 -0.014271925 0.01398369 -0.0059104403
000360 b3 0e f4 3c 13 23 9d 3c ab d0 03 3b 27 81 08 bb
       0.029792165 0.019181764 0.002011339 -0.0020828934
000370 a8 47 dc bc 17 d0 f8 3c f7 15 95 3c 20 91 0c 3d
       -0.026889637 0.030372662 0.01819895 0.03431809
000380 07 61 39 3c dc 79 03 b9 88 79 c0 bc cf 7f 0c 3c
       0.011314637 -0.0001253853 -0.02349545 0.008575394
000390 5b 50 c5 bc a4 2d d6 3c 5a 10 12 bd b5 cb ae bc
       -0.024086168 0.02614481 -0.035660125 -0.02133737
0003a0 1a b1 2f bc 2e c5 cc 3c 06 75 f5 3c 57 7e 86 bb
       -0.010723377 0.024996366 0.029963028 -0.0041044164
0003b0 10 ad 7a 3c 7f 55 f0 bc aa df 8d bc 45 a3 fb bc
       0.01530005 -0.029337643 -0.017318565 -0.030717501
0003c0 8f 9c be 3c d0 cb 8a bc bd 91 b5 3b 23 4b 81 3b
       0.023268012 -0.016942888 0.005541055 0.0039457246
0003d0 52 59 2f bc 49 c0 eb 3c a3 f4 01 bd b8 f9 dc bc
       -0.010702448 0.028778212 -0.031727444 -0.026974544
0003e0 5e a8 e8 bb 88 c0 6b bc 12 74 09 bd e2 01 d6 bc
       -0.007100149 -0.014389165 -0.03355796 -0.026123945
0003f0 9a e9 b1 bc fa 31 a0 3c 15 6f 9f 3c c0 2a 8d 3c
       -0.021717835 0.01955508 0.019462148 0.017232299

bias f4 [32]
000000 b1 4b 27 bc 8f b8 f1 bc 68 65 05 bc 5d e5 cd bc
       -0.010210917 -0.02950695 -0.008141853 -0.025133783
000010 2e f6 18 3c 4a 9d 74 bc 49 a3 9b bb 08 2d 0b bc
       0.009336038 -0.014930079 -0.0047496897 -0.008494623
000020 79 a6 8c 3c e1 1d 98 3c 3c a8 92 bb 41 ae 28 bc
       0.017169224 0.018568935 -0.0044756215 -0.010295452
000030 d3 d5 cb 3c 50 91 97 bc 10 ac 37 bc 28 5c e6 bb
       0.024882233 -0.018501908 -0.0112104565 -0.007030029
000040 94 17 e5 3c ac be f3 bc 82 2f ac bc 95 96 26 bc
       0.027965344 -0.029754005 -0.021018747 -0.0101677375
000050 90 a6 d4 3c 84 13 cf bc ad 53 e7 3b 9d 71 6d bc
       0.02595833 -0.02527786 0.0070595355 -0.01449242
000060 cc 48 7c 3b 94 cb af bc 2e 26 75 bc 07 bf e8 3c
       0.0038495539 -0.021459378 -0.014962716 0.028411401
000070 c3 be e0 3c d2 31 c8 bc 2c 4a 65 3c 1d 25 c3 3c
       0.027434712 -0.024437819 0.013994735 0.023821408

weight f4 [64, 32, 5, 5]
000000 81 63 15 bc 38 ac 66 3c 01 64 8d bc fb 85 e5 3b
       -0.009117962 0.014079146 -0.0172596 0.007004497
000010 70 d3 5e 3c 89 29 8e bc 11 cb 86 ba af f2 44 3b
       0.013600215 -0.01735379 -0.0010283907 0.0030051877
000020 67 a4 b0 ba 66 55 63 ba 47 30 28 bc 9d 78 92 3c
       -0.001347673 -0.0008672088 -0.0102654165 0.017879779
000030 23 eb 89 bc ed 0e 01 3d d8 15 0d 3d da 3d 01 bd
       -0.016835755 0.031508375 0.03444466 -0.031553127
000040 66 9a 5a 3c 92 9d 62 bc aa d8 05 bd 1a 3f f8 ba
       0.0133424755 -0.013831513 -0.03267733 -0.0018939704
000050 9a 27 76 bb 82 d5 37 3c 4a c6 36 bc 40 d0 8a 3c
       -0.0037560225 0.011220338 -0.011155674 0.016945004
000060 f4 d4 f0 bc 70 e0 15 ba a7 fa 75 bc 8b ab 04 3d
       -0.029398419 -0.0005717343 -0.015013373 0.03239016
000070 cb 9d 00 3c e8 f1 05 3c 35 55 bd 3b fd bc 03 bd
       0.007850121 0.008175351 0.0057779797 -0.032162655
000080 e8 dc 8e 3b 31 f8 3c 3c 51 ec e2 3b e3 d4 c6 bc
       0.00435983 0.011533783 0.0069251438 -0.024271434
000090 5c a5 0c bd c0 46 9a bc 0a 8d 22 3c 6f 6c 18 3a
       -0.034337386 -0.018832564 0.009921322 0.00058144977
0000a0 3b 5d 06 3d a0 e5 ed 3b 85 a3 b3 bc f5 a4 81 bb
       0.032803755 0.0072600394 -0.021928558 -0.003956432
0000b0 35 8f b0 3c 3c 24 bb 3c 5c 71 b1 bc 80 95 09 bd
       0.021552661 0.022844426 -0.0216605 -0.03358984
0000c0 be 8e 07 3d c1 8c 9c 3c ce 1b 8b 3c 18 a2 e0 3c
       0.033095114 0.019110085 0.016981032 0.027421042
0000d0 c7 e9 ab bc 19 f9 77 3b 0d f4 f3 3c 5e d7 ab bb
       -0.020985497 0.0037837683 0.029779458 -0.0052441796
0000e0 3f 5e ac bc 88 e8 4a bc 8f be 9e bc 91 27 01 3d
       -0.021041034 -0.012384541 -0.019377975 0.031531874
0000f0 59 66 a8 3c 90 92 89 3c 71 3b f4 bc 8c a0 e4 bc
       0.020556616 0.01679352 -0.0298135 -0.027908586
000100 d5 b5 bf 3c 44 1c d9 bc ce a1 f5 3b 0f e2 ed 3c
       0.023402134 -0.026502736 0.0074960953 0.029038457
000110 46 76 95 bc 97 25 b1 3c 36 dd 98 bb 2c 50 ea 3b
       -0.018244874 0.02162437 -0.0046650423 0.0071506705
000120 b2 53 8e 3c df 59 e2 3a 4b e2 0b bd a4 c5 a7 3c
       0.017373893 0.0017269215 -0.034151357 0.020479985
000130 d1 54 9c 3c dd c7 ca bc 82 41 d0 bc 21 79 a7 3c
       0.019083412 -0.024753505 -0.025421862 0.020443501
000140 bb d2 5c 3b e9 74 e3 bc 1f 01 12 3c 5e 9a 01 3d
       0.003369494 -0.027765708 0.0089114 0.031641357
000150 b3 dc fe bb 4b 75 a4 3a 67 72 35 3c 06 ba 0c 3d
       -0.0077777742 0.0012547163 0.011074639 0.034357093
000160 71 2a 2e ba d4 cf c6 3c 24 ae 91 3c 0c 72 9a 3c
       -0.00066438975 0.024269022 0.017783232 0.01885321
000170 39 7b 0c bd 30 9f d7 bc 2b a0 53 3c de c9 fc bc
       -0.0342972 -0.026321024 0.012916605 -0.030857977
000180 5d 0e 91 3c 29 b9 e4 3c a9 0d ae 3b 1b 6c 4f bc
       0.017707044 0.027920322 0.005311687 -0.012660052
000190 db dc 90 3b 9b bc 51 3b 51 d6 ec 3c 9f ea 81 3c
       0.0044208593 0.0032003287 0.028910788 0.015858946
0001a0 b6 61 49 3a 7b 4e 68 3c a5 c3 97 3c fc c6 a4 3c
       0.00076821016 0.014178867 0.018525908 0.020114414
0001b0 a6 af de 3c 6b 79 e3 3c 58 0d 8e bc 6a 5f a4 bc
       0.027183365 0.027767858 -0.017340347 -0.020065028
0001c0 68 c8 ca 3c 61 3a 4a bc 3b 2b 20 3c 62 07 09 bd
       0.024753764 -0.01234302 0.009775932 -0.033454306
0001d0 1e 30 0b 3c 2e 71 de bc 88 ca 06 bd 1e 30 46 bb
       0.008495359 -0.027153578 -0.032907993 -0.0030241082
0001e0 5b 9b 05 3c 4c 87 ac bc 89 2b f1 3c c6 da bb 3b
       0.008154715 -0.021060608 0.029439704 0.005732867
0001f0 59 42 8e 3c 3d 06 c1 bc f1 e5 d6 bc 5b 4e 08 bd
       0.017365621 -0.023562545 -0.026232691 -0.03327785
000200 a6 cf e2 bc c4 45 9b bc 59 00 2b bc ae 62 f0 bc
       -0.027686905 -0.018954165 -0.010437095 -0.02934393
000210 97 09 ec 3c fa 29 b2 3c c5 d5 a5 bb be ea a9 bc
       0.028813167 0.021748532 -0.0050608837 -0.020741817
000220 6e 88 30 3c f2 63 c4 bc 21 d0 e3 3c b8 54 59 bb
       0.010774715 -0.023973439 0.027809205 -0.0033162069
000230 99 ee 83 bc 33 5b 67 3c c4 ce cc bc e5 63 0b 3d
       -0.016104983 0.014120865 -0.025000937 0.034030814
000240 c3 25 11 bd 46 58 f0 bc af b4 06 3d 5f cd ca 3c
       -0.035436403 -0.029338967 0.032887157 0.024756132
000250 49 3b 9f bc 93 98 44 bc 7b 3b 8a bc 2a 7d 03 3d
       -0.019437449 -0.011999267 -0.016874066 0.032101788
000260 01 08 96 3c a3 19 a5 3c 9e 92 0e bc cd 29 be bb
       0.018314363 0.020153826 -0.008701948 -0.005803323
000270 98 9b 90 3c e8 23 98 3c 8b 46 99 3c 46 81 c7 3c
       0.017652318 0.018571809 0.018710395 0.024353635
000280 62 bd 30 3c cb 58 10 3d f9 a9 e1 3c e9 f6 94 3c
       0.01078734 0.03524093 0.02754687 0.018184142
000290 ae 18 fa 3c d4 f0 c8 bb ba 05 d1 bb 4d 97 79 3c
       0.030529346 -0.0061322246 -0.0063788565 0.015233827
0002a0 5a b7 dc 3c 91 5d d4 3c 8b 44 2f 3c ee 73 40 3c
       0.026942898 0.025923522 0.010697494 0.01174639
0002b0 73 0a c1 bc 74 12 06 3d f0 c6 e7 bc 91 0f dc ba
       -0.023564553 0.032732442 -0.028293103 -0.0016789307
0002c0 6b 72 c6 ba 85 5a e3 3b ca 1f e1 bc 06 d3 c1 3b
       -0.00151403 0.006938281 -0.027480979 0.0059150485
0002d0 81 7d 10 3d 3a c0 9c bc 0f e1 bf bc bf d3 7b 3a
       0.03527594 -0.01913463 -0.023422746 0.0009606443
0002e0 f3 7b e2 bc ba 33 33 3c 7e 72 c5 3c 02 c9 08 bc
       -0.027646994 0.010937626 0.024102446 -0.008348705
0002f0 7b b6 54 bc 6f 46 98 bc f1 f4 19 bc 50 63 c1 bc
       -0.01298296 -0.018588273 -0.0093967775 -0.023606926
000300 a7 78 ff bb 1e 00 49 bb 87 05 8a 3c a2 a9 0e bd
       -0.0077963653 -0.0030670236 0.016848339 -0.034829743
000310 97 a3 f5 bc b7 3d 06 3d d6 d1 f9 39 1e e9 8b ba
       -0.029985232 0.0327737 0.0004764932 -0.0010674333
000320 2c 3a 01 bc 7d 57 00 3d db b0 fc bb 9d d8 04 3d
       -0.007887404 0.031333435 -0.0077115125 0.03243314
000330 a5 1a 30 bc 48 b9 40 3c 50 6f fc bc eb 55 ff bc
       -0.01074854 0.0117629245 -0.030814797 -0.031168899
000340 97 1e ec 3c 19 43 ae bc 1c 63 e2 3c 61 65 87 bc
       0.02882318 -0.021272229 0.02763515 -0.016527833
000350 32 97 08 3d 11 95 b4 3c a2 98 a0 3a b4 a8 82 bb
       0.033347316 0.022043737 0.0012252519 -0.003987396
000360 0e 2d 94 3c 6f 62 96 bc 98 d8 bd bc 3d 70 c7 3b
       0.01808789 -0.018357484 -0.023174569 0.006086378
000370 0b 53 b1 bc 1e 9d d1 3c 21 bc 3d bc 89 d6 e2 bc
       -0.021646043 0.025587615 -0.011580498 -0.027690189
000380 f2 c3 d7 bb be 85 43 bc d1 76 49 bc e4 4e d7 3c
       -0.006584638 -0.011933742 -0.012296394 0.026282735
000390 ff 7e b4 3c 5a e8 8d bc 51 e9 09 3d 67 22 c0 bc
       0.022033213 -0.017322708 0.033669773 -0.023453904
0003a0 c6 1b 1f bc c8 5d fe bc a8 f9 0b bc b8 ce 12 3c
       -0.009711212 -0.031050578 -0.008543409 0.008960418
0003b0 2a 10 f3 bc 83 a7 c6 3c 88 7c 89 ba 90 84 06 3d
       -0.029670794 0.024249798 -0.0010489384 0.032841265
0003c0 5c c7 fa bc 72 1f 6e bb 57 0d 45 bc bd 63 de ba
       -0.03061264 -0.003633466 -0.012027106 -0.001696698
0003d0 a1 25 d0 3c 52 b3 2a 3c 11 fc 02 bd df 82 92 bc
       0.025408568 0.01041873 -0.03197867 -0.01788467
0003e0 68 9f 50 3c b4 de 85 bb 65 c6 21 3c 92 8a ba bc
       0.012733318 -0.004085386 0.009873961 -0.022771154
0003f0 84 fd eb 3c dd ed 9e ba 8b 4a 35 bc c8 10 0c 38
       0.02880741 -0.0012125332 -0.011065136 3.339423e-05

bias f4 [64]
000000 3f 64 04 bd d7 43 fe bc e0 9b f0 3b 77 bc 48 bc
       -0.032322165 -0.031038208 0.0073428005 -0.012251965
000010 aa 98 aa bc 2b eb cb 3c 7f 73 3f bb 44 44 03 3d
       -0.020824749 0.02489241 -0.0029213128 0.032047525
000020 f9 d3 ec 3a ad ba 35 bc e5 93 85 bc f7 2f 82 3c
       0.0018068544 -0.01109187 -0.016305873 0.015892012
000030 56 46 e9 bb 5d d2 c2 bc d9 99 06 bd f8 8a 10 3d
       -0.0071189804 -0.02378195 -0.032861564 0.03528878
000040 8e 81 80 bc 11 07 89 3c 18 26 02 bd c0 11 bd bc
       -0.015686776 0.016727002 -0.03177461 -0.023079753
000050 80 3e d8 3c 9a be d1 bc 8c 1c e8 3c e8 a1 57 3c
       0.02639699 -0.025603581 0.028333925 0.01316116
000060 fb 39 ee 3c 20 fa a2 bb cc 44 b7 3c 38 6d 4b 3c
       0.029080382 -0.004973665 0.022371672 0.0124161765
000070 5e 6e c5 bc ce 68 96 3c 7c fb fd 3c 92 18 71 3c
       -0.024100479 0.018360522 0.031003706 0.014715331
000080 91 ae f6 bc 8b d6 2a 3c fe cb a7 bc 40 57 26 bb
       -0.030112537 0.010427128 -0.020483013 -0.0025381595
000090 79 b9 26 bc e5 df ba bc 33 87 01 bd 3b a1 05 3d
       -0.010176056 -0.02281184 -0.031623077 0.032624464
0000a0 51 ed 0a 3d 68 56 ad bc 52 d5 1c 3d f8 ab 3c bb
       0.03391773 -0.021159366 0.038289376 -0.0028789025
0000b0 fc 1f b5 bc 0d 6c 26 3c 8c 62 0b 3d 86 5f 67 bc
       -0.022109978 0.010157597 0.03402953 -0.014121896
0000c0 96 7e c1 3c 1f af ba 3c d4 ec 94 bc e4 12 55 bc
       0.023619931 0.022788582 -0.018179335 -0.013004992
0000d0 86 fb 04 3c 4b 1e 86 bb 11 43 ed 3b 2d 12 e3 3c
       0.0081166085 -0.0040929667 0.007240661 0.027718628
0000e0 f4 1f 01 3d c2 b4 c6 bc fa 4a 1c 3c 9b 04 65 bc
       0.031524613 -0.024256114 0.00953936 -0.013978149
0000f0 fc 91 48 bc ea 08 e9 bb 8b 34 2a bc 4d b5 7a 3c
       -0.012241837 -0.0071116583 -0.010388504 0.015302015

weight f4 [64, 1024]
000000 76 df 8c bc 97 94 92 3b f5 bf 75 bc ed ae a0 bb
       -0.017196398 0.0044732797 -0.014999379 -0.0049036653
000010 c4 44 83 bc d0 bb 8f ba e8 8c 99 bc 57 0c c7 bc
       -0.016024001 -0.0010966007 -0.018743947 -0.024297876
000020 28 dc 10 bc 8c 88 11 3c fe df e2 bc bd f8 f1 3c
       -0.008841552 0.008882653 -0.027694698 0.029537553
000030 ac 3b ce bc 09 d9 22 3c 3e 47 f1 3c 3d 7d cd ba
       -0.025174938 0.0099394405 0.029452916 -0.0015677583
000040 f2 ea c8 3b 65 03 99 bc e5 85 2b 3c 17 cb a7 bc
       0.0061315233 -0.018678376 0.010468935 -0.020482583
000050 d1 fd cf bc 0f 9b 6d 3c 52 fd 8c 3c 81 56 80 3c
       -0.025389584 0.014502301 0.017210636 0.015666248
000060 ee 63 32 3c 3b dc e6 bc c5 80 03 bc 8f 34 68 3c
       0.010888083 -0.028181186 -0.0080263065 0.014172687
000070 be b7 9a bc 0d 00 a2 3c ac 1e 82 3c a5 22 41 3c
       -0.018886443 0.019775415 0.015883766 0.011788045
000080 9f e7 50 bc fd a6 ce 3c 5b d2 cd bc 0c c6 43 3c
       -0.012750535 0.02522611 -0.02512472 0.0119490735
000090 8e 61 22 3c b2 88 c8 bc 56 91 a8 3c d0 04 de 3b
       0.009910954 -0.024479244 0.020577114 0.006775476
0000a0 20 d6 5e bc a9 43 84 bc 13 f9 6a bc c8 ca 6a bc
       -0.013600856 -0.016145544 -0.0143416105 -0.014330573
0000b0 e9 da a1 bc 6d 3d ed bc 69 95 9a 3c 95 5b ba 3c
       -0.019757705 -0.028959954 0.018870072 0.022748748
0000c0 fd 8b 67 3c ca 3d a7 bc 92 c3 a9 3c 34 24 fa bc
       0.014132497 -0.020415206 0.020723138 -0.030534841
0000d0 5c 62 a7 3c 29 b1 fb 3b 15 92 06 bc f7 ea ed 3c
       0.020432644 0.0076810312 -0.00821354 0.029042704
0000e0 1b 49 b4 3c 73 7e a2 3c be 71 dc bc 0d e2 c2 bb
       0.022007516 0.019835686 -0.026909705 -0.0059473575
0000f0 b6 3f 5b 3c 54 6e 7e 3c a8 76 07 3c 75 71 03 3d
       0.013381889 0.015529234 0.008268036 0.032090623
000100 fe 71 d9 3c ee be c2 3b 31 c7 9b bb ed 75 c4 3c
       0.026543614 0.0059431707 -0.00475397 0.023982013
000110 08 d8 40 bc fb d4 ca bc 2f b1 53 bc ff 21 7f bc
       -0.011770256 -0.02475976 -0.012920662 -0.01557207
000120 40 6b ec 3a 11 3b 00 bc e7 ee 30 bc cc 90 1c 3c
       0.0018037334 -0.0078265825 -0.010799146 0.009556007
000130 f1 3e 61 3c b6 5f cc bc 05 61 d6 bc de 8d b9 bc
       0.013747917 -0.024947982 -0.02616931 -0.022650655
000140 3d a7 2b bb 1e 4b ce bb 54 98 03 3c 00 13 90 3c
       -0.002619221 -0.0062955758 0.008031923 0.017587185
000150 9e 3c d3 bc 8e 84 c0 3c 69 3e cc 3c 10 f7 5b bc
       -0.02578574 0.023500707 0.024932103 -0.0134256035
000160 23 49 e3 3c 9a 01 ba 3a 0d e6 fa ba dc 3b dd 3c
       0.027744835 0.0014191151 -0.0019142047 0.027006082
000170 40 aa a0 3b 4c 81 e2 3c 46 85 fd bb 5d 35 06 bc
       0.004903108 0.027649544 -0.0077368347 -0.008191434
000180 d4 0b c7 bc bc 5a 30 bb 6c 77 da bc 7c 51 8a bc
       -0.024297632 -0.002690955 -0.026668273 -0.016884558
000190 15 43 d0 bc e0 ce d7 3c 91 a7 4b 3c b3 3d 96 3b
       -0.025422612 0.026343763 0.012430088 0.004584992
0001a0 da d6 ec bc 85 f2 a4 3c aa 53 dd 3c 89 1b 04 3c
       -0.028911043 0.020135174 0.027017433 0.0080632055
0001b0 1f be f0 bc 45 6d ae bc 49 a6 aa bc cf cf e0 3c
       -0.029387532 -0.021292338 -0.020831244 0.02744284
0001c0 b3 43 06 bc dd 85 76 bc 06 d4 9e bc 71 0a 98 3a
       -0.008194852 -0.015046564 -0.01938821 0.0011599791
0001d0 25 2e 91 3c 75 47 cf 3c 4c 0a a7 bc e0 31 ca 3c
       0.017722199 0.025302628 -0.020390652 0.024681985
0001e0 f3 aa 29 bc a2 12 81 bc 36 89 99 bc 68 95 c3 bc
       -0.010355699 -0.015755955 -0.018742185 -0.023874953
0001f0 ef 31 fa 3c 1d 2d b5 bc 0c 65 0f 3c ea e0 d3 3c
       0.030541388 -0.022116238 0.008752119 0.025864083
000200 16 9e 42 3b 7f c7 d8 3c 29 54 51 bc 1c 02 75 3b
       0.0029696277 0.026462315 -0.012776413 0.003738529
000210 3d 81 60 bb 05 f3 44 bc 02 4e c6 3c 76 13 7f bc
       -0.003425672 -0.012020831 0.024207119 -0.015568605
000220 bd 31 a9 3c 25 59 e3 bc 14 e7 5f 3c 2b 11 60 bc
       0.0206536 -0.027752468 0.013665933 -0.013675968
000230 11 4c ed 3c 9e 63 3a bc 2e 72 b5 3c 86 72 fb 3b
       0.028966935 -0.01137629 0.022149172 0.0076735644
000240 f7 fe fd 3c 91 8f a3 3c 89 77 1d bc 06 71 5d bc
       0.031005366 0.019965919 -0.009611019 -0.013515716
000250 c4 b5 0f 3b 6b f0 9b bc 02 2a b9 bb 69 53 fa 3c
       0.002192841 -0.019035539 -0.0056507597 0.030557351
000260 b5 54 12 3c 37 b1 f0 3b 15 53 90 bb 91 be 9b bc
       0.008931329 0.0073453444 -0.0044044354 -0.019011768
000270 43 7e da 3c 06 b6 5e 3b ca 1a bd bc 59 52 b1 3c
       0.026671534 0.0033983006 -0.023084063 0.021645712
000280 63 80 6d 3c 96 37 cf 3c 8e c3 00 3c a5 6b fb bb
       0.014495942 0.02529506 0.007859124 -0.0076727443
000290 1e 92 2d bc cc 9f dd bc a2 17 38 bc 17 44 e0 3c
       -0.010593919 -0.027053736 -0.011236103 0.027376218
0002a0 03 11 a9 bb 6d d7 4a 3c bf bb 82 3c f6 3a fc 3b
       -0.0051594987 0.012380463 0.015958665 0.0076974584
0002b0 10 73 bf bc ae 16 f9 3a 19 a6 5c bc 5e 1d 4e 3c
       -0.023370296 0.0019003951 -0.013467335 0.012580244
0002c0 ab b8 42 bc 52 32 16 3c 69 e0 c4 bc 41 8a 4d 3c
       -0.011884849 0.009167271 -0.024032788 0.012545169
0002d0 0c c8 d6 3c d1 e4 cd 3b 25 fe c3 3c 31 32 91 3c
       0.026218437 0.0062833806 0.023924896 0.017724128
0002e0 57 4c bf bc d7 58 af 3c 42 ef fc 3c 80 69 8f 3c
       -0.023351831 0.021404667 0.030875806 0.017506361
0002f0 fc bc bb bc 3a 69 08 3c b2 e8 bc 3c c2 b4 db 3b
       -0.022917263 0.008325869 0.023060177 0.0067048976
000300 25 36 88 bc b5 b0 da 3c dc ca ea 3c 74 d6 82 bb
       -0.01662738 0.026695589 0.028661184 -0.00399285
000310 d7 91 d0 bc c4 65 74 bc ae 31 81 bc 22 e3 83 bc
       -0.025460167 -0.014916841 -0.01577076 -0.016099516
000320 92 da 91 bc 82 83 b0 39 cf 41 5d bc 5f ee fa bc
       -0.017804418 0.00033667317 -0.0135044595 -0.030631242
000330 aa 3c cf 3b 3b e5 44 3b 7a 9b b7 bc c6 70 82 bb
       0.0063243704 0.0030043859 -0.022413004 -0.003980729
000340 29 60 54 3c 11 d1 c9 bc 1a 6b f8 39 ac e0 a6 bb
       0.0129623795 -0.024635823 0.00047382043 -0.005092701
000350 1d 52 b4 bc 34 c8 95 3c f6 5e 3b bc 2c 7a c1 3c
       -0.02201181 0.01828394 -0.011436215 0.023617826
000360 75 1b 9b bc c7 00 60 3c ce 0d b7 3b e0 da ef bb
       -0.018933991 0.01367206 0.0055863624 -0.007319793
000370 89 3e 28 3b 1a 4f 69 bc 1b dc 45 bb 74 e0 e3 3c
       0.002567204 -0.014240051 -0.0030191008 0.027816989
000380 37 27 ab bc 85 91 59 bc e5 09 cf bc 4f 9f bd bc
       -0.020892723 -0.0132793235 -0.025273273 -0.023147253
000390 6f 1b d4 3c bf eb ca 3c 9a 2f 78 bc 5b 0a c5 bc
       0.025891988 0.024770616 -0.015148068 -0.02405279
0003a0 87 7c ed 3c 4c 19 4f bc 18 93 ed 3c 84 a9 ae ba
       0.028990043 -0.012640309 0.029000804 -0.0013325666
0003b0 1a d5 a4 3c 5f 84 09 bc 93 5b 3f 3c 4a 94 b6 3c
       0.020121146 -0.008393376 0.011679548 0.022287507
0003c0 84 c2 b9 bc ad 28 94 3c 87 6c df 3c 83 f1 f0 3b
       -0.02267576 0.018085802 0.02727343 0.007353009
0003d0 f2 3e e3 3b 07 d6 ab bc 10 4a 47 bc 84 b4 ca 3b
       0.006934994 -0.02097608 -0.012163654 0.00618607
0003e0 e0 c0 ba bb d4 e1 e2 bc bc 9f cd bc bd 69 b6 bb
       -0.005699262 -0.027695574 -0.025100581 -0.005566804
0003f0 8c c4 e4 bb f2 d0 ac 3c a6 70 37 3c 87 f1 9f bc
       -0.006981438 0.021095727 0.011196291 -0.019524349

bias f4 [64]
000000 7d 54 d5 bc ed 03 5e bc cd 30 98 3c dc a2 28 bc
       -0.026041264 -0.013550741 0.018577958 -0.010292735
000010 69 19 2a 3c 83 0e 01 3d cd 3d ed bc bd 63 4b bc
       0.010382035 0.03150798 -0.028960133 -0.012413916
000020 6c f4 8f 3b 4c e0 aa 3c 4b 17 0b bc 5b 7c 5d 3a
       0.004393151 0.020858906 -0.00848944 0.00084490114
000030 70 9c 06 3d b3 03 04 bd aa f2 31 3c 7a c0 c9 3a
       0.032864034 -0.03223009 0.010861078 0.0015392445
000040 bc ca df 3a 1c de f1 3b 33 fe b8 3c c6 2f f1 bc
       0.0017073969 0.007381214 0.02258215 -0.029441725
000050 7d 05 ba bc 0f f8 c7 3c c5 ea af 3c 64 3f 5b 3b
       -0.022707695 0.024410276 0.021474252 0.0033454532
000060 65 43 24 3c af 17 7c bb 18 8a 1a 3b 5d c7 f8 b9
       0.010025834 -0.0038466265 0.0023580845 -0.00047450783
000070 82 5a 42 bc b3 28 83 bb 99 6c 49 b9 bd 28 8b 3c
       -0.011862399 -0.0040026545 -0.0001920931 0.016987199
000080 59 4c e9 3c 73 1e 9f bc 94 81 01 bc 6f f0 e5 bc
       0.028478788 -0.019423699 -0.007904429 -0.02806875
000090 fb 8c 56 bb c4 a6 ee bc 62 6e f7 3c 5b 3f cf 3c
       -0.003273784 -0.029132254 0.030204002 0.025298765
0000a0 5e c0 5e 3c e0 4d 74 bc c8 6f 9b bc 74 c8 9b 3c
       0.013595669 -0.014911145 -0.0189742 0.019016482
0000b0 42 53 1e 3a 08 66 9e 3c b1 b6 d2 3c b8 68 9a bc
       0.0006039628 0.019335762 0.02572188 -0.018848762
0000c0 5a 5b 75 3b e1 0e 94 3c c4 61 f1 bc 2c b9 c2 3c
       0.0037438483 0.018073501 -0.029465564 0.023769937
0000d0 fe 6e 46 bb fe 14 d1 bc 79 85 fe bb 31 1a 9a bc
       -0.003027856 -0.025522705 -0.007767376 -0.018811317
0000e0 65 b0 f9 3a 64 89 68 bc 44 f3 8a bc 27 9f d7 bc
       0.0019049762 -0.014192913 -0.016961701 -0.026321007
0000f0 69 32 0c 3d ab d8 c8 bc be 1c ba bc 05 7c 37 3c
       0.034227762 -0.024517378 -0.022718783 0.011199002

weight f4 [10, 64]
000000 2c ee 8d 3c 16 da da bd 1c d9 a4 3d dc 0b 82 bd
       0.017325483 -0.10686128 0.08049223 -0.06349918
000010 96 11 04 bd 22 82 53 bd 16 1b 80 bd 62 b1 0e 3d
       -0.032243334 -0.051637776 -0.06255166 0.034837134
000020 b5 f0 f6 3b 1b ca f4 3d 66 c5 89 3a cb f8 fe bd
       0.0075360187 0.11952611 0.00105111 -0.12449797
000030 90 1f 56 3d db 04 00 3d 49 e1 45 bd 9a 5e 85 3d
       0.052276194 0.03125463 -0.04831055 0.065121844
000040 59 1f 26 bd 34 74 34 3d 0a 00 c9 3d 75 53 bd 3d
       -0.04055724 0.044056132 0.098144606 0.09244434
000050 07 85 b8 3c 2a c4 8f bd d4 fe e8 3d d1 c4 5e 3d
       0.02252437 -0.07019837 0.113767296 0.054386918
000060 6b 6c 12 bd c0 df 94 bd dd 13 7a bd 4a d9 d0 bc
       -0.035747927 -0.072692394 -0.0610541 -0.025494236
000070 8d 8e d9 3c 37 c3 10 3d 09 6b 07 bd 6b 70 ab 3d
       0.026557231 0.03534242 -0.03306106 0.083710514
000080 d3 9c 7e bb f2 45 ae 3d 2a e7 3d 3d 34 5b 95 3d
       -0.0038850799 0.08509435 0.046363033 0.07292786
000090 5a e2 f4 3d d9 2a 26 bd 11 4a a9 3d 6d fb cb bd
       0.11957236 -0.040568206 0.0826608 -0.09960065
0000a0 34 b8 18 bd 55 33 cc bc be 91 a4 3d d2 de fe 3c
       -0.037285045 -0.02492682 0.080356106 0.031112108
0000b0 8b 84 f9 bd a3 56 2d bd 17 13 a1 3c 77 40 b4 bd
       -0.12183484 -0.04231895 0.019662423 -0.08801358
0000c0 b8 33 45 bd cf c9 83 bd a6 ad 89 3c a5 67 c1 3d
       -0.048145026 -0.06434976 0.016806435 0.09443597
0000d0 70 72 96 bd 46 a7 d5 39 5c 6c a2 3a fe dc 9b bd
       -0.07346046 0.00040751154 0.0012391913 -0.0761051
0000e0 3c 8b 7e bd 5b 5d fa bd 35 35 de bd 5b af b7 3d
       -0.062144503 -0.122248374 -0.10849992 0.08968993
0000f0 4b 3f c3 bd 1e 8f 94 3d 8d 0f 75 3d 1a e5 e6 3d
       -0.095335566 0.0725386 0.059829284 0.112741664
000100 f8 bc 4e bd 31 6e 9c 3d 50 3d b1 bd 67 77 d9 bd
       -0.050473183 0.07638205 -0.086542726 -0.10618477
000110 82 eb a4 bd da bd b5 3d 3b 70 82 bd 9b a2 e9 bd
       -0.08052732 0.08874102 -0.063690625 -0.11407968
000120 bf 51 4b bd 05 d1 91 3a 89 1c a4 3d c7 36 dc 3d
       -0.049638506 0.0011124915 0.08013255 0.107526354
000130 6c 3a 69 bc 10 c6 5e 3b f0 66 df bd 8e 7f 4d bd
       -0.01423512 0.0033992566 -0.10908306 -0.050170474
000140 87 39 6e bd 51 e7 51 bd d4 96 6c 3d f4 b6 dc bc
       -0.05816033 -0.05124599 0.05776103 -0.026942708
000150 59 58 08 3d b2 82 96 bd 68 ad ba bd af d6 d3 3c
       0.03328738 -0.07349147 -0.09115106 0.025859205
000160 bb 20 b1 3d d7 c9 39 bd 77 fb 0d 3d 66 38 71 bd
       0.08648821 -0.045358505 0.034663644 -0.058891676
000170 98 4d fc 3d fe 4d 80 bd 91 f7 a1 3d 5c 2c a1 3d
       0.12319487 -0.06264876 0.07908548 0.07869789
000180 9b e8 41 3a 43 71 1a 3d 15 76 02 3e c2 c0 1a bd
       0.00073970266 0.03770567 0.12740357 -0.037781484
000190 1f 51 5d bd b0 54 fb 3c 1a af e6 3d 91 ee ec bd
       -0.05403244 0.03068003 0.11263867 -0.115689404
0001a0 63 1f a9 3d 54 bd b6 bb ad 17 0c bd ec ec 50 3d
       0.0825794 -0.005576769 -0.034202266 0.051007196
0001b0 0a 10 bc bd 30 d3 fd bd 22 09 a4 bd e9 13 54 3d
       -0.09182747 -0.123937964 -0.080095544 0.0517768
0001c0 16 a4 1f 3c 15 6b 5a 3d de b4 e9 bd 20 5c fb 3d
       0.009743711 0.053324778 -0.11411451 0.12273431
0001d0 6a a3 c3 bd b7 ef 33 bd 7f 2b d2 bd c2 2f 21 3d
       -0.09552653 -0.04392978 -0.102622025 0.039352186
0001e0 20 bd 41 3d 4e 1b 22 3d e5 0b 51 bb e2 11 0b bd
       0.047299504 0.03957682 -0.0031897959 -0.0339526
0001f0 44 ed 9a 3d a5 3c c9 3d fb f6 df 3d bc c2 7c bd
       0.07564786 0.0982602 0.1093578 -0.06170915
000200 86 0f b9 3d 75 e6 54 3d 9e a3 c4 3d 6f 28 0c 3d
       0.09036164 0.051977593 0.0960152 0.034218248
000210 8e 3c a6 bd 02 52 9a bd b7 80 8b bc dc c1 b7 bd
       -0.08117019 -0.07535173 -0.01702915 -0.089725226
000220 33 32 60 bd e6 f8 e6 3d bb c5 f3 bd dc 56 7f 3d
       -0.054735374 0.11277942 -0.119029485 0.062338695
000230 c5 90 d4 3d ce d4 b5 bd f6 59 df bd 79 28 5a 3d
       0.10379175 -0.0887848 -0.109058306 0.053261254
000240 85 a7 b5 3c 91 63 7d bc e0 9a f7 bd b9 be 14 bd
       0.022174606 -0.015465633 -0.12090087 -0.0363147
000250 01 98 b6 3d db 67 af bd 23 69 a2 3c 1f a0 bc 3b
       0.08915711 -0.08564731 0.019825524 0.0057563926
000260 00 a3 e2 bd ec de 9d bd 4d dc ec 3d 70 c9 85 3d
       -0.11066246 -0.077085346 0.115654565 0.06532562
000270 aa 3c d9 bd ab 34 b9 bd 7a 84 f6 bd ab 77 bd bd
       -0.10607274 -0.09043249 -0.12036987 -0.092513405
000280 47 72 f8 3c 77 c9 57 3d a6 a5 fb bc cc ad 27 3d
       0.03032793 0.052682366 -0.030718636 0.04093723
000290 89 fe 85 3d 95 93 fb bd 3b 38 dd 3d 90 63 a1 3c
       0.06542689 -0.122840084 0.10801741 0.019700795
0002a0 ef 74 2e bd 12 68 ec bd 89 eb 57 bb b5 50 33 3d
       -0.042591985 -0.11543287 -0.0032946786 0.04377814
0002b0 39 4c b8 3c 01 d8 bd 3d cb 00 ff bd dc d8 cb bd
       0.022497283 0.09269715 -0.12451323 -0.09953472
0002c0 1f 34 03 bd d4 ca 6b bd 90 e1 f6 3b 7c f9 e4 3d
       -0.03203213 -0.05756648 0.0075342134 0.11180398
0002d0 42 33 2f 3d be 4d bf 3b bf 3f be bd e2 f5 50 3d
       0.042773493 0.005838125 -0.09289502 0.051015742
0002e0 ef 9f 06 3c 2b 69 48 3d 82 d3 e3 3d 17 9c fd 3d
       0.008216842 0.04892842 0.11124326 0.123832874
0002f0 c3 cf 03 3d e0 01 51 3d e3 46 ab 3b 35 be d9 3d
       0.03218056 0.05102718 0.005226956 0.10631982
000300 29 ca 7f 3d b2 d0 8d 3d b2 3e c1 bd c0 02 db bd
       0.062448654 0.06924571 -0.09435786 -0.10693884
000310 91 41 b1 bd 27 bb 92 3d 61 d5 c7 3d 9e 03 52 3d
       -0.08655084 0.07164603 0.09757496 0.05127298
000320 fe c4 e5 bd 3b 9a 16 3d e8 56 89 3d e5 89 cc 3c
       -0.11219214 0.03676818 0.06706029 0.024968097
000330 d9 a3 b3 bb d8 66 f1 bd ec 6a 7c 3d 5b e5 8d 3d
       -0.0054821786 -0.11787194 0.061625406 0.06928512
000340 c9 19 03 3e 0f 67 8f 3c 16 6d 1a 3d a5 71 cb 3d
       0.12802805 0.017505197 0.03770169 0.09933785
000350 a0 0e 44 bd e9 d2 c2 3d c7 95 ac 3d 38 75 b6 3c
       -0.04786551 0.09512884 0.08427005 0.022272691
000360 4e 06 d2 bd 35 43 2a 3b cd 98 d8 3d dd 71 9c bd
       -0.10255109 0.002598 0.105760194 -0.07638905
000370 e3 c4 22 bd b4 15 c5 3d 3f 13 c6 bd 52 a0 c6 3d
       -0.039738547 0.0962328 -0.0967164 0.096985474
000380 fa 91 e7 bd 32 07 f4 3d e4 34 ac bd 4f 60 16 bd
       -0.1130714 0.11915435 -0.084085256 -0.03671294
000390 e0 e4 35 bd a4 9e dc bc 25 ee 92 3d 14 a0 6a bb
       -0.044407725 -0.026931114 0.07174329 -0.003580098
0003a0 8e 30 d2 bc 83 6d a4 3d 9a dd dc 3d 73 9a 4f 3b
       -0.025657918 0.080287 0.10784455 0.0031677752
0003b0 cb 7e 01 3e fa 2e 0a 3d c5 e5 9e bc 5f ae eb bd
       0.12646024 0.033736207 -0.019396672 -0.11507868
0003c0 4a d1 7a 3d ea b5 5b bc 08 84 a1 3d 5a 98 01 3e
       0.06123475 -0.013410071 0.07886511 0.12655774
0003d0 44 85 bf bd a1 e6 d0 bb 43 83 42 3c 02 fb 81 bd
       -0.0935159 -0.0063751494 0.011872116 -0.06346704
0003e0 76 bc 89 3b 19 2b 60 3b 18 6c 19 bd 2c bd 5e bd
       0.0042033745 0.0034205376 -0.0374566 -0.054379627
0003f0 09 cb 70 bc 2d 40 9d bd 19 9e 70 3b 38 9a d4 3d
       -0.014696845 -0.07678256 0.0036715327 0.103809774

bias f4 [10]
000000 6b 0a 81 bd bd 7d d7 bd 7e 69 34 bd b8 e3 8b 3d
       -0.06300815 -0.105220295 -0.044045918 0.06830543
000010 89 e2 c4 bc 79 7a 67 3d 78 6f b4 bd be ef b3 bd
       -0.024033802 0.056513283 -0.088103235 -0.087859616
000020 0f f1 d7 3c 8d 9d e2 bd
       0.026360063 -0.11065207
