PytorchLearning/learn1/vggmodel/vgg_8.pth (torch, 587335 bytes, 10 tensors)

weight f4 [32, 3, 5, 5]
0.11281671 -0.104421586 -0.0584313 -0.03518399 -0.08692265 -0.006093958 0.025262399 -0.02711611
-0.07138642 0.09097255 0.11353003 -0.004040163 -0.015259569 0.06181209 -0.04861729 -0.10164531
0.06943687 -0.10037131 0.10456037 0.094486676 -0.070888944 0.051586036 0.048733003 0.10826717
-0.06291857 -0.045000233 -0.034794148 0.09910041 0.037554123 -0.10700702 0.063692 -0.008940877
-0.09915731 -0.07674682 0.083853684 -0.022039864 -0.08666728 0.0441072 -0.08353938 0.07720606
0.036229596 0.08877172 0.07272945 0.08145415 -0.037084423 -0.031406906 0.054837674 0.11025035
-0.06796612 -0.040698793 0.0005656578 0.02875706 -0.07890477 -0.038021274 -0.038036205 0.021487853
0.101067625 -0.0051883166 0.103832036 0.0633981 -0.02844866 0.07389511 -0.06748747 -0.10745016
0.029894143 0.115400285 0.08107782 -0.03334645 0.006469289 0.11577798 -0.00093351834 0.12080248
0.037595984 0.032207552 0.042198494 -0.05025311 0.11161144 0.032266397 -0.03362534 0.04252057
0.06542999 -0.057700336 -0.06419207 0.07980974 -0.088564046 0.0129449675 -0.008633152 -0.082420364
-0.081236824 -0.0013126739 0.018213592 0.11083757 0.04253262 -0.11235303 -0.008398173 -0.025651958
0.06957551 -0.09996155 0.06319067 -0.06982409 -0.02680549 -0.063971415 0.07344772 -0.115346454
0.018673414 -0.058323976 0.0056908913 0.08764662 -0.12151957 -0.07202908 0.05454632 -0.03656318
-0.08264487 -0.014246186 -0.08749259 0.08310602 0.108831555 -0.02091565 0.0052703465 0.02724491
-0.10665914 0.08017169 0.06512636 -0.081570916 0.035098083 -0.12244521 -0.104798205 -0.09626488
0.0354484 0.030196242 -0.09433639 -0.014083536 0.069671206 -0.09346146 -0.112985484 0.10016902
0.03137639 -0.043137684 0.0804902 -0.10811271 -0.005132626 0.08532529 -0.009207459 -0.07425634
-0.023141447 -0.06475106 -0.0030622904 0.08821823 -0.027429521 0.078703575 -0.05334758 -0.10055089
0.091891915 -0.045034144 -0.005526485 -0.098131 -0.11254592 -0.0791903 -0.10716919 -0.07593828
-0.06112144 0.10020382 -0.0028235412 0.003722962 0.03735593 0.033733774 0.0024918183 0.018237686
-0.07908337 -0.093711875 0.08771648 0.01944373 -0.06099649 0.081270196 0.09205719 -0.04131019
0.01814772 0.10360214 -0.053648535 0.016875545 0.061190702 0.10200487 0.08235167 -0.044146296
-0.03645603 -0.11204973 -0.059883833 -0.09993512 0.05732969 0.015629774 0.07368446 -0.088028744
0.04528745 -0.06151578 0.09930039 -0.05187577 0.0742445 -0.047763616 0.07605754 0.09564276
0.09881539 -0.039179944 -0.006674281 0.0054694815 0.121184245 0.10695054 -0.041798208 0.10566873
-0.08032742 0.025370484 0.0056281313 0.06343903 -0.061131965 0.037674636 0.04834722 0.091834344
0.1099463 0.06930822 0.07316864 0.016761323 0.033764362 0.10938118 0.01845555 0.08913063
-0.010715115 -0.0886047 0.085323304 0.025920764 -0.104490235 0.045755684 -0.07598169 -0.028030138
-0.04279566 0.027237628 -0.08350958 -0.08186774 0.022127599 -0.06516614 -0.032554116 -0.11106053
-0.080473654 0.044896502 0.09563488 0.083288014 0.11245263 -0.029733593 0.049524758 0.088665254
0.038757753 0.07304019 0.050164595 0.030587167 -0.09372308 0.10355237 0.101897 0.10852468
00000000: 720c e73d fcda d5bd a955 6fbd 161d 10bd
00000010: 8104 b2bd d3af c7bb 17f3 ce3c 9b22 debc
00000020: 0b33 92bd d14f ba3d 6f82 e83d 5863 84bb
00000030: 4503 7abc ad2e 7d3d ec22 47bd 6b2b d0bd
00000040: eb34 8e3d 798f cdbd bf23 d63d 3b82 c13d
00000050: 392e 91bd e14b 533d 429c 473d 2ebb dd3d
00000060: 74db 80bd 2a52 38bd 4f84 0ebd 28f5 ca3d
00000070: 5ad2 193d 7f26 dbbd f470 823d c27c 12bc
00000080: fd12 cbbd 702d 9dbd 7bbb ab3d f28c b4bc
00000090: 9d7e b1bd c0a9 343d b216 abbd 361e 9e3d
000000a0: 7c65 143d f3cd b53d 2ef3 943d 6fd1 a63d
000000b0: d6e5 17bd 87a4 00bd 789d 603d efca e13d
000000c0: d231 8bbd c7b3 26bd a748 143a ed93 eb3c
000000d0: d398 a1bd 32bc 1bbd dacb 1bbd 4b07 b03c
000000e0: 8bfc ce3d c102 aabb e4a5 d43d ddd6 813d
000000f0: 2a0d e9bc 5256 973d df36 8abd d40e dcbd
00000100: 90e4 f43c fc56 ec3d 210c a63d 4a96 08bd
00000110: 54fc d33b 011d ed3d 5bb7 74ba 4a67 f73d
00000120: 3ffe 193d 11ec 033d 54d8 2c3d 34d6 4dbd
00000130: 8a94 e43d c529 043d b9ba 09bd 0d2a 2e3d
00000140: 2900 863d 3057 6cbd 2277 83bd 4a73 a33d
00000150: 1161 b5bd 2117 543c 1072 0dbc 02cc a8bd
00000160: 7e5f a6bd 070e acba ac34 953c cffe e23d
00000170: af36 2e3d 5819 e6bd 7e98 09bc 0e24 d2bc
00000180: 9b7d 8e3d a4b8 ccbd 1c6a 813d efff 8ebd
00000190: 3097 dbbc 7203 83bd c26b 963d c33a ecbd
000001a0: fdf8 983c 1fe5 6ebd a87a ba3b 1280 b33d
000001b0: 41df f8bd fb83 93bd f66b 5f3d 46c3 15bd
000001c0: b741 a9bd d668 69bc 512f b3bd 7d33 aa3d
000001d0: 14e3 de3d 4c57 abbc dfb2 ac3b b830 df3c
000001e0: 1b70 dabd 0e31 a43d f860 853d a70e a7bd
000001f0: 02c3 0f3d 8ec4 fabd 71a0 d6bd 8526 c5bd
00000200: 5732 113d 1c5e f73c 7033 c1bd a2be 66bc
00000210: c7af 8e3d b968 bfbd ef64 e7bd 6a25 cd3d
00000220: 8884 003d 24b1 30bd 0cd8 a43d 326a ddbd
00000230: 962f a8bb 07bf ae3d e2da 16bc b513 98bd
00000240: 2293 bdbc 349c 84bd b5b0 48bb c2ab b43d
00000250: e0b3 e0bc 572f a13d fe82 5abd a0ed cdbd
00000260: d431 bc3d b975 38bd 8417 b5bb e8f8 c8bd
00000270: 7a7e e6bd 862e a2bd 857b dbbd 8785 9bbd
00000280: 7a5a 7abd a937 cd3d 290b 39bb f0fc 733b
00000290: 8802 193d 6d2c 0a3d c64d 233b 3367 953c
000002a0: 76f6 a1bd 03ec bfbd b3a4 b33d 7548 9f3c
000002b0: 75d7 79bd fd70 a63d 7b88 bc3d e034 29bd
000002c0: 87aa 943c 5c2d d43d 91be 5bbd 953e 8a3c
000002d0: 1aa3 7a3d eee7 d03d fea7 a83d bfd2 34bd
000002e0: eb52 15bd 547a e5bd c048 75bd c9aa ccbd
000002f0: 89d2 6a3d 030a 803c e1e7 963d 6a48 b4bd
00000300: 557f 393d f8f7 7bbd 015e cb3d b07b 54bd
00000310: 800d 983d c8a3 43bd 0ec4 9b3d 5ae0 c33d
00000320: b95f ca3d 267b 20bd edb3 dabb 5639 b33b
00000330: 722f f83d e208 db3d 9934 2bbd d968 d83d
00000340: b482 a4bd c3d5 cf3c 306c b83b 52ec 813d
00000350: 8365 7abd b850 1a3d bc07 463d a513 bc3d
00000360: 872b e13d 78f1 8d3d 71d9 953d 0b4f 893c
00000370: 804c 0a3d 3d03 e03d 1830 973c 1f8a b63d
00000380: 738e 2fbc 6276 b5bd fcbd ae3d c857 d43c
00000390: fafe d5bd 506a 3b3d 4a9c 9bbd 769f e5bc
000003a0: 814a 2fbd 7221 df3c 1207 abbd 46aa a7bd
000003b0: f044 b53c d375 85bd 7757 05bd b473 e3bd
000003c0: 5fcf a4bd 65e5 373d 38dc c33d e892 aa3d
000003d0: 914d e63d dd93 f3bc 79da 4a3d 2196 b53d
000003e0: 73c0 1e3d 1896 953d 6479 4d3d f091 fa3c
000003f0: e3f1 bfbd 4413 d43d 60af d03d 3042 de3d

bias f4 [32]
0.07844509 0.054552343 0.0017800663 -0.024276825 0.08114601 0.08441655 -0.028618975 0.12082931
-0.07676022 0.121986404 0.087214686 -0.07231512 -0.004591955 0.028473733 0.13096547 0.021633029
0.064000934 -0.085459575 0.028348384 0.087005705 0.07438321 0.016385255 0.077253796 0.120724685
-0.095907204 -0.043259293 0.058908533 -0.059650354 -0.051154785 0.017962301 -0.115536906 0.097499944
00000000: d2a7 a03d 4772 5f3d 1d51 e93a 31e0 c6bc
00000010: e12f a63d 96e2 ac3d 5772 eabc 5b75 f73d
00000020: 7634 9dbd 02d4 f93d 9d9d b23d f319 94bd
00000030: 1c78 96bb bf41 e93c d01b 063e c037 b13c
00000040: ec12 833d 6e05 afbd df3a e83c 0c30 b23d
00000050: 3956 983d 5f3a 863c 3d37 9e3d 813e f73d
00000060: ff6a c4bd a830 31bd 134a 713d ee53 74bd
00000070: ae87 51bd ad25 933c 9d9e ecbd 0dae c73d

weight f4 [32, 32, 5, 5]
-0.01968515 -0.033008393 0.005018037 0.033468783 -0.028228851 -0.03296135 -0.0028018774 0.019588506
-0.018367194 0.020866953 -0.016449677 0.023303708 -0.036269937 0.011292239 -0.031212073 -0.015188447
-0.024664484 -0.0008751223 0.016268725 -0.0075151008 0.024249528 0.008367516 -0.03179151 -0.013955237
-0.0023362346 -0.030562678 -0.02521827 0.0022890249 -0.028288405 0.03153209 0.0018275819 -0.01948273
-0.03159267 0.02398191 0.018043878 0.0063697076 -0.011302151 -0.033845853 0.016066344 0.010001385
-0.03080653 -0.0021280556 -0.0040489575 -0.010810983 0.021992434 -0.029982386 0.017010644 -0.0008968182
-0.011941196 -0.017939504 -0.003981869 -0.03302341 0.02414771 -0.009371402 0.033971455 -0.030175852
0.0108610755 0.032779917 -0.02233584 0.030494282 -0.00432793 0.02907956 0.029519122 0.028689303
0.03132817 0.002164302 0.017930992 -0.031653624 -0.004075786 -0.03075683 0.029431337 0.002013874
-0.0024185465 -0.008299926 0.030703226 -0.03335224 -0.01800996 -0.00072361145 -0.033593766 0.029579446
0.012592763 -0.010725165 0.002105231 -0.02924107 0.024056941 0.0009606795 -0.031316817 0.026506381
-0.022128489 -0.01736636 0.0062211314 -0.011240049 -0.0031215178 0.011987377 -0.010080624 -0.031877674
-0.029799046 -0.02427704 -0.0085119 -0.028829914 -0.018155219 -0.031225523 0.0002867364 -0.014400064
-0.00235808 0.009585283 -0.008296067 0.016355302 0.009656392 -0.032431837 -0.019361753 -0.028769273
-0.038934875 0.005962961 0.009212076 0.01314856 0.0072630313 -0.036093414 0.019888919 0.013502352
0.009285311 0.01510638 0.0031041421 0.02025968 0.0010191348 -0.017273987 -0.03145896 0.0010796186
0.012353357 0.0057190815 -0.0304943 0.02289782 -0.0064366246 0.018817829 0.015008365 -0.034005217
0.00699789 -0.035230935 -0.02929458 -0.00058028096 -0.033037756 -0.030890536 -0.012704028 0.024136739
0.014545532 0.01418427 0.017109253 -0.015345699 0.0024924714 0.031259377 -0.0011335596 0.01077121
-0.00897458 -0.0059699984 0.011782205 0.030379184 0.0040014177 -0.0056934315 -0.025158398 -0.0020084148
0.02855261 0.018960727 0.011097635 0.015433026 -0.026825069 0.027642712 0.028976783 -0.025493907
0.008387562 -0.021899015 0.00624403 0.019673426 0.0037206495 -0.019674584 0.011917955 0.025966454
0.017409919 -0.0113160685 -0.019080972 0.02983354 0.024145396 -0.01031202 0.00068292755 0.0026625614
0.026336528 0.022689765 -0.03270193 -0.010031131 0.028399616 -0.0012061989 -0.021257915 -0.033779863
-0.0030599344 0.032890096 -0.023011193 0.006004677 -0.027336966 0.013077697 0.01672118 -0.020209687
0.021688573 -0.016748423 0.031599194 0.013732598 0.008866025 0.03184652 0.0053821267 0.001426366
-0.008102775 0.010290854 0.010083373 0.032484148 0.0021230134 -0.009741427 0.01786888 -0.00055284676
0.03468347 0.02418033 0.0063541066 0.0017210639 -0.021767994 0.035238378 0.023081804 0.038622774
0.015078867 -0.0045914133 -0.02772161 0.00464207 -0.027851311 0.02245553 -0.040922545 -0.026292289
-0.0152778365 0.020210203 0.025803972 -0.010291729 0.0095972195 -0.034975912 -0.022962634 -0.035419546
0.017198399 -0.022370286 -0.00022405585 -0.001545605 -0.015352637 0.02288883 -0.03719667 -0.03267913
-0.012677898 -0.019185152 -0.03793102 -0.030621907 -0.025977166 0.0155710755 0.015720675 0.012378812
00000000: c042 a1bc cf33 07bd 586e a43b 9016 093d
00000010: 3140 e7bc 7b02 07bd b49f 37bb 1378 a03c
00000020: cc76 96bc 2cf1 aa3c 79c1 86bc 6be7 be3c
00000030: c98f 14bd 1503 393c 76b0 ffbc f7d8 78bc
00000040: 2c0d cabc 7768 65ba fd45 853c 3c41 f6bb
00000050: f2a6 c63c e817 093c d037 02bd 82a4 64bc
00000060: 831b 19bb 955e fabc 8c96 cebc 7703 163b
00000070: 16bd e7bc cb27 013d 798b ef3a 3f9a 9fbc
00000080: 5167 01bd b675 c43c c1d0 933c fbb8 d03b
00000090: a82c 39bc f3a1 0abd 919d 833c d9dc 233c
000000a0: fa5d fcbc d976 0bbb 1ead 84bb 8d20 31bc
000000b0: 7a29 b43c 9f9d f5bc e859 8b3c 7318 6bba
000000c0: 02a5 43bc def5 92bc 577a 82bb 8e43 07bd
000000d0: 6bd1 c53c 828a 19bc a725 0b3d 5933 f7bc
000000e0: a7f2 313c 3c44 063d a7f9 b6bc 25cf f93c
000000f0: 4fd1 8dbb 4238 ee3c 16d2 f13c d405 eb3c
00000100: f851 003d f6d6 0d3b 04e4 923c 3ba7 01bd
00000110: 2c8e 85bb bff5 fbbc fd19 f13c 33fb 033b
00000120: 7a80 1ebb 6afc 07bc 5585 fb3c 5c9c 08bd
00000130: a089 93bc beb0 3dba 9e99 09bd 9850 f23c
00000140: e051 4e3c 9ab8 2fbc eaf7 093b f88a efbc
00000150: 1013 c53c 1cd6 7b3a 1046 00bd e923 d93c
00000160: ce46 b5bc e643 8ebc a2da cb3b 2f28 38bc
00000170: 6192 4cbb b466 443c 3429 25bc 2a92 02bd
00000180: 211d f4bc a5e0 c6bc 7f75 0bbc b62c ecbc
00000190: 41ba 94bc abcc ffbc 1c55 9639 3fee 6bbc
000001a0: 048a 1abb 970b 1d3c 3aec 07bc 8efb 853c
000001b0: d835 1e3c 3fd7 04bd 8a9c 9ebc 8aad ebbc
000001c0: 2d7a 1fbd f164 c33b 3fee 163c 0f6d 573c
000001d0: b9fe ed3b b0d6 13bd 16ee a23c f838 5d3c
000001e0: 6b21 183c c080 773c dd6e 4b3b a1f7 a53c
000001f0: 7d94 853a 2d82 8dbc 1cdb 00bd fd81 8d3a
00000200: bc65 4a3c 2267 bb3b 2fcf f9bc 3694 bb3c
00000210: 52ea d2bb d927 9a3c a5e5 753c 0e49 0bbd
00000220: 8e4e e53b 504e 10bd 30fb efbc ff1d 18ba
00000230: 9952 07bd 260e fdbc 8e24 50bc 69ba c53c
00000240: 6250 6e3c 2465 683c b428 8c3c 876c 7bbc
00000250: bb58 233b d509 003d f393 94ba bb79 303c
00000260: 1e0a 13bc fa9f c3bb 260a 413c c4dd f83c
00000270: 531e 833b f78f babb fc18 cebc 9c9f 03bb
00000280: 2ae7 e93c 8753 9b3c dbd2 353c cdda 7c3c
00000290: 3fc0 dbbc f872 e23c b860 ed3c 99d8 d0bc
000002a0: fc6b 093c 9065 b3bc b89a cc3b 2a2a a13c
000002b0: 24d6 733b 982c a1bc 8743 433c 9ab7 d43c
000002c0: 3f9f 8e3c 0867 39bc b34f 9cbc 7865 f43c
000002d0: 91cc c53c bff3 28bc 7e06 333a 5e7e 2e3b
000002e0: b4bf d73c e3df b93c 75f2 05bd 9d59 24bc
000002f0: 50a6 e83c 5219 9eba 1425 aebc c15c 0abd
00000300: 2e89 48bb c4b7 063d f881 bcbc e2c2 c43b
00000310: c6f1 dfbc d643 563c dbfa 883c c98e a5bc
00000320: 3cac b13c fd33 89bc 286e 013d b1fe 603c
00000330: ce42 113c 7f71 023d 8d5c b03b e7f4 ba3a
00000340: 80c1 04bc f89a 283c bb34 253c 190e 053d
00000350: 4122 0b3b 829a 1fbc c261 923c ebec 10ba
00000360: 4110 0e3d d415 c63c 1c36 d03b 5295 e13a
00000370: cb52 b2bc 1e56 103d 0d16 bd3c ea32 1e3d
00000380: 5a0d 773c 9173 96bb 6e18 e3bc 811c 983b
00000390: 6f28 e4bc a9f4 b73c 669e 27bd ed62 d7bc
000003a0: e44f 7abc de8f a53c da62 d33c a49e 28bc
000003b0: a83d 1d3c e742 0fbd 221c bcbc 1614 11bd
000003c0: a8e3 8c3c e441 b7bc 89f0 6ab9 e695 caba
000003d0: a089 7bbc 5b81 bb3c 895b 18bd 8dda 05bd
000003e0: f5b6 4fbc 2e2a 9dbc 8f5d 1bbd cbda fabc
000003f0: 11ce d4bc d31d 7f3c a5c8 803c 80d0 4a3c

bias f4 [32]
-0.018569589 -0.025032956 -0.0071662758 -0.025046404 0.01235813 -0.009861055 -0.015408221 -0.010915479
0.01311371 0.0054083127 -0.0054098186 -0.019984325 0.030322773 -0.0129029155 -0.017799413 -0.005624262
0.039299686 -0.02353831 -0.014408811 -0.006017154 0.031214835 -0.031070992 0.017460227 -0.011420201
-0.002075066 -0.025853604 -0.015705792 0.022629438 0.029757328 -0.021842182 0.03238369 0.028571242
00000000: 401f 98bc ea11 cdbc 14d3 eabb 1e2e cdbc
00000010: c179 4a3c 4390 21bc c372 7cbc d6d6 32bc
00000020: e3da 563c 3738 b13b d944 b1bb 2bb6 a3bc
00000030: 7767 f83c c066 53bc 13d0 91bc bb4b b8bb
00000040: b5f8 203d 6ad3 c0bc ef12 6cbc 8c2b c5bb
00000050: 41b6 ff3c 9888 febc c008 8f3c cb1b 3bbc
00000060: d5fd 07bb f0ca d3bc 6fa9 80bc 5f61 b93c
00000070: a4c5 f33c 60ee b2bc c3a4 043d 3d0e ea3c

weight f4 [64, 32, 5, 5]
-0.00843553 0.015612481 -0.016292054 0.008273796 0.015429522 -0.016155304 0.0015052519 0.0052101123
0.0008233427 0.0021805142 -0.009707041 0.019236159 -0.015414156 0.03309024 0.036296524 -0.030892298
0.014603598 -0.012482317 -0.030772924 -0.00023402185 -0.0020945284 0.013110513 -0.009471705 0.01862194
-0.027496308 0.002854397 -0.011230173 0.037079684 0.0116272895 0.0117589375 0.007575855 -0.030189252
0.00702745 0.013664081 0.008426602 -0.02660763 -0.03690479 -0.02173949 0.0070735686 -0.0031588601
0.032251198 0.0064180745 -0.022762898 -0.0053394428 0.02031398 0.02228286 -0.023315703 -0.03549236
0.03138289 0.017998762 0.018563878 0.029360987 -0.018808383 0.004259189 0.029624822 -0.005164533
-0.020860003 -0.012254884 -0.020519868 0.030175071 0.020780647 0.017267164 -0.029629981 -0.028742595
0.023158558 -0.025588466 0.008713669 0.030051103 -0.017723214 0.022677075 -0.00502346 0.007255958
0.017153788 0.0014512334 -0.034161888 0.021360017 0.020191036 -0.023353508 -0.024807734 0.020544093
0.003953286 -0.027225208 0.009791706 0.031741317 -0.008241481 0.0029854132 0.012577792 0.035822332
0.00073777424 0.02529586 0.019059483 0.020060133 -0.032710902 -0.024899296 0.014306369 -0.030974416
0.01790241 0.02803588 0.0053911237 -0.012747004 0.0018972945 0.00027980184 0.02559752 0.013242016
-0.0012397498 0.013631145 0.017757649 0.019060265 0.026767453 0.027779276 -0.01681644 -0.019555867
0.024623727 -0.011670202 0.010487893 -0.034403834 0.007471336 -0.028486658 -0.033868928 -0.004295373
0.0073369355 -0.02171969 0.028663585 0.0049069305 0.016261017 -0.026190616 -0.028974844 -0.036792852
-0.031629607 -0.022809472 -0.013027337 -0.031740688 0.025938878 0.018052904 -0.007896254 -0.022744562
0.008692901 -0.02675194 0.024277702 -0.0054351264 -0.017759487 0.012350629 -0.027292773 0.03200267
-0.03703472 -0.031385273 0.031535603 0.02299547 -0.021042353 -0.013646219 -0.014141766 0.034821924
0.021471417 0.02273488 -0.006507698 0.00010970601 0.02411873 0.026112882 0.025661934 0.030709628
0.016591758 0.041680265 0.034894448 0.02537538 0.03711845 -0.0038078327 -0.0037428043 0.019136038
0.031171815 0.029398043 0.012843375 0.01423635 -0.020128023 0.035901785 -0.025530469 -0.0006215601
0.00020030786 0.008403186 -0.026072284 0.007518163 0.037611514 -0.015609743 -0.019957485 0.0041476553
-0.024082012 0.01255575 0.026147109 -0.006163486 -0.010991818 -0.016888347 -0.009109758 -0.022659803
-0.006418024 -0.0018483705 0.017527297 -0.033960864 -0.028642515 0.03422314 0.0012293108 -0.00016802264
-0.0032002726 0.03632357 -0.0024047457 0.038313083 -0.0053866724 0.017132888 -0.024917997 -0.024862211
0.035757743 -0.015124121 0.030520508 -0.013240138 0.037307385 0.026485853 0.0039923303 -0.0021899298
0.020412818 -0.0152562605 -0.019994225 0.008284608 -0.019728795 0.026733996 -0.010236278 -0.02591669
-0.0049154153 -0.00927104 -0.009824122 0.02888134 0.02361565 -0.01698212 0.03488422 -0.022517106
-0.008508882 -0.030931419 -0.0094919745 0.011454058 -0.02680559 0.0271978 0.0011376018 0.034773815
-0.026934966 0.00017821824 -0.007662045 0.0025302712 0.029403033 0.0124735935 -0.029797299 -0.014923177
0.01598423 -0.0012125247 0.011199047 -0.021142676 0.030548852 -0.00016007693 -0.010316425 0.0005225517
00000000: 2d35 0abc 7ecb 7f3c ea76 85bc d18e 073c
00000010: 1bcc 7c3c 2158 84bc df4b c53a 97b9 aa3b
00000020: 98d5 573a f5e6 0e3b 480a 1fbc 2695 9d3c
00000030: a88b 7cbc a289 073d aaab 143d d811 fdbc
00000040: ee43 6f3c a282 4cbc 8017 fcbc c363 75b9
00000050: 5b44 09bb 7acd 563c 362f 1bbc 0a8d 983c
00000060: f03f e1bc d610 3b3b c2fe 37bc dee0 173d
00000070: 6380 3e3c 8fa8 403c e13e f83b 734f f7bc
00000080: 8646 e63b 4fdf 5f3c bb0f 0a3c 3ff8 d9bc
00000090: 7a29 17bd 0417 b2bc 65c9 e73b e104 4fbb
000000a0: d519 043d b64e d23b 4279 babc 7ef6 aebb
000000b0: 8169 a63c 8b8a b63c 9300 bfbc 7060 11bd
000000c0: 588b 003d 2472 933c 4613 983c 7486 f03c
000000d0: 0a14 9abc ab90 8b3b c1af f23c 3e3b a9bb
000000e0: 99e2 aabc b5c8 48bc 4819 a8bc b631 f73c
000000f0: 2d3c aa3c de73 8d3c 93ba f2bc 9775 ebbc
00000100: 04b7 bd3c e79e d1bc c7c3 0e3c bb2d f63c
00000110: 4630 91bc 46c5 b93c d69b a4bb 63c3 ed3b
00000120: 1a86 8c3c 5037 be3a 56ed 0bbd 34fb ae3c
00000130: ac67 a53c db4f bfbc 9739 cbbc 164c a83c
00000140: 918a 813b 6607 dfbc 646d 203c 2f03 023d
00000150: 4707 07bc eca6 433b 1513 4e3c 70ba 123d
00000160: 3167 413a 4339 cf3c a222 9c3c 2655 a43c
00000170: defb 05bd 9cf9 cbbc 4365 6a3c 0fbe fdbc
00000180: 13a8 923c 80ab e53c 06a8 b03b cfd8 50bc
00000190: a4ae f83a 5eb2 9239 e4b1 d13c 0af5 583c
000001a0: 1a7f a2ba 2a55 5f3c 7d78 913c 4624 9c3c
000001b0: 6b47 db3c 5d91 e33c a1c2 89bc a033 a0bc
000001c0: b3b7 c93c 6034 3fbc 69d5 2b3c 09eb 0cbd
000001d0: 1cd2 f43b da5c e9bc 25ba 0abd 33c0 8cbb
000001e0: ad6a f03b 7eed b1bc e5cf ea3c 51ca a03b
000001f0: d335 853c b48d d6bc a75c edbc 1ab4 16bd
00000200: 0c8e 01bd eeda babc 9d70 55bc 8602 02bd
00000210: c57d d43c afe3 933c 4a5f 01bc ce52 babc
00000220: ab6c 0e3c e226 dbbc 08e2 c63c 2519 b2bb
00000230: 587c 91bc 4b5a 4a3c 1895 dfbc 3b15 033d
00000240: b8b1 17bd d88d 00bd 7a2b 013d ff60 bc3c
00000250: 0361 acbc 6494 5fbc deb2 67bc 6fa1 0e3d
00000260: d3e4 af3c 803e ba3c 873e d5bb f711 e638
00000270: a594 c53c afea d53c fa38 d23c c292 fb3c
00000280: 70eb 873c edb8 2a3d 7bed 0e3d 07e0 cf3c
00000290: 8409 183d d58c 79bb d649 75bb 2ec3 9c3c
000002a0: 095c ff3c 2ad4 f03c 056d 523c 943f 693c
000002b0: 86e3 a4bc c00d 133d 4625 d1bc 31f0 22ba
000002c0: bb09 5239 84ad 093c 8b95 d5bc ec5a f63b
000002d0: 880e 1a3d 02c0 7fbc e17d a3bc 0ee9 873b
000002e0: a447 c5bc a2b6 4d3c 7632 d63c 11f7 c9bb
000002f0: 0717 34bc 6e59 8abc 1841 15bc 0da1 b9bc
00000300: 4a4e d2bb 0645 f2ba 6895 8f3c 8c1a 0bbd
00000310: b5a3 eabc 902d 0c3d d320 a13a 3c2f 30b9
00000320: aabb 51bb 06c8 143d f098 1dbb 2eee 1c3d
00000330: af82 b0bb 455a 8c3c d420 ccbc d6ab cbbc
00000340: b676 123d 29cb 77bc 2506 fa3c 2aed 58bc
00000350: a1cf 183d dcf8 d83c 18d2 823b ed84 0fbb
00000360: c838 a73c 65f5 79bc eeca a3bc 2abc 073c
00000370: 489e a1bc 4101 db3c 10b6 27bc 3d4f d4bc
00000380: 7e11 a1bb 8fe5 17bc 5bf5 20bc 8f98 ec3c
00000390: 9c75 c13c 161e 8bbc c2e2 0e3d cb75 b8bc
000003a0: d668 0bbc e363 fdbc 3a84 1bbc cda9 3b3c
000003b0: 6697 dbbc eccd de3c 951b 953a fd6e 0e3d
000003c0: b8a6 dcbc 18e0 3a39 e411 fbbb e8d2 253b
000003d0: a1de f03c 0b5e 4c3c 7719 f4bc 5780 74bc
000003e0: 5cf1 823c 94ed 9eba 357c 373c 6833 adbc
000003f0: 9641 fa3c 53da 27b9 3906 29bc dafb 083a

bias f4 [64]
-0.038244274 -0.037138343 0.011403941 -0.009293374 -0.023532553 0.025346883 -0.0024123332 0.03426369
0.01036497 -0.00851301 -0.010055267 0.019922024 -0.006859566 -0.032299783 -0.036764007 0.0362386
-0.019392814 0.01940112 -0.034022372 -0.019388696 0.026166571 -0.026182499 0.031829976 0.015011598
0.030304309 -0.003467316 0.027173782 0.010627267 -0.018224057 0.023202727 0.030080875 0.015376368
-0.02269354 0.002467397 -0.022863027 0.0016017432 -0.008454014 -0.02267632 -0.03614209 0.03894523
0.03452756 -0.015594278 0.04437266 -0.0057153744 -0.016299304 0.014368465 0.035447888 -0.014824345
0.028391173 0.022624519 -0.01692597 -0.014204287 0.0049059168 -0.0013200799 0.0098576415 0.026312474
0.031701192 -0.022801762 0.014139494 -0.016648656 -0.009643362 -0.009810978 -0.007645967 0.0139120435
00000000: 07a6 1cbd 601e 18bd 98d7 3a3c 3c43 18bc
00000010: 57c7 c0bc 44a4 cf3c 3c18 1ebb 1558 0c3d
00000020: d6d1 293c 277a 0bbc d9be 24bc 8333 a33c
00000030: 36c6 e0bb c74c 04bd db95 16bd ed6e 143d
00000040: aedd 9ebc 19ef 9e3c 0b5b 0bbd 0bd5 9ebc
00000050: 475b d63c ae7c d6bc 2660 023d 35f3 753c
00000060: be40 f83c e93b 63bb 8d9b de3c fd1d 2e3c
00000070: 9e4a 95bc a513 be3c 2b6c f63c 29ed 7b3c
00000080: cee7 b9bc 0db4 213b 3e4b bbbc 95f1 d13a
00000090: b482 0abc b1c3 b9bc ba09 14bd 0985 1f3d
000000a0: c56c 0d3d 257f 7fbc 1bc0 353d 0948 bbbb
000000b0: 1e86 85bc b669 6b3c ce31 113d cfe1 72bc
000000c0: 9b94 e83c 0e57 b93c 55a8 8abc 19b9 68bc
000000d0: d0c1 a03b 8806 adba f281 213c 428d d73c
000000e0: 1cd9 013d c3ca babc 56a9 673c c362 88bc
000000f0: 31ff 1dbc 39be 20bc 058b fabb 57ef 633c

weight f4 [64, 1024]
-0.018365182 0.0030152919 -0.016362201 -0.0053076576 -0.017948588 -0.004628725 -0.022088688 -0.026353657
-0.010670383 0.0072713117 -0.029676195 0.02791219 -0.028244723 0.005020625 0.024218498 -0.004716016
0.0052673053 -0.020589752 0.008708092 -0.021030717 -0.027355697 0.011414818 0.014938915 0.015283311
0.008795843 -0.030409256 -0.010159862 0.013162862 -0.021712124 0.015323795 0.01331286 0.011494203
-0.0113881035 0.02659213 -0.022690529 0.012881091 0.011822086 -0.020802336 0.025518557 0.009461201
-0.01086985 -0.013988579 -0.012254293 -0.013540477 -0.01837519 -0.027655868 0.019517224 0.023631385
0.0148074925 -0.019187182 0.022324216 -0.029071158 0.02038976 0.008040695 -0.00788587 0.030001707
0.02203562 0.021338373 -0.024882691 -0.0043483735 0.013613601 0.017899396 0.011429233 0.034054685
0.02667828 0.0048145372 -0.0062203226 0.022918155 -0.012530364 -0.025876792 -0.012855286 -0.015705366
0.00034105493 -0.010279022 -0.010146623 0.01021473 0.013973145 -0.026459156 -0.027206643 -0.023757095
-0.0031738044 -0.006356456 0.007170025 0.017378345 -0.026375668 0.023787092 0.025042629 -0.014523641
0.025242906 -0.00072105794 -0.0044375393 0.024860749 0.0036597347 0.025068153 -0.009487058 -0.00914951
-0.023783516 -0.0013303019 -0.02516472 -0.01599607 -0.02521714 0.028326865 0.015053611 0.0042488184
-0.02804507 0.023250144 0.030393936 0.008533848 -0.029314708 -0.021735774 -0.022159522 0.026076457
-0.009278335 -0.016226035 -0.02136379 3.3102307e-05 0.018738432 0.026733575 -0.021193782 0.02337194
-0.011343337 -0.018268801 -0.022166278 -0.026199615 0.031893715 -0.021827927 0.008902864 0.025087507
0.0032887112 0.02620396 -0.012291946 0.0036085441 -0.004120295 -0.010801832 0.024774324 -0.016802805
0.020648321 -0.025643183 0.014268468 -0.016098017 0.02649412 -0.013901523 0.018268015 0.0067100776
0.031731542 0.021551918 -0.008447333 -0.013151328 0.003638238 -0.016041867 -0.002354857 0.03220217
0.0077337106 0.0034667903 -0.006361481 -0.019895006 0.027424574 0.005017966 -0.020901902 0.02356962
0.014250873 0.0255193 0.007957446 -0.007823223 -0.012201926 -0.025200056 -0.009231463 0.026652219
-0.0073582153 0.014928532 0.019164283 0.0067794663 -0.025677264 -0.0007926571 -0.01712971 0.01176422
-0.010902253 0.01107132 -0.021512425 0.014962697 0.027110592 0.00823244 0.02670967 0.020928068
-0.022296155 0.025628611 0.036040638 0.020829344 -0.02126294 0.01151611 0.02674122 0.0074066743
-0.01679582 0.026769951 0.028869733 -0.0045861127 -0.025534337 -0.014651448 -0.015532217 -0.01704333
-0.01907441 -0.0015011166 -0.014472972 -0.031184413 0.006065887 0.0018511611 -0.023692347 -0.0055310647
0.013576297 -0.024477102 0.0003600341 -0.0052804193 -0.02386518 0.015747095 -0.014271575 0.022528337
-0.020746041 0.010870299 0.0039294725 -0.008232567 0.0025117486 -0.013670166 -0.001959889 0.02855756
-0.021750841 -0.014770984 -0.026187133 -0.022835186 0.02305246 0.020243676 -0.019758409 -0.026198616
0.026237316 -0.016718753 0.025217362 -0.0022030382 0.019127574 -0.00922597 0.011829586 0.023205455
-0.021257918 0.019991864 0.028599074 0.009101869 0.0067247786 -0.021608567 -0.011021276 0.008411956
-0.0028299727 -0.024856836 -0.023757689 -0.0040327287 -0.002966469 0.025145462 0.012546124 -0.01871167
00000000: 9472 96bc 349c 453b 060a 86bc dceb adbb
00000010: eb08 93bc 8fac 97bb 56f3 b4bc a0e3 d7bc
00000020: d5d2 2ebc 2f44 ee3b 7e1b f3bc 1ba8 e43c
00000030: 7a61 e7bc 0e84 a43b df65 c63c cf88 9abb
00000040: 5c99 ac3b d7ab a8bc 63ac 0e3c 9c48 acbc
00000050: 0e19 e0bc 3705 3b3c 5ac2 743c da66 7a3c
00000060: 711c 103c d51c f9bc 8d75 26bc 0ba9 573c
00000070: a0dd b1bc a810 7b3c 2f1e 5a3c 2e52 3c3c
00000080: 2b95 3abc bdd7 d93c 7de1 b9bc 360b 533c
00000090: 6cb1 413c a969 aabc 4b0c d13c 2703 1b3c
000000a0: 7517 32bc 5a30 65bc 3bc6 48bc e0d8 5dbc
000000b0: 9187 96bc 8f8e e2bc 96e2 9f3c 9b96 c13c
000000c0: 209b 723c 702e 9dbc 46e1 b63c a326 eebc
000000d0: 6d08 a73c 1fbd 033c bc33 01bc 24c6 f53c
000000e0: 0b84 b43c d0cd ae3c c9d6 cbbc cd7c 8ebb
000000f0: 950b 5f3c c1a1 923c ad41 3b3c ed7c 0b3d
00000100: 698c da3c 44c3 9d3b d9d3 cbbb dbbe bb3c
00000110: 284c 4dbc 91fb d3bc fa9e 52bc 8aa8 80bc
00000120: 9ecf b239 5869 28bc 053e 26bc af5b 273c
00000130: 9eef 643c dfc0 d8bc 77e0 debc 3d9e c2bc
00000140: 9aff 4fbb d149 d0bb 87f2 ea3b 085d 8e3c
00000150: c911 d8bc 26dd c23c 3326 cd3c 91f4 6dbc
00000160: 36ca ce3c 6105 3dba c768 91bb c5a8 cb3c
00000170: 29d8 6f3b ba5b cd3c 9b6f 1bbc d4e7 15bc
00000180: a6d5 c2bc 865d aeba 3e26 cebc 310a 83bc
00000190: 2d94 cebc be0d e83c 6ca3 763c ac39 8b3b
000001a0: c6be e5bc 1677 be3c b4fc f83c 8ed1 0b3c
000001b0: 6625 f0bc 390f b2bc e387 b5bc 4b9e d53c
000001c0: 2804 18bc 76ec 84bc 1d03 afbc 55d7 0a38
000001d0: 5781 993c 5f00 db3c 959e adbc 8376 bf3c
000001e0: 67d9 39bc 74a8 95bc 0e96 b5bc 93a0 d6bc
000001f0: fca2 023d 7bd0 b2bc 51dd 113c 5184 cd3c
00000200: 6b87 573b b0a9 d63c 2964 49bc 537d 6c3b
00000210: 8a03 87bb 2bfa 30bc 86f3 ca3c 09a6 89bc
00000220: ab26 a93c a711 d2bc 4bc6 693c fddf 83bc
00000230: 320a d93c 37c3 63bc cea6 953c 36e0 db3b
00000240: eff8 013d a68d b03c af66 0abc ab78 57bc
00000250: 816f 6e3b 3c6a 83bc f253 1abb 6ce6 033d
00000260: 116b fd3b 1733 633b f873 d0bb dafa a2bc
00000270: 80a9 e03c c06d a43b 773a abbc 1315 c13c
00000280: 7e7c 693c da0d d13c f35f 023c fa2c 00bc
00000290: 96ea 47bc 5970 cebc 903f 17bc c155 da3c
000002a0: 2f1d f1bb cd96 743c 6afe 9c3c 4926 de3b
000002b0: 2059 d2bc 51ca 4fba 9b53 8cbc b7be 403c
000002c0: 5d9f 32bc 7b64 353c d33a b0bc 1a26 753c
000002d0: 0817 de3c 5be1 063c 3dce da3c 5771 ab3c
000002e0: 6da6 b6bc 18f3 d13c 599f 133d 4da2 aa3c
000002f0: 9e2f aebc 11ae 3c3c 6710 db3c b0b3 f23b
00000300: 6397 89bc a84c db3c 3880 ec3c 1a47 96bb
00000310: 632d d1bc a00c 70bc d77a 7ebc 749e 8bbc
00000320: f041 9cbc 1dc1 c4ba 0b20 6dbc 7476 ffbc
00000330: 59c4 c63b a9a2 f23a 7416 c2bc ef3d b5bb
00000340: 1e6f 5e3c 3484 c8bc f5c2 bc39 5e07 adbb
00000350: e980 c3bc 0d00 813c 53d3 69bc 598d b83c
00000360: 9af3 a9bc 5719 323c cec2 803b e4e1 06bc
00000370: 269c 243b d5f8 5fbc 7b71 00bb 8bf1 e93c
00000380: d22e b2bc ff01 72bc 6686 d6bc db10 bbbc
00000390: 83d8 bc3c 11d6 a53c 63dc a1bc 7b9e d6bc
000003a0: a4ef d63c c4f5 88bc a494 ce3c d960 10bb
000003b0: 6eb1 9c3c 8628 17bc e1d0 413c 5e19 be3c
000003c0: 1625 aebc fac5 a33c 9b48 ea3c 0120 153c
000003d0: 885b dc3b 7304 b1bc 9592 34bc 4dd2 093c
000003e0: 1077 39bb 90a0 cbbc 7c9f c2bc fb24 84bb
000003f0: 1769 42bb dbfd cd3c 428e 4d3c 3749 99bc

bias f4 [64]
-0.024324475 -0.006612262 0.012572511 -0.008139337 0.013649171 0.03761544 -0.034794953 -0.013113926
0.006701374 0.014132712 -0.008415125 0.009048489 0.03165824 -0.031496786 0.004534498 -0.0002653303
0.0066075227 0.0026890782 0.019864349 -0.036896475 -0.02250159 0.022584338 0.014859008 0.0072009186
0.0080811195 -0.0061757304 0.0053815288 -0.0015176758 -0.008079137 -0.009472717 0.001399869 0.017903289
0.02993526 -0.019679412 -0.0077179177 -0.03518305 -0.006340578 -0.029621204 0.028988916 0.027026527
0.015742697 -0.0098470505 -0.023294719 0.02001595 0.0025443698 0.01916991 0.025357883 -0.019956658
0.005061996 0.027031805 -0.03599113 0.025197906 -0.0030650028 -0.030748343 -0.010531231 -0.019125417
0.004021067 -0.014886799 -0.013460235 -0.032688905 0.04155837 -0.024624452 -0.029324336 0.004842961
00000000: 1f44 c7bc adab d8bb effc 4d3c db5a 05bc
00000010: c6a0 5f3c a612 1a3d 2785 0ebd cbdb 56bc
00000020: 3397 db3b e48c 673c 98df 09bc 1d40 143c
00000030: 12ac 013d c602 01bd 2096 943b 081c 8bb9
00000040: eb83 d83b 3f3b 303b 8fba a23c c220 17bd
00000050: 4155 b8bc ca02 b93c 3273 733c aff5 eb3b
00000060: ac66 043c c85d cabb 8957 b03b c0ec c6ba
00000070: 5b5e 04bc 7433 1bbc cf7b b73a eba9 923c
00000080: ca3a f53c b836 a1bc 96e6 fcbb 1a1c 10bd
00000090: a0c4 cfbb 2ba8 f2bc 2a7a ed3c bc66 dd3c
000000a0: d4f6 803c 8655 21bc 91d4 bebc 7df8 a33c
000000b0: 71bf 263b 370a 9d3c 56bb cf3c 257c a3bc
000000c0: 1adf a53b ce71 dd3c 6f6b 13bd d76b ce3c
000000d0: 37de 48bb f3e3 fbbc 2f8b 2cbc e8ac 9cbc
000000e0: 28c3 833b c3e7 73bc 5188 5cbc cde4 05bd
000000f0: 1c39 2a3d 38b9 c9bc 9739 f0bc b4b1 9e3b

weight f4 [10, 64]
0.009096944 -0.122335844 0.113624334 -0.0656658 -0.05252394 -0.069248796 -0.051507622 0.041747373
0.008028407 0.1330681 0.0010287748 -0.15024798 0.031704955 0.045590274 -0.044936348 0.06833582
-0.073845506 0.055921197 0.10417119 0.11505425 0.0074339653 -0.061777946 0.13136593 0.038570743
-0.011373256 -0.059338517 -0.068242185 -0.021650681 0.035906672 0.045437254 -0.03420695 0.07990034
-0.00091447146 0.09004481 0.06167046 0.08759213 0.12861004 -0.034219787 0.0905129 -0.124678314
-0.0315547 -0.05332097 0.09465211 0.027100822 -0.14647254 -0.05403847 0.036848545 -0.08665404
-0.052077923 -0.07112785 0.030969707 0.091575615 -0.08847634 0.013426253 0.004452479 -0.06750381
-0.06488724 -0.12670438 -0.124756336 0.10971043 -0.11971116 0.1011414 0.08143762 0.12742497
-0.057100195 0.08822788 -0.096014634 -0.11474304 -0.071295045 0.0895293 -0.064049624 -0.13341829
-0.06594411 -0.018050803 0.10466575 0.116319984 -0.020359283 0.010203912 -0.11713268 -0.059047986
-0.063529864 -0.059936386 0.06420951 -0.023171118 0.023986856 -0.081383504 -0.10298521 0.022557825
0.10706667 -0.04090598 0.032627746 -0.07233949 0.14894783 -0.06703993 0.09000034 0.08286062
0.0061420235 0.035703234 0.14163141 -0.05463882 -0.074719764 0.041786853 0.11853858 -0.11633442
0.096930996 -0.009646451 -0.037306964 0.060783256 -0.0950798 -0.1296099 -0.08682511 0.068810806
0.011093105 0.07257841 -0.13041002 0.12546545 -0.10883284 -0.04741479 -0.10890645 0.040981747
0.06336715 0.053228065 0.0052283485 -0.046649788 0.08697933 0.1016365 0.119237624 -0.087440886
0.090183176 0.049200762 0.101237565 0.033390783 -0.08022458 -0.078958966 -0.019155353 -0.09271342
-0.051080804 0.11815942 -0.12708817 0.05842158 0.10902841 -0.09161842 -0.10369965 0.057831157
0.026089223 -0.015234442 -0.12507403 -0.04317965 0.0870076 -0.08707178 0.023702804 0.0054316293
-0.116729714 -0.08258451 0.12279496 0.07028566 -0.11702359 -0.09959401 -0.12816666 -0.09681352
0.036973067 0.05565003 -0.034603726 0.044848744 0.07325986 -0.12998398 0.10489859 0.021176144
-0.044244774 -0.117022224 -0.00409222 0.044508018 0.02134314 0.09921288 -0.11745797 -0.11733231
-0.031028196 -0.06207379 0.011044979 0.10964046 0.051898863 0.004751845 -0.09639998 0.05209211
0.0023631714 0.044154443 0.114506066 0.12841497 0.028755123 0.057536356 -0.002590222 0.110979125
0.06782517 0.07138876 -0.10294585 -0.10494678 -0.087502964 0.072966844 0.09765823 0.05539004
-0.113668606 0.039088603 0.067341626 0.031244932 0.00051092287 -0.12569429 0.060511015 0.066835016
0.13393024 0.01892082 0.03417537 0.09765905 -0.03965239 0.09512156 0.08217063 0.021790538
-0.10984806 0.007123336 0.106037624 -0.075291 -0.042612657 0.10147925 -0.096311115 0.09942274
-0.12318512 0.123503275 -0.08766399 -0.039255876 -0.047678534 -0.025422988 0.073374964 0.0010937216
-0.028104482 0.08603224 0.109397255 0.003166253 0.13278463 0.034806423 -0.030680131 -0.11348584
0.065954685 -0.01752643 0.08006092 0.13115577 -0.08776365 -0.009492927 0.008501662 -0.061414402
0.0047271973 0.004553842 -0.04002346 -0.05803389 -0.009496362 -0.08414079 -0.0005789526 0.10688197
00000000: 590b 153c 378b fabd e0b3 e83d ca7b 86bd
00000010: 5823 57bd 50d2 8dbd a8f9 52bd 4bff 2a3d
00000020: 9489 033c 0143 083e f4d7 863a 9bda 19be
00000030: 0edd 013d debc 3a3d 2d0f 38bd a7f3 8b3d
00000040: 503c 97bd a00d 653d b457 d53d 90a1 eb3d
00000050: 9f98 f33b df0a 7dbd ca84 063e 5bfc 1d3d
00000060: e556 3abc f20c 73bd 8fc2 8bbd c55c b1bc
00000070: e012 133d 6a1c 3a3d 961c 0cbd caa2 a33d
00000080: 24b9 6fba 6a69 b83d 2a9a 7c3d 8163 b33d
00000090: 5ab2 033e 0c2a 0cbd d45e b93d 5857 ffbd
000000a0: 803f 01bd 1767 5abd f7d8 c13d 8b02 de3c
000000b0: e6fc 15be 7157 5dbd 80ee 163d ac77 b1bd
000000c0: a94f 55bd 7aab 91bd 2fb4 fd3c ff8b bb3d
000000d0: 1533 b5bd c9f9 5b3c 1ae6 913b 703f 8abd
000000e0: 9ae3 84bd cbbe 01be 4080 ffbd ddaf e03d
000000f0: 202b f5bd 3923 cf3d c4c8 a63d b17b 023e
00000100: e5e1 69bd d2b0 b43d 52a3 c4bd 66fe eabd
00000110: 2303 92bd 235b b73d 732c 83bd ce9e 08be
00000120: b50d 87bd 47df 93bc ff5a d63d 2c39 ee3d
00000130: 83c8 a6bc 4f2e 273c 42e3 efbd 4ddc 71bd
00000140: f21b 82bd db7f 75bd 4780 833d 5bd1 bdbc
00000150: 1580 c43c 65ac a6bd e9e9 d2bd 30cb b83c
00000160: c545 db3d 078d 27bd aca4 053d ba26 94bd
00000170: c885 183e 3b4c 89bd 1952 b83d d4b2 a93d
00000180: 0743 c93b 8e3d 123d d307 113e f5cc 5fbd
00000190: ad06 99bd b128 2b3d 5bc4 f23d be40 eebd
000001a0: c283 c63d 260c 1ebc 30cf 18bd ddf7 783d
000001b0: 33b9 c2bd 75b8 04be 5dd1 b1bd aeec 8c3d
000001c0: dbbf 353c fda3 943d 348a 05be 047a 003e
000001d0: c1e3 debd 0336 42bd 580a dfbd 7adc 273d
000001e0: a3c6 813d ac05 5a3d 9152 ab3b d913 3fbd
000001f0: 3822 b23d cc26 d03d db32 f43d 3514 b3bd
00000200: f5b1 b83d bd86 493d a455 cf3d c6c4 083d
00000210: c94c a4bd 3db5 a1bd b0eb 9cbc 89e0 bdbd
00000220: 1b3a 51bd 91fd f13d 6723 02be 774b 6f3d
00000230: 494a df3d 70a2 bbbd 7b60 d4bd 5de0 6c3d
00000240: 11b9 d53c e299 79bc 6813 00be 25dd 30bd
00000250: 0a31 b23d b052 b2bd 622c c23c cffb b13b
00000260: fd0f efbd 1122 a9bd ed7b fb3d eef1 8f3d
00000270: 10aa efbd f2f7 cbbd 1f3e 03be 2b46 c6bd
00000280: 1271 173d 49f1 633d a3bc 0dbd 51b3 373d
00000290: 4409 963d 851a 05be 12d5 d63d 9879 ad3c
000002a0: 023a 35bd 59a9 efbd 0818 86bb 0a4e 363d
000002b0: cfd7 ae3c 1f30 cb3d ce8d f0bd ec4b f0bd
000002c0: d82e febc 1641 7ebd 00f6 343c 2d8b e03d
000002d0: e793 543d 5db5 9b3b 5a6d c5bd 895e 553d
000002e0: 70df 1a3b 4adb 343d 2882 ea3d 377f 033e
000002f0: dd8f eb3c 3eab 6b3d b7c0 29bb 0649 e33d
00000300: ece7 8a3d 4534 923d 46d5 d2bd 56ee d6bd
00000310: c134 b3bd a46f 953d 0a01 c83d abe0 623d
00000320: 16cb e8bd 5f1b 203d 68ea 893d 5ff5 ff3c
00000330: 74ef 053a 01b6 00be 66da 773d cce0 883d
00000340: 0225 093e d6ff 9a3c 79fb 0b3d 7801 c83d
00000350: 8b6a 22bd 18cf c23d 1349 a83d 1282 b23c
00000360: 05f8 e0bd e06a e93b 412a d93d 2b32 9abd
00000370: 9c8a 2ebd 5ad4 cf3d c33e c5bd 269e cb3d
00000380: 7b48 fcbd 49ef fc3d 2e89 b3bd c5ca 20bd
00000390: 914a 43bd df43 d0bc 9d45 963d 355b 8f3a
000003a0: 5f3b e6bc ac31 b03d ab0b e03d e980 4f3b
000003b0: b2f8 073e 2e91 0e3d e654 fbbc 446b e8bd
000003c0: 4013 873d 9693 8fbc fbf6 a33d b34d 063e
000003d0: 6ebd b3bd 3988 1bbc 8e4a 0b3c ab8d 7bbd
000003e0: 9be6 9a3b 6538 953b a4ef 23bd f2b4 6dbd
000003f0: a196 1bbc 0252 acbd dac4 17ba efe4 da3d

bias f4 [10]
-0.10006782 -0.082109064 -0.04172808 0.07032921 -0.012577238 0.038456377 -0.06454826 -0.08325788
0.000882115 -0.097124115
00000000: 5bf0 ccbd cc28 a8bd 10eb 2abd c308 903d
00000010: c210 4ebc 6f84 1d3d e131 84bd 1b83 aabd
00000020: bc3d 673a 02e9 c6bd
