PytorchLearning/learn1/vggmodel/vgg_11.pth (torch, 587335 bytes, 10 tensors)

weight f4 [32, 3, 5, 5]
00000000: fa98 e33d f3d5 d8bd d0df 74bd e9ca 14bd
00000010: fad6 b3bd 3fe0 afbb 7ccb d83c b054 cebc
00000020: b022 8ebd 378d bd3d 1ecf ef3d a102 1238
00000030: dc19 29bc 7d81 883d e278 36bd e01a c3bd
00000040: b790 9b3d cee9 bebd 55a4 e43d d733 cf3d
00000050: 7f41 83bd cc32 6e3d 6ab6 623d f4f1 eb3d
00000060: 0e30 65bd 82ef 48bd c336 1dbd 27d8 c33d
00000070: 154c 0c3d ed58 e1bd 2875 7d3d fb1a 25bc
00000080: 12f3 cbbd 0201 9ebd c73b aa3d 95be afbc
00000090: 9de1 aebd 6d34 3d3d ae28 a7bd 33be a03d
000000a0: 753a 213d ade1 bc3d 1913 9d3d 747b ae3d
000000b0: f2e1 09bd 4d06 e8bc 3beb 6c3d 68c5 e73d
000000c0: 6ade 84bd fb90 19bd 8bb0 efba de00 dc3c
000000d0: d74b a5bd 28a7 22bd 00d1 21bd c192 af3c
000000e0: 4849 d03d a694 7cbb c054 d73d 7fb3 833d
000000f0: c747 d7bc e023 9d3d d2ca 82bd 5101 d5bd
00000100: 0fb5 053d e1c0 f53d 39ff af3d 4167 e5bc
00000110: 05f4 3d3c 35e3 f63d fccf 623b a207 003e
00000120: 36d3 2a3d c380 153d d0d3 3e3d c190 46bd
00000130: 162f e93d 34d9 0e3d e610 02bd cd73 383d
00000140: f96b 873d 0bdc 68bd 8429 82bd 6c38 a23d
00000150: 34ff b5bd 9524 703c 7cdd e1bb 3ce2 a7bd
00000160: a780 a8bd b3bc 00bb 1e45 b23c 2d03 ec3d
00000170: 8b3b 3a3d 28b2 e3bd 1266 dbbb 9764 b5bc
00000180: 4ac4 973d 0d42 c5bd fd59 863d f0ad 88bd
00000190: 6d0d 05bd b443 8ebd 91fa 8b3d c3eb f7bd
000001a0: 0c8e 613c d036 83bd d75f 87b8 aa57 a73d
000001b0: 48c3 03be 8568 a1bd 1c93 4f3d b71c 26bd
000001c0: fa09 b4bd a283 abbc 5618 c0bd 8396 a73d
000001d0: 2abf dd3d bb8a bbbc 80f0 da3a 5041 c63c
000001e0: d9eb dbbd 448f a43d 0a1b 843d e982 aabd
000001f0: 6cc4 0b3d c44b 01be 44f7 ddbd 1673 cbbd
00000200: 7da1 023d bbd1 e03c 649b c8bd 77b0 90bc
00000210: f144 873d e503 c9bd 9334 f0bd e3d2 c93d
00000220: 7d09 f33c 5a57 3cbd 7e63 9c3d 6505 e5bd
00000230: 5c47 83bb 0685 b23d 1d29 0ebc 9a10 9abd
00000240: f2ca c0bc b4c4 80bd 91c1 98b9 f0dd b83d
00000250: 8012 d8bc b9c9 a43d cbd5 60bd 3952 d1bd
00000260: 4b13 b63d 07fb 39bd 2b5d debb 1dc0 cdbd
00000270: d025 edbd 5cef a9bd 723f debd 6413 a0bd
00000280: e336 7bbd ff3a cb3d f906 17bb 52d0 943b
00000290: e201 193d 5905 173d 838a c63b 8ef0 c23c
000002a0: 1977 99bd 71b4 b9bd a64f be3d e6cd cd3c
000002b0: 3e5c 58bd 865c b23d fb01 c73d 5ab5 37bd
000002c0: 8365 6e3c c9bb c93d 3401 66bd e5ed 5c3c
000002d0: 1c65 673d 147c c53d 04e3 9b3d c2c5 44bd
000002e0: 863f 29bd c9fc ecbd 99cc 83bd afa0 d2bd
000002f0: d1cb 603d 8f7a 4a3c 8ea4 933d 1d62 b6bd
00000300: 583c 3e3d 824a 7cbd a0f1 c83d 16b9 57bd
00000310: b41c 983d a2b7 38bd 653e 9c3d b4c0 c23d
00000320: e37a c93d 3e1b 22bd 9d04 0dbc fd88 c23b
00000330: fb33 f73d 346b d83d 92af 33bd 2abf d23d
00000340: 20d2 a5bd 0432 c23c c2f3 bc3b 33a6 803d
00000350: 8de3 76bd df0c 1f3d 9d4f 473d bb12 c03d
00000360: 6d5e e63d 2b6f 973d 6ca6 9c3d 5d7f 9b3c
00000370: 50b5 123d 67d0 e53d 5d47 c33c 8872 bc3d
00000380: 4b12 0dbc 8abb b9bd bce7 aa3d a900 c93c
00000390: b299 d8bd 2377 353d 2dfe 9cbd 4b48 eabc
000003a0: 5150 30bd 2e97 df3c 24ed aabd 5ac5 a6bd
000003b0: 1d72 b63c 32a3 84bd 0c96 02bd 712c e2bd
000003c0: 2d06 a3bd 203b 393d 7eee c43d 4619 ac3d
000003d0: 007a e73d 5da9 eebc 57a9 4b3d c228 b63d
000003e0: 90d3 203d 5047 963d 4e98 4e3d c043 003d
000003f0: c765 bdbd 0fb3 d63d 39d3 d23d 3c51 e13d
0.11113162 -0.105876826 -0.059783757 -0.036326323 -0.08781238 -0.0053673084 0.026464216 -0.025186867
-0.0694021 0.0925545 0.11709426 3.481156e-05 -0.010321107 0.06665323 -0.044548877 -0.095266104
0.075959615 -0.093219385 0.11164156 0.101173095 -0.06408977 0.058153912 0.055349745 0.11520758
-0.05595403 -0.049056537 -0.038382303 0.09562712 0.034252245 -0.11003289 0.061879307 -0.010077233
-0.09958471 -0.07715036 0.08312183 -0.021453181 -0.08539126 0.046192575 -0.08162056 0.078487776
0.03936239 0.09222732 0.07669658 0.085196406 -0.033662744 -0.028323317 0.05784152 0.11316949
-0.064877346 -0.03749178 -0.0018286867 0.026855882 -0.08071106 -0.039710194 -0.03950596 0.021432282
0.10170227 -0.003854075 0.10514212 0.064307205 -0.026279343 0.07672858 -0.06386341 -0.10400642
0.032643374 0.11999679 0.08593602 -0.028003337 0.011593823 0.12055055 0.0034608832 0.12502912
0.041705333 0.03649975 0.04658872 -0.04847789 0.11385934 0.03487511 -0.031754397 0.04503231
0.06612391 -0.056850474 -0.06355575 0.07920918 -0.08886567 0.014657159 -0.006892858 -0.08197448
-0.082276635 -0.0019643723 0.021761473 0.11524043 0.04546694 -0.11117965 -0.0066955173 -0.022142692
0.07410486 -0.09631739 0.06560133 -0.06673801 -0.032483507 -0.06946507 0.06834901 -0.12105515
0.013766777 -0.06406939 -6.455153e-05 0.081710175 -0.12867463 -0.07881264 0.050677404 -0.04055473
-0.087909654 -0.02093679 -0.09379642 0.08183005 0.10827477 -0.0228933 0.0016703755 0.024201065
-0.10738344 0.08035138 0.0645047 -0.083257504 0.03412287 -0.12626559 -0.10838178 -0.0993406
0.03189229 0.027443757 -0.097952634 -0.01766227 0.066049464 -0.09815196 -0.11728778 0.098546766
0.02966761 -0.045981742 0.07636164 -0.111826696 -0.0040063094 0.087167785 -0.008676794 -0.07522698
-0.023534272 -0.06287518 -0.00029135917 0.09026706 -0.026376009 0.08046288 -0.05489139 -0.10220761
0.088903986 -0.045405414 -0.006786009 -0.10046408 -0.11579478 -0.08297607 -0.10851945 -0.078161985
-0.06133164 0.09923362 -0.0023044928 0.0045414353 0.03735531 0.036870334 0.0060589924 0.023796346
-0.07493419 -0.090676196 0.092925355 0.025122594 -0.052822344 0.08709054 0.097171746 -0.044850685
0.0145505695 0.0985027 -0.05615349 0.013484453 0.05649291 0.09642807 0.07611659 -0.04804016
-0.041320346 -0.115716524 -0.06435508 -0.10284554 0.054881874 0.012358322 0.07209121 -0.089054324
0.046444267 -0.061594494 0.09811711 -0.052666746 0.0742735 -0.045097 0.07629088 0.095094115
0.09837892 -0.03957676 -0.008607057 0.0059367404 0.12070461 0.105673224 -0.04386861 0.10290368
-0.08096719 0.02370549 0.005766363 0.062817 -0.060275603 0.038830634 0.04865991 0.093785726
0.11248479 0.073942505 0.0764893 0.01898163 0.035817444 0.1122139 0.02383774 0.092015326
-0.008610318 -0.09068973 0.08344981 0.024536448 -0.1057619 0.04430307 -0.07665668 -0.028598925
-0.043045346 0.027293768 -0.08346012 -0.081431106 0.02227121 -0.064764395 -0.031881377 -0.11043633
-0.07960162 0.0452224 0.09615801 0.08403258 0.113025665 -0.029133493 0.049722042 0.08894493
0.03926426 0.073378205 0.050438218 0.03131461 -0.09247928 0.104833715 0.10294194 0.11001822

bias f4 [32]
00000000: e56d 913d d4b0 3c3d f370 d6bb 9abc c5bc
00000010: 51c8 a53d dc01 ad3d ee92 18bd 4640 de3d
00000020: a5c5 b6bd 89b5 ed3d 8ef2 ba3d bf8a 99bd
00000030: 0fcb bebc c25b 783c 106b f63d bcc8 a73c
00000040: 0bde 5d3d a129 a4bd 0109 e83c eccb ba3d
00000050: 95d6 8e3d 606e 143b 3844 9d3d c7aa f63d
00000060: 1cb6 adbd 020c 63bd a63c 673d 6348 a5bd
00000070: 6cf0 64bd 9de0 b93b 5137 05be 9564 c23d
0.07101039 0.046067074 -0.0065442263 -0.024137784 0.08094848 0.0844762 -0.037249498 0.10852103
-0.089244165 0.11606891 0.09128295 -0.07497167 -0.023290185 0.0151585955 0.12032139 0.02048146
0.054166835 -0.080157526 0.028324606 0.09120926 0.06974522 0.0022648796 0.07679027 0.12044292
-0.08482 -0.055431373 0.056454323 -0.08070447 -0.055893347 0.005672528 -0.13009383 0.09491841

weight f4 [32, 32, 5, 5]
00000000: 0734 a4bc 08f3 07bd b5f3 943b 499f 073d
00000010: 5f99 e8bc 6d92 0abd cb0e 6bbb f0f1 983c
00000020: c295 9abc 2aba a83c 5737 91bc 89af b43c
00000030: afba 18bd c6f2 2b3c a8b7 00bd d1e8 83bc
00000040: 9254 d0bc ce52 c0ba bd96 803c 8bd8 f2bb
00000050: 3865 c33c cbad 043c 4c8b 03bd d2cc 68bc
00000060: a0b6 15bb 4690 00bd b455 d6bc fa64 a33a
00000070: 2b4c f1bc 32a5 f63c c3cf 943a 8423 a5bc
00000080: 56ed 04bd e387 ba3c e3e3 8a3c 07bc c63b
00000090: 00f7 3cbc 1262 0dbd 2460 743c 20c1 153c
000000a0: 1939 fdbc b382 13bb 99e2 97bb 1584 41bc
000000b0: 2bc6 aa3c 56de f5bc 178e 893c 4176 b7ba
000000c0: 84f0 52bc 870c 9dbc 3ce1 82bb 2517 07bd
000000d0: f0e0 c53c d24f 19bc 1b7d 0b3d c20e f9bc
000000e0: 246a 2d3c 79bc 053d ce90 b7bc d782 fb3c
000000f0: fe23 93bb 37ff ec3c edd9 f13c a1c5 eb3c
00000100: 0788 023d 653d 1a3b 7655 953c 5541 00bd
00000110: 8e8b 6cbb 77fe f5bc 08d2 f53c 258f 2c3b
00000120: 3c13 f3ba d387 fcbb 337a 003d 0036 0abd
00000130: 59b0 96bc 6a80 aaba 0602 0bbd 4c05 f13c
00000140: 3df6 403c 522c 3cbc 22b5 9c3a 43cf f2bc
00000150: 97dd c33c 4a2d 9bb7 3596 03bd 1cf9 d03c
00000160: 35e6 b7bc 9dd2 8dbc 3256 b43b 228c 40bc
00000170: 496b 7bbb 6f21 403c 13ab 20bc 7ab8 03bd
00000180: adcf f5bc 4d6f cabc 667e 0dbc 8016 eabc
00000190: 940c 9bbc 6251 02bd 8f47 afb9 ab0a 76bc
000001a0: 07aa 30bb 8b32 0f3c 2dbc 13bc 9d10 7e3c
000001b0: 44f1 0f3c 364f 06bd 093f a8bc 1c7c f5bc
000001c0: a7e0 23bd 6265 9e3b 1cf3 0a3c 8d50 463c
000001d0: 0e9e c53b 7e3a 17bd 54d4 9b3c cc96 523c
000001e0: 6fa8 083c 137c 673c f845 1e3b 73e0 a03c
000001f0: 8f4b 1c3a 0a6b 95bc a719 05bd 0fd1 f936
00000200: 3a87 3b3c d3cc a23b a3fc 00bd 6f5c b13c
00000210: f50d f5bb 182c 933c 71a2 683c 43a1 0fbd
00000220: de6a b73b e843 14bd ce81 f7bc 109c cbba
00000230: 66aa 0abd 382f 03bd 25ee 5cbc 5b5c bf3c
00000240: 88ca 5e3c 235b 5d3c f1e8 843c dc7d 83bc
00000250: 81cf f13a 18a0 f83c faf3 adba c349 2b3c
00000260: 3c7f 19bc cbfc d2bb 395a 373c a4e4 fa3c
00000270: d745 863b aef7 babb 020a cfbc 52e5 29bb
00000280: ad1d ee3c 5757 9d3c 6983 3a3c 6570 7b3c
00000290: 79b8 e0bc 7fea e33c 2ad5 ec3c adf4 d1bc
000002a0: 3c7c 023c 654b babc 28bb c53b a74d 9e3c
000002b0: 1efe 513b fc52 a6bc fd1b 343c 9ae6 cf3c
000002c0: bea1 883c ce88 46bc d132 a2bc dca5 ee3c
000002d0: 1b79 bd3c ba46 3bbc 0334 a8b9 5d9d fb3a
000002e0: 89f0 d13c fc65 ae3c 42d3 0bbd 8f5e 39bc
000002f0: 966c e03c d3fe 08bb 3acd b6bc 706b 0ebd
00000300: a877 83bb 2193 033d 08be c1bc 75f2 ad3b
00000310: 4fc2 e5bc d04d 4b3c 5f91 833c d5a7 aabc
00000320: 2c25 b23c cb34 8abc a884 003d ab6e 5a3c
00000330: 11ad 073c 8875 043d 8411 b73b 9a38 d83a
00000340: e542 05bc 6319 223c bbed 373c 3806 083d
00000350: b8e6 413b beda 17bc d8d9 913c 0509 153a
00000360: 82d4 103d fd01 cd3c a273 d93b b5e0 c33a
00000370: 612e aabc 391c 133d ca9c c33c 7832 1f3d
00000380: 844f 723c c92b bdbb d754 ebbc a9e3 783b
00000390: f124 ebbc fa6a b13c c8b2 2ebd a838 e3bc
000003a0: 6523 87bc 84ab 993c 2b37 cb3c 1240 51bc
000003b0: dbf3 f53b 90b1 17bd 2616 cdbc b746 16bd
000003c0: a8dd 6f3c 6da3 c7bc 7356 21bb fa4f 65bb
000003d0: f46d 87bc c5a2 a83c 99fa 1fbd 5818 0ebd
000003e0: 5480 6dbc ec79 a6bc 871b 1fbd 6169 01bd
000003f0: ff2e dcbc 0c52 713c 38ae 773c e73e 353c
-0.02004434 -0.033190757 0.0045456537 0.03311089 -0.028393446 -0.03383105 -0.0035866972 0.018670052
-0.018870238 0.020596582 -0.017726583 0.022056358 -0.03728741 0.010494893 -0.03142515 -0.016102226
-0.025430951 -0.0014673115 0.015696878 -0.007411068 0.023851976 0.008098076 -0.032115266 -0.014208989
-0.0022844449 -0.03138759 -0.026163913 0.0012466006 -0.029455265 0.030108068 0.0011353422 -0.020158537
-0.032452904 0.022769874 0.016954368 0.006064895 -0.011533499 -0.034517355 0.0149155 0.009140283
-0.030911015 -0.0022508323 -0.004635167 -0.011811276 0.020846447 -0.030013245 0.016791387 -0.0013997034
-0.012874726 -0.019171013 -0.003994135 -0.032981057 0.02415511 -0.00935741 0.034054857 -0.030402545
0.010584388 0.032650445 -0.022407915 0.030702038 -0.0044903746 0.02893029 0.02952286 0.02878076
0.031868007 0.002353513 0.018229228 -0.031312305 -0.0036093923 -0.030028565 0.030007377 0.0026330438
-0.0018545161 -0.007706621 0.03136654 -0.033742905 -0.018394636 -0.0013008241 -0.033937477 0.029421471
0.011777458 -0.011485176 0.0011955837 -0.029639846 0.023909373 -1.849853e-05 -0.03212567 0.02550941
-0.022448638 -0.017312342 0.0055034393 -0.01175216 -0.0038363507 0.011726721 -0.009806412 -0.032158352
-0.030006254 -0.024711275 -0.008636093 -0.028575182 -0.018926896 -0.031815894 -0.00033431916 -0.015017192
-0.0026956813 0.008740078 -0.009017033 0.015506891 0.00878555 -0.032790385 -0.02053787 -0.029966407
-0.040009167 0.004833863 0.008480813 0.012104166 0.0060308045 -0.036921017 0.019022144 0.012853336
0.008340939 0.014128703 0.0024150591 0.019638276 0.0005962187 -0.018239517 -0.032495167 7.445116e-06
0.011445815 0.0049682646 -0.031490933 0.021650521 -0.0074784704 0.017965361 0.014198885 -0.0350659
0.0055974564 -0.036197573 -0.030213263 -0.0015534181 -0.03385391 -0.032027453 -0.013484512 0.023359468
0.013598092 0.013510498 0.016224356 -0.016051225 0.0018448682 0.030349776 -0.0013271563 0.010454598
-0.009368714 -0.0064388267 0.011190944 0.030626602 0.004097681 -0.0057057953 -0.025273327 -0.002592404
0.029066885 0.019206686 0.01138387 0.015346621 -0.027431713 0.027821777 0.028910238 -0.025629366
0.00796419 -0.022741029 0.0060342737 0.019324137 0.0032042335 -0.020303242 0.010993001 0.025378514
0.016678687 -0.012117578 -0.019799622 0.029131822 0.023129037 -0.011430437 -0.0003208221 0.0019196678
0.025627391 0.021288864 -0.034137018 -0.011314048 0.027395528 -0.002090384 -0.022314657 -0.03477043
-0.004012067 0.032122735 -0.023650184 0.005308444 -0.028046755 0.012408689 0.01606053 -0.020831982
0.02174624 -0.016870877 0.03137651 0.013332049 0.008281008 0.03233865 0.005586805 0.0016496361
-0.008133625 0.009893748 0.011226113 0.033209056 0.0029586982 -0.009268461 0.017804071 0.0005685243
0.035358913 0.025025362 0.006636099 0.0014944287 -0.020774068 0.035915587 0.023878474 0.03886649
0.014789466 -0.005773042 -0.028726978 0.0037977493 -0.028704138 0.021657456 -0.042650968 -0.027736977
-0.01649637 0.018758543 0.02480658 -0.012771623 0.0075058765 -0.03703457 -0.025034975 -0.036688533
0.014640249 -0.02436992 -0.0024618178 -0.0034990297 -0.016531922 0.020585427 -0.039057348 -0.034691185
-0.014495928 -0.020321809 -0.03884461 -0.031594638 -0.026877878 0.014729034 0.015117221 0.01106236

bias f4 [32]
00000000: ad25 87bc 9468 e8bc ee2a 48bc be38 f2bc
00000010: e0e9 863c b8ad 16bc 3a3a c1bc d440 57bc
00000020: 9739 d83b 2b26 b93b f7e2 12bc 9f16 aebc
00000030: b208 f03c 028c a0bc 5e0f abbc 89d6 e4bb
00000040: 3496 0d3d 856c f2bc c104 8ebc d5a3 093a
00000050: 4be9 ef3c 4ca4 24bd 4c2d 4c3c f03b 1dbc
00000060: 1cba 8fbb 517a 08bd 8a0a 86bc b9d0 923c
00000070: 1113 063d 16b6 e7bc d29f d43c 5f8c de3c
-0.016497457 -0.02837018 -0.0122172665 -0.029568072 0.016468942 -0.009196691 -0.023587335 -0.013138015
0.006598662 0.005650302 -0.008965245 -0.021251021 0.029301021 -0.01959801 -0.020881351 -0.0069835824
0.034567073 -0.029592762 -0.017336251 0.0005250548 0.029286047 -0.04019575 0.0124619715 -0.00959681
-0.0043861996 -0.033319775 -0.016362447 0.017921792 0.032733027 -0.028285068 0.025955115 0.027166544

weight f4 [64, 32, 5, 5]
00000000: e9a0 15bc 0221 7d3c ad3d 8dbc a20d fe3b
00000010: 8121 7e3c 563c 8abc 14ab fd3a 506b 9f3b
00000020: 198f 2c3a 1073 353b 8ccc 34bc 1cb8 993c
00000030: b014 86bc ddf7 033d 0457 123d eeb0 ffbc
00000040: 0ec8 723c d352 51bc 1dd7 febc c137 15ba
00000050: 592b 07bb d12d 5b3c 4f63 1fbc 88f9 943c
00000060: fba1 e2bc 36e7 be3b dad9 ffbb c6f3 293d
00000070: 6193 783c a1ce 713c c991 1d3c 1d57 e2bc
00000080: 973e 2a3c f445 843c 8e52 213c 4b9f e2bc
00000090: 57e0 1cbd f75d bdbc 55b1 aa3b b18a bbbb
000000a0: 1b1e 043d 6ae1 c73b 30b0 b9bc 123f bdbb
000000b0: c46c a33c cbae bc3c 3c13 bebc 8448 10bd
000000c0: 4c94 003d b4b7 953c ce67 a03c 7739 ff3c
000000d0: 6159 8abc 1890 8f3b 95f9 ee3c 017f 8ebb
000000e0: 14fc 9fbc 2f9f 32bc 3aad a9bc bff7 f43c
000000f0: 769f b63c 3f95 9d3c 235d e0bc ec30 e5bc
00000100: 80a5 c83c dd3d ccbc 9599 223c c1d4 013d
00000110: 1339 8dbc acd5 c33c 5988 a3bb f37b 003c
00000120: a98c 913c a4dd b23a 911a 0abd f6c4 b33c
00000130: d059 ae3c 423f b4bc fd43 c8bc 4586 a63c
00000140: d3be 9e3b b97d d6bc 3288 383c 26fa 033d
00000150: fbf9 05bc 5bea b43b a968 773c 4aba 1e3d
00000160: 3c34 2b3b 808e dd3c 741d a33c c483 ab3c
00000170: 5dd3 febc a6ff c3bc b299 7d3c f5e9 febc
00000180: a953 933c 6dfd e93c fc61 b33b d70e 4fbc
00000190: ac85 413a 4df5 caba b72d c13c 6faa 443c
000001a0: 7dcc 0fbb 6b2e 5f3c 42f4 8c3c 5fc1 983c
000001b0: a6da dd3c 8f68 e53c 40ff 85bc 2764 9fbc
000001c0: 8949 c93c f1e9 32bc 87b1 303c f2c6 0dbd
000001d0: 329e e33b bbf3 eebc 43d1 0abd 2d03 aabb
000001e0: 611c ea3b ca7c b4bc 8f2d e83c 764b a23b
000001f0: 30a8 7d3c 1b79 d9bc bc01 efbc 2f2d 1abd
00000200: 9bcf 08bd a26c c7bc e7bd 59bc 824d 01bd
00000210: 4942 d53c 7169 8c3c ee87 02bc cb44 b8bc
00000220: 20d5 153c 27dd d6bc 2acb c23c 7f30 9fbb
00000230: 25f5 91bc 10ac 4d3c 0631 ddbc 0f71 023d
00000240: 85e6 15bd 5eb1 00bd 86b5 033d 3dfa c13c
00000250: 6112 abbc cea6 58bc 0f60 67bc 0496 0d3d
00000260: b5ee aa3c d395 b33c a1a6 e8bb e756 7e3b
00000270: c187 ec3c 9ad0 003d 37e4 fa3c 862b 103d
00000280: dcee a23c e307 3c3d f2af 203d d5fa f03c
00000290: d16a 273d 73a5 8fbb 23e3 81bb 6ceb 9c3c
000002a0: 746b ff3c b535 ef3c 549b 3e3c 47a2 593c
000002b0: 22db acbc 53d3 0d3d 6b48 dabc cbd7 e7b9
000002c0: a5f8 203a 8ad2 0b3c dded d3bc 1f11 043c
000002d0: 464d 1e3d 0ad6 5ebc 6435 94bc a388 bf3b
000002e0: 383f b5bc 5b0d 543c e412 dd3c 9885 b6bb
000002f0: 63e1 2dbc d524 88bc 285a 1cbc 470e babc
00000300: 7d7c d8bb 62a5 15bb 1454 8b3c 4d21 0cbd
00000310: 8417 eabc cd57 0b3d 287b 203a 667e 02ba
00000320: db4b 56ba 8167 1f3d 5f44 c939 d344 2a3d
00000330: 1ab4 30bb c9d9 a23c e4b0 b0bc a73d b0bc
00000340: 2c70 213d 15d1 4abc 9fc8 fb3c 617c 52bc
00000350: 16fc 1a3d 3fa2 dd3c 475e 643b c127 30bb
00000360: d73a a43c a2c6 7fbc 8a17 a7bc 3830 f33b
00000370: 8392 a4bc b547 d33c 309f 3abc 8356 dcbc
00000380: 9058 c0bb 0688 20bc 5ce0 26bc 76dc e63c
00000390: fdd7 b43c 4f0a 9bbc 34ef 0c3d 68ea bbbc
000003a0: 44ef 19bc 3a3a 06bd 210e 3ebc f9f2 4c3c
000003b0: cc4f cfbc e66c e83c c6b3 d43a 5159 113d
000003c0: 39fc cfbc b9b7 043b ccf0 bbbb 58ce 7b3b
000003d0: 3d74 fe3c 4f86 4e3c 8dd8 f1bc f839 6ebc
000003e0: 8a4b 843c 9714 48ba d07d 4b3c c838 9fbc
000003f0: ed9d 043d 0f4b 423a 655c 1ebc 41a8 a73a
-0.009132602 0.015449764 -0.017241323 0.00775309 0.015510918 -0.016874474 0.0019353353 0.0048650876
0.00065826025 0.002768699 -0.011035096 0.018764548 -0.016367286 0.032218803 0.035727516 -0.031212296
0.014818205 -0.0127760945 -0.031108433 -0.0005692207 -0.0020625202 0.013377623 -0.009728267 0.018185392
-0.027665129 0.0058259023 -0.0078079524 0.041492246 0.015171857 0.014758737 0.009617277 -0.02762943
0.010390899 0.016146637 0.009846343 -0.027663847 -0.038299885 -0.023116095 0.005209128 -0.0057233204
0.032255273 0.0060998695 -0.02266702 -0.005775341 0.019949324 0.023032567 -0.023202531 -0.035225406
0.031391427 0.018276073 0.019580748 0.031155331 -0.016888322 0.004381191 0.029171744 -0.004348636
-0.01952938 -0.01090221 -0.020712484 0.02990329 0.022292834 0.019236205 -0.027388161 -0.02797743
0.024492979 -0.024931842 0.009924312 0.03169704 -0.01723913 0.023905598 -0.004990619 0.007842052
0.017767267 0.0013646376 -0.033716742 0.021944504 0.02128306 -0.02200282 -0.024446482 0.020327697
0.0048445254 -0.026182996 0.01126294 0.032220982 -0.008177276 0.0055211014 0.0151006365 0.038751878
0.0026123663 0.027045488 0.019911505 0.020936854 -0.031106645 -0.023925614 0.015478538 -0.031117419
0.017984228 0.028563226 0.005474327 -0.012637815 0.00073822844 -0.0015484482 0.023581369 0.012003525
-0.0021941953 0.013621907 0.017206315 0.018646894 0.027081799 0.028003959 -0.016357064 -0.019456936
0.024571197 -0.010920034 0.010784513 -0.034613557 0.0069463486 -0.029168954 -0.033890974 -0.005188367
0.0071444963 -0.02203216 0.028342037 0.0049528433 0.015481994 -0.026547005 -0.029175632 -0.037640747
-0.033401113 -0.024343792 -0.013289905 -0.031568058 0.026032584 0.017140122 -0.0079669785 -0.02249374
0.009145051 -0.0262285 0.023778517 -0.004858076 -0.01781709 0.01255323 -0.027000915 0.031846102
-0.036596794 -0.03141915 0.032155536 0.023678893 -0.020882787 -0.013223363 -0.014122023 0.034566894
0.020865778 0.021922028 -0.007099942 0.0038809122 0.028873326 0.031448938 0.0306264 0.035197757
0.019889288 0.04590596 0.039230295 0.029416481 0.040873352 -0.0043837368 -0.0039638444 0.019155227
0.031179167 0.029200414 0.011633713 0.013283319 -0.021100584 0.034625363 -0.02664586 -0.00044220532
0.00061405665 0.008534083 -0.025870258 0.008060723 0.038647912 -0.013600836 -0.018091865 0.005845146
-0.022124872 0.012942637 0.026986547 -0.005570125 -0.010612818 -0.016619125 -0.009542979 -0.022711886
-0.006606637 -0.0022834172 0.017007865 -0.034211446 -0.028575666 0.03401928 0.00061218673 -0.0004977941
-0.00081747555 0.03891707 0.00038388648 0.041569542 -0.0026962818 0.019879239 -0.021568723 -0.021513773
0.039413616 -0.012378951 0.030735312 -0.012847037 0.037838064 0.027054904 0.0034846233 -0.0026879164
0.020047588 -0.015611323 -0.020396966 0.0074215196 -0.020089393 0.025791029 -0.011390492 -0.02689672
-0.0058699325 -0.0097980555 -0.010185327 0.028181296 0.022075647 -0.018925814 0.03440781 -0.022938922
-0.009395424 -0.032770373 -0.011600048 0.012509101 -0.025306605 0.02837224 0.0016227893 0.03548557
-0.025388824 0.0020251109 -0.0057354923 0.003842255 0.031061286 0.012605264 -0.029522205 -0.014540188
0.016149301 -0.00076324627 0.012420133 -0.019436255 0.032377172 0.00074116973 -0.009665583 0.0012791232

bias f4 [64]
00000000: 232c 25bd 53ef 1bbd 0b09 453c a64d 14bc
00000010: 48bc bdbc 3718 b53c 98f4 73bb 8001 043d
00000020: 4e18 cf3b 050e 04bc 808b 6abc 452c ab3c
00000030: a64a c3bb 36df 03bd 93b9 1cbd 8375 143d
00000040: ce8e b1bc c85c a43c f0fe 0fbd 64cb acbc
00000050: c67e d33c 0ee4 debc e7ec f53c 978f 643c
00000060: 50bb f43c 889f eebb cba9 ea3c 3b1d 2b3c
00000070: 9c3b 8abc 6c75 ca3c 344e df3c c124 3f3c
00000080: 4190 bbbc fe85 953b 2f4e b8bc 5149 26bb
00000090: 36c4 0abc 8466 d6bc 7f91 20bd e2fb 1b3d
000000a0: 122e 053d 31ce 78bc bf37 313d 9c16 e1bb
000000b0: 74fe 8bbc 9886 5f3c c9e9 153d 70b9 8ebc
000000c0: 59a5 f03c 32de b73c 35a2 a4bc 215d 6cbc
000000d0: 2122 a03b 43ab 46bb 6c96 163c f899 dc3c
000000e0: d60d 083d 0474 b8bc fbbd 523c 2bf7 89bc
000000f0: 706a 29bc 809a 1cbc bfb8 13bc d906 6a3c
-0.040325295 -0.038070034 0.012026082 -0.009051716 -0.023161069 0.022106273 -0.0037224647 0.032227993
0.006320036 -0.008059983 -0.014315486 0.020895133 -0.0059598265 -0.032195292 -0.038262915 0.03624488
-0.02167454 0.020063773 -0.035155237 -0.021093078 0.025817286 -0.027208354 0.03002019 0.01395025
0.029874474 -0.007282201 0.028645417 0.010443981 -0.016874127 0.024714194 0.02725897 0.011666478
-0.022895934 0.0045630923 -0.022498218 -0.002537329 -0.008469632 -0.02617193 -0.039201256 0.03808201
0.03251464 -0.015185879 0.043266054 -0.0068691503 -0.017089106 0.0136429295 0.036599908 -0.017422408
0.029375719 0.022444818 -0.020096878 -0.014426501 0.004886881 -0.0030314482 0.009191137 0.026928887
0.03321632 -0.022516258 0.012862678 -0.016841492 -0.010340318 -0.00955832 -0.009016215 0.014283859

weight f4 [64, 1024]
00000000: 100f 97bc 7a1c 3f3b e768 87bc c9d9 a4bb
00000010: 9275 94bc 53a1 a4bb a981 babc 113c dcbc
00000020: 4ff5 39bc ff51 d43b a630 f9bc 8a83 e23c
00000030: 4149 f2bc 6293 573b fa9b b43c b019 c0bb
00000040: 0448 af3b efbe acbc 8a0a 083c 7a16 adbc
00000050: c98c e5bc 91bf 243c bbdf 6d3c ef4e 7f3c
00000060: f91a 0e3c 7ffa f5bc 1398 1dbc 7623 593c
00000070: 2c9b b6bc e55e 6b3c ab01 563c 3ceb 403c
00000080: c4f3 34bc a180 da3c 7eb3 b5bc d8de 533c
00000090: c9d6 493c 9f6f a2bc dd22 da3c 1557 1b3c
000000a0: 9b53 2abc 2e50 58bc 3631 36bc 0d98 53bc
000000b0: 27d2 97bc 8e3c e4bc 448e a03c d61a c63c
000000c0: 1ca2 753c aac5 99bc 53a7 bd3c b849 e9bc
000000d0: 896a a53c 0ccc 043c 419d f8bb 792f f73c
000000e0: d79b ae3c 28f6 aa3c 40da d1bc 5526 a9bb
000000f0: 7a59 533c 08da 903c a6a1 373c d36d 093d
00000100: cbee db3c b711 983b a017 d5bb d845 bb3c
00000110: e66f 43bc 7dc2 cabc b928 40bc b95a 78bc
00000120: 45ec f539 fff2 1ebc faa3 05bc 81fe 3b3c
00000130: cb99 613c 4dce d9bc 4ab2 debc 0b5e c3bc
00000140: 37d7 4bbb 5a8c cbbb 956d e63b a444 8e3c
00000150: f2ca d7bc 18c6 c63c bdc3 d33c e924 6fbc
00000160: c7b8 c73c 5bc2 a5ba 4c4c b4bb e4c1 be3c
00000170: 1f1c 523b bcce c23c 2d1a 31bc 61c5 28bc
00000180: 0d15 c1bc 95c1 49ba 787b c8bc 75cf 7fbc
00000190: 80c4 d1bc c011 ef3c df6f 823c 3a28 5f3b
000001a0: 452c eabc d581 c03c 708e f93c d6e1 043c
000001b0: ad20 f0bc 81c1 b1bc 166c b8bc 06be d53c
000001c0: e6bf 1ebc 62fd 84bc ed55 b3bc bef1 3d39
000001d0: 1732 9b3c 1ed2 e83c 2fff a4bc b7f6 c43c
000001e0: f3bf 41bc ab11 99bc 68cb bdbc c988 dcbc
000001f0: f2d3 003d 2186 bbbc 9d14 023c c8f2 bf3c
00000200: 9048 763b c8a1 db3c ab88 3bbc 1ea8 783b
00000210: bb0d 97bb fc48 23bc d74d ca3c f5f4 95bc
00000220: d957 9e3c 2246 d7bc 5160 603c c55c 91bc
00000230: cab6 cb3c 71ae 80bc eceb 7c3c 0f19 b53b
00000240: 2f76 013d 7d6c b13c 3497 0dbc bd9a 55bc
00000250: 832f 893b 32c6 6dbc f8ef 99ba 9c09 063d
00000260: 1aec f23b 9703 af3a 707f f9bb a685 abbc
00000270: c2a3 d73c 704b 823b f012 b3bc 447e bc3c
00000280: 6cca 643c 341e d33c cb78 083c f884 01bc
00000290: 6fb3 5bbc 36e1 ccbc 854d 17bc da3f cd3c
000002a0: 7f27 0fbc aebb 743c a359 a73c e728 bb3b
000002b0: 7855 d3bc 5504 47ba aedb 91bc b1d3 433c
000002c0: 5877 2cbc e2b7 3b3c de9d aabc e770 803c
000002d0: 6307 e53c f0d2 173c 1e44 e13c 0e2c b13c
000002e0: 4767 b7bc 68ad d83c 8e63 163d 0c87 ac3c
000002f0: 8a86 b2bc cc12 363c 87fe d83c 6c47 ea3b
00000300: 1dc9 8bbc 6f1e da3c 3c31 ed3c 3b1d a4bb
00000310: 4ff3 d1bc 69db 6ebc c0ae 7ebc 60c6 8dbc
00000320: fa01 9dbc d507 b5ba 98e3 69bc c3c6 fbbc
00000330: 7220 cd3b 7a83 043b a743 c2bc 9082 b7bb
00000340: 4ee9 673c 59b4 c4bc 1d5b 433a 1511 9ebb
00000350: 9588 c1bc cc14 853c b8c7 68bc b350 bc3c
00000360: d942 acbc 9486 2c3c 140a 893b b7ee 06bc
00000370: 1c65 fd3a a446 64bc a955 0ebb b6d5 e93c
00000380: d80b aebc 9b47 6abc 3607 d2bc dae3 b4bc
00000390: ced0 be3c 50c9 a83c d2e3 9ebc 254a d3bc
000003a0: 97be d33c eaec 8abc 921b cc3c 919e 06bb
000003b0: 295a 913c 32b4 26bc 1e93 373c 1aaf bd3c
000003c0: bea2 a6bc 3a88 af3c f1be ee3c 36ab 1f3c
000003d0: 20c2 e73b f1c2 adbc 4db0 2bbc d642 163c
000003e0: a3a9 5cbb a887 c7bc fa0b c5bc 49e5 6ebb
000003f0: cdb6 37bb 0c2a d03c 8b51 443c 2fb5 9abc
-0.0184398 0.002916126 -0.016529514 -0.005030845 -0.018122468 -0.005024114 -0.022766905 -0.02688411
-0.01134999 0.0064795013 -0.030418705 0.027650613 -0.029575946 0.0032894243 0.022047032 -0.005862437
0.005349161 -0.021087138 0.008303294 -0.021128882 -0.028021233 0.010055439 0.0145186735 0.015582784
0.008673423 -0.030026672 -0.009618777 0.013253083 -0.022290789 0.014365886 0.013061921 0.011774834
-0.011044446 0.026672663 -0.022180315 0.012931548 0.012319275 -0.019828616 0.026627952 0.009481211
-0.01039591 -0.01320271 -0.011120131 -0.01291467 -0.018532826 -0.027860906 0.019599088 0.024182718
0.014992263 -0.018771011 0.023151075 -0.028477535 0.020192401 0.008105289 -0.0075871055 0.030174004
0.021314545 0.02086933 -0.025616765 -0.0051620402 0.012899751 0.01768209 0.011207974 0.033552002
0.026847264 0.0046407836 -0.0065030605 0.022860453 -0.011928534 -0.024750942 -0.011728459 -0.015158349
0.00046906076 -0.0097014895 -0.008156771 0.011474253 0.013769577 -0.02658763 -0.027184624 -0.023848554
-0.003110362 -0.0062117996 0.007032106 0.017366715 -0.026341889 0.02426438 0.025850171 -0.014596202
0.0243801 -0.0012646423 -0.0055022594 0.023285814 0.0032060219 0.02378022 -0.010809463 -0.010300965
-0.023569608 -0.00076963875 -0.024472937 -0.015613426 -0.025606394 0.029183269 0.015922485 0.0034051077
-0.028585562 0.023499409 0.030463427 0.008110484 -0.029312456 -0.021698715 -0.022512477 0.026091587
-0.009689307 -0.016234104 -0.021891559 0.000181145 0.018944783 0.028420504 -0.020141212 0.024043424
-0.011825549 -0.018685183 -0.02316828 -0.026920693 0.031452127 -0.022891106 0.007939485 0.023431197
0.0037579872 0.026810542 -0.011446158 0.0037942003 -0.004609791 -0.009966131 0.02469532 -0.018305281
0.019328998 -0.02627856 0.013694839 -0.017744431 0.024867434 -0.01570818 0.0154371075 0.005526669
0.03160685 0.021658177 -0.008642007 -0.013037381 0.004186572 -0.0145125855 -0.001174449 0.032724008
0.0074133994 0.001335251 -0.0076140687 -0.020937752 0.026323203 0.003976278 -0.021859616 0.023009427
0.013964277 0.025771238 0.008329581 -0.007905237 -0.0134094795 -0.025009733 -0.009234791 0.02505486
-0.008737444 0.014937324 0.020428484 0.005711663 -0.02579759 -0.0007591893 -0.017804947 0.011952327
-0.010526501 0.011457415 -0.02082723 0.015678836 0.027957624 0.0092666 0.027498301 0.021627452
-0.022388114 0.026449874 0.036716036 0.02106049 -0.021792669 0.01111288 0.026488556 0.0071496274
-0.017063672 0.02662584 0.02895414 -0.0050083674 -0.025628714 -0.014578679 -0.015544593 -0.017306507
-0.019165982 -0.0013811538 -0.014275454 -0.030734425 0.0062599713 0.0020219968 -0.0237139 -0.005600281
0.014154745 -0.024011778 0.00074522366 -0.0048238137 -0.023624698 0.016245268 -0.014207773 0.0229877
-0.02102797 0.010530133 0.0041821096 -0.008235625 0.0019332501 -0.013932858 -0.0021718538 0.028544288
-0.021245882 -0.014299299 -0.025638204 -0.022081304 0.023292925 0.020603806 -0.019395743 -0.02579219
0.025847716 -0.016958673 0.02491549 -0.002054129 0.017743187 -0.010174798 0.011204509 0.023154784
-0.020341273 0.021427263 0.029143782 0.00974541 0.007072702 -0.02121112 -0.010479045 0.009171208
-0.0033670447 -0.024356678 -0.024053562 -0.0036452583 -0.0028032542 0.025410675 0.011982332 -0.018885223

bias f4 [64]
00000000: 9951 c7bc b128 03bc 8765 6c3c 7b05 03bc
00000010: e338 6a3c 80c9 1c3d 4174 11bd e107 5abc
00000020: c631 f03b 0c0b 803c 099f 15bc 3484 f93b
00000030: 9f9b 063d c930 02bd d599 913b ec89 113b
00000040: d970 e13b 6db7 073b 968c 993c cd3e 1abd
00000050: 7738 b6bc efde b53c 9326 823c d500 fa3b
00000060: a1fd e53b 6e73 ecbb 32f8 cf3b 7568 2236
00000070: 46a1 13bc 6f97 3bbc 521e 28b8 878e 903c
00000080: 500f 033d a439 99bc c194 04bc 70c1 10bd
00000090: 7924 aebb 17fa 04bd f434 e83c 9a40 dc3c
000000a0: 98ab 7c3c 6444 49bc f98d c1bc 583b a03c
000000b0: ad59 213b 7c3a af3c b2f8 d03c 654f c1bc
000000c0: 740f 9d3b 319b da3c b853 11bd df26 d83c
000000d0: 2478 b1ba 560a f6bc 5f55 3ebc 5b8f 93bc
000000e0: e31c 2a3b 2c29 87bc 5dfa 34bc 620c 06bd
000000f0: efac 243d ce92 c5bc dcb5 f7bc 5511 b83b
-0.024330901 -0.008005307 0.014428503 -0.007996912 0.014295789 0.038278103 -0.03551126 -0.013307543
0.007330152 0.015630268 -0.009132155 0.007614637 0.032863256 -0.031784806 0.004443387 0.0022207452
0.0068799076 0.0020708696 0.018743794 -0.037657548 -0.022243721 0.02220103 0.015887534 0.0076294937
0.0070187603 -0.0072159087 0.006346726 2.4200683e-06 -0.009010619 -0.011449679 -4.008256e-05 0.017646087
0.031997025 -0.018704243 -0.008092106 -0.035340726 -0.0053144065 -0.032465067 0.028345563 0.026886273
0.0154217705 -0.012284372 -0.023627268 0.019559547 0.0024620101 0.021390192 0.025509212 -0.023597429
0.004793102 0.02668533 -0.03548023 0.026385723 -0.0013539833 -0.030034225 -0.011617034 -0.018012693
0.002595716 -0.016499124 -0.011046019 -0.032726653 0.040203985 -0.024117853 -0.030238084 0.0056173005

weight f4 [10, 64]
00000000: babe 553c a888 01be 6ed6 e83d 0f8c 81bd
00000010: cba6 5cbd ea4c 88bd d985 5dbd 4444 3d3d
00000020: 0904 573c 3ea0 0a3e 89af 35bb c259 18be
00000030: f221 193d e992 2f3d a5dc 28bd 6784 953d
00000040: 9a9b 8fbd 233a 613d 9d46 d93d 6c11 e43d
00000050: 7f79 493c ed4e 6ebd b0ba 073e 1e25 3c3d
00000060: ee60 7abc 50cc 78bd faa9 82bd 7cf6 87bc
00000070: ef8a ec3c ba01 2a3d a774 14bd 069d a73d
00000080: d2e1 51bb 0a3e bf3d a3bd 673d 220a c33d
00000090: f5a4 0c3e 3527 27bd 86b6 b03d bc05 01be
000000a0: 8a3b 14bd bed6 5ebd 9cd3 be3d 9a30 c93c
000000b0: 8163 15be 8d51 48bd 1711 163d 862b bfbd
000000c0: 39d2 5abd d01d 9bbd 2813 013d 47fc b83d
000000d0: 58f8 b0bd 7825 633c 5175 163c 13cf 8bbd
000000e0: b3f4 8dbd 403d 07be ee74 03be 6015 e43d
000000f0: b089 f6bd b696 cd3d 2580 ac3d 35e9 0a3e
00000100: b9fd 73bd 4c2b c63d 69fd cabd 7a25 fcbd
00000110: 2dd1 93bd 6911 b83d d9db 80bd f002 12be
00000120: d343 94bd c5e0 debc ac2e f53d b14b f23d
00000130: d1bd fcbc 1918 503c 4b16 03be d1db 89bd
00000140: c288 94bd 0714 80bd f1c5 8c3d 6251 a8bc
00000150: 7d19 763c 0b02 b1bd 701b e4bd fe70 903c
00000160: 5757 fc3d a765 09bd b42f f03c fadc 9ebd
00000170: dd5a 283e 9e96 8cbd 6653 c63d e1d6 aa3d
00000180: f81f 023c 6c42 1d3d 51a0 1d3e d554 80bd
00000190: f1cc b0bd 7a21 5d3d 056d 003e dec0 febd
000001a0: 825e dc3d 5042 88bc 4934 05bd ddf1 813d
000001b0: 12f4 dabd a97c 0fbe dab5 b3bd 9558 9d3d
000001c0: 2f98 733c ef23 b13d b421 0dbe 9cde 053e
000001d0: d19d fabd 2247 49bd 3fa7 eebd b3a8 343d
000001e0: 74a2 953d 0342 6d3d 9053 a23b ccc9 54bd
000001f0: 8a7e b93d aee5 e33d 9bcc 013e 4b08 cbbd
00000200: 1712 be3d 9ca9 383d 1e37 d93d 166a 0a3d
00000210: b4a0 a3bd 4f6e a1bd 1c4d bbbc 44a7 bebd
00000220: 7578 46bd 0c17 013e a15c 0abe af94 693d
00000230: 444f f93d ed08 cbbd 9e0d cabd 5959 863d
00000240: 6969 083d 666d 7ebc e92f 06be c287 4abd
00000250: e940 bc3d 438b b4bd bca7 f73c 4fcd fd3b
00000260: 989a 02be 4d9d b6bd a8c6 043e 8b0b a13d
00000270: 117b 06be 44f3 d9bd b98d 0bbe 82c1 c7bd
00000280: eb02 223d f475 743d 4b74 2abd 468e 4e3d
00000290: b0a1 a73d 7984 11be 2f26 d53d 97f1 c23c
000002a0: 13f1 4ebd a078 f7bd ccad f0bb ec68 373d
000002b0: a411 da3c 8c4a df3d 8ef0 f6bd df9b 09be
000002c0: f655 fcbc 6821 92bd e7fe 623c 3f02 e63d
000002d0: fcae 853d eb1a ab3b 9740 c9bd 4c0a 5d3d
000002e0: 71bb c7bb aa60 283d 91f2 f43d 7015 073e
000002f0: ae91 d43c f906 6c3d 8d14 d0bb e510 f13d
00000300: 317a 883d fd86 9e3d f293 ddbd 37d3 d7bd
00000310: 7d28 b0bd 0da4 913d d2a3 cf3d 28b5 583d
00000320: 5ae0 f4bd 2a1c 113d a24c 973d d744 0c3d
00000330: fcd1 73bb 1741 00be db43 653d 292d 7b3d
00000340: 51c0 0a3e 8d78 a83c 50df 013d 9cd7 cc3d
00000350: 5d66 2fbd c2fa be3d 8f77 a43d 0bc3 783c
00000360: 1c45 e0bd db81 443c 537e d33d 219c a5bd
00000370: cf14 14bd 1291 dc3d b0d1 c2bd 0cba ca3d
00000380: 4fcd 00be 914b fc3d 8828 b0bd 8b9c 41bd
00000390: fda9 6cbd 0431 9bbc c423 9d3d 6c32 ca3b
000003a0: c7fa c8bc a2f6 bd3d ef33 e63d 6b05 e03b
000003b0: af6a 0a3e 8901 003d 37d4 03bd de30 dabd
000003c0: 340d 903d 2b87 4ebc 0822 a43d 4c6f 093e
000003d0: fe80 b4bd 821e 45bc fe74 273b 5412 79bd
000003e0: fac1 1e3c 3d0d 273c 42cd 1ebd 137a 80bd
000003f0: ad9d c7bb 3005 b1bd bdd4 f8bb d9e4 cf3d
0.013045961 -0.12649786 0.11369024 -0.06325542 -0.053870004 -0.06655295 -0.054082725 0.04620768
0.013123521 0.1353769 -0.0027723035 -0.1487799 0.03738589 0.042864714 -0.041226048 0.07300644
-0.070121005 0.054987084 0.106091715 0.111361355 0.012297033 -0.05818074 0.1325481 0.045933835
-0.015281899 -0.060741723 -0.06380077 -0.016597025 0.028874842 0.041505553 -0.03624406 0.08184247
-0.0032025469 0.09338005 0.056577336 0.09523417 0.13734801 -0.040808875 0.086285636 -0.12599844
-0.036189593 -0.054404013 0.09317705 0.024559308 -0.14588739 -0.048905898 0.036637392 -0.09334473
-0.05342314 -0.07574046 0.03151241 0.09032493 -0.08641118 0.013863914 0.009183244 -0.06826606
-0.06931438 -0.13206959 -0.12837574 0.111368895 -0.120379806 0.100385115 0.08422879 0.13565524
-0.05956814 0.09676227 -0.099116154 -0.123118356 -0.072176315 0.08987696 -0.062919326 -0.14258933
-0.07239499 -0.027206788 0.119717926 0.11830843 -0.03085223 0.012701058 -0.12801473 -0.0673138
-0.07252647 -0.0625382 0.06873692 -0.020546619 0.015020725 -0.08642968 -0.11138046 0.017632004
0.12321346 -0.03354421 0.029319622 -0.07756992 0.16440912 -0.068646654 0.09683876 0.08341766
0.007942192 0.038393423 0.15393187 -0.062661804 -0.086328395 0.053987004 0.12541588 -0.1243913
0.107602134 -0.016633183 -0.032520566 0.0634496 -0.10691084 -0.14012398 -0.0877492 0.07682911
0.014867826 0.08649432 -0.13782388 0.130732 -0.12237132 -0.049140103 -0.116529934 0.044106197
0.07306376 0.05792428 0.004953809 -0.05195026 0.090573385 0.11127792 0.12675707 -0.09913691
0.09280794 0.045083627 0.10606216 0.033792578 -0.07989636 -0.07882368 -0.022863917 -0.09309247
-0.04845472 0.12606448 -0.13511898 0.05702656 0.12173322 -0.09913812 -0.098658785 0.065600105
0.033303652 -0.015529012 -0.13104214 -0.049445875 0.09192068 -0.088156246 0.03023135 0.007745422
-0.12754285 -0.089167215 0.12966406 0.0786353 -0.13132884 -0.10642102 -0.13628282 -0.097537056
0.039553564 0.0596828 -0.041614812 0.05042865 0.08185136 -0.1421069 0.104076736 0.02379684
-0.050522875 -0.12083554 -0.007344937 0.044777796 0.02661974 0.109028906 -0.12057601 -0.13438366
-0.030802708 -0.07135278 0.013854719 0.11230897 0.06527516 0.0052217147 -0.09826773 0.053964898
-0.006095343 0.04110781 0.11960328 0.13191772 0.025948372 0.057623837 -0.006350106 0.117708005
0.06663931 0.07740591 -0.10819234 -0.10538333 -0.086014725 0.07111368 0.10138668 0.05290714
-0.11956854 0.03542725 0.073876634 0.03424534 -0.0037204018 -0.1252483 0.055972915 0.061322365
0.13549925 0.020565296 0.031707108 0.10002062 -0.04282223 0.09325172 0.080306165 0.015183221
-0.109506816 0.011993851 0.10326829 -0.0808642 -0.036152657 0.107698575 -0.09512651 0.09898767
-0.12578319 0.12319101 -0.08601481 -0.04726843 -0.0577793 -0.01894427 0.076728374 0.0061705615
-0.024533642 0.09275557 0.11240374 0.0068365834 0.13517259 0.031251464 -0.032184806 -0.10653852
0.07033768 -0.012605469 0.080143034 0.13421363 -0.08813666 -0.012031199 0.002555191 -0.060808495
0.009689802 0.010196027 -0.038769968 -0.06273284 -0.0060917945 -0.086435676 -0.0075937198 0.10151071

bias f4 [10]
00000000: a502 ccbd 287a acbd a4af 0bbd 6764 903d
00000010: 8704 a2bb 5288 f63c c74f 82bd c200 b6bd
00000020: 4c95 e339 dd79 c7bd
-0.09961442 -0.08421737 -0.03410305 0.070504 -0.0049443874 0.0300943 -0.063628726 -0.08886863
0.0004340805 -0.097400405
