PytorchLearning/learn1/vggmodel/vgg_6.pth (torch, 587335 bytes, 10 tensors)

weight f4 [32, 3, 5, 5]
00000000: 8218 e93d ab7e d4bd c323 6dbd 7e3e 0ebd
00000010: b732 b1bd d82d cebb 3144 ca3c f310 e6bc
00000020: d92b 94bd 80e7 b83d ff96 e53d de51 bcbb
00000030: b150 8ebc 978b 743d b01d 4ebd f585 d5bd
00000040: 7fa8 883d 80b3 d3bd 9dec cf3d 6cd4 bb3d
00000050: 8649 97bd 2a4e 473d 2974 3b3d 9d58 d73d
00000060: c808 87bd 81c9 33bd 3ae0 0bbd bdfe cb3d
00000070: bea2 1b3d 9653 dabd f177 823d 904b 1abc
00000080: d0df ccbd 84f1 9ebd 7989 aa3d 7f61 bcbc
00000090: 3941 b4bd eb7e 2d3d 889c aebd 9d62 9b3d
000000a0: ae7d 0c3d cf6d b13d c10a 903d 02f3 a13d
000000b0: f196 20bd bde6 08bd f827 583d 858f dd3d
000000c0: 5f9e 8fbd 5239 2fbd 543c 393a ce0e e93c
000000d0: 6679 a2bd 4e93 1dbd 68ac 1dbd 639b a73c
000000e0: 6de6 cb3d 921f e8bb e6e0 d03d 8c68 7d3d
000000f0: af8d f8bc a7b5 923d 43a1 8fbd 505a e1bd
00000100: 3314 e33c 0ea3 e63d 1f01 a03d 85a7 15bd
00000110: ad96 593b dc38 e73d 3dc8 71bb e4c3 f13d
00000120: 89cc 0e3d c0d0 f03c a0b4 213d 7a12 4dbd
00000130: c5c7 e43d 24d0 033d fce8 08bd 50ce 2d3d
00000140: 0d1a 873d c2e5 69bd c809 82bd f80e a63d
00000150: bedb b2bd 53b8 573c 2ff9 06bc de86 a6bd
00000160: 75ba a2bd d233 c839 b584 923c fed5 e13d
00000170: ee57 2f3d 95c9 e3bd 64e4 f6bb 8f96 d4bc
00000180: 9e1d 8d3d 2a18 cdbd 6370 823d eea0 8ebd
00000190: 3cab c5bc a515 7bbd aa84 9b3d 3bab e6bd
000001a0: 8974 ac3c bc74 64bd 83e3 083c ac29 b93d
000001b0: 861d f2bd a1e7 8cbd e610 673d e738 0dbd
000001c0: 7289 a3bd 3f8c 31bc 7c6e acbd 7912 ac3d
000001d0: 6d5e e03d e690 9ebc a567 f93b 12f1 ef3c
000001e0: 8949 d9bd 98b5 a43d dde2 863d a955 a4bd
000001f0: 49dc 133d 7c78 f6bd b866 d2bd 3f61 c1bd
00000200: d98e 193d e691 023d 1447 bdbd cfe6 45bc
00000210: 00e8 923d 642c babd b761 e2bd 40c3 cf3d
00000220: 6196 063d 44e5 27bd 686a aa3d ca2b d8bd
00000230: ab6a 9fbb 93e7 ae3d 1e4c 08bc 1db8 94bd
00000240: 49df b2bc 9bca 84bd 3b70 62bb 6ad5 b43d
00000250: 2b3b dbbc 44d5 a13d 8481 53bd 7c33 cabd
00000260: 4db9 c13d 5526 34bd ae6a 81bb 483f c4bd
00000270: 0f91 e0bd 11a7 9bbd 2b1d d8bd 7a20 97bd
00000280: 819e 75bd 1189 d03d dead 08bb 6a12 8b3b
00000290: f3f4 1c3d 95f8 073d 1e78 db3a d5aa 853c
000002a0: 783a a4bd 85e2 c0bd 1490 af3d fc2c 8c3c
000002b0: a08a 84bd 0774 a13d 5274 b83d 2d03 20bd
000002c0: f4cb a73c 2dfd da3d 47da 54bd 7341 9c3c
000002d0: a6c9 833d d690 d83d aa15 b13d 8919 2abd
000002e0: 3153 08bd c5c1 dfbd 3ec5 67bd 74c7 c7bd
000002f0: 5a3d 733d 4a86 943c dbe4 9a3d 6c06 b1bd
00000300: ef0d 3b3d 4c8b 77bd f9e2 ce3d fbde 4ebd
00000310: 2cb6 993d 3555 46bd 5327 9d3d 1a4a c63d
00000320: e26f c63d a249 28bd 44ac f7bb 2919 4a3b
00000330: 6b7d f43d 3397 d83d f6fd 2dbd b3dc d73d
00000340: 6dd5 a7bd 1d97 c73c 49e2 793b 2a4b 7e3d
00000350: afb6 81bd ba50 103d 3f08 3e3d fffa b63d
00000360: a449 db3d 58b5 853d 7e1f 8f3d f8af 673c
00000370: e4c0 fe3c 736e d93d bbaf 623c 96e0 af3d
00000380: ea59 5cbc de12 b3bd bb9a b03d e81a d83c
00000390: 4e47 d5bd a2b0 3d3d 3af1 9abd 5782 e4bc
000003a0: f692 2fbd d2da dc3c fea0 abbd aafe a7bd
000003b0: e0b6 b43c 2acc 85bd b7a2 06bd b326 e4bd
000003c0: c551 a5bd 7ee2 373d 3ba3 c33d 9a11 aa3d
000003d0: 68e7 e53d f286 f5bc c38c 4a3d 3f55 b53d
000003e0: 59a4 1d3d 8325 953d e8d8 4b3d 9335 f43c
000003f0: b274 c2bd 8473 d13d 6887 ce3d 0d11 dc3d
0.113816276 -0.103757225 -0.057895433 -0.034727566 -0.08652251 -0.006292086 0.02469072 -0.028084254
-0.07234926 0.0902853 0.11210441 -0.005747064 -0.017372461 0.059703436 -0.05032128 -0.10425941
0.06672763 -0.10336971 0.10152552 0.09171376 -0.0738707 0.048658527 0.045765076 0.105149485
-0.06593472 -0.04389334 -0.034149386 0.09960697 0.037997 -0.10660474 0.06370533 -0.00941743
-0.10003626 -0.07760909 0.08327002 -0.022995709 -0.08801503 0.042357367 -0.0852595 0.07587168
0.034299545 0.086635225 0.07033301 0.07907678 -0.03920645 -0.033423174 0.052772492 0.1081839
-0.07012629 -0.042779274 0.00070661795 0.028449442 -0.07933311 -0.03847056 -0.038494498 0.020459836
0.099560596 -0.0070838416 0.10199146 0.06186728 -0.030340998 0.07163554 -0.0701318 -0.11003554
0.027719593 0.11261569 0.07812714 -0.036536712 0.0033201382 0.11290142 -0.0036893033 0.11804941
0.03486303 0.029396415 0.039478898 -0.05006645 0.111709155 0.03218092 -0.033425316 0.042433083
0.06596766 -0.05710388 -0.06349522 0.08108324 -0.08733319 0.013166505 -0.008238121 -0.081311926
-0.0794572 0.00038185582 0.017885545 0.11027144 0.042808466 -0.11122433 -0.0075345505 -0.025950698
0.06890415 -0.100143746 0.06369092 -0.06964289 -0.024129502 -0.06129994 0.07593663 -0.11263128
0.021051662 -0.05577539 0.008355024 0.090411514 -0.118220374 -0.06880117 0.0564126 -0.034478094
-0.079852 -0.01083666 -0.08419511 0.08401961 0.1095551 -0.019356202 0.0076112323 0.029289756
-0.10609729 0.08042449 0.065862395 -0.08024151 0.036098752 -0.12034699 -0.10273498 -0.09442376
0.037489746 0.03187742 -0.09242073 -0.012078955 0.07173157 -0.09090498 -0.11053794 0.10144663
0.032858256 -0.04099013 0.08321077 -0.10555227 -0.0048650107 0.08540263 -0.008318929 -0.07261679
-0.021834986 -0.064839564 -0.0034551758 0.08829768 -0.026761612 0.07902005 -0.051637188 -0.09873101
0.094591714 -0.04398187 -0.003949485 -0.095823824 -0.10965168 -0.07600225 -0.10552438 -0.07379241
-0.059965614 0.10182393 -0.0020855586 0.0042441385 0.03831954 0.03319605 0.0016744172 0.01631681
-0.080189645 -0.09418205 0.085724026 0.017111294 -0.06471753 0.078834586 0.09006561 -0.03906553
0.020482995 0.10692821 -0.051965978 0.019074177 0.06434946 0.105745 0.0864671 -0.04152826
-0.033282463 -0.109256305 -0.05658459 -0.097548395 0.05938468 0.01813044 0.07563182 -0.08643803
0.045667585 -0.06043558 0.10101885 -0.05050562 0.0750545 -0.048421104 0.07673516 0.096821025
0.09689309 -0.041085847 -0.0075583775 0.003083775 0.11937984 0.10575714 -0.042478524 0.10540142
-0.081950046 0.024364049 0.0038129261 0.0620834 -0.06333672 0.035233237 0.046394583 0.089345925
0.10707405 0.06528729 0.069884285 0.014141075 0.031097837 0.1061677 0.013835843 0.08587758
-0.013449172 -0.08743833 0.086232625 0.026380017 -0.10413991 0.04631103 -0.075655416 -0.027894182
-0.042864762 0.02695981 -0.08380316 -0.0820287 0.022059858 -0.06533082 -0.03287002 -0.11140194
-0.08072237 0.044893734 0.09552618 0.083041385 0.11225778 -0.029971574 0.049450647 0.0885415
0.038486812 0.072825454 0.049767405 0.029810702 -0.09494914 0.10227111 0.100844204 0.1074544

bias f4 [32]
00000000: 1afa 9e3d a3d2 513d 8e6b 913b 6c01 b9bc
00000010: 4d6a a03d 2177 a63d 9cad fabc 023a f13d
00000020: 004a 9abd e9f7 f23d 66e2 ab3d f374 91bd
00000030: 28e3 91bb eb1d cf3c bd28 fe3d 1e5b ac3c
00000040: 6c1a 813d 387a abbd 0d92 dd3c 6098 b13d
00000050: f4d1 943d fa1d 843c 7d55 9a3d e829 ef3d
00000060: fff9 c0bd aaa6 37bd 8d25 6c3d 077c 80bd
00000070: c43c 56bd 9522 883c fe21 ebbd c83e c13d
0.07762547 0.05122627 0.0044378703 -0.022583686 0.07832775 0.08128191 -0.030600362 0.11778642
-0.07533646 0.11863691 0.083927915 -0.071023844 -0.004452128 0.02528282 0.12410114 0.021039542
0.06303868 -0.08372921 0.027047182 0.08671641 0.07266608 0.016127575 0.07535837 0.11677915
-0.09422683 -0.044836678 0.057653 -0.06273656 -0.052304044 0.016618052 -0.11481093 0.09435803

weight f4 [32, 32, 5, 5]
00000000: 7936 9dbc 37dd 05bd 2919 b63b e20a 0b3d
00000010: 5832 e4bc 022d 04bd cb48 0fbb 10da a63c
00000020: 58e5 91bc 63a9 ae3c e7f2 7ebc 40e1 c53c
00000030: 3445 11bd e247 463c 2bf0 fbbc 4204 6fbc
00000040: aa3f c6bc b917 dfb9 fb2a 8a3c 35a4 efbb
00000050: 4644 c93c 1aa0 0c3c 8acc 00bd 87ef 5dbc
00000060: 1a41 09bb 75e8 f5bc e736 c9bc e04a 463b
00000070: ba3a e1bc 23ff 043d 6713 153b 07dc 9bbc
00000080: 6df9 fdbc 003d cb3c e5cf 993c c62e d93b
00000090: 39e5 35bc 73ad 08bd 7a19 8a3c 2c29 2d3c
000000a0: e53f fbbc d011 03bb 26e8 71bb 049f 27bc
000000b0: 848a b93c 93b1 f4bc f960 8d3c 821f 19ba
000000c0: 8bd2 3abc 09e8 8cbc a60e 7bbb 4910 07bd
000000d0: c253 c63c 4832 18bc 0f47 0b3d 1219 f6bc
000000e0: 5e09 343c 7b87 063d 8003 b6bc 2036 f93c
000000f0: b3a1 8bbb 1f32 ee3c e678 f13c dd1c eb3c
00000100: 0a47 fe3c c3bf 053b eccd 903c ac62 02bd
00000110: 7724 8bbb 0ee9 febc dab0 ed3c 81c7 c73a
00000120: 7aca 37bb 0651 0dbc 6128 f83c 43c1 06bd
00000130: d330 90bc 1a67 70b9 6aff 07bd b2a1 f43c
00000140: e299 583c 4435 26bc ebbb 353b c70f ecbc
00000150: 5659 c73c c67b d93a c90d fcbc 2bd0 de3c
00000160: 292e b2bc 89f9 8cbc 60a7 db3b f9f8 32bc
00000170: 2380 2bbb 7f84 4a3c 1cd9 24bc 4acc 01bd
00000180: 7523 f3bc f668 c4bc e563 07bc c82f ecbc
00000190: f535 8ebc b449 fabc 4f3a 843a 3fa0 5fbc
000001a0: 708d ecba 3828 2b3c 5071 f7bb ae1b 8d3c
000001b0: 2600 2d3c 1874 02bd 87ff 95bc d91d e3bc
000001c0: 895c 1bbd 29dc e53b d65d 243c 1192 663c
000001d0: 0d70 083c c474 10bd a735 aa3c bb24 6a3c
000001e0: 343f 263c 1b29 833c b39a 7f3b 803d ac3c
000001f0: 01ca dd3a 343d 87bc 0de4 fabc b2af 033b
00000200: 91b3 573c 99d5 d23b f70f f3bc b6f3 c33c
00000210: c446 b3bb 2bf0 a03c aa6a 813c 55b1 07bd
00000220: f31d 053c 0781 0cbd bbf0 e8bc e5d0 9c39
00000230: b859 04bd e56e f5bc 7587 43bc a57b cb3c
00000240: f689 7b3c 7270 733c 21df 923c d08c 6ebc
00000250: b095 4e3b f16e 033d dabe a3ba ac86 303c
00000260: 4822 12bc fb31 c0bb 9594 433c 1c39 f63c
00000270: f9da 793b d492 bfbb a84f cfbc 0690 f5ba
00000280: d1a6 e63c 7980 993c 6564 303c f34b 7a3c
00000290: 919e dabc 17b0 e03c 79e0 ec3c 8f6f d1bc
000002a0: acd3 093c 1b53 b1bc 2585 ce3b ca64 a23c
000002b0: 8c99 803b b586 9fbc e81a 493c 4a6a d83c
000002c0: 0e2e 933c acec 2ebc 8060 97bc a358 f93c
000002d0: ce72 cb3c 2ff1 1bbc 4688 bf3a 1e19 5a3b
000002e0: e61b dd3c 3813 c13c 4325 02bd fd4e 15bc
000002f0: 3327 ef3c d5c7 efb9 c99f a8bc 94c0 07bd
00000300: c64a 1bbb 3c3e 093d 4c04 b8bc 23c5 d63b
00000310: ce62 dbbc ee17 603c 9736 8e3c ad90 a0bc
00000320: cdf8 ac3c 0bca 8cbc 7112 003d f53c 5d3c
00000330: b7db 0e3c 32c1 fd3c 1c8a 9b3b 637c 573a
00000340: 99b3 0cbc 70cc 233c ac2a 113c 074f 013d
00000350: d8d4 983a f1c9 2cbc 2956 8e3c 0715 ddba
00000360: 73ad 0a3d 7639 be3c d976 b93b b98f a83a
00000370: b7b0 babc fffd 0c3d 51b6 b53c f770 1b3d
00000380: ee69 703c 8a97 65bb 5c92 dbbc 5802 b33b
00000390: 7d3f ddbc dbba be3c 16d1 21bd f68b cdbc
000003a0: 2a18 69bc ded8 af3c 6042 db3c d20c 0abc
000003b0: 3ed8 363c c7cc 08bd 6d8b aebc 0e34 0cbd
000003c0: 579f 9b3c 6fe3 abbc 029e b43a c989 d0b7
000003d0: f498 69bc 7747 c93c bdcb 12bd ef6a ffbc
000003e0: a8ff 36bc 5dd6 93bc 4b1d 17bd 8afe f1bc
000003f0: 4965 ccbc edac 873c 210a 883c dbb1 5f3c
-0.019191014 -0.03268167 0.0055571985 0.033945926 -0.027856037 -0.032269485 -0.0021863456 0.020367652
-0.017809555 0.021321004 -0.015560842 0.02415526 -0.035466388 0.012102099 -0.03075417 -0.0145884175
-0.02420028 -0.0004255155 0.016866198 -0.007313276 0.024568688 0.008583093 -0.031445064 -0.013545877
-0.0020943345 -0.03001807 -0.024562312 0.0030257031 -0.027493823 0.03246988 0.002274716 -0.019025816
-0.031002725 0.02480936 0.01877589 0.0066278903 -0.011102014 -0.03336854 0.016857851 0.010568898
-0.030670116 -0.001999963 -0.0036912053 -0.010230783 0.022649057 -0.02986983 0.017258154 -0.0005841182
-0.011402736 -0.017200487 -0.0038308292 -0.032974515 0.02420986 -0.009289332 0.034003314 -0.030041251
0.010988561 0.032844048 -0.022218466 0.030421317 -0.0042612194 0.029076634 0.029476594 0.028700287
0.031039733 0.0020408488 0.017676316 -0.031832382 -0.0042462903 -0.031116989 0.029014993 0.0015241952
-0.002804427 -0.0086252745 0.030292692 -0.032899152 -0.017601406 -0.00022926592 -0.033202566 0.029862259
0.013220282 -0.010144535 0.0027730416 -0.028816117 0.02433459 0.0016592673 -0.030768292 0.027198872
-0.021750527 -0.017208831 0.0067033023 -0.0109236175 -0.0026168905 0.012360691 -0.0100615285 -0.031688966
-0.029679993 -0.02397583 -0.008263563 -0.028831378 -0.017359713 -0.030552723 0.0010088178 -0.0136490455
-0.0018047523 0.010446601 -0.0075513497 0.017225113 0.010559117 -0.031848997 -0.018310321 -0.027724193
-0.037930045 0.0070147705 0.010032138 0.014072911 0.008327496 -0.035267606 0.020777537 0.014290984
0.010146905 0.016010812 0.003900212 0.02102542 0.0016921164 -0.016508676 -0.030626321 0.0020093736
0.013165371 0.006434154 -0.029670699 0.023919921 -0.0054710824 0.019645771 0.015797932 -0.0331281
0.008124816 -0.034302738 -0.028435102 0.00029910277 -0.032312125 -0.029960105 -0.011934151 0.024839232
0.015352717 0.014858352 0.017928662 -0.0145599395 0.0031522326 0.032088224 -0.0012492791 0.010774296
-0.008919306 -0.005865333 0.01193728 0.030056529 0.0038124903 -0.0058463607 -0.025306538 -0.0018734939
0.028155716 0.018738018 0.010766123 0.015276897 -0.026686938 0.027427716 0.02891563 -0.02556589
0.008412283 -0.021646073 0.006302493 0.01982345 0.003924554 -0.019473413 0.012274481 0.02641787
0.017966297 -0.010676544 -0.018478632 0.030437773 0.024835017 -0.009517952 0.0014612756 0.0033279131
0.026990842 0.023568735 -0.031773817 -0.009113071 0.029193496 -0.0004573452 -0.020584004 -0.03314264
-0.0023695691 0.033506617 -0.022462986 0.0065542622 -0.026780512 0.01367758 0.017360015 -0.019600237
0.021114731 -0.017186185 0.031267587 0.013503303 0.008719376 0.030975912 0.0047466885 0.0008220134
-0.008587741 0.009997472 0.008860271 0.031569507 0.0011660112 -0.010546193 0.017375069 -0.0016867229
0.03385682 0.023220759 0.0056599197 0.0012860216 -0.022789342 0.034421917 0.022181662 0.03794953
0.014673693 -0.0035032951 -0.026803188 0.005462926 -0.027007813 0.023282459 -0.03950604 -0.025091153
-0.014226953 0.021465715 0.026765049 -0.008425908 0.011159955 -0.033398416 -0.021306718 -0.03422933
0.018996878 -0.020982472 0.001378 -2.4859693e-05 -0.014257658 0.02457021 -0.03583883 -0.03117892
-0.011169352 -0.018046552 -0.03689317 -0.029540319 -0.02495064 0.01656195 0.016606392 0.013653244

bias f4 [32]
00000000: 9fd5 86bc e8d9 dfbc 91b9 00bc 078d d0bc
00000010: 4c59 4c3c 345e 2abc f6a8 78bc 0887 33bc
00000020: 8894 463c f754 023c f2c5 c7bb 2a89 95bc
00000030: dcc7 ea3c 4f95 82bc f28a 8cbc 2d86 b2bb
00000040: d8f8 153d a410 d8bc fcc3 83bc aee3 a3bb
00000050: 663d f63c 9705 03bd 720a 723c 267f 3ebc
00000060: e878 f5ba feb2 d9bc 4366 80bc 4d74 b03c
00000070: 82c7 f63c a74f c0bc a058 e03c efcc e43c
-0.016459284 -0.027325585 -0.0078567425 -0.025457872 0.012472462 -0.010398436 -0.015177002 -0.010957487
0.012120374 0.0079548275 -0.006096595 -0.018253881 0.028659754 -0.015940337 -0.017156098 -0.005448124
0.03661427 -0.026375122 -0.016084664 -0.005001507 0.030058574 -0.031987753 0.014772998 -0.011626994
-0.001872805 -0.026574608 -0.015673762 0.021539832 0.03012443 -0.023475481 0.02738601 0.027929751

weight f4 [64, 32, 5, 5]
00000000: f5d8 06bc 7a4a 7c3c d08d 84bc c838 053c
00000010: 452e 753c 7c1a 83bc bec2 7b3a e436 a03b
00000020: e501 d239 9994 ad3a cea1 15bc ffc5 9e3c
00000030: 19e2 79bc 9417 083d 4e80 143d 3817 fabc
00000040: 4bc0 703c 93c1 4abc d895 fbbc f1e2 09b9
00000050: 3649 11bb 3a46 533c 1094 1cbc 05b2 983c
00000060: 3373 e2bc 1696 923a 9d5e 58bc aa66 0d3d
00000070: aa9f 1b3c 2757 203c 7f22 d93b 812d 00bd
00000080: f9c9 b23b 8e76 4b3c 0ed7 f73b 6d5c d1bc
00000090: 8645 12bd 47a6 a7bc 72ba 0a3c 0326 baba
000000a0: 8681 043d 92fc d93b 5e95 b9bc 8884 a4bb
000000b0: be6e a83c a395 b63c 15cc babc 5641 0fbd
000000c0: 5b7b 023d 4d7a 953c a595 913c a075 e83c
000000d0: da59 a2bc 42dc 873b 8f47 f43c 6ccf b5bb
000000e0: af5f aebc 7e6b 4ebc e4dc a4bc 163b fb3c
000000f0: 80aa a43c 19d5 873c 8ef8 f7bc 9783 ebbc
00000100: ce25 bc3c 3f32 d8bc 3826 013c 6bd6 ed3c
00000110: de2d 96bc 4bcc b33c e044 acbb 1a10 e33b
00000120: 47b3 893c c56f ae3a 877a 0cbd 87ea ab3c
00000130: b82c a13c 40f6 c3bc 4044 ccbc 729d a93c
00000140: f93c 663b 382c e2bc 864b 183c 0d03 023d
00000150: 4e4c 02bc f352 eb3a ddac 3d3c e35d 0e3d
00000160: ea76 ebb6 1037 cb3c 02be 953c 26be 9e3c
00000170: 9825 0abd 0da2 d2bc 9699 5e3c 43e7 febc
00000180: dd2d 913c 0f50 e33c a70d ac3b 084c 51bc
00000190: d84f 313b 1ca2 ae3a 3926 db3c 4ad4 653c
000001a0: a7cf 22ba e7ed 5e3c 5a78 923c 1331 9d3c
000001b0: a41e d93c 6df0 e03c e4dd 8cbc f172 a3bc
000001c0: 3ae2 c73c b084 4abc 24af 223c fbba 0bbd
000001d0: 2eef fd3b fbb3 e5bc 09ec 09bd 4cca 7ebb
000001e0: 5bee f93b 2e8d b0bc 646c ec3c 85c6 a43b
000001f0: cc88 873c 59c1 d2bc 40e0 e8bc 1ae2 12bd
00000200: c980 f8bc 61b5 b0bc 3ef1 4fbc 7edc 00bd
00000210: 792e d83c a3ad 9b3c 3756 f1bb 50ee babc
00000220: e058 0f3c 9d04 dabc a1b3 cb3c b2d9 afbb
00000230: 06a7 92bc 8d4b 4a3c dee6 dfbc 9929 033d
00000240: 3ce7 17bd 1602 00bd 23a3 003d 4e34 bb3c
00000250: ebc8 acbc a46f 5ebc 8e86 6bbc 5db3 0d3d
00000260: cca0 ae3c e4ff b93c b7b1 d5bb fef4 f5ba
00000270: 0f0b b23c 5286 c03c 0276 be3c a728 e93c
00000280: fb60 743c e42b 223d 32be 053d 276c bd3c
00000290: 2595 0f3d 24f9 6abb 48e4 6fbb fbde 9a3c
000002a0: f20b fd3c ddd8 ef3c 8d14 553c b23b 693c
000002b0: 3540 a6bc 800f 133d 634a d1bc 324b 4dba
000002c0: 6aa8 7fb9 418d 043c e3ab d8bc db65 e33b
000002d0: 25b2 173d aa71 89bc 0c95 acbc 04fd 473b
000002e0: 3334 d0bc c6e8 4a3c 93cd d23c 9fa9 d6bb
000002f0: ae39 39bc ae83 8cbc 7ac8 0dbc 267a b8bc
00000300: 9dae d0bb 5909 dcba bb00 923c 6c55 0abd
00000310: 4dde eabc 8f38 0c3d c67f c73a b9de f9b7
00000320: 81af 9abb 61ab 0d3d f12f 8cbb 23ee 133d
00000330: 97ab f1bb f70d 7e3c 6b7f dcbc bc2f ddbc
00000340: 116c 083d 6a32 8dbc 7531 f93c e19c 5ebc
00000350: ab9f 163d 4a82 d33c 656c 803b f474 efba
00000360: ddaa a73c 65bb 7bbc 33c8 a4bc fde8 083c
00000370: 602a a0bc 7a10 df3c 86c1 1ebc b958 d1bc
00000380: 234d 9abb f761 1dbc b965 25bc 6b20 ec3c
00000390: 19cd c43c 8202 85bc 93a2 0e3d d706 b8bc
000003a0: fda4 06bc d7aa f6bc 3b9a 09bc d97e 2e3c
000003b0: 086b e3bc bbb4 d83c 570f 493a 5bc8 0c3d
000003c0: 8edf e6bc a360 8bba 1248 14bc 4662 ab3a
000003d0: 901f e73c f258 423c 9f9c f8bc 248a 80bc
000003e0: a688 793c 2f1c f4ba 1ea9 2d3c 694f b3bc
000003f0: f8c8 f33c 8048 13ba 6a76 2ebc 5aa5 a339
-0.0082304375 0.015398616 -0.016180903 0.0081312135 0.014964645 -0.01600384 0.0009603909 0.004889356
0.00040055733 0.0013243138 -0.0091328155 0.019381521 -0.01525166 0.03322561 0.036255173 -0.03052865
0.014694284 -0.012375253 -0.0307111 -0.0001314988 -0.0022168881 0.012895161 -0.009556785 0.018639574
-0.027642822 0.0011183645 -0.013206151 0.034521736 0.009498516 0.009786404 0.0066264267 -0.031293396
0.005456206 0.012418402 0.0075634783 -0.025556767 -0.035710834 -0.02046503 0.008467304 -0.0014202002
0.032350086 0.006652423 -0.022654232 -0.005020682 0.020560618 0.02228815 -0.022802392 -0.03497442
0.031855922 0.018246794 0.017771551 0.0283764 -0.019818235 0.00414613 0.029819278 -0.0055484083
-0.02128586 -0.01259887 -0.02012486 0.030667823 0.020100832 0.016581105 -0.030269887 -0.02874927
0.022967245 -0.026391147 0.007882647 0.029032907 -0.018332418 0.021948 -0.005257234 0.0069294097
0.016809119 0.0013308456 -0.03429654 0.020985855 0.019674644 -0.023921132 -0.024934888 0.020704959
0.0035131557 -0.027608976 0.00929535 0.03174119 -0.007952763 0.0017953798 0.011576858 0.034757506
-7.017389e-06 0.02480653 0.01827908 0.01937778 -0.03372726 -0.025712037 0.013586422 -0.031116134
0.017722065 0.027748136 0.005250651 -0.012774475 0.0027055647 0.0013323459 0.026751624 0.014027664
-0.0006210752 0.013606525 0.017879654 0.01918844 0.026503868 0.027458394 -0.01719565 -0.01995227
0.024399865 -0.012360737 0.009929452 -0.034113865 0.0077494597 -0.028039923 -0.033672366 -0.0038877903
0.007627291 -0.021551695 0.028860278 0.005028548 0.016544722 -0.025726961 -0.028427243 -0.03586016
-0.030334847 -0.021570863 -0.012691794 -0.031460278 0.026389347 0.019003695 -0.007365014 -0.022818714
0.008749217 -0.026613528 0.024865927 -0.0053665275 -0.017901909 0.012347114 -0.027331766 0.032022092
-0.037085757 -0.03125199 0.03140558 0.02285209 -0.021091899 -0.013576422 -0.014375342 0.034594882
0.021316908 0.022705026 -0.0065214294 -0.001876503 0.021733789 0.023501549 0.02324963 0.028461767
0.0149157 0.03959264 0.032652088 0.02312286 0.035054345 -0.0035854066 -0.0036604572 0.018905153
0.030889485 0.029278213 0.013005388 0.014235424 -0.020294288 0.035903454 -0.025548166 -0.00078313344
-0.00024381434 0.008090318 -0.02644915 0.0069396324 0.037035126 -0.016777832 -0.021067165 0.00305158
-0.025415516 0.012384599 0.025732791 -0.006550982 -0.011305256 -0.017152634 -0.008653754 -0.022519182
-0.006368472 -0.0016787454 0.017822614 -0.03377287 -0.028670454 0.034233626 0.0015220575 -2.9786826e-05
-0.0047206287 0.034587268 -0.004278176 0.036115777 -0.0073751914 0.015506259 -0.026916226 -0.0270003
0.033306185 -0.017235953 0.03041909 -0.0135872075 0.036773365 0.025818963 0.0039191716 -0.0018269108
0.020467216 -0.015364503 -0.020114994 0.00835633 -0.019551456 0.027229536 -0.009689694 -0.025555002
-0.0047089024 -0.009605876 -0.010095053 0.028824052 0.02402358 -0.016236547 0.03482301 -0.022464199
-0.008218047 -0.03011076 -0.008398588 0.01065036 -0.027760997 0.026453367 0.00076698273 0.03437076
-0.028182771 -0.0010633658 -0.009050386 0.0013075552 0.028213292 0.0118620265 -0.03034812 -0.01569087
0.015230333 -0.0018624122 0.010599403 -0.021888452 0.029758915 -0.00056184083 -0.010648349 0.0003121298

bias f4 [64]
00000000: 0c85 1bbd 1e53 15bd 0f1b 363c 289c 24bc
00000010: d8b5 bcbc 3727 ca3c 1aca 1ebb 880b 0a3d
00000020: 1785 013c af2e 1abc 8f8e 33bc 8840 a13c
00000030: 6264 e9bb 2ac6 f9bc c06e 16bd 146d 183d
00000040: c75e 99bc 1709 9d3c 19ef 08bd f47f a5bc
00000050: e110 d83c 0ef6 d7bc 5c38 f83c c415 6a3c
00000060: 6491 f33c b4b5 b9bb c409 dc3c fd6b 373c
00000070: 2128 9bbc 12f7 ba3c d1f3 f63c f8c3 713c
00000080: 0e71 cbbc 5686 853b cd4d b9bc feae 4a39
00000090: 0b6b 14bc c01f bfbc 9b23 16bd 3ee6 163d
000000a0: 227a 0e3d e882 85bc adda 2e3d 4a36 cebb
000000b0: 166d 96bc c8eb 503c 1836 133d a39c 7ebc
000000c0: e3be e13c c7b5 bc3c a3df 8dbc 988b 58bc
000000d0: fcd4 b13b e9bd 27bb 6298 173c 42cb dd3c
000000e0: 1a42 033d 7307 bcbc bf09 663c ab90 82bc
000000f0: 2cb8 20bc fbe4 11bc 0daf 06bc 12cd 693c
-0.03796868 -0.03645622 0.01111485 -0.010046996 -0.023035929 0.024676902 -0.0024229349 0.033702403
0.007905266 -0.009410544 -0.010959282 0.019684091 -0.0071225623 -0.03049 -0.036726713 0.0372134
-0.018721951 0.019169373 -0.033431146 -0.020202614 0.026375236 -0.026362445 0.030300312 0.014287416
0.029732414 -0.0056674127 0.026860125 0.01119518 -0.018940033 0.02282289 0.030145558 0.014756195
-0.024834182 0.004074852 -0.022620106 0.00019329411 -0.009058724 -0.02333057 -0.03665505 0.03684067
0.034784444 -0.016297773 0.042689014 -0.006293093 -0.018362563 0.012751527 0.03594026 -0.015540275
0.027556842 0.023035897 -0.017318552 -0.0132168755 0.005427001 -0.0025595373 0.0092526395 0.02707446
0.03204546 -0.02295277 0.01404041 -0.015938124 -0.009809535 -0.008904691 -0.008220446 0.014270084

weight f4 [64, 1024]
00000000: 9387 95bc f26e 523b b8d4 84bc 1698 b1bb
00000010: da79 8fbc 30c1 6dbb 096e adbc 811c d3bc
00000020: c4d1 2bbc 8560 e23b e09b f4bc b1fe e43c
00000030: 38a7 e0bc 4e1d ca3b a74c d13c af70 7cbb
00000040: d02e ac3b e466 a5bc aad6 143c 299b abbc
00000050: 24f2 dfbc 300d 413c 33c8 743c 30c0 763c
00000060: 2f04 0e3c c504 fcbc ee92 2bbc f064 573c
00000070: be83 adbc b7f9 853c 1943 603c 9136 3a3c
00000080: d656 3cbc 8c83 db3c 3b14 bcbc caef 553c
00000090: 6a3d 3e3c 4241 b2bc cea8 c43c 3e02 0d3c
000000a0: 565c 39bc 17dc 6dbc a140 52bc 2b51 63bc
000000b0: b5e6 96bc fbed e1bc 1944 a23c 1e4f c13c
000000c0: 6eef 6d3c 0605 a1bc 2f57 b13c c4a4 f2bc
000000d0: c800 a93c 3e5c 0a3c 3870 f4bb 2da3 f73c
000000e0: c072 b83c 34b5 b03c eb39 cbbc 4fe5 84bb
000000f0: 8f2d 663c 6b87 913c f86d 343c 6461 0b3d
00000100: 66f9 d53c a05f 9a3b 07a4 c9bb 37f0 bb3c
00000110: 8fc6 53bc 3589 d7bc 44cb 61bc 5cac 85bc
00000120: 2009 193a 5a45 22bc 766b 36bc bfed 183c
00000130: bf4f 673c 9a74 d4bc 6c81 dcbc fd08 c1bc
00000140: 2063 40bb 7b7e d1bb e496 f53b ff00 8f3c
00000150: a6cc d9bc e5a7 bd3c 94e3 c83c 6ad7 66bc
00000160: 48aa d23c 2937 e9b9 a12e 7dbb c352 d33c
00000170: 3474 863b 996f d53c dad7 0fbc 6993 0ebc
00000180: 7892 c3bc 2540 cbba 9089 d0bc 7cb5 83bc
00000190: 1a91 c9bc fc39 e83c 6bd4 723c 2606 a13b
000001a0: 262f e3bc 5d53 b93c 1a39 f33c 6085 0c3c
000001b0: ff59 f0bc 19ae b2bc 3192 b3bc 18b9 d63c
000001c0: eb57 11bc c7d2 85bc c219 aebc 7c72 88b9
000001d0: 5f58 943c 4424 d03c 1007 b2bc 7109 bc3c
000001e0: 2302 33bc e5b7 8cbc d28b a9bc 9e72 cfbc
000001f0: 0c1b 033d daa1 acbc 882c 1e3c caf7 d53c
00000200: e739 523b 170f d93c abc3 48bc fa17 803b
00000210: d31e 4bbb 77f0 2ebc 9279 ce3c 5c12 82bc
00000220: f4aa ac3c 488a d7bc 1fc9 663c 23c3 76bc
00000230: 9fa1 e03c 7a67 54bc 2595 a33c d26a ee3b
00000240: 86d9 003d 8160 ab3c 0899 11bc a5d8 5abc
00000250: 0cf3 3f3b 0d53 8fbc 5b89 7bbb f525 013d
00000260: b544 093c 19a0 b33b 15af a7bb 51b8 9cbc
00000270: cd34 e53c f9e9 b33b 1e42 a9bc a18f c03c
00000280: ae2c 743c 3d25 d73c 3e42 0f3c d29b f0bb
00000290: 9e1c 30bc edba cabc 3f87 11bc b290 e33c
000002a0: 9259 d1bb aae9 643c 09f8 913c abcf f43b
000002b0: 5318 d0bc 6549 33ba 9b34 87bc d399 403c
000002c0: d019 38bc 146c 313c 149d b4bc fa2b 6f3c
000002d0: b3b6 dd3c 8a8b 083c 0ac6 d83c 1d3b a93c
000002e0: 0da7 b1bc 0028 d13c d953 113d 31bc a93c
000002f0: d795 adbc 487b 373c e82a d63c baea f53b
00000300: cf83 87bc ca8b dd3c 5708 ee3c 0aa6 88bb
00000310: f616 d2bc c407 78bc 0a34 83bc f640 8abc
00000320: fc66 9abc cf49 baba bf1a 71bc eed2 00bd
00000330: 41e8 c53b 24e0 f63a 7b27 c1bc eb32 aebb
00000340: 464d 4d3c 8d7e d0bc 78f4 04ba 52ad c1bb
00000350: a03f c4bc 4870 813c b298 66bc a5a2 b63c
00000360: afab a5bc 35f3 403c 4acc 8d3b 9e94 02bc
00000370: 54e3 3b3b ed47 5dbc 59ca 03bb 39f9 e83c
00000380: 6f59 b9bc 8313 80bc 78d6 dfbc bd95 c5bc
00000390: 8e47 bd3c 05f2 a83c fc61 9fbc 1dec d8bc
000003a0: c763 de3c 48b9 7cbc fc81 d73c af11 09bb
000003b0: 9eba a53c d821 08bc e759 483c 65c9 bc3c
000003c0: ee3f b3bc 4aab 9c3c b4e0 e53c 5362 0b3c
000003d0: 09e0 ef3b e373 aabc a110 35bc de6d fa3b
000003e0: db3b 31bb b36e ccbc 8fa2 bebc 5c43 8cbb
000003f0: 5f6c 79bb 8973 c63c 51f0 503c a086 98bc
-0.018253123 0.0032109586 -0.016214713 -0.0054197414 -0.017514158 -0.0036278479 -0.021170633 -0.025770428
-0.010487024 0.0069084787 -0.029859483 0.027953478 -0.027423486 0.006168044 0.025549246 -0.0038519313
0.005254604 -0.020190664 0.009084383 -0.02094801 -0.027337141 0.011782929 0.014940309 0.0150604695
0.00866799 -0.030763993 -0.0104720425 0.013146624 -0.021180984 0.016354425 0.013687872 0.011365549
-0.011495313 0.026796125 -0.022958865 0.013057658 0.011611322 -0.021759633 0.024006274 0.008606492
-0.0113135185 -0.014517806 -0.012832792 -0.013874332 -0.018420557 -0.027579298 0.019807862 0.023597296
0.0145224165 -0.019655716 0.021648018 -0.029619582 0.020630255 0.008444844 -0.0074596666 0.030229175
0.022515655 0.02157078 -0.02480789 -0.004055656 0.014048948 0.017764768 0.011012547 0.034028426
0.026119899 0.0047111064 -0.006153587 0.022941692 -0.012925758 -0.026310543 -0.013781372 -0.016317539
0.00058378465 -0.00990423 -0.011134019 0.009334027 0.014118134 -0.025934506 -0.026917182 -0.023563856
-0.0029355958 -0.0063932515 0.007494794 0.01745653 -0.026586842 0.023151347 0.02452258 -0.014089445
0.025715962 -0.0004448232 -0.003863253 0.0257963 0.004103208 0.02605419 -0.00877949 -0.0087021375
-0.023873553 -0.0015506787 -0.02545622 -0.01607775 -0.024605323 0.028347962 0.014821152 0.004914063
-0.027732443 0.022622759 0.029690314 0.008576721 -0.029339788 -0.021811532 -0.021920295 0.026211306
-0.008871059 -0.016335858 -0.021252517 -0.0002602524 0.018108545 0.025407918 -0.021731883 0.02295372
-0.010925802 -0.017177531 -0.020696554 -0.025323208 0.032008216 -0.02107327 0.009654172 0.026119132
0.003207797 0.026496453 -0.012253682 0.003909108 -0.0030993714 -0.0106774485 0.025204454 -0.015877895
0.02107761 -0.026311055 0.014086037 -0.015061173 0.027420817 -0.012964124 0.019968579 0.0072759176
0.031457447 0.02092004 -0.008886583 -0.013357316 0.0029289154 -0.017495656 -0.003838143 0.03153034
0.008378197 0.0054817316 -0.005117307 -0.019130858 0.027979279 0.005490538 -0.02066141 0.023505988
0.014903231 0.026262874 0.008743821 -0.007342794 -0.01074901 -0.024747336 -0.008882343 0.027778957
-0.0063888514 0.0139717255 0.017818468 0.007471045 -0.025402224 -0.0006839245 -0.016504576 0.011755425
-0.011236623 0.0108289905 -0.022047557 0.014597887 0.027064657 0.00833405 0.02646162 0.02065807
-0.021686101 0.025531769 0.035480354 0.02071962 -0.021189613 0.011198826 0.026143506 0.007504788
-0.016542343 0.027044196 0.029056711 -0.004170184 -0.025645714 -0.01513857 -0.016016025 -0.016876679
-0.018847935 -0.001421267 -0.014715849 -0.03145116 0.0060396497 0.001883511 -0.023578396 -0.0053161285
0.01253063 -0.02545097 -0.0005071829 -0.005910554 -0.02395612 0.01580061 -0.014074491 0.022294352
-0.020223467 0.011776735 0.0043273317 -0.007970003 0.0028669434 -0.013505918 -0.0020109622 0.028439151
-0.022625653 -0.015634304 -0.027323946 -0.024119252 0.023105409 0.020623216 -0.019455902 -0.026479775
0.027147187 -0.015425034 0.026307099 -0.0020915081 0.020230588 -0.00830885 0.012228466 0.023045251
-0.02188107 0.019124646 0.028061248 0.008507329 0.0073204082 -0.020807212 -0.011051328 0.0076424917
-0.0027043733 -0.02495513 -0.023270873 -0.004280491 -0.003805898 0.024225013 0.012752608 -0.018618882

bias f4 [64]
00000000: bdb0 c2bc 90d4 04bc c486 563c 4321 ffbb
00000010: 752d 553c 60bc 153d 8fa6 0bbd 0314 41bc
00000020: 2835 cf3b e7f1 753c 8df2 17bc c36f 053c
00000030: 8647 063d d65d 03bd c46c c93b 819b 9a38
00000040: 61b8 db3b 6577 6f3b f666 a63c c85b 11bd
00000050: 721b b1bc 12a4 bc3c 3317 873c 2021 ef3b
00000060: 4a3a e83b 2768 c5bb e558 963b e8a6 b8ba
00000070: db27 1dbc 6350 f2bb 0699 b13a 640e 943c
00000080: 7c04 ec3c 1176 a3bc 27ad 0ebc 85b3 07bd
00000090: 8aa3 adbb 0565 f2bc 255a ed3c 967b e23c
000000a0: 6a8c 6b3c e7b3 1cbc 0430 bbbc 636c a23c
000000b0: 22ad 563b eeea 9c3c c7a9 cc3c 1f69 9ebc
000000c0: 4704 993b 7856 c93c 0c62 0ebd 3318 ca3c
000000d0: ad60 13bb 3bdc f4bc c714 0dbc 0bc6 a2bc
000000e0: fc88 523b 7e98 6dbc 7f6a 72bc 8066 00bd
000000f0: 6f86 253d 6d47 d7bc 4d0f e8bc e689 c93b
-0.023765916 -0.0081073195 0.013093654 -0.0077859475 0.013011326 0.0365566 -0.03409439 -0.011784556
0.0063234754 0.015011287 -0.009274137 0.008144322 0.032783054 -0.03207191 0.006146999 7.372257e-05
0.0067053293 0.003653967 0.020312767 -0.03548792 -0.021619532 0.023027454 0.016490554 0.00729765
0.0070870267 -0.006024379 0.004588234 -0.0014087828 -0.009592022 -0.0073948367 0.0013549633 0.018073268
0.028810732 -0.01995376 -0.008708275 -0.033130188 -0.0052990364 -0.029589185 0.028973648 0.027646821
0.014376739 -0.009564376 -0.022850044 0.019827073 0.0032757004 0.019154992 0.0249833 -0.019337235
0.0046696994 0.024577364 -0.034761474 0.024669742 -0.0022488043 -0.02989017 -0.008610911 -0.019869825
0.0032125106 -0.014501689 -0.014795898 -0.03134775 0.04041141 -0.026279176 -0.028327608 0.006150472

weight f4 [10, 64]
00000000: 6e7c d43b f08f eebd 2c2f e03d 2074 87bd
00000010: a194 40bd c7f5 8cbd cf0c 58bd c2d3 133d
00000020: 5f2d 9c3b 387c 013e b2a3 b43b 827a 16be
00000030: a5e6 ef3c 68ea 463d 76ad 48bd 3f46 833d
00000040: a6a6 94bd 4e84 5d3d ada1 d33d 9544 e83d
00000050: 6fba 9c3b d9d2 84bd 077b 013e 4a54 173d
00000060: 5512 16bc c3f5 74bd 1ebb 8ebd ff67 d8bc
00000070: 6489 2c3d 0edd 2f3d 93b3 00bd ed38 a13d
00000080: c442 dd3a c278 b03d 1fa5 833d 41f4 a23d
00000090: 1c16 fa3d 3b30 fbbc cc0b b93d 46d8 f7bd
000000a0: 57a8 debc b36d 49bd 3974 bd3d 47a2 f63c
000000b0: cac5 14be 04c5 64bd fc5a 173d be59 a7bd
000000c0: 8314 51bd 0002 82bd bb49 d13c ec22 bb3d
000000d0: b60e b7bd d796 353c 4a20 ad39 b9d6 8abd
000000e0: d3e3 72bd b6cb fabd 4197 f5bd 500b d83d
000000f0: 799f eabd 383f cd3d 1f5f 9e3d ed5d f13d
00000100: 3491 65bd 3314 a53d 7c37 b4bd d290 e0bd
00000110: 582a 97bd 75a6 b03d 9dff 82bd 5d83 febd
00000120: 30cd 6ebd b7a6 00bc 5876 bd3d d082 e03d
00000130: 00e9 8dbc 57a5 1a3c 10d2 e2bd 8cce 5bbd
00000140: 80bd 7fbd d65c 60bd 920b 7c3d bf38 c1bc
00000150: a80d e03c e4d0 9ebd 1224 c2bd 926c bf3c
00000160: d792 c83d 6a1a 33bd 5f8e 093d 680e 89bd
00000170: cfbe 0c3e be34 86bd 6761 ac3d f9a9 a33d
00000180: 07e6 b13b c9e2 123d b755 0a3e d089 3bbd
00000190: 3d2a 81bd 0c29 103d 1036 eb3d e972 edbd
000001a0: f6cf b83d 916c 11bc 4ace 14bd 99fa 693d
000001b0: 62a6 bebd 2a20 00be 4189 a7bd 10bf 753d
000001c0: 5d06 163c 5353 7f3d 5eb2 f8bd a0f2 f83d
000001d0: 24e1 d0bd 4002 37bd 0e45 d8bd 20e7 223d
000001e0: 7423 653d 3cdd 3c3d 8721 9a3a 17a7 1fbd
000001f0: 005f a33d 2ca4 cf3d 6d71 ea3d 8580 99bd
00000200: 2c17 b83d 0e4a 4f3d d0f4 c93d 38a8 073d
00000210: 112f a8bd 6ba3 9fbd 0979 8abc 35dd babd
00000220: 0758 59bd c5e6 ec3d 0831 fbbd cdff 743d
00000230: f0bb d53d 9e29 b8bd c5f7 d9bd e455 5f3d
00000240: d2a5 b83c d2c2 72bc 0f75 fabd 0dc3 1dbd
00000250: ef03 b23d 54b6 afbd 5347 af3c 5e11 933b
00000260: 4575 e5bd b4db a0bd de83 f23d 1cc2 893d
00000270: bc1a e3bd 5b71 c0bd 81b3 fdbd b825 c2bd
00000280: 77e9 083d 699d 5c3d dcff 01bd 9593 2f3d
00000290: a031 8c3d b716 ffbd 598e da3d da4e 9f3c
000002a0: 9ce6 2ebd a12e eebd 1a55 27bb 8af7 333d
000002b0: d248 a73c 27c5 c03d ed02 f5bd a796 dbbd
000002c0: 4b52 ffbc b6c2 73bd 0801 1e3c 7d38 e23d
000002d0: b8d1 3a3d 5d53 ab3b 530e c1bd 0b50 543d
000002e0: 5bfd b83b 1b23 403d 4b91 e43d a2b5 013e
000002f0: 7658 f53c 5e48 633d 479b 193b af39 df3d
00000300: e1b6 8b3d 848e 8e3d a67c cfbd 8860 d8bd
00000310: b24b b4bd 47d4 983d 71ad c53d 3bcb 633d
00000320: 61d3 e4bd fc81 233d 24d3 843d cce0 f63c
00000330: 1eec f73a 14d2 00be aa01 7d3d 4ce4 8d3d
00000340: 190b 093e 8823 8d3c 49a8 0f3d 7bb8 c63d
00000350: 335c 21bd 3301 c43d 890b aa3d 9c93 ca3c
00000360: b256 e1bd 8658 723b 9a57 db3d 2ba6 96bd
00000370: 6eb2 38bd b260 cc3d e1e8 c6bd 591a cd3d
00000380: 944a f8bd 02a7 fb3d 7bd7 b4bd 41c8 15bd
00000390: afc4 36bd f4a7 e6bc 8993 943d aefa ddb9
000003a0: 7e6f f1bc 6d48 ac3d 37b0 dc3d 04a8 ec3a
000003b0: a1c0 073e 8922 133d 4ade f0bc 4f65 edbd
000003c0: 157f 823d 58e5 97bc c381 a33d 984d 053e
000003d0: 9ad0 b4bd 16ba 0abc fe3b 423c 9868 80bd
000003e0: 8400 0e3b 5490 393b cce6 20bd 1c59 69bd
000003f0: 707c 32bc 9466 acbd 20c8 f53a 8185 dc3d
0.0064845597 -0.11648548 0.10946497 -0.06613946 -0.047016744 -0.06882816 -0.05274659 0.03609062
0.004766151 0.12645042 0.005512678 -0.1469517 0.029284785 0.04856339 -0.04899355 0.06409883
-0.07258348 0.054081254 0.103335716 0.11341206 0.004782967 -0.064855285 0.12644587 0.03694562
-0.009159644 -0.05980469 -0.069692835 -0.026416777 0.042123213 0.042935424 -0.031421255 0.07872186
0.001688086 0.08616783 0.06427979 0.07956744 0.12211248 -0.030662647 0.09035453 -0.12101798
-0.02717988 -0.049176883 0.09250683 0.030106677 -0.14528576 -0.05585195 0.036952004 -0.08171414
-0.051044952 -0.06348038 0.025547853 0.0913752 -0.08938353 0.011083326 0.0003302119 -0.06779236
-0.0592993 -0.12245886 -0.1199174 0.10549033 -0.11456198 0.10021824 0.07732987 0.11785493
-0.05604668 0.08060493 -0.08799645 -0.10965122 -0.07381123 0.08625499 -0.063964106 -0.12427399
-0.05830115 -0.007852248 0.09251088 0.109624505 -0.017323017 0.009438834 -0.110752225 -0.053663775
-0.06243658 -0.054776035 0.06153447 -0.023586629 0.027350262 -0.077546865 -0.09479536 0.0233672
0.097936325 -0.043726362 0.03358304 -0.06692201 0.13744663 -0.065530285 0.084170155 0.07991404
0.0054290327 0.03586081 0.1350926 -0.045785725 -0.063068844 0.035195395 0.11484921 -0.11594183
0.090240404 -0.008875982 -0.036329545 0.057123754 -0.09309079 -0.1251227 -0.08180476 0.059996665
0.009156791 0.062335324 -0.12143396 0.12155652 -0.10199192 -0.04467988 -0.10560046 0.0397712
0.055942014 0.046109423 0.001175926 -0.03897771 0.07977104 0.10138735 0.114474155 -0.07495216
0.08988795 0.050607733 0.098611474 0.03311941 -0.08212102 -0.077948414 -0.016903417 -0.09124223
-0.053062465 0.11567453 -0.12265211 0.059814263 0.10436237 -0.08992313 -0.106429614 0.05452527
0.022540007 -0.014816957 -0.122293584 -0.038516093 0.086921565 -0.08579698 0.021396315 0.0044881543
-0.11204008 -0.07854405 0.11841558 0.067264766 -0.110890836 -0.09396621 -0.12387753 -0.094798505
0.033425774 0.053861056 -0.031738147 0.042865355 0.06845403 -0.124555044 0.10671682 0.019446779
-0.042700395 -0.116299875 -0.0025532902 0.043937244 0.020420466 0.09412604 -0.11963449 -0.10722094
-0.03116717 -0.059511863 0.009643801 0.110459305 0.04561016 0.0052284435 -0.0942656 0.051834147
0.0056454367 0.04690848 0.11160525 0.12666944 0.029949408 0.055488937 0.00234385 0.10899674
0.06821991 0.069607764 -0.10131197 -0.10565287 -0.088035 0.07462364 0.09652222 0.055613738
-0.1117313 0.039918885 0.064855844 0.030136488 0.0018914973 -0.12580138 0.061769165 0.0692831
0.1338314 0.017228857 0.0350726 0.097031556 -0.03939457 0.09570541 0.083029814 0.024728589
-0.11002864 0.0036979034 0.10710068 -0.07355913 -0.04509204 0.09979381 -0.09712387 0.10014791
-0.121236 0.122877136 -0.08830162 -0.03656793 -0.044621166 -0.028156258 0.072547026 -0.00042339176
-0.029472109 0.084122516 0.10775798 0.0018055444 0.13257076 0.035921607 -0.02940287 -0.11591589
0.06371895 -0.018541977 0.079837345 0.13017881 -0.0882885 -0.008467218 0.011855124 -0.0626995
0.0021667788 0.0028314786 -0.039282605 -0.056969747 -0.010893926 -0.08418003 0.0018751658 0.10767651

bias f4 [10]
00000000: 3d90 c2bd 45a2 b7bd e00f 35bd a24e 8f3d
00000010: f344 70bc 906c 3e3d 93b8 84bd df51 a6bd
00000020: cc33 923b c52f d3bd
-0.095001675 -0.08966497 -0.044204593 0.0699742 -0.014664876 0.046490252 -0.06480517 -0.081210844
0.004461741 -0.10311846
