PytorchLearning/learn1/vggmodel/vgg_18.pth (torch, 587335 bytes, 10 tensors)

weight f4 [32, 3, 5, 5]
0.10229719 -0.11473511 -0.06823917 -0.04428847 -0.09521634 -0.010558493 0.022129692 -0.027130375
-0.07137431 0.08910999 0.11824398 0.0024514764 -0.004920639 0.07134354 -0.04244272 -0.088013716
0.08322212 -0.08368245 0.12060207 0.10915353 -0.056745917 0.06416134 0.061772574 0.12282074
-0.047622647 -0.05721889 -0.04591423 0.088499025 0.02739988 -0.11646627 0.05717932 -0.013396405
-0.10060181 -0.078397736 0.080423616 -0.020859675 -0.08309062 0.05128713 -0.07754044 0.08014053
0.04547168 0.09881043 0.08522091 0.0926097 -0.0272648 -0.023563014 0.061659537 0.11705869
-0.060313523 -0.0321912 -0.009931192 0.019491408 -0.08776982 -0.046593085 -0.04593736 0.016611239
0.09824237 -0.0050565805 0.10363618 0.06133599 -0.026480671 0.07801916 -0.059881646 -0.10099476
0.033324268 0.12495885 0.091036096 -0.02108725 0.017502066 0.12563026 0.0069992645 0.12724385
0.043863162 0.039453156 0.050493002 -0.04581992 0.11804458 0.040076803 -0.028250184 0.05015966
0.06643749 -0.055993218 -0.06310942 0.07687414 -0.09013597 0.016825117 -0.0042847847 -0.08185179
-0.08558278 -0.0040974617 0.027707309 0.12330522 0.05112005 -0.109244436 -0.004013261 -0.017680762
0.08031099 -0.091822885 0.067842714 -0.06333695 -0.040155753 -0.076260544 0.06263426 -0.12857728
0.008464147 -0.07190542 -0.0076376074 0.07374641 -0.13991413 -0.08867815 0.046876196 -0.04410157
-0.093992844 -0.030874465 -0.10255953 0.08343652 0.111937635 -0.021614807 -0.0009539986 0.022415008
-0.106222145 0.083324105 0.065937035 -0.08411849 0.034566477 -0.13548405 -0.11684217 -0.106316715
0.023963545 0.021667907 -0.106453575 -0.025941202 0.057915546 -0.10866313 -0.12648374 0.09465391
0.02598551 -0.05163547 0.067663826 -0.11945085 -0.0022249497 0.09077937 -0.006952213 -0.07661636
-0.024161277 -0.060610637 0.0035252157 0.09290882 -0.025402317 0.082632 -0.06294437 -0.11068003
0.07725387 -0.05090272 -0.01468259 -0.11109542 -0.12889834 -0.09798491 -0.11766193 -0.08986756
-0.068727456 0.08985709 -0.008424526 -0.0006292205 0.029595701 0.03736143 0.0074928515 0.030192398
-0.07182147 -0.09068308 0.09724393 0.03019361 -0.041271113 0.09265012 0.101045825 -0.047235765
0.012112966 0.0925753 -0.0561636 0.0109425 0.051062427 0.088837594 0.06646013 -0.052238148
-0.048455637 -0.11966716 -0.07015183 -0.10510159 0.053714145 0.008454875 0.07333206 -0.086358145
0.054638844 -0.056495436 0.099994615 -0.050596993 0.078042604 -0.03443859 0.080641195 0.097478524
0.09711107 -0.040706705 -0.013306583 0.006720981 0.118797764 0.10214225 -0.04938489 0.09524557
-0.08376468 0.017822629 0.0042694905 0.059568387 -0.060194783 0.039425064 0.046432428 0.09665934
0.11691275 0.08367173 0.08270646 0.021877397 0.037589207 0.1156505 0.03398793 0.095484614
-0.0072393166 -0.094651535 0.08014119 0.02153178 -0.10884838 0.041226443 -0.078514636 -0.029944748
-0.043952692 0.026786605 -0.084016465 -0.080637336 0.022764834 -0.06362844 -0.03020161 -0.10888864
-0.07655233 0.04745323 0.098855995 0.0870547 0.115529254 -0.026893046 0.05165459 0.09103162
0.041537613 0.075071 0.05057088 0.0324383 -0.090998374 0.10613581 0.10407425 0.1121646
00000000: 3081 d13d 3efa eabd fac0 8bbd d467 35bd
00000010: c900 c3bd 88fd 2cbc 5449 b53c 8540 debc
00000020: b22c 92bd 4c7f b63d e629 f23d f3a8 203b
00000030: 503d a1bb 901c 923d 6bd8 2dbd 8940 b4bd
00000040: 5c70 aa3d b461 abbd 38fe f63d e38b df3d
00000050: 686e 68bd 0567 833d 3d05 7d3d 7189 fb3d
00000060: f70f 43bd 5b5e 6abd 8f10 3cbd fa3e b53d
00000070: b775 e03c de85 eebd dd34 6a3d 987c 5bbc
00000080: 5208 cebd fe8e a0bd 23b5 a43d e9e1 aabc
00000090: 6a2b aabd 7412 523d 86cd 9ebd b820 a43d
000000a0: 8340 3a3d 1f5d ca3d 4d88 ae3d 28aa bd3d
000000b0: 6e5a dfbc 3907 c1bc b68e 7c3d 77bc ef3d
000000c0: 500b 77bd ebda 03bd 70b6 22bc 72ac 9f3c
000000d0: aac0 b3bd 64d8 3ebd d028 3cbd 4b14 883c
000000e0: 4c33 c93d acb1 a5bb 353f d43d 723b 7b3d
000000f0: feed d8bc 82c8 9f3d 7546 75bd 57d6 cebd
00000100: 077f 083d 6dea ff3d 2271 ba3d 2bbf acbc
00000110: 7e60 8f3c 38a5 003e 165a e53b 364c 023e
00000120: dca9 333d a299 213d c0d1 4e3d abad 3bbd
00000130: 5bc1 f13d 9327 243d ee6c e7bc 3774 4d3d
00000140: 6110 883d 2559 65bd 833f 81bd 3070 9d3d
00000150: 3599 b8bd d4d4 893c 6167 8cbb e9a1 a7bd
00000160: 0646 afbd 0044 86bb 70fa e23c 7287 fc3d
00000170: 4263 513d 8cbb dfbd ac81 83bb 3fd7 90bc
00000180: 177a a43d a30d bcbd 1ff1 8a3d ceb6 81bd
00000190: 5c7a 24bd 7d2e 9cbd 6446 803d c3a9 03be
000001a0: 35ad 0a3c 2643 93bd e544 fabb 5c08 973d
000001b0: a645 0fbe e49c b5bd 4101 403d d9a3 34bd
000001c0: 527f c0bd 72ec fcbc bb0a d2bd c4e0 aa3d
000001d0: 8f3f e53d 8911 b1bc c315 7aba ae9f b73c
000001e0: ff8a d9bd d4a5 aa3d ff09 873d 5146 acbd
000001f0: 9495 0d3d 55bc 0abe f34a efbd 94bc d9bd
00000200: 324f c43c e580 b13c 5504 dabd a582 d4bc
00000210: da38 6d3d c68a debd f484 01be e9d9 c13d
00000220: 90df d43c b77f 53bd 5593 8a3d a6a2 f4bd
00000230: 76d0 11bb 89ea b93d 64cf e3bb 0ae9 9cbd
00000240: dfed c5bc dc42 78bd 4e07 673b fb46 be3d
00000250: 8518 d0bc f73a a93d fae8 80bd 36ac e2bd
00000260: 4737 9e3d 5f7f 50bd 3f8f 70bc ff85 e3bd
00000270: edfd 03be 50ac c8bd bdf8 f0bd 7c0c b8bd
00000280: fbc0 8cbd fe06 b83d 0607 0abc 46f2 24ba
00000290: af72 f23c 4c08 193d 9886 f53b 0c56 f73c
000002a0: 2317 93bd 0db8 b9bd d327 c73d 9758 f73c
000002b0: e60b 29bd 59bf bd3d 1df1 ce3d 4a7a 41bd
000002c0: 7675 463c 1e98 bd3d ce0b 66bd 2c48 333c
000002d0: d626 513d 7cf0 b53d 401c 883d abf7 55bd
000002e0: 6b79 46bd 0e14 f5bd c3ab 8fbd 813f d7bd
000002f0: 5d03 5c3d 5186 0a3c 1e2f 963d 8adc b0bd
00000300: fbcc 5f3d c267 67bd fac9 cc3d cb3e 4fbd
00000310: cdd4 9f3d 7b0f 0dbd 3627 a53d d2a2 c73d
00000320: 2be2 c63d 13bc 26bd db03 5abc ad3b dc3b
00000330: 3e4c f33d f52f d13d cf47 4abd 1c10 c33d
00000340: d18c abbd c300 923c 15e7 8b3b fbfd 733d
00000350: ce8e 76bd 2d7c 213d ee2f 3e3d 55f5 c53d
00000360: f46f ef3d 155c ab3d 0162 a93d 3a38 b33c
00000370: 24f7 193d 2bda ec3d ed36 0b3d 708d c33d
00000380: ca37 edbb aad8 c1bd 1021 a43d 6a63 b03c
00000390: e6eb debd 0fdd 283d 48cc a0bd b04e f5bc
000003a0: bd07 34bd 956f db3c d310 acbd 3025 a5bd
000003b0: 517d ba3c a14f 82bd 5e69 f7bc 0201 dfbd
000003c0: 78c7 9cbd 515e 423d 0375 ca3d bc49 b23d
000003d0: 9a9a ec3d ce4e dcbc c393 533d c96e ba3d
000003e0: 5823 2a3d d3be 993d 6923 4f3d 06de 043d
000003f0: 5b5d babd bb5d d93d e124 d53d 8eb6 e53d

bias f4 [32]
0.045084428 0.007920324 -0.013678943 -0.025614759 0.06791152 0.061429817 -0.06905491 0.054763313
-0.11317627 0.072420076 0.08062731 -0.083273135 -0.07625254 -0.022077277 0.07316415 0.017436007
0.022110805 -0.06389787 0.0073924125 0.10681179 0.060378443 -0.022425136 0.059831895 0.095458746
-0.0627192 -0.08449497 0.032374386 -0.15203553 -0.08811202 -0.026991872 -0.1674624 0.071382545
00000000: 73aa 383d 3fc4 013c a51d 60bc 0bd6 d1bc
00000010: 3215 8b3d d59d 7b3d a96c 8dbd 7f4f 603d
00000020: f6c8 e7bd fa50 943d ee1f a53d 1b8b aabd
00000030: 4b2a 9cbd 68db b4bc 16d7 953d f5d5 8e3c
00000040: b821 b53c e3dc 82bd 0d3c f23b 24c0 da3d
00000050: 634f 773d ebb4 b7bc 4a12 753d e07f c33d
00000060: ed72 80bd b30b adbd 019b 043d 34af 1bbe
00000070: 1374 b4bd 0f1e ddbc 437b 2bbe 0331 923d

weight f4 [32, 32, 5, 5]
-0.02088472 -0.034001123 0.0033331427 0.03239283 -0.02859391 -0.03615501 -0.0060621607 0.016174663
-0.020043902 0.019987792 -0.020472165 0.019008508 -0.03973887 0.008902185 -0.031644247 -0.018658709
-0.02811911 -0.0036015296 0.014222822 -0.007189264 0.022870144 0.0069814143 -0.033089787 -0.014585343
-0.001812179 -0.0328522 -0.027899828 -0.00084009994 -0.03196074 0.027151743 0.00024863268 -0.021055458
-0.033959404 0.02047834 0.01499778 0.0063342275 -0.011267403 -0.035431158 0.012890638 0.007681384
-0.030730676 -0.0021689304 -0.0057081324 -0.01380901 0.01840477 -0.02887981 0.017633813 -0.0015645573
-0.0141308885 -0.021166367 -0.0047066384 -0.033874936 0.02331966 -0.009938559 0.03356271 -0.03185367
0.008772797 0.031336788 -0.023253731 0.030315563 -0.0053676334 0.027770346 0.02876088 0.028409196
0.03231355 0.0020348753 0.017818775 -0.031368572 -0.0031625982 -0.029093055 0.030938422 0.0033966068
-0.0010534443 -0.0067190323 0.03231872 -0.03505673 -0.019935101 -0.0031318143 -0.03497007 0.028872576
0.00918545 -0.014187856 -0.0016736595 -0.03103792 0.0231064 -0.0027716178 -0.03488165 0.022449197
-0.02369562 -0.01767487 0.0029072377 -0.014256143 -0.006520382 0.010595956 -0.009715831 -0.03370277
-0.031699903 -0.026675776 -0.009386344 -0.028434146 -0.019894602 -0.032528955 -0.0011921385 -0.015713798
-0.0028245298 0.0075647966 -0.010162661 0.014017046 0.007466719 -0.03301365 -0.022578245 -0.032275982
-0.042019494 0.0028795723 0.0073892158 0.010391579 0.0038585889 -0.038326375 0.017621526 0.012146894
0.0066255517 0.012356303 0.0012473294 0.018745279 0.00041671685 -0.019827958 -0.034138232 -0.0015883303
0.0101040425 0.003976497 -0.032958 0.019809205 -0.008748437 0.016959172 0.013250323 -0.03655914
0.0035821847 -0.037180185 -0.03137601 -0.0027607344 -0.035209436 -0.033750504 -0.014395916 0.022306785
0.01233791 0.012779886 0.015387132 -0.016348828 0.0014330886 0.02954969 -0.0016221668 0.01007462
-0.009991608 -0.007310176 0.009927196 0.031614542 0.004923165 -0.0052666725 -0.025383392 -0.0038328231
0.030161573 0.019952683 0.01197113 0.01494992 -0.029037355 0.028629178 0.029397696 -0.025416616
0.0073089576 -0.024438541 0.0064034206 0.019535406 0.0029359944 -0.021033423 0.009375307 0.024129232
0.015280703 -0.013605897 -0.020915441 0.028235368 0.020832965 -0.013728265 -0.0022046405 0.0009250628
0.024895934 0.018286576 -0.036962472 -0.013687929 0.025840687 -0.0030846584 -0.024900412 -0.036959976
-0.0058941506 0.030978866 -0.0242931 0.004288385 -0.02890376 0.011917769 0.01591571 -0.020767195
0.020912195 -0.017939411 0.03045626 0.011836952 0.0061854254 0.032700893 0.005592757 0.0020049205
-0.008641534 0.008341826 0.013178038 0.0346828 0.004790708 -0.00856494 0.017190179 0.0025123602
0.036747806 0.026736408 0.0069133737 0.00040154046 -0.018531732 0.037893664 0.026136354 0.039570715
0.013988929 -0.007216646 -0.030103587 0.0025407204 -0.029700747 0.020992948 -0.045544118 -0.030439733
-0.018988864 0.016233884 0.023514105 -0.017172996 0.0033211443 -0.041380305 -0.029034287 -0.038565826
0.009847572 -0.028701717 -0.0073068496 -0.0073389173 -0.018319095 0.016310407 -0.042986274 -0.03904281
-0.017988315 -0.02190191 -0.04025956 -0.033296708 -0.028518576 0.013309065 0.014517267 0.008634627
00000000: 6f16 abbc c344 0bbd db70 5a3b 58ae 043d
00000010: c73d eabc 4717 14bd 17a5 c6bb ba80 843c
00000020: 1c33 a4bc 70bd a33c 3eb5 a7bc bbb7 9b3c
00000030: 3ac5 22bd 78da 113c 669d 01bd 26da 98bc
00000040: 0c5a e6bc a407 6cbb d706 693c eb93 ebbb
00000050: 2b5a bb3c 59c4 e43b 2889 07bd 5df7 6ebc
00000060: a386 edba 0790 06bd 2e8e e4bc 273a 5cba
00000070: 44e9 02bd 556d de3c ea5a 8239 7f7c acbc
00000080: 0419 0bbd 31c2 a73c 40b9 753c 5a8f cf3b
00000090: ea9a 38bc 4320 11bd 4133 533c 1fb4 fb3b
000000a0: e6be fbbc 9d24 0ebb 490b bbbb 303f 62bc
000000b0: 9ac5 963c 5a95 ecbc c974 903c d511 cdba
000000c0: 3e85 67bc 1765 adbc 253a 9abb 72c0 0abd
000000d0: df08 bf3c 56d5 22bc 0d79 093d fe78 02bd
000000e0: c7bb 0f3c 015b 003d 9c7e bebc 5858 f83c
000000f0: f9e2 afbb a37e e33c f09b eb3c 67ba e83c
00000100: 375b 043d 8b5b 053b aef8 913c 557c 00bd
00000110: 9843 4fbb 8f54 eebc 9372 fd3c 9b99 5e3b
00000120: ba13 8aba 542b dcbb a260 043d a597 0fbd
00000130: f04e a3bc 203f 4dbb c73c 0fbd 2e86 ec3c
00000140: 927e 163c 2e74 68bc b25e dbba 3c43 febc
00000150: a249 bd3c 08a4 35bb 10e0 0ebd 61e7 b73c
00000160: 511d c2bc e4ca 90bc 5b87 3e3b 9992 69bc
00000170: eea8 d5bb a99a 2d3c 262f 1fbc ea0b 0abd
00000180: c2d7 01bd 2887 dabc 2ec9 19bc baee e8bc
00000190: 01fa a2bc 153d 05bd 8841 9cba 39ba 80bc
000001a0: bf1b 39bb 1de2 f73b 4a81 26bc c1a7 653c
000001b0: 61ab f43b 5239 07bd 03f6 b8bc d233 04bd
000001c0: a21c 2cbd 35b7 3c3b 3c21 f23b 7141 2a3c
000001d0: 61e0 7c3b 1efc 1cbd 055b 903c c403 473c
000001e0: 281b d93b 1772 4a3c 6e7d a33a b38f 993c
000001f0: ca7a da39 3e6e a2bc 88d4 0bbd 852f d0ba
00000200: 6d8b 253c 464d 823b f8fe 06bd ea46 a23c
00000210: 9b55 0fbc f6ed 8a3c e217 593c 09bf 15bd
00000220: 16c3 6a3b 404a 18bd 2284 00bd 70ed 34bb
00000230: c537 10bd f83d 0abd d9dc 6bbc b8bc b63c
00000240: f224 4a3c ba62 513c 4f1a 7c3c faed 85bc
00000250: 79d6 bb3a 3112 f23c e39e d4ba 0510 253c
00000260: d7b3 23bc 338a efbb aea5 223c 407e 013d
00000270: 8052 a13b 0d94 acbb d5f0 cfbc 1a30 7bbb
00000280: 6715 f73c cf73 a33c 8f22 443c 82f0 743c
00000290: bfdf edbc bd87 ea3c 70d3 f03c 8236 d0bc
000002a0: fb7f ef3b 5633 c8bc c9d3 d13b b708 a03c
000002b0: d069 403b 494e acbc e39a 193c abaa c53c
000002c0: ea5b 7a3c 45eb 5ebc dc56 abbc dc4d e73c
000002d0: e5a9 aa3c 84ec 60bc bb7b 10bb ea7f 723a
000002e0: 8ff2 cb3c bbcd 953c f665 17bd 5643 60bc
000002f0: d9af d33c fb27 4abb f3fb cbbc 5863 17bd
00000300: b823 c1bb 64c7 fd3c 5302 c7bc 9585 8c3b
00000310: 94c7 ecbc bf42 433c aa61 823c f71f aabc
00000320: 0d50 ab3c acf5 92bc 687f f93c c6ef 413c
00000330: 1caf ca3b 5ff1 053d 7243 b73b fc64 033b
00000340: 3895 0dbc 27ac 083c b3e8 573c 8d0f 0e3d
00000350: 5ffb 9c3b f653 0cbc 6bd2 8c3c 69a6 243b
00000360: de84 163d 5006 db3c 9589 e23b d985 d239
00000370: dccf 97bc 6336 1b3d e81b d63c e714 223d
00000380: d231 653c 9d79 ecbb cc9b f6bc 3782 263b
00000390: fb4e f3bc 67f9 ab3c 788c 3abd bf5c f9bc
000003a0: 898e 9bbc ecfc 843c a7a0 c03c 62ae 8cbc
000003b0: 8ea7 593b 657e 29bd 50d9 edbc 33f7 1dbd
000003c0: b657 213c dd1f ebbc 4c6e efbb 4d7b f0bb
000003d0: ed11 96bc 679d 853c 6012 30bd 5beb 1fbd
000003e0: 3b5c 93bc a26b b3bc 35e7 24bd 2162 08bd
000003f0: ca9f e9bc 440e 5a3c d5d9 6d3c 4078 0d3c

bias f4 [32]
-0.0035878706 -0.03918487 -0.028050987 -0.043615714 0.025332177 -0.011564249 -0.035678037 -0.019000074
-0.004992468 0.012262667 -0.020694118 -0.021635296 0.026381312 -0.039508734 -0.025813581 -0.015352137
0.016322233 -0.051036913 -0.03136298 0.012604273 0.021397999 -0.06216748 -0.0064347875 -0.0073601184
-0.004451358 -0.049064223 -0.019219896 0.01040931 0.03999513 -0.046425894 -0.0010721303 0.019359969
00000000: 7b22 6bbb 5080 20bd 2fcb e5bc 64a6 32bd
00000010: 6d85 cf3c fa77 3dbc 2223 12bd 0ba6 9bbc
00000020: db97 a3bb 5ae9 483c b686 a9bc 813c b1bc
00000030: 9f1d d83c e9d3 21bd 0177 d3bc 8887 7bbc
00000040: 34b6 853c 150c 51bd 7876 00bd 2782 4e3c
00000050: db4a af3c 54a3 7ebd e9da d2bb 262d f1bb
00000060: b3dc 91bb 91f7 48bd 0b73 9dbc d08b 2a3c
00000070: efd1 233d 1429 3ebd b986 8cba cc98 9e3c

weight f4 [64, 32, 5, 5]
-0.010684382 0.014109318 -0.019558322 0.00518662 0.013414674 -0.019648574 0.0011332553 0.0027210214
-0.0018262127 0.0008664 -0.012933952 0.018602729 -0.018356737 0.030530255 0.034534585 -0.029134108
0.018041797 -0.011524183 -0.030235047 0.0010584556 -0.0007389514 0.015235887 -0.009597651 0.01753011
-0.02720856 0.006952931 -0.005685246 0.045390397 0.01710268 0.015341929 0.011040507 -0.024725048
0.014754548 0.018587573 0.0092368955 -0.026021576 -0.03842732 -0.022449698 0.005428798 -0.0063711097
0.032986596 0.0060783313 -0.021397801 -0.0057278476 0.019911535 0.023793925 -0.02345198 -0.034962717
0.030900666 0.017951202 0.019563483 0.03199768 -0.014336371 0.003706913 0.026731387 -0.0015131909
-0.01650327 -0.006310935 -0.018917967 0.030898912 0.025055109 0.023020942 -0.021832863 -0.02589255
0.026566977 -0.02677192 0.010043064 0.032181002 -0.01963585 0.022484317 -0.007104045 0.0077208914
0.0170674 -0.0012973096 -0.035489023 0.022051401 0.021594858 -0.020367794 -0.024430469 0.018663794
0.007553067 -0.023324044 0.0155590465 0.03464909 -0.00636968 0.009845106 0.020431932 0.045041677
0.0061555523 0.030115355 0.018769253 0.020427689 -0.03053529 -0.025029885 0.014820559 -0.033551186
0.016646706 0.028004404 0.0037032855 -0.014507982 0.00019052619 -0.0026098087 0.021324512 0.010663778
-0.0020339615 0.012905117 0.01598541 0.016971376 0.026030187 0.027461309 -0.016813716 -0.020802138
0.022835886 -0.011820406 0.00909716 -0.034462236 0.0053600427 -0.030274581 -0.033565708 -0.0068820682
0.00809659 -0.02236866 0.028380021 0.0064313826 0.014838785 -0.026504153 -0.029596569 -0.037958726
-0.035443094 -0.026373403 -0.013196078 -0.031340018 0.027230846 0.016617574 -0.0076552723 -0.02360502
0.008815131 -0.026067354 0.021661526 -0.005787165 -0.019677203 0.012341917 -0.027624965 0.029461473
-0.03768672 -0.031645127 0.033921406 0.025018774 -0.0215912 -0.013030774 -0.010427596 0.036778662
0.021340286 0.021743566 -0.0064749974 0.011077432 0.039494116 0.044140372 0.04147072 0.043556746
0.023605894 0.052368354 0.04577563 0.034286167 0.043901794 -0.006186077 -0.00503545 0.017660962
0.029969508 0.02775699 0.008260939 0.010461438 -0.024935383 0.029994037 -0.030451028 0.00017321508
0.0007525712 0.008438961 -0.026418187 0.007398319 0.039925087 -0.010334419 -0.014496433 0.008388095
-0.020432124 0.013590719 0.028840272 -0.0045686546 -0.010514258 -0.016966984 -0.00946468 -0.021961663
-0.006891013 -0.0029977688 0.016595894 -0.0342932 -0.028026197 0.033270225 -0.000883051 -0.0012082425
0.0016692756 0.042386554 0.0041185403 0.045064043 -0.00057606684 0.023457935 -0.015815778 -0.016127681
0.04409217 -0.010582422 0.032982286 -0.010658813 0.039984714 0.029469926 0.004115388 -0.002634756
0.019989422 -0.01602496 -0.021114798 0.006241294 -0.0216767 0.02306091 -0.0147619 -0.03033645
-0.00901596 -0.012979666 -0.013303168 0.024597267 0.01758769 -0.024286814 0.03352788 -0.024329375
-0.01121456 -0.035974056 -0.015537658 0.015457477 -0.021860404 0.032083318 0.004037517 0.037703443
-0.0225727 0.005889179 -0.0019105219 0.005855547 0.033157848 0.011922727 -0.028991181 -0.014783333
0.014690065 -0.001753692 0.012967067 -0.018096436 0.034557965 0.0012294257 -0.010156888 0.003610714
00000000: 8c0d 2fbc c52a 673c c638 a0bc 86f4 a93b
00000010: 39c9 5b3c 0cf6 a0bc bd89 943a 2a53 323b
00000020: 885d efba 1f1f 633a ede8 53bc c064 983c
00000030: de60 96bc 961a fa3c 2374 0d3d a7aa eebc
00000040: 64cc 933c edcf 3cbc 7daf f7bc e0bb 8a3a
00000050: 30b6 41ba f19f 793c 773f 1dbc 4e9b 8f3c
00000060: 7ce4 debc 6ad5 e33b 4d4b babb 48eb 393d
00000070: eb1a 8c3c b75c 7b3c 3ee3 343c 2f8c cabc
00000080: 0fbd 713c f744 983c 5956 173c 332b d5bc
00000090: f765 1dbd 6ee8 b7bc 0fe4 b13b bec4 d0bb
000000a0: f41c 073d bd2c c73b 714a afbc abb0 bbbb
000000b0: 841d a33c 7aeb c23c 5e1e c0bc 1135 0fbd
000000c0: 6523 fd3c 660e 933c 9943 a03c 0010 033d
000000d0: 19e3 6abc aeef 723b c8fb da3c 4356 c6ba
000000e0: de31 87bc f6cb cebb daf9 9abc b71f fd3c
000000f0: 5f40 cd3c 6a96 bc3c d5da b2bc 9d1c d4bc
00000100: fda2 d93c c950 dbbc aa8b 243c 3ad0 033d
00000110: 5ddb a0bc 0831 b83c 0cc9 e8bb 88ff fc3b
00000120: efd0 8b3c 7d0a aaba f05c 11bd 24a5 b43c
00000130: b3e7 b03c 5cda a6bc 6822 c8bc d0e4 983c
00000140: b87f f73b 1112 bfbc 5feb 7e3c 34ec 0d3d
00000150: c0b8 d0bb 5e4d 213c de60 a73c 9f7d 383d
00000160: 84b4 c93b 7ab4 f63c fac1 993c f857 a73c
00000170: 2525 fabc 790b cdbc eed1 723c f86c 09bd
00000180: ac5e 883c 7e69 e53c d2b2 723b e3b2 6dbc
00000190: fcc7 4739 5309 2bbb beb0 ae3c 20b7 2e3c
000001a0: 364c 05bb fc6f 533c d6f3 823c 8e07 8b3c
000001b0: 423d d53c 8af6 e03c ebbc 89bc 3f69 aabc
000001c0: 5312 bb3c 60aa 41bc 410c 153c 4628 0dbd
000001d0: 4ca3 af3b 6602 f8bc 327c 09bd f982 e1bb
000001e0: 8fa7 043c 7b3e b7bc 387d e83c 59be d23b
000001f0: 601e 733c 3d1f d9bc 8174 f2bc 9c7a 1bbd
00000200: c72c 11bd 090d d8bc 5d34 58bc 645e 00bd
00000210: 3913 df3c 9421 883c 14d9 fabb 515f c1bc
00000220: 576d 103c 348b d5bc 8373 b13c 42a2 bdbb
00000230: 1632 a1bc c035 4a3c c04d e2bc 3059 f13c
00000240: 645d 1abd 529e 01bd 2cf1 0a3d 2cf4 cc3c
00000250: 07e0 b0bc 077f 55bc 82d8 2abc 39a5 163d
00000260: d3d1 ae3c 901f b23c 372c d4bb 1e7e 353c
00000270: 95c4 213d 89cc 343d 34dd 293d 8f68 323d
00000280: 2661 c13c 3380 563d 3a7f 3b3d a76f 0c3d
00000290: 5ed2 333d 93b4 cabb 6b00 a5bb b9ad 903c
000002a0: 9d82 f53c a162 e33c e458 073c 7466 2b3c
000002b0: 4a45 ccbc 0eb6 f53c 6f74 f9bc 12a1 3539
000002c0: 3348 453a 9143 0a3c f46a d8bc 996d f23b
000002d0: 7d88 233d b251 29bc 7282 6dbc 386e 093c
000002e0: 4561 a7bc 9bab 5e3c 6f42 ec3c a7b4 95bb
000002f0: ff43 2cbc 58fe 8abc bf11 1bbc f2e8 b3bc
00000300: 02ce e1bb 3776 44bb 1df4 873c 0777 0cbd
00000310: 3297 e5bc 5c46 083d 8d7c 67ba e45d 9eba
00000320: 98cb da3a 869d 2d3d d2f4 863b 1395 383d
00000330: 3103 17ba db2a c03c 1790 81bc 331e 84bc
00000340: fe99 343d e561 2dbc 6f18 073d 4da2 2ebc
00000350: 03c7 233d ea6a f13c 60da 863b dfab 2cbb
00000360: dbc0 a33c c746 83bc f1f8 acbc c583 cc3b
00000370: 5693 b1bc 3cea bc3c e5db 71bc 2684 f8bc
00000380: adb7 13bc aaa8 54bc 88f5 59bc 3580 c93c
00000390: 0f14 903c 24f5 c6bc 8854 093d 664e c7bc
000003a0: 46bd 37bc 8859 13bd a991 7ebc 5c41 7d3c
000003b0: 9714 b3bc cc69 033d 264d 843b ed6e 1a3d
000003c0: 62ea b8bc 04fa c03b 7a6a faba e3df bf3b
000003d0: 86d0 073d 8b57 433c ea7e edbc cb35 72bc
000003e0: 99ae 703c 24dc e5ba d273 543c fa3e 94bc
000003f0: a78c 0d3d ae24 a13a 1369 26bc bba1 6c3b

bias f4 [64]
-0.043383844 -0.037678372 0.012031911 -0.00925616 -0.021229556 0.013627345 -0.0093565425 0.02682592
-0.0056305486 -0.005597162 -0.02861488 0.020534404 -0.0039288495 -0.030700179 -0.039868698 0.03617073
-0.026373027 0.021848086 -0.03805365 -0.027073702 0.026754526 -0.029397644 0.02692257 0.010430478
0.029130291 -0.012418542 0.029985972 0.011423784 -0.015133486 0.0269852 0.021235824 0.0030797198
-0.024992114 0.013089459 -0.020793615 -0.012985084 -0.009625727 -0.034453545 -0.04298418 0.036015548
0.02790995 -0.015907954 0.039426044 -0.0057771946 -0.020622354 0.012217843 0.03853356 -0.021503355
0.030617159 0.022403935 -0.028216261 -0.016491884 0.0069365497 -0.008955342 0.0054166364 0.029734572
0.035779893 -0.02050356 0.007246058 -0.017067686 -0.012237463 -0.008060002 -0.013912912 0.017383823
00000000: 42b3 31bd a354 1abd 7e21 453c 26a7 17bc
00000010: 9be9 adbc 3a45 5f3c 2f4c 19bc 08c2 db3c
00000020: 7780 b8bb 6668 b7bb c169 eabc c437 a83c
00000030: 94bd 80bb f17e fbbc 5c4d 23bd c227 143d
00000040: 3f0c d8bc c2fa b23c 25de 1bbd abc9 ddbc
00000050: 4f2c db3c 54d3 f0bc b98c dc3c 98e4 2a3c
00000060: a6a2 ee3c 2477 4bbc 24a5 f53c d32a 3b3c
00000070: 71f2 77bc 1110 dd3c c0f6 ad3c 20d5 493b
00000080: 43bc ccbc 2c75 563c 5f57 aabc 64bf 54bc
00000090: 3ab5 1dbc 291f 0dbd 2e10 30bd 0a85 133d
000000a0: 68a3 e43c 6651 82bc 347d 213d 9f4e bdbb
000000b0: 36f0 a8bc 592d 483c 5ed5 1d3d ce27 b0bc
000000c0: d6d0 fa3c 7588 b73c ca25 e7bc fd19 87bc
000000d0: ff4b e33b 6db9 12bc 0a7e b13b eb95 f33c
000000e0: f08d 123d 15f7 a7bc 5770 ed3b 88d1 8bbc
000000f0: a47f 48bc 190e 04bc fcf2 63bc 8568 8e3c

weight f4 [64, 1024]
-0.01781246 0.004012962 -0.016149953 -0.0037921653 -0.016170928 -0.0011870494 -0.020636186 -0.026231421
-0.01343268 0.0018331218 -0.033479534 0.027021632 -0.030804161 0.0021878548 0.020088248 -0.006430391
0.006198309 -0.02115655 0.008576284 -0.020652147 -0.029633947 0.007279116 0.013479555 0.016745966
0.0077947085 -0.03005309 -0.00849541 0.0134814065 -0.022525104 0.013555017 0.012933638 0.012309275
-0.011340466 0.026078386 -0.022367962 0.012942693 0.012944616 -0.018357286 0.027273435 0.0075128498
-0.010374929 -0.012259752 -0.0093479045 -0.012752169 -0.020362578 -0.030245865 0.018927032 0.024464756
0.015259479 -0.018664058 0.024021398 -0.028085966 0.019917704 0.008343175 -0.0060424055 0.030829785
0.019447492 0.019280594 -0.029278567 -0.007559462 0.011835538 0.017766377 0.010596459 0.033082936
0.026053034 0.0036196928 -0.0069222124 0.023044769 -0.011168536 -0.021465011 -0.010010955 -0.0142661035
0.0001810224 -0.008151344 -0.004215006 0.013618491 0.012878128 -0.026617285 -0.026814863 -0.024512978
-0.0016073836 -0.003913653 0.008907458 0.017916081 -0.025850635 0.025708184 0.02872146 -0.013311118
0.02229609 -0.0026109116 -0.007444976 0.02071818 0.0029196127 0.022808079 -0.012802045 -0.012090096
-0.023784846 -2.445307e-05 -0.023148403 -0.014979681 -0.025737656 0.03426892 0.019931706 0.0029755442
-0.029531263 0.02428808 0.030261122 0.007734873 -0.02928212 -0.020908067 -0.022550365 0.026726581
-0.009293508 -0.014804631 -0.02234679 0.0007897486 0.018619128 0.031120077 -0.018428374 0.025326025
-0.011899415 -0.016845942 -0.024001956 -0.028038865 0.030639406 -0.02407599 0.0069729653 0.021353805
0.0050400174 0.028779706 -0.008771547 0.004740862 -0.0025096198 -0.005037614 0.027883787 -0.020209545
0.016953448 -0.029098561 0.012303563 -0.020730728 0.022908349 -0.018265054 0.011159937 0.0034280964
0.031304102 0.02212147 -0.008733441 -0.011677384 0.0036153912 -0.013958062 -0.0022005674 0.032385137
0.007216916 -0.0019346368 -0.009186865 -0.023236638 0.024209233 0.0021103472 -0.023902683 0.021564301
0.013605515 0.028178204 0.011380585 -0.0075682825 -0.013331313 -0.020660393 -0.0059132576 0.023145525
-0.010326787 0.014317817 0.023820298 0.004510031 -0.024810115 0.00030749323 -0.018083718 0.0116577195
-0.010815292 0.010730778 -0.020999776 0.016869036 0.029330159 0.011338457 0.027471013 0.022953155
-0.021008126 0.029691894 0.037832245 0.021896793 -0.024056865 0.009296533 0.024379414 0.0060702404
-0.017062424 0.027894324 0.030703533 -0.0051719495 -0.026375528 -0.016032292 -0.01708544 -0.017395644
-0.019838206 -0.0014783898 -0.0149645675 -0.030071922 0.006884297 0.002287655 -0.024064112 -0.0053610676
0.014303038 -0.024478676 0.00022300628 -0.0041439426 -0.023263277 0.017220583 -0.014743286 0.023808908
-0.021582706 0.010597123 0.00535495 -0.007989525 0.0014920373 -0.013438653 -0.0015665414 0.029115114
-0.020388905 -0.013746937 -0.02545671 -0.02119807 0.023837652 0.021821233 -0.017982494 -0.02506668
0.02631995 -0.015283924 0.02588366 -0.00089114846 0.017082559 -0.009589396 0.011311156 0.02388006
-0.019670086 0.022911284 0.02924471 0.011114927 0.008096159 -0.019640485 -0.011441169 0.009227162
-0.0051928028 -0.02254871 -0.024457978 -0.0032297748 -0.0032084375 0.025302662 0.011556249 -0.0188662
00000000: 70eb 91bc 2a7f 833b e84c 84bc fa85 78bb
00000010: e578 84bc c596 9bba 380d a9bc 47e3 d6bc
00000020: be14 5cbc 5c45 f03a d621 09bd 785c dd3c
00000030: 0259 fcbc 1d62 0f3b 1c90 a43c 08b6 d2bb
00000040: 2f1b cb3b 8050 adbc 8b83 0c3c b12e a9bc
00000050: e4c2 f2bc a785 ee3b 5ad9 5c3c d62e 893c
00000060: c16a ff3b e631 f6bc 5530 0bbc 1ee1 5c3c
00000070: 9186 b8bc dd15 5e3c 9ce7 533c d7ac 493c
00000080: 5dcd 39bc 57a2 d53c 043d b7bc 970d 543c
00000090: a815 543c 0562 96bc 8a6c df3c 5a2e f63b
000000a0: 9bfb 29bc 20dd 48bc f427 19bc 79ee 50bc
000000b0: 6ccf a6bc 2dc6 f7bc dd0c 9b3c 506a c83c
000000c0: e502 7a3c 5ee5 98bc 86c8 c43c 8a14 e6bc
000000d0: 742a a33c d0b1 083c 5fff c5bb bf8e fc3c
000000e0: 5950 9f3c 56f2 9d3c 9bd9 efbc 5db5 f7bb
000000f0: d8e9 413c cb8a 913c c59c 2d3c f981 073d
00000100: 2c6d d53c 5e38 6d3b bad3 e2bb 62c8 bc3c
00000110: 3cfc 36bc 64d7 afbc fd04 24bc 60bc 69bc
00000120: d5d0 3d39 378d 05bc 081e 8abb 1720 5f3c
00000130: c9fe 523c 7e0c dabc d8aa dbbc 71cf c8bc
00000140: d8ae d2ba 1a3e 80bb 96f0 113c bfc4 923c
00000150: b6c4 d3bc f899 d23c 4449 eb3c e016 5abc
00000160: 4aa6 b63c d41b 2bbb fcf4 f3bb 2cb9 a93c
00000170: f956 3f3b 02d8 ba3c abbf 51bc 8a15 46bc
00000180: 70d8 c2bc 9120 cdb7 b8a1 bdbc 566d 75bc
00000190: c7d7 d2bc 915d 0c3d d147 a33c 5901 433b
000001a0: 8ceb f1bc ccf7 c63c 2ce6 f73c d174 fd3b
000001b0: 0ee1 efbc 6547 abbc 8bbb b8bc b4f1 da3c
000001c0: cc43 18bc 1f8f 72bc 9e10 b7bc 2207 4f3a
000001d0: 2487 983c 88ef fe3c 1af7 96bc 8678 cf3c
000001e0: c4f5 42bc 8000 8abc c09f c4bc c3b1 e5bc
000001f0: 7eff fa3c 033b c5bc 797d e43b 2dee ae3c
00000200: bb26 a53b 6bc3 eb3c 89b6 0fbc 3c59 9b3b
00000210: 6f78 24bb 9212 a5bb 8a6c e43c 7d8e a5bc
00000220: f5e1 8a3c 1b60 eebc e294 493c 7dd3 a9bc
00000230: 4aaa bb3c 98a0 95bc 2bd8 363c eaa9 603b
00000240: bb38 003d 1638 b53c b516 0fbc 8052 3fbc
00000250: 33f0 6c3b 5bb0 64bc 6537 10bb 47a6 043d
00000260: e17b ec3b a493 fdba 8184 16bc c35a bebc
00000270: 7152 c63c c04d 0a3b 8fcf c3bc 9ea7 b03c
00000280: aae9 5e3c fad5 e63c a275 3a3c 5bff f7bb
00000290: 946b 5abc fc3f a9bc 00c4 c1bb af9b bd3c
000002a0: af31 29bc 4795 6a3c c922 c33c e2c8 933b
000002b0: 953e cbbc 0b37 a139 4e24 94bc 0500 3f3c
000002c0: 9f32 31bc 25d0 2f3c b907 acbc ef30 8a3c
000002d0: cd45 f03c f0c4 393c e40a e13c 4108 bc3c
000002e0: 3c19 acbc 6a3c f33c fcf5 1a3d e760 b33c
000002f0: e712 c5bc 7c50 183c 56b7 c73c dee8 c63b
00000300: 7fc6 8bbc a382 e43c fa85 fb3c 7579 a9bb
00000310: 7e11 d8bc 2756 83bc c4f6 8bbc 4f81 8ebc
00000320: bc83 a2bc 88c6 c1ba f22d 75bc 6459 f6bc
00000330: ab95 e13b 7bec 153b 1a22 c5bc e5ab afbb
00000340: 4a57 6a3c 8187 c8bc cbd6 6939 e9c9 87bb
00000350: a192 bebc 2e12 8d3c d38d 71bc e60a c33c
00000360: 37ce b0bc 8e9f 2d3c 9478 af3b 7fe6 02bc
00000370: 7790 c33a cc2d 5cbc 6854 cdba d282 ee3c
00000380: a206 a7bc d53a 61bc 978a d0bc 93a7 adbc
00000390: 2e47 c33c 71c2 b23c 0650 93bc a358 cdbc
000003a0: f09c d73c 6c69 7abc f809 d43c f69b 69ba
000003b0: b9f0 8b3c d81c 1dbc 6d52 393c 1ea0 c33c
000003c0: 2923 a1bc 72b0 bb3c 9a92 ef3c 621b 363c
000003d0: c1a5 043c 15e5 a0bc be73 3bbc 862d 173c
000003e0: 6328 aabb 13b8 b8bc 195c c8bc a1aa 53bb
000003f0: a644 52bb 8747 cf3c 6c56 3d3c 4a8d 9abc

bias f4 [64]
-0.025246793 -0.012552036 0.020633373 -0.0075230114 0.014589381 0.03854918 -0.036704313 -0.0149659645
0.007799239 0.018587716 -0.010039692 0.0026024964 0.034746066 -0.031158198 0.0049352846 0.008709921
0.0056603737 0.00058072957 0.016954642 -0.037844777 -0.022149725 0.021615071 0.018693438 0.0072579165
0.007312485 -0.009289661 0.00844586 0.003296313 -0.009948974 -0.016272794 -0.00139685 0.01589863
0.03774488 -0.01702652 -0.007684604 -0.03542643 -0.0025569224 -0.039515495 0.027009418 0.02554741
0.014901221 -0.020251239 -0.02553443 0.018259704 0.00074355793 0.02562055 0.026661951 -0.031408045
0.0045148977 0.02519745 -0.034882747 0.028886197 0.0028469318 -0.026407128 -0.013713992 -0.013851439
-4.3334836e-05 -0.01925665 -0.0046701715 -0.031496376 0.03609762 -0.022087013 -0.030354356 0.0064017777
00000000: 5dd2 cebc 0ea7 4dbc 5207 a93c 9883 f6bb
00000010: 4d08 6f3c bfe5 1d3d 4357 16bd ce33 75bc
00000020: c290 ff3b 4445 983c 857d 24bc a58e 2a3b
00000030: e451 0e3d 7a3f ffbc 2bb8 a13b 0eb4 0e3c
00000040: a87a b93b 1a3c 183a 76e4 8a3c 2003 1bbd
00000050: 5773 b5bc 1712 b13c fb22 993c d1d3 ed3b
00000060: 929d ef3b aa33 18bc 8160 0a3c f506 583b
00000070: 0501 23bc 864e 85bc 8216 b7ba d83d 823c
00000080: 609a 1a3d 337b 8bbc 21cf fbbb 4e1b 11bd
00000090: 0a92 27bb 00db 21bd db42 dd3c cd48 d13c
000000a0: 4024 743c ede5 a5bc 952d d1bc 6095 953c
000000b0: 54eb 423a 30e2 d13c 2a6a da3c b9a5 00bd
000000c0: b5f1 933b e26a ce3c 36e1 0ebd bfa2 ec3c
000000d0: 9793 3a3b c353 d8bc a7b0 60bc 25f1 62bc
000000e0: 6dc2 35b8 1fc0 9dbc 3d08 99bb 5802 01bd
000000f0: 19db 133d d3ef b4bc b3a9 f8bc 01c6 d13b

weight f4 [10, 64]
0.017910073 -0.13035968 0.11411875 -0.060142882 -0.052088063 -0.06220349 -0.06335309 0.047151536
0.021220474 0.12558517 0.0059840693 -0.14684616 0.034898806 0.04850253 -0.03861007 0.07621217
-0.0742281 0.054028504 0.11966788 0.10651634 0.014512271 -0.047810435 0.12479936 0.059966687
-0.0054596555 -0.0579719 -0.059283797 -0.01330074 0.028984794 0.02173957 -0.028962014 0.08592953
-0.008186252 0.093367405 0.05530487 0.10527156 0.15085804 -0.045188844 0.073214 -0.13818562
-0.0351382 -0.057277717 0.087524146 0.022359133 -0.15674475 -0.052280962 0.04441755 -0.09859838
-0.053423688 -0.06611169 0.018997652 0.08555554 -0.09598604 0.013440108 0.0122413 -0.06534134
-0.0685676 -0.14459014 -0.13877365 0.11254415 -0.11920214 0.111648284 0.09694042 0.13862573
-0.06440217 0.095947035 -0.091251895 -0.13362628 -0.07114878 0.091128595 -0.06389162 -0.15147857
-0.07015494 -0.029099781 0.12414857 0.10921384 -0.031312358 0.015602863 -0.13163851 -0.06478846
-0.08726618 -0.066301055 0.07323286 -0.02784119 0.009513917 -0.09494007 -0.11392682 0.018375123
0.13492915 -0.036213655 0.028656581 -0.081551306 0.16985923 -0.080591135 0.10236581 0.079549804
0.022583177 0.046700764 0.1645525 -0.05870871 -0.080801666 0.052942585 0.12929325 -0.13308395
0.11300239 -0.035377115 -0.03289222 0.060753006 -0.12379199 -0.1398855 -0.088585846 0.071198225
0.014948805 0.09006995 -0.13987291 0.13352872 -0.124134876 -0.04555731 -0.13269913 0.049968574
0.07701137 0.053689618 0.011157843 -0.05180053 0.08337037 0.12441028 0.12640885 -0.108997196
0.097457215 0.045362145 0.10787352 0.028380323 -0.0847313 -0.081603974 -0.018160757 -0.100377426
-0.054998316 0.1413589 -0.1349497 0.06365158 0.1407918 -0.118656434 -0.092049584 0.06802353
0.03642142 -0.010922078 -0.14174816 -0.05096953 0.10100208 -0.087954134 0.038880836 -2.5222225e-05
-0.13540646 -0.08606453 0.13683042 0.0919617 -0.14966632 -0.10920845 -0.15009414 -0.092737794
0.029986475 0.06753898 -0.048118833 0.055748038 0.08288959 -0.14910303 0.115362875 0.025126906
-0.05591432 -0.12866534 -0.0072376695 0.04920892 0.039700314 0.11486959 -0.1396605 -0.14584574
-0.025954781 -0.08672234 0.017502915 0.122314334 0.07857243 0.0060584857 -0.107249446 0.059631236
-0.009621437 0.05035025 0.120663084 0.13582765 0.02548104 0.060970727 0.0021022747 0.1288512
0.06618288 0.08597415 -0.1207077 -0.10994526 -0.084304094 0.071269855 0.11874587 0.04820712
-0.13986005 0.035166617 0.08234234 0.0382082 -0.0008402756 -0.13234809 0.04946133 0.058164984
0.14796805 0.01776766 0.015720181 0.111915305 -0.04530315 0.086394444 0.08975386 -0.0020699694
-0.123139516 0.014298145 0.09729042 -0.092648044 -0.029562505 0.14343676 -0.103932165 0.103650086
-0.12940441 0.12618704 -0.08767901 -0.06404446 -0.085326016 -0.014133032 0.09286176 0.028783953
-0.022499688 0.11062462 0.11951177 0.013398949 0.15561377 0.03147133 -0.04091962 -0.09607463
0.078926116 -0.016770668 0.09073167 0.14849162 -0.078155786 -0.014510923 -0.004220285 -0.064711206
0.012024582 0.028783774 -0.026302174 -0.07979927 -0.0068789544 -0.113024615 -0.031368468 0.0911754
00000000: 25b8 923c 027d 05be 17b7 e93d 6258 76bd
00000010: 4b5a 55bd 16c9 7ebd 44bf 81bd f821 413d
00000020: 8fd6 ad3c 6699 003e 0316 c43b d75e 16be
00000030: 0df2 0e3d 97aa 463d 9825 1ebd 2015 9c3d
00000040: e704 98bd fe4c 5d3d 6f14 f53d 3d25 da3d
00000050: e0c4 6d3c e0d4 43bd cf96 ff3d a19f 753d
00000060: e9e6 b2bb f173 6dbd 91d3 72bd 59eb 59bc
00000070: 8571 ed3c 2f17 b23c bf41 edbc d2fb af3d
00000080: a11f 06bc 6937 bf3d 5c87 623d 9e98 d73d
00000090: 887a 1a3e f017 39bd 39f1 953d 8880 0dbe
000000a0: 13ed 0fbd 0a9c 6abd dc3f b33d 802a b73c
000000b0: b281 20be 9024 56bd 2def 353d f3ed c9bd
000000c0: ccd2 5abd 9165 87bd f7a0 9b3c be37 af3d
000000d0: 5494 c4bd e633 5c3c bc8f 483c aed1 85bd
000000e0: 2b6d 8cbd 700f 14be ae1a 0ebe 8c7d e63d
000000f0: 4020 f4bd dba7 e43d b388 c63d e7f3 0d3e
00000100: 49e5 83bd e17f c43d 46e2 babd 54d5 08be
00000110: 74b6 91bd a1a1 ba3d 9cd9 82bd 331d 1bbe
00000120: 65ad 8fbd aa62 eebc 9b41 fe3d 81ab df3d
00000130: 6341 00bd 27a3 7f3c 3fcc 06be d0af 84bd
00000140: 9cb8 b2bd d9c8 87bd 1cfb 953d 3513 e4bc
00000150: 43e0 1b3c f06f c2bd 7752 e9bd 6d87 963c
00000160: de2a 0a3e c554 14bd 35c1 ea3c 5f04 a7bd
00000170: 94ef 2d3e f70c a5bd 2aa5 d13d 02eb a23d
00000180: 5b00 b93c 4d49 3f3d 7380 283e 8b78 70bd
00000190: 587b a5bd 53da 583d 7365 043e 2947 08be
000001a0: cc6d e73d 98e7 10bd feb9 06bd 25d8 783d
000001b0: a886 fdbd 253e 0fbe 7f6c b5bd 60d0 913d
000001c0: d5eb 743c 9876 b83d d83a 0fbe c1bb 083e
000001d0: 6d3a febd 4d9a 3abd 48e2 07be d9ab 4c3d
000001e0: 23b8 9d3d a5e9 5b3d 63cf 363c cb2c 54bd
000001f0: 16be aa3d d1ca fe3d 5271 013e ec39 dfbd
00000200: a697 c73d a8cd 393d cbec dc3d da7d e83c
00000210: 9b87 adbd fc1f a7bd dec5 94bc ae92 cdbd
00000220: ea45 61bd 63c0 103e 4130 0abe c25b 823d
00000230: ba2b 103e 2502 f3bd 7e84 bcbd ec4f 8b3d
00000240: a02e 153d 84f2 32bc 6e26 11be 6dc5 50bd
00000250: 2eda ce3d 4c21 b4bd 8341 1f3d 5194 d3b7
00000260: fea7 0abe 9a42 b0bd 461d 0c3e 6a56 bc3d
00000270: 2142 19be aea8 dfbd 47b2 19be 50ed bdbd
00000280: 32a6 f53c e051 8a3d 4118 45bd 0e58 643d
00000290: 04c2 a93d 77ae 18be 5f43 ec3d f1d6 cd3c
000002a0: 6a06 65bd d9c0 03be f929 edbb 4b8f 493d
000002b0: cc9c 223d bf40 eb3d 2a03 0fbe 9658 15be
000002c0: 1f9f d4bc 7b9b b1bd 4662 8f3c f07f fa3d
000002d0: 95ea a03d 4386 c63b 99a5 dbbd e23f 743d
000002e0: 3ba3 1dbc 103c 4e3d 351e f73d 6716 0b3e
000002f0: 9dbd d03c 71bc 793d 51c6 093b 92f1 033e
00000300: e48a 873d 3713 b03d 9935 f7bd fb2a e1bd
00000310: a0a7 acbd eef5 913d 0931 f33d d474 453d
00000320: 7937 0fbe df0a 103d 1aa3 a83d 3480 1c3d
00000330: f145 5cba 4286 07be f797 4a3d 683e 6e3d
00000340: f084 173e 7c8d 913c 9cc7 803c da33 e53d
00000350: cc8f 39bd 92ef b03d dfd0 b73d 53a8 07bb
00000360: 9230 fcbd c442 6a3c 3340 c73d 42be bdbd
00000370: 112d f2bc 16e1 123e 63da d4bd 7f46 d43d
00000380: 9782 04be 2d37 013e 0e91 b3bd be29 83bd
00000390: 68bf aebd 3c8e 67bc 4e2e be3d 53cc eb3c
000003a0: 4451 b8bc 298f e23d 96c2 f43d 4487 5b3c
000003b0: 3759 1f3e 15e8 003d 559b 27bd c7c2 c4bd
000003c0: 04a4 a13d a462 89bc 87d1 b93d 300e 183e
000003d0: 2410 a0bd 39bf 6dbc 514a 8abb 4f87 84bd
000003e0: c102 453c f3cb eb3c a877 d7bc cd6d a3bd
000003f0: da68 e1bb 7379 e7bd 397c 00bd 2bba ba3d

bias f4 [10]
-0.09680759 -0.086038105 -0.017565686 0.06657932 0.009560361 0.011248453 -0.06451062 -0.10130906
0.008138267 -0.10103985
00000000: 0f43 c6bd bf34 b0bd eae5 8fbc bd5a 883d
00000010: 0fa3 1c3c 6e4b 383c 251e 84bd 207b cfbd
00000020: 5e56 053c fbed cebd
