PytorchLearning/learn1/vggmodel/vgg_19.pth (torch, 587335 bytes, 10 tensors)

weight f4 [32, 3, 5, 5]
0.100873515 -0.1162157 -0.06963228 -0.045631636 -0.096530974 -0.011647592 0.021112708 -0.027801225
-0.072049946 0.088202216 0.11794115 0.0023288121 -0.0045941267 0.0715438 -0.042650703 -0.087579235
0.08370257 -0.082824826 0.12133715 0.10967713 -0.056272734 0.064490415 0.06220926 0.12339052
-0.047030512 -0.058077287 -0.046719372 0.08778392 0.026700044 -0.117186256 0.056612663 -0.013803489
-0.100673504 -0.07850662 0.08005887 -0.02082215 -0.08280162 0.05199637 -0.077007204 0.08026509
0.046136778 0.099592686 0.08632827 0.09350879 -0.026601091 -0.023095235 0.06204439 0.117499895
-0.059819244 -0.0316869 -0.010789418 0.018705858 -0.08848221 -0.0473022 -0.046660867 0.015999828
0.09778534 -0.0051819934 0.1034686 0.060911275 -0.026616434 0.07809137 -0.059405886 -0.10068172
0.03325168 0.1253814 0.09151102 -0.020310497 0.018089162 0.12602578 0.0072265477 0.1273183
0.04397313 0.039637495 0.050734784 -0.045953725 0.11810502 0.040301017 -0.028226368 0.05040227
0.06614717 -0.056257058 -0.063440815 0.07616837 -0.0907071 0.01681321 -0.0043114475 -0.08228116
-0.086499155 -0.004859868 0.028107563 0.12394085 0.05137344 -0.10953956 -0.004227844 -0.017662458
0.08051633 -0.0918946 0.06744199 -0.063598394 -0.040929243 -0.07692243 0.062132303 -0.12932962
0.008021841 -0.072585635 -0.008319497 0.07298558 -0.1411532 -0.089730196 0.04677233 -0.04422943
-0.094541565 -0.03200191 -0.103528954 0.083926044 0.11267289 -0.021264305 -0.0012059831 0.022260992
-0.10599815 0.083763964 0.06611589 -0.08430222 0.03454636 -0.13637005 -0.11763153 -0.10687799
0.023282625 0.02129343 -0.1071584 -0.026646493 0.057221625 -0.109697804 -0.12733828 0.09462455
0.025935471 -0.05201609 0.06682613 -0.12014892 -0.001666953 0.09155745 -0.0064776544 -0.076624505
-0.024084978 -0.060221493 0.0040993714 0.09328425 -0.025290545 0.08289199 -0.06411031 -0.11192583
0.075499184 -0.051771004 -0.015917124 -0.11266732 -0.13081402 -0.10024822 -0.11909085 -0.09171706
-0.069985874 0.088355996 -0.00953668 -0.0015804844 0.028196527 0.037038814 0.0073478087 0.030737085
-0.07174569 -0.09111938 0.09745068 0.030516304 -0.040004477 0.093027845 0.101142555 -0.04723543
0.0120935235 0.09200785 -0.055905797 0.010803122 0.05057637 0.08805642 0.06531512 -0.0526344
-0.049340814 -0.120100245 -0.07080463 -0.10531286 0.053657275 0.007914432 0.07343028 -0.08600704
0.055767726 -0.055829804 0.100118384 -0.05043444 0.07845339 -0.03301558 0.081116855 0.09761729
0.09708758 -0.04071344 -0.013865868 0.006914117 0.11856711 0.10173661 -0.050053168 0.09420704
-0.084155545 0.016916346 0.0039679953 0.05906882 -0.060280554 0.039388664 0.045894228 0.09674453
0.1172752 0.08479017 0.083279036 0.021885933 0.037456114 0.1157728 0.035105035 0.09557578
-0.007513824 -0.095284365 0.079640724 0.021011233 -0.109401286 0.040717382 -0.07894579 -0.030256024
-0.044215165 0.026522124 -0.08428637 -0.080743745 0.022703737 -0.06359138 -0.030128105 -0.10882565
-0.07624093 0.047768418 0.09924867 0.08745281 0.115856074 -0.026604136 0.052006725 0.09141877
0.04190576 0.07535044 0.050586008 0.0326144 -0.09084193 0.10625531 0.104202695 0.112367705
00000000: c696 ce3d 7f02 eebd 5e9b 8ebd 3de8 3abd
00000010: 08b2 c5bd 8bd5 3ebc 8ff4 ac3c 65bf e3bc
00000020: ec8e 93bd 5da3 b43d 218b f13d fc9e 183b
00000030: 548a 96bb 8e85 923d 81b2 2ebd be5c b3bd
00000040: 416c ab3d 10a0 a9bd 9d7f f83d 679e e03d
00000050: 3d7e 66bd 8d13 843d 23cf 7e3d 2bb4 fc3d
00000060: 11a3 40bd 73e2 6dbd d05c 3fbd 0ec8 b33d
00000070: 0dba da3c 59ff efbd aee2 673d 0728 62bc
00000080: e92d cebd 14c8 a0bd e8f5 a33d 3793 aabc
00000090: e593 a9bd 25fa 543d f4b5 9dbd 0662 a43d
000000a0: ebf9 3c3d 40f7 cb3d e0cc b03d 8981 bf3d
000000b0: 88ea d9bc 3832 bdbc 4222 7e3d c9a3 f03d
000000c0: 0605 75bd 1fca 01bd 19c6 30bc 073d 993c
000000d0: 2936 b5bd f4bf 41bd 771f 3fbd 1212 833c
000000e0: ae43 c83d b6cd a9bb 58e7 d33d 1a7e 793d
000000f0: b50a dabc 5eee 9f3d 9653 73bd 3832 cebd
00000100: ea32 083d fb63 003e 216a bb3d 3362 a6bc
00000110: b92f 943c e70c 013e adcc ec3b ba5f 023e
00000120: 2b1d 343d ed5a 223d 47cf 4f3d f939 3cbd
00000130: 0be1 f13d ae12 253d fc3a e7bc 9c72 4e3d
00000140: 2b78 873d cd6d 66bd 42ed 81bd 2afe 9b3d
00000150: a5c4 b9bd dbbb 893c 0b47 8dbb 0683 a8bd
00000160: 7826 b1bd 873f 9fbb d541 e63c b3d4 fd3d
00000170: f56c 523d 4756 e0bd ba89 8abb dcb0 90bc
00000180: bfe5 a43d 3c33 bcbd 071f 8a3d e03f 82bd
00000190: 6ca5 27bd 8289 9dbd 717e 7e3d fc6e 04be
000001a0: 0a6e 033c c7a7 94bd 804e 08bc 7779 953d
000001b0: 778a 10be 77c4 b7bd 5894 3f3d eb29 35bd
000001c0: 029f c1bd 6f14 03bd fd06 d4bd 6be1 ab3d
000001d0: 0bc1 e63d 7b32 aebc 1412 9eba af5c b63c
000001e0: 8f15 d9bd 718c ab3d c567 873d a4a6 acbd
000001f0: 7c80 0d3d 97a4 0bbe cde8 f0bd d9e2 dabd
00000200: 34bb be3c 8f6f ae3c dd75 dbbd bf49 dabc
00000210: 3961 6a3d 3ea9 e0bd f764 02be 84ca c13d
00000220: a076 d43c d30e 55bd 23dc 883d a310 f6bd
00000230: a97d daba 7982 bb3d 8142 d4bb 4fed 9cbd
00000240: dc4d c5bc d0aa 76bd 0554 863b d00b bf3d
00000250: 1e2e cfbc 47c3 a93d 444c 83bd 5f39 e5bd
00000260: 519f 9a3d d50d 54bd a164 82bc 20be e6bd
00000270: 1cf4 05be f04e cdbd e7e5 f3bd 27d6 bbbd
00000280: c154 8fbd fdf3 b43d bc3f 1cbc 4228 cfba
00000290: 67fc e63c 03b6 173d e3c5 f03b 57cc fb3c
000002a0: 68ef 92bd cc9c babd 3994 c73d 54fd f93c
000002b0: bcdb 23bd 6285 be3d d423 cf3d f079 41bd
000002c0: ea23 463c 9d6e bc3d 7afd 64bd 94ff 303c
000002d0: 2b29 4f3d ed56 b43d efc3 853d 2b97 57bd
000002e0: 9819 4abd 1ef7 f5bd 0502 91bd 45ae d7bd
000002f0: bbc7 5b3d 89ab 013c 9d62 963d 7624 b0bd
00000300: b36c 643d cbad 64bd de0a cd3d 5894 4ebd
00000310: 2cac a03d 583b 07bd 9820 a63d 93eb c73d
00000320: dad5 c63d 23c3 26bd aa2d 63bc d18f e23b
00000330: 50d3 f23d 495b d03d 8d04 4dbd 9fef c03d
00000340: be59 acbd 2694 8a3c f505 823b 26f2 713d
00000350: bee8 76bd 0256 213d 96fb 3b3d ff21 c63d
00000360: fb2d f03d 78a6 ad3d 338e aa3d 214a b33c
00000370: 956b 193d 4a1a ed3d 4cca 0f3d 3cbd c33d
00000380: 8636 f6bb 7324 c3bd ad1a a33d c01f ac3c
00000390: c80d e0bd 45c7 263d 55ae a1bd 7bdb f7bc
000003a0: f61a 35bd ed44 d93c 559e acbd fa5c a5bd
000003b0: 30fd b93c 333c 82bd 37cf f6bc fbdf debd
000003c0: 3424 9cbd d1a8 433d e342 cb3d 751a b33d
000003d0: f345 ed3d ebf0 d9bc 0105 553d c439 bb3d
000003e0: 60a5 2b3d 5551 9a3d 4633 4f3d ad96 053d
000003f0: 550b babd 629c d93d 3968 d53d 0a21 e63d

bias f4 [32]
0.043714784 0.0061791264 -0.0134038655 -0.025998421 0.06710875 0.059536353 -0.07021302 0.051624134
-0.113387056 0.06938575 0.07891404 -0.08351457 -0.078715526 -0.02236604 0.071324736 0.017421931
0.020368313 -0.063252136 0.0050406773 0.1080421 0.0606563 -0.022355326 0.058805995 0.09364014
-0.062186852 -0.08459469 0.03027406 -0.15565278 -0.090074606 -0.027615879 -0.16850303 0.06995241
00000000: 460e 333d 457a ca3b e39b 5bbc a4fa d4bc
00000010: 5070 893d 64dc 733d d8cb 8fbd d473 533d
00000020: 7937 e8bd 1e1a 8e3d af9d a13d b009 abbd
00000030: 9b35 a1bd fc38 b7bc b412 923d 70b8 8e3c
00000040: 73db a63c 568a 81bd 442c a53b 2d45 dd3d
00000050: be72 783d 8422 b7bc 8ede 703d 67c6 bf3d
00000060: a4b7 7ebd fb3f adbd 4e01 f83c 7163 1fbe
00000070: 0979 b8bd b23a e2bc 0f8c 2cbe 3643 8f3d

weight f4 [32, 32, 5, 5]
-0.021176396 -0.03430745 0.0029615727 0.032094102 -0.028809661 -0.03659963 -0.0065580676 0.015660997
-0.020348579 0.01973752 -0.020910269 0.018503275 -0.040195648 0.0085517205 -0.03182896 -0.019145852
-0.02864972 -0.0040861196 0.013835665 -0.007339923 0.022579907 0.006652402 -0.033384714 -0.014770276
-0.0018693927 -0.03308985 -0.028200157 -0.0011841469 -0.032377012 0.026651926 0.00015689344 -0.021166058
-0.03415118 0.020162344 0.01471854 0.006355312 -0.01125109 -0.035585858 0.012574784 0.0074415673
-0.030772325 -0.0022083812 -0.005890506 -0.0141180875 0.01802703 -0.028732724 0.017754529 -0.0015784441
-0.014284977 -0.021417478 -0.0050571593 -0.03426466 0.022931812 -0.010277345 0.03323026 -0.032248262
0.008309556 0.03094107 -0.023572244 0.030031884 -0.0056387153 0.0274414 0.028467517 0.02815398
0.032149162 0.0017598615 0.017519811 -0.031617567 -0.0033444625 -0.029224474 0.030866988 0.0032942984
-0.0011278356 -0.00675529 0.032265693 -0.035312142 -0.020252874 -0.0034912461 -0.035213314 0.028715525
0.008764376 -0.014664377 -0.0021763076 -0.031318076 0.022898952 -0.0031768326 -0.03533985 0.021933937
-0.023954801 -0.017823387 0.0024706505 -0.014717087 -0.0070140166 0.010336136 -0.00980826 -0.03402324
-0.03206511 -0.027057152 -0.009565559 -0.028484048 -0.020006219 -0.03260804 -0.0013206899 -0.015806979
-0.002847474 0.0073850825 -0.010335987 0.013762286 0.007242749 -0.033078212 -0.022850657 -0.032586507
-0.04231107 0.0026050205 0.0072221328 0.010167447 0.0035718605 -0.038534682 0.017409284 0.0120345075
0.006387577 0.012097293 0.0010388823 0.018578077 0.000365427 -0.020017985 -0.03433552 -0.0017888299
0.009944246 0.0038532459 -0.033121087 0.01960313 -0.00887975 0.01685214 0.013137773 -0.036725875
0.003351245 -0.037266552 -0.03151902 -0.0029135302 -0.035377987 -0.033950005 -0.014485119 0.022181487
0.012194722 0.012691572 0.015310239 -0.01634399 0.0014077553 0.02949146 -0.0015858152 0.010097807
-0.010003664 -0.007352088 0.00982044 0.03179937 0.005077605 -0.0051584663 -0.025362596 -0.003971766
0.030278543 0.020030104 0.012036623 0.014877967 -0.029268172 0.028780246 0.02950841 -0.025325622
0.0072829905 -0.024606936 0.006580419 0.019680036 0.003012882 -0.021042114 0.0092240935 0.023912568
0.01503813 -0.013873663 -0.021122431 0.028066244 0.02050755 -0.014063989 -0.0024984688 0.00076988345
0.024775425 0.017918041 -0.037309375 -0.014002032 0.02564063 -0.0032025669 -0.025288973 -0.037289627
-0.0061970633 0.03078971 -0.024400184 0.0041136327 -0.029043756 0.011843889 0.015925532 -0.020718254
0.02063897 -0.0182519 0.030206425 0.011512515 0.005766373 0.03262635 0.0054691397 0.0019684392
-0.0087987725 0.008030195 0.013307567 0.034760915 0.0049501704 -0.008558342 0.017016519 0.002609899
0.036786698 0.026848875 0.0068453755 0.00013967503 -0.018320467 0.038091008 0.02639909 0.03962116
0.013822997 -0.0073138922 -0.030185284 0.002437152 -0.029781962 0.020972753 -0.045861743 -0.03074349
-0.019306876 0.015910152 0.023372212 -0.017671684 0.0028304586 -0.041941613 -0.029570786 -0.0387798
0.009318538 -0.029202094 -0.007915378 -0.007826545 -0.01850864 0.015806934 -0.043462962 -0.03962251
-0.018452462 -0.022067422 -0.040403005 -0.033515073 -0.028744616 0.013097927 0.014440733 0.008345625
00000000: 1f7a adbc f885 0cbd f216 423b 1b75 033d
00000010: 3d02 ecbc 7ee9 15bd 0fe5 d6bb 7e4b 803c
00000020: 10b2 a6bc 94b0 a13c 034c abbc 2e94 973c
00000030: 31a4 24bd 841c 0c3c 155f 02bd c3d7 9cbc
00000040: d1b2 eabc dbe4 85bb fcae 623c bd83 f0bb
00000050: 7ff9 b83c 65fc d93b 69be 08bd 07ff 71bc
00000060: 6906 f5ba 3989 07bd 0404 e7bc 6035 9bba
00000070: c29d 04bd 2455 da3c c383 2439 7164 adbc
00000080: 1ce2 0bbd 802b a53c 0826 713c 3940 d03b
00000090: 7e56 38bc 7ac2 11bd 7806 4e3c 64d8 f33b
000000a0: 3e16 fcbc 7dba 10bb 2505 c1bb 8d4f 67bc
000000b0: 6cad 933c e460 ebbc f271 913c cce3 ceba
000000c0: 890b 6abc b573 afbc 87b6 a5bb 1a59 0cbd
000000d0: 7fdb bb3c 4f62 28bc 741c 083d c116 04bd
000000e0: ce24 083c 2078 fd3c 941a c1bc 6d05 f63c
000000f0: f9c4 b8bb c9cc e03c b634 e93c 2da3 e63c
00000100: d7ae 033d 27ab e63a b585 8f3c 6c81 01bd
00000110: c52e 5bbb 2a68 efbc c4dc fc3c 28e5 573b
00000120: e2d3 93ba 7b5b ddbb 0829 043d 77a3 10bd
00000130: 5be9 a5bc 64cd 64bb d63b 10bd d23c eb3c
00000140: 7598 0f3c db42 70bc 62a0 0ebb 6247 00bd
00000150: 9596 bb3c 6832 50bb 85c0 10bd cdae b33c
00000160: dc3c c4bc 5a02 92bc a3ea 213b f01f 71bc
00000170: d6d5 e5bb e658 293c d3b2 20bc f45b 0bbd
00000180: b456 03bd f6a6 ddbc ddb8 1cbc 6157 e9bc
00000190: 15e4 a3bc 0290 05bd 001b adba a37d 81bc
000001a0: b09c 3abb 90fe f13b 4658 29bc 367b 613c
000001b0: 9554 ed3b 057d 07bd 4d31 bbbc 6e79 05bd
000001c0: 5f4e 2dbd feb8 2a3b a4a7 ec3b 5d95 263c
000001d0: e015 6a3b 8bd6 1dbd ea9d 8e3c 622c 453c
000001e0: e14e d13b b933 463c 1b2b 883a 0d31 983c
000001f0: c896 bf39 c2fc a3bc 67a3 0cbd 2c77 eaba
00000200: 31ed 223c bd86 7c3b faa9 07bd be96 a03c
00000210: 5f7c 11bc 800d 8a3c d03f 573c df6d 16bd
00000220: 90a0 5b3b d0a4 18bd 171a 01bd edf0 3ebb
00000230: 82e8 10bd 290f 0bbd fe52 6dbc f3b5 b53c
00000240: 5fcc 473c 50f0 4f3c ccd7 7a3c d5e3 85bc
00000250: 6e84 b83a 1398 f13c 21db cfba 4671 253c
00000260: 68e6 23bc c9e9 f0bb e9e5 203c 0e40 023d
00000270: 0a62 a63b 5a08 a9bb 38c5 cfbc 9725 82bb
00000280: b50a f83c 2c16 a43c 4235 453c b7c2 733c
00000290: cec3 efbc 8dc4 eb3c 9fbb f13c ae77 cfbc
000002a0: 27a6 ee3b 7c94 c9bc 8ea0 d73b 0738 a13c
000002b0: c673 453b 8360 acbc a720 173c 4ae4 c33c
000002c0: 7d62 763c 5c4e 63bc f308 adbc 2eeb e53c
000002d0: 73ff a73c a56c 66bc 5abd 23bb 01d2 493a
000002e0: d5f5 ca3c dbc8 923c b7d1 18bd c768 65bc
000002f0: 4c0c d23c 28e2 51bb d22a cfbc 02bd 18bd
00000300: bc10 cbbb b43a fc3c e5e2 c7bc a7cb 863b
00000310: 2ced edbc df0c 423c 4376 823c 54b9 a9bc
00000320: 0f13 a93c 0285 95bc 7773 f73c fd9e 3c3c
00000330: d8f3 bc3b 35a3 053d 7836 b33b ee00 013b
00000340: ba28 10bc 1491 033c fb07 5a3c 7661 0e3d
00000350: 0a35 a23b 4a38 0cbc 3a66 8b3c d70a 2b3b
00000360: a6ad 163d 2cf2 db3c 2c4f e03b bb75 1239
00000370: ce14 96bc 5105 1c3d e842 d83c cc49 223d
00000380: da79 623c 60a9 efbb 2147 f7bc a0b8 1f3b
00000390: 4df9 f3bc 0dcf ab3c 86d9 3bbd c6d9 fbbc
000003a0: 7429 9ebc 0256 823c 1577 bf3c 35c4 90bc
000003b0: 377f 393b f8ca 2bbd 6f3e f2bc 91d7 1ebd
000003c0: c8ac 183c 3b39 efbc 80af 01bc e93a 00bc
000003d0: 6e9f 97bc 8b7d 813c 3806 32bd 374b 22bd
000003e0: 9e29 97bc bdc6 b4bc 9f7d 25bd 1a47 09bd
000003f0: d479 ebbc b098 563c d398 6c3c 17bc 083c

bias f4 [32]
-0.002685561 -0.039373852 -0.029416826 -0.044686135 0.025713611 -0.012103624 -0.03495305 -0.019375846
-0.0048363893 0.012211369 -0.021646887 -0.021989422 0.026603088 -0.040400647 -0.025977453 -0.016266905
0.015607899 -0.05220213 -0.032713264 0.01231129 0.020946147 -0.06354955 -0.007626463 -0.0073123747
-0.0035235733 -0.04963242 -0.019666262 0.010389246 0.040287517 -0.047395226 -0.0023526833 0.018835679
00000000: 3d00 30bb 7a46 21bd 8efb f0bc cf08 37bd
00000010: 5aa5 d23c 474e 46bc ee2a 0fbd 18ba 9ebc
00000020: 937a 9ebb 3212 483c d054 b1bc 2923 b4bc
00000030: b8ee d93c 267b 25bd abce d4bc 2c42 85bc
00000040: 46b8 7f3c e7d1 55bd 58fe 05bd 4bb5 493c
00000050: 4197 ab3c 4426 82bd 69e7 f9bb a59c efbb
00000060: c0eb 66bb 5d4b 4bbd 241b a1bc a837 2a3c
00000070: 8604 253d 7f21 42bd 7a2f 1abb 484d 9a3c

weight f4 [64, 32, 5, 5]
-0.010898291 0.013867754 -0.019887803 0.004796121 0.012961359 -0.020030126 0.0009887865 0.0023752407
-0.002185134 0.000494886 -0.013007258 0.018693732 -0.018643163 0.030333092 0.03446036 -0.028748684
0.01851012 -0.011457343 -0.030158592 0.0013881266 -0.00047456298 0.015545174 -0.009613594 0.017461937
-0.027002128 0.0069162445 -0.0055738618 0.045798 0.017347125 0.0154371895 0.011086716 -0.024511589
0.01515764 0.018832764 0.009141502 -0.025668817 -0.038403764 -0.022291344 0.005634101 -0.0061882725
0.03290081 0.005944368 -0.021236137 -0.005674131 0.019920941 0.023814013 -0.023522507 -0.034993745
0.030712482 0.017692694 0.019488022 0.031977244 -0.014030246 0.003707709 0.02653221 -0.0011438691
-0.016170492 -0.005679375 -0.01860099 0.031054726 0.025284426 0.02349396 -0.021123447 -0.025745347
0.026576309 -0.027027646 0.010149089 0.03224609 -0.020081732 0.022056948 -0.0072897784 0.0078887595
0.016975937 -0.0018001331 -0.035946697 0.022019371 0.021517547 -0.020240992 -0.024439806 0.01847792
0.00787513 -0.0229687 0.016090762 0.03490495 -0.006153451 0.010182951 0.020992268 0.04571096
0.0063746106 0.030218119 0.018586619 0.020382844 -0.03048626 -0.025276868 0.014562236 -0.033838708
0.016595932 0.027983628 0.0034151087 -0.014889568 0.00017281948 -0.0026080653 0.021136343 0.010428006
-0.0020683089 0.012791478 0.015845053 0.016747756 0.025768083 0.02727337 -0.016835725 -0.020994384
0.022659913 -0.011930776 0.008856517 -0.03435316 0.0050903168 -0.030377515 -0.033412598 -0.0070056184
0.008211056 -0.02257074 0.028382393 0.0067486186 0.014852652 -0.026497506 -0.02973762 -0.037974585
-0.035568554 -0.026557028 -0.013158448 -0.031352866 0.02739531 0.016601542 -0.007676839 -0.023756778
0.008847748 -0.026029002 0.021331858 -0.0060305796 -0.019797554 0.012555845 -0.027585609 0.029101286
-0.037890505 -0.031603266 0.034316983 0.025172006 -0.021839138 -0.013116669 -0.009780053 0.037190564
0.021444451 0.021721218 -0.0063829524 0.01158922 0.04059961 0.045529768 0.042454474 0.04406345
0.023616295 0.05278415 0.046137996 0.034361627 0.04363327 -0.0065081157 -0.005321979 0.017125743
0.029417131 0.02722251 0.007767322 0.010025135 -0.025595881 0.029243914 -0.031031908 0.0002830888
0.0007482668 0.008431502 -0.026488261 0.007240256 0.03999845 -0.009981852 -0.014094024 0.008634787
-0.020394817 0.0136627415 0.029094582 -0.004524069 -0.010583505 -0.017073143 -0.00949237 -0.021930585
-0.007114749 -0.0032324963 0.01648208 -0.034348343 -0.027987227 0.033039436 -0.0011541023 -0.0013267646
0.0017828534 0.042647805 0.00446562 0.045363296 -0.00045599887 0.02369934 -0.0152823655 -0.01567086
0.04443514 -0.010628359 0.033296775 -0.010458877 0.04012308 0.029700926 0.004193065 -0.0028074095
0.019767595 -0.016301338 -0.021363718 0.0059824795 -0.021888854 0.022706576 -0.015250224 -0.030873194
-0.009518638 -0.01338044 -0.013701915 0.024148999 0.017096823 -0.024869746 0.033473242 -0.024472332
-0.011384342 -0.036271226 -0.015913365 0.015843207 -0.021397904 0.032620538 0.0043532383 0.03795008
-0.022138393 0.0064990856 -0.0013523247 0.006046107 0.033294823 0.012013271 -0.028672032 -0.01469736
0.014489317 -0.0019330702 0.012959762 -0.018017543 0.03478871 0.0013158116 -0.010158914 0.0039249673
00000000: bf8e 32bc 9335 633c bfeb a2bc c728 9d3b
00000010: e15b 543c 3816 a4bc 2b9a 813a eda9 1b3b
00000020: 7734 0fbb 3dbb 013a 651c 55bc 9923 993c
00000030: 8cb9 98bc 1b7d f83c 4e26 0d3d 5c82 ebbc
00000040: 89a2 973c 94b7 3bbc 270f f7bc cdf1 b53a
00000050: c4ce f8b9 2fb1 7e3c 5682 1dbc 560c 8f3c
00000060: 9133 ddbc aaa1 e23b f1a4 b6bb af96 3b3d
00000070: 8f1b 8e3c 44ec 7c3c 0fa5 353c 87cc c8bc
00000080: c057 783c 2b47 9a3c 3dc6 153c 6947 d2bc
00000090: 444d 1dbd 569c b6bc 449e b83b fec6 cabb
000000a0: 00c3 063d f9c8 c23b 68f7 adbc 10ee b9bb
000000b0: 3e31 a33c 9b15 c33c 46b2 c0bc 9a55 0fbd
000000c0: be98 fb3c 45f0 903c 58a5 9f3c 92fa 023d
000000d0: 1edf 65bc 09fd 723b 145a d93c e1ed 95ba
000000e0: fb77 84bc 0d1a babb 1a61 98bc 7b66 fe3c
000000f0: 4921 cf3c 6876 c03c 140b adbc e8e7 d2bc
00000100: 8fb6 d93c 1569 ddbc 5d48 263c 7a14 043d
00000110: 7282 a4bc c6b0 b43c 18df eebb db3f 013c
00000120: 1f11 8b3c 72f2 ebba d83c 13bd f861 b43c
00000130: 9145 b03c 70d0 a5bc fd35 c8bc 025f 973c
00000140: b006 013c db28 bcbc c6d0 833c 7ef8 0e3d
00000150: e3a2 c9bb 64d6 263c faf7 ab3c 6a3b 3b3d
00000160: 1ce2 d03b fd8b f73c f742 983c ecf9 a63c
00000170: 52be f9bc 6f11 cfbc 7296 6e3c 759a 0abd
00000180: 31f4 873c ec3d e53c 04d0 5f3b 60f3 73bc
00000190: e036 3539 13ec 2abb 2026 ad3c 3ada 2a3c
000001a0: 778c 07bb 5993 513c 7ccd 813c 9732 893c
000001b0: 9617 d33c 676c df3c 13eb 89bc 6afc abbc
000001c0: 48a1 b93c 4d79 43bc ed1a 113c e6b5 0cbd
000001d0: accc a63b 44da f8bc a6db 08bd 638f e5bb
000001e0: aa87 063c 46e6 b8bc 3182 e83c 8423 dd3b
000001f0: 8a58 733c 4c11 d9bc 4f9c f3bc 3d8b 1bbd
00000200: 55b0 11bd 208e d9bc 8896 57bc dd6b 00bd
00000210: 216c e03c f5ff 873c fe8d fbbb 939d c2bc
00000220: 25f6 103c c63a d5bc 26c0 ae3c 2b9c c5bb
00000230: 7b2e a2bc 08b7 4d3c 37fb e1bc d265 ee3c
00000240: 1333 1bbd 6d72 01bd f78f 0c3d 8635 ce3c
00000250: fee7 b2bc 4ce7 56bc 843c 20bc 2255 183d
00000260: 46ac af3c b2f0 b13c 1628 d1bb b6e0 3d3c
00000270: c74b 263d 6c7d 3a3d bee4 2d3d e07b 343d
00000280: f676 c13c 3134 583d 32fb 3c3d c7be 0c3d
00000290: cdb8 323d 0842 d5bb ff63 aebb 494b 8c3c
000002a0: 32fc f03c be01 df3c 0585 fe3b 7740 243c
000002b0: 74ae d1bc ef90 ef3c a136 febc 896b 9439
000002c0: 5627 443a 4824 0a3c e9fd d8bc ab3f ed3b
000002d0: 6ad5 233d ec8a 23bc 9fea 66bc ec78 0d3c
000002e0: 0813 a7bc b1d9 5f3c c357 ee3c a43e 94bb
000002f0: 7066 2dbc fadc 8bbc e385 1bbc c5a7 b3bc
00000300: d722 e9bb 4ad8 53bb 6d05 873c d9b0 0cbd
00000310: 7845 e5bc 5c54 073d 3f45 97ba d5e6 adba
00000320: a2ae e93a 77af 2e3d 5654 923b ddce 393d
00000330: 2213 efb9 1e25 c23c e362 7abc 2d60 80bc
00000340: 9f01 363d 9222 2ebc 3362 083d b65b 2bbc
00000350: 1958 243d 5b4f f33c fb65 893b 84fc 37bb
00000360: a7ef a13c 628a 85bc f702 afbc ad08 c43b
00000370: 4150 b3bc 2403 ba3c 13dc 79bc c8e9 fcbc
00000380: 10f4 1bbc a239 5bbc ff7d 60bc 1fd4 c53c
00000390: a30e 8c3c a3bb cbbc 3d1b 093d 337a c8bc
000003a0: 6485 3abc 2391 14bd bf5c 82bc 9dc9 813c
000003b0: a84a afbc 1d9d 053d 9ca5 8e3b 8b71 1b3d
000003c0: 935b b5bc 48f6 d43b 7d40 b1ba 6c1e c63b
000003d0: 2760 083d 50d3 443c 9ce1 eabc 32cd 70bc
000003e0: 9a64 6d3c 135f fdba 2e55 543c 8799 93bc
000003f0: 9b7e 0e3d 5077 ac3a 9371 26bc 039d 803b

bias f4 [64]
-0.04346567 -0.037425764 0.011961528 -0.00906069 -0.021276947 0.012934468 -0.010110862 0.02651291
-0.0062465663 -0.0049995044 -0.030035995 0.020425145 -0.003733472 -0.030890357 -0.039953962 0.035937037
-0.026916577 0.021958703 -0.038455036 -0.027646404 0.026860101 -0.029482715 0.027091589 0.010179619
0.029105734 -0.011952531 0.029851587 0.0115449065 -0.014894775 0.027133724 0.020784955 0.0024513835
-0.024742002 0.01375143 -0.020605525 -0.013525229 -0.009702426 -0.03498347 -0.042884346 0.036305655
0.027446564 -0.015955955 0.039271962 -0.0051591885 -0.020516483 0.0125267515 0.038471714 -0.021404
0.0306745 0.02228203 -0.028817277 -0.016999856 0.007209332 -0.009371702 0.0049197087 0.029932177
0.03567349 -0.02010103 0.0065510096 -0.017093644 -0.012338279 -0.0080577405 -0.014406764 0.017706187
00000000: 0f09 32bd c24b 19bd 49fa 433c 4a73 14bc
00000010: fe4c aebc 17eb 533c 07a8 25bc 9a31 d93c
00000020: ffaf ccbb e2d2 a3bb 0c0e f6bc a252 a73c
00000030: 44ad 74bb c60d fdbc c4a6 23bd b732 133d
00000040: 2780 dcbc bde2 b33c 0783 1dbd b67a e2bc
00000050: b709 dc3c bc85 f1bc 2eef dd3c 6bc8 263c
00000060: 266f ee3c 8cd4 43bc 518b f43c d926 3d3c
00000070: 3709 74bc 8b47 de3c 3645 aa3c 64a7 203b
00000080: bdaf cabc ae4d 613c ebcc a8bc ec98 5dbc
00000090: edf6 1ebc d44a 0fbd 7fa7 2fbd 3db5 143d
000000a0: 9ed7 e03c 10b6 82bc a3db 203d 690e a9bb
000000b0: 2f12 a8bc 013d 4d3c 8494 1d3d 7157 afbc
000000c0: 1749 fb3c ce88 b63c 3612 ecbc 4843 8bbc
000000d0: 433c ec3b c48b 19bc 8235 a13b 5334 f53c
000000e0: 5e1e 123d eaaa a4bc daa9 d63b f807 8cbc
000000f0: 7e26 4abc 9d04 04bc 590a 6cbc 910c 913c

weight f4 [64, 1024]
-0.017694682 0.004271044 -0.016031945 -0.0035847365 -0.016009673 -0.0008099444 -0.020475788 -0.0261648
-0.013777377 0.0010192645 -0.03399552 0.02692893 -0.03080762 0.0023032136 0.020150289 -0.0063176085
0.006352763 -0.021106381 0.008635738 -0.020592714 -0.02993122 0.006846013 0.013182596 0.01691092
0.007591215 -0.030180138 -0.008416052 0.013420319 -0.022490416 0.013543168 0.01299224 0.012374699
-0.011350441 0.02602383 -0.02247507 0.0128875915 0.012993264 -0.018123753 0.027361933 0.0072233807
-0.010484496 -0.012242299 -0.00920008 -0.012871831 -0.02073065 -0.030712763 0.018785687 0.024422238
0.0152695915 -0.018665913 0.024133313 -0.028040066 0.019865585 0.008292286 -0.0058993776 0.030870672
0.019187255 0.019088795 -0.029936232 -0.007924347 0.0117588295 0.017878413 0.010525485 0.03311179
0.025964849 0.0035805618 -0.0069091343 0.023100033 -0.011084075 -0.020821078 -0.009810674 -0.0142126605
1.9446337e-05 -0.007971972 -0.003853203 0.013719866 0.012637559 -0.02668131 -0.026813786 -0.02471325
-0.0014194817 -0.0036015103 0.009218175 0.017970588 -0.025823636 0.025783619 0.029052107 -0.013185795
0.02197996 -0.0028661273 -0.0077228895 0.020411698 0.003064695 0.02302543 -0.012798769 -0.012106999
-0.023836259 9.667966e-05 -0.022977022 -0.014891348 -0.025770465 0.035084073 0.020351352 0.0030972825
-0.02957452 0.024520215 0.030237459 0.007850453 -0.029183753 -0.020631418 -0.0223853 0.026925841
-0.0092729535 -0.014679068 -0.022413665 0.00085009355 0.018565908 0.031473767 -0.018218916 0.025426216
-0.0118226595 -0.016351204 -0.023934562 -0.02815597 0.030573122 -0.024086421 0.007024563 0.021225082
0.0051524616 0.028894043 -0.008518071 0.004793896 -0.0022043565 -0.004602545 0.028209336 -0.020359606
0.016788304 -0.02945247 0.012259916 -0.021000635 0.022957373 -0.018250724 0.010967106 0.0033353164
0.031295996 0.022182189 -0.008760503 -0.011452475 0.0034312857 -0.013939987 -0.0024673438 0.032294363
0.007146236 -0.0023095172 -0.009345931 -0.023579016 0.023946699 0.0018991554 -0.024219194 0.021295635
0.013567655 0.028501581 0.011766652 -0.0075482465 -0.013213625 -0.020156927 -0.0055189924 0.023001224
-0.010415134 0.014149706 0.024320737 0.0044488395 -0.024442803 0.0007494864 -0.017771283 0.011687933
-0.010793844 0.010720504 -0.021078285 0.017013133 0.029528081 0.011767719 0.027368208 0.023143753
-0.020747747 0.030198097 0.037763197 0.021962985 -0.024400102 0.009046113 0.024004247 0.0058959736
-0.017042361 0.02811075 0.03096356 -0.005140819 -0.026462412 -0.01627317 -0.017392322 -0.017269928
-0.019988762 -0.001525338 -0.015187668 -0.02996613 0.007009509 0.0023412406 -0.024153424 -0.0052823382
0.014355979 -0.024506532 0.0001680764 -0.003996692 -0.023221496 0.017334675 -0.014875354 0.023934681
-0.0216511 0.010670574 0.0055424413 -0.007974823 0.0014873209 -0.01331365 -0.00144183 0.029212218
-0.020251766 -0.013617206 -0.025418498 -0.021096429 0.023906143 0.02202523 -0.017788488 -0.025062416
0.02640864 -0.014944408 0.026020749 -0.00079949445 0.017138924 -0.00930804 0.01136794 0.023955721
-0.01959054 0.02314506 0.029284963 0.011302063 0.008207128 -0.019316617 -0.011774329 0.009122564
-0.0055531138 -0.022333935 -0.024552664 -0.0032777074 -0.003356019 0.025196876 0.011600329 -0.018860081
00000000: 70f4 90bc 1df4 8b3b 6d55 83bc e6ed 6abb
00000010: b826 83bc 7352 54ba d7bc a7bc 9057 d6bc
00000020: 82ba 61bc d798 853a e33e 0bbd 0f9a dc3c
00000030: 4360 fcbc 83f1 163b 3812 a53c f103 cfbb
00000040: d72a d03b 4ae7 acbc e97c 0d3c 0db2 a8bc
00000050: 5132 f5bc 8554 e03b d1fb 573c c588 8a3c
00000060: babf f83b 563c f7bc 7be3 09bc e6e0 5b3c
00000070: d23d b8bc 2ae4 5d3c 67dd 543c 40bf 4a3c
00000080: 33f7 39bc ed2f d53c a31d b8bc 7a26 533c
00000090: b3e1 543c 4478 94bc 2226 e03c 1cb2 ec3b
000000a0: 2ac7 2bbc ec93 48bc efbb 16bc 5fe4 52bc
000000b0: 53d3 a9bc 5599 fbbc 71e4 993c 2511 c83c
000000c0: 4f2d 7a3c 42e9 98bc 3ab3 c53c 48b4 e5bc
000000d0: 27bd a23c 5edc 073c 914f c1bb 7ee4 fc3c
000000e0: 972e 9d3c 1b60 9c3c d43c f5bc 1fd5 01bc
000000f0: 1ba8 403c c075 923c 1573 2c3c 3aa0 073d
00000100: 3cb4 d43c dca7 6a3b 0566 e2bb 483c bd3c
00000110: fb99 35bc f790 aabc f3bc 20bc 38dc 68bc
00000120: b120 a337 e09c 02bc 0586 7cbb 4ac9 603c
00000130: c40d 4f3c c392 dabc 96a8 dbbc 7173 cabc
00000140: e70d baba 5107 6cbb d407 173c 0e37 933c
00000150: 178c d3bc 2b38 d33c affe ed3c 3c09 58bc
00000160: 510f b43c a3d5 3bbb 4b10 fdbb 6f36 a73c
00000170: 0dd9 483b d49f bc3c eeb1 51bc 6f5c 46bc
00000180: 4244 c3bc 7fc0 ca38 4f3a bcbc d7fa 73bc
00000190: 951c d3bc 51b4 0f3d e1b7 a63c c7fb 4a3b
000001a0: 4446 f2bc 9ede c83c 8cb4 f73c 309f 003c
000001b0: c412 efbc 3803 a9bc 6061 b7bc 9593 dc3c
000001c0: 96ed 17bc 7980 70bc dd9c b7bc d0d8 5e3a
000001d0: 8817 983c a3ea 003d d63f 95bc a44a d03c
000001e0: d4b3 41bc f6f2 85bc 6a12 c4bc 59a7 e6bc
000001f0: 7c74 fa3c e350 c5bc 4e2e e63b 39e0 ad3c
00000200: fbd5 a83b 33b3 ec3c 618f 0bbc 1d16 9d3b
00000210: f776 10bb f2d0 96bb 4417 e73c 30c9 a6bc
00000220: a087 893c 4e46 f1bc d1dd 483c 8609 acbc
00000230: 1a11 bc3c 8b82 95bc 60af 333c 5395 5a3b
00000240: 3b30 003d 6cb7 b53c 3688 0fbc 29a3 3bbc
00000250: 6cdf 603b 8b64 64bc 29b3 21bb 1847 043d
00000260: f92a ea3b 455b 17bb ad1f 19bc c828 c1bc
00000270: de2b c43c 15ed f83a 5567 c6bc 2f74 ae3c
00000280: df4a 5e3c 267c e93c eac8 403c 4857 f7bb
00000290: f67d 58bc 2420 a5bc aad8 b4bb 106d bc3c
000002a0: 3da4 2abc 2bd4 673c 483c c73c 92c7 913b
000002b0: 463c c8bc 2e79 443a 1595 91bc be7e 3f3c
000002c0: aad8 30bc 0ea5 2f3c 5eac acbc 205f 8b3c
000002d0: e0e4 f13c 64cd 403c 4b33 e03c f897 bd3c
000002e0: 2ef7 a9bc 0062 f73c 95ad 1a3d b8eb b33c
000002f0: b9e2 c7bc 2636 143c 8ea4 c43c 0333 c13b
00000300: 6c9c 8bbc 8448 e63c 4ba7 fd3c 5174 a8bb
00000310: b3c7 d8bc 504f 85bc 587a 8ebc aa79 8dbc
00000320: 79bf a3bc daed c7ba b2d5 78bc 887b f5bc
00000330: 06b0 e53b 806f 193b 67dd c5bc 7717 adbb
00000340: 5735 6b3c ecc1 c8bc aa3d 3039 aff6 82bb
00000350: 023b bebc 7301 8e3c c2b7 73bc aa12 c43c
00000360: a65d b1bc a2d3 2e3c 5e9d b53b d5a8 02bc
00000370: 35f2 c23a 7f21 5abc c9fb bcba 764e ef3c
00000380: 08e7 a5bc b41a 5fbc 743a d0bc 6bd2 acbc
00000390: d1d6 c33c 416e b43c 2ab9 91bc b24f cdbc
000003a0: ef56 d83c 64d9 74bc 7729 d53c 2a95 51ba
000003b0: ee66 8c3c c080 18bc 9940 3a3c ca3e c43c
000003c0: 577c a0bc b59a bd3c 05e7 ef3c 4a2c 393c
000003d0: 3177 063c e23d 9ebc 1de9 40bc cf76 153c
000003e0: e5f6 b5bb a8f5 b6bc ab22 c9bc cece 56bb
000003f0: a8f0 5bbb ae69 ce3c 4e0f 3e3c 7580 9abc

bias f4 [64]
-0.025451744 -0.012816605 0.021244455 -0.007564807 0.014667695 0.038657133 -0.036771156 -0.015505411
0.0076774783 0.018662076 -0.009864659 0.002125666 0.034748346 -0.03097331 0.0047521763 0.009326547
0.0054149805 0.0002376007 0.016726527 -0.037901342 -0.022350868 0.021474661 0.01879521 0.0070352918
0.0076625333 -0.009450112 0.008738576 0.0035114416 -0.009698467 -0.016857896 -0.0014248964 0.015667131
0.038545664 -0.016828682 -0.0074023614 -0.03577191 -0.0025343627 -0.0401959 0.027000867 0.025405414
0.015095674 -0.021177756 -0.025828952 0.018173326 0.00046076733 0.025979519 0.026862156 -0.03215507
0.0046239765 0.02538861 -0.03501588 0.029289737 0.0031927445 -0.026016833 -0.014201035 -0.013265307
-5.313016e-05 -0.019365156 -0.00373723 -0.031557728 0.035779268 -0.02173789 -0.030465633 0.006119291
00000000: 2d80 d0bc bdfc 51bc da08 ae3c 33e2 f7bb
00000010: c650 703c f156 1e3d 5a9d 16bd 680a 7ebc
00000020: 5b93 fb3b 36e1 983c 619f 21bc c24e 0b3b
00000030: 4854 0e3d bdbb fdbc 25b8 9b3b 60ce 183c
00000040: 2670 b13b 7424 7939 1206 893c 703e 1bbd
00000050: 2b19 b7bc a1eb af3c 6af8 993c 4e88 e63b
00000060: fd15 fb3b a4d4 1abc 3f2c 0f3c 3720 663b
00000070: 52e6 1ebc 9219 8abc 97c3 baba 5b58 803c
00000080: 0fe2 1d3d 4edc 89bc 828f f2bb 9185 12bd
00000090: 8d17 26bb 75a4 24bd ec30 dd3c 041f d03c
000000a0: d953 773c f97c adbc 3d97 d3bc 3ae0 943c
000000b0: 2593 f139 00d3 d43c 060e dc3c 09b5 03bd
000000c0: ba84 973b c6fb cf3c d06c 0fbd 08f1 ef3c
000000d0: 5d3d 513b 4121 d5bc 75ab 68bc bb56 59bc
000000e0: 13d8 5eb8 ada3 9ebc 51ec 74bb ad42 01bd
000000f0: 488d 123d a913 b2bc 1093 f9bc 5584 c83b

weight f4 [10, 64]
0.018414218 -0.13207032 0.116094105 -0.059930224 -0.0521356 -0.0623167 -0.0645961 0.04692701
0.022151744 0.124655016 0.0075641056 -0.14844243 0.034336846 0.049788002 -0.03792614 0.0775648
-0.076196864 0.054247834 0.12184919 0.10690298 0.014583963 -0.046395645 0.12456427 0.061225757
-0.0033418084 -0.05763016 -0.059016295 -0.012877836 0.029083489 0.019162655 -0.027657565 0.08646417
-0.008341238 0.093363866 0.05567972 0.10754661 0.15329231 -0.046332855 0.07145862 -0.14064176
-0.035019275 -0.059064284 0.08642142 0.021840485 -0.15935363 -0.053357214 0.04624311 -0.09993016
-0.05297486 -0.06507012 0.017804641 0.085527316 -0.09701017 0.014395465 0.012152524 -0.064030744
-0.06891057 -0.14696701 -0.1398884 0.113496296 -0.12056001 0.113872275 0.09913036 0.13902208
-0.06498072 0.09593989 -0.0908661 -0.13497809 -0.07115496 0.091696225 -0.06481031 -0.15207632
-0.06872858 -0.029445963 0.12404566 0.1085053 -0.031065194 0.01602572 -0.1319377 -0.06476493
-0.08895318 -0.066835016 0.07444282 -0.029825574 0.009364479 -0.09564821 -0.11484521 0.01962024
0.13630004 -0.03720737 0.028444823 -0.082240745 0.17031793 -0.08347918 0.10392483 0.07904798
0.024286147 0.04746458 0.16587189 -0.057813138 -0.078945905 0.052624226 0.12900239 -0.13449381
0.11331284 -0.037290655 -0.03365716 0.060031492 -0.12623411 -0.140108 -0.08881896 0.07082855
0.014637143 0.09081066 -0.14085673 0.13307016 -0.124571435 -0.04533885 -0.1345931 0.050669666
0.07742657 0.05249317 0.01145511 -0.05149657 0.08291044 0.12653364 0.12631273 -0.11010165
0.09780397 0.04580521 0.10708982 0.027554763 -0.08511252 -0.08190602 -0.016211977 -0.101823695
-0.05685008 0.14286362 -0.13386714 0.06521009 0.14256184 -0.12130233 -0.090923384 0.067218706
0.036174648 -0.010113203 -0.14290151 -0.05065764 0.102047175 -0.08776297 0.039379235 -0.0019021457
-0.13566701 -0.084474295 0.13711648 0.0929781 -0.15090814 -0.108756475 -0.15180641 -0.091712594
0.027840413 0.06827618 -0.048857287 0.055842966 0.08167616 -0.14836279 0.117487885 0.025735626
-0.055860545 -0.12880072 -0.006804786 0.05017036 0.041999567 0.11495734 -0.14263807 -0.1449643
-0.025452342 -0.088511035 0.018168038 0.12316727 0.07937875 0.0059836353 -0.10866566 0.05974402
-0.008711376 0.052895214 0.12010342 0.13574958 0.025820712 0.061119307 0.0037691386 0.12984316
0.06624824 0.08703158 -0.12284961 -0.110458486 -0.08393456 0.07195389 0.12127138 0.04835185
-0.14236234 0.03560971 0.08278219 0.039500825 0.0003845402 -0.13392735 0.048926406 0.058061615
0.15073243 0.017073967 0.012954622 0.11315626 -0.045176253 0.08537878 0.09133988 -0.0038572096
-0.12605572 0.014251137 0.09688847 -0.09360539 -0.02969749 0.14873537 -0.10615639 0.10439794
-0.12986512 0.1270681 -0.08852185 -0.066108346 -0.08877555 -0.014172408 0.09524806 0.0322246
-0.022682017 0.1134987 0.12106284 0.014155181 0.15933616 0.03255639 -0.04261366 -0.095212765
0.07950922 -0.018528271 0.09245597 0.1502379 -0.07653827 -0.015318051 -0.004499145 -0.06608294
0.011689004 0.031487938 -0.024671836 -0.082411535 -0.006818181 -0.11742951 -0.034493905 0.0904378
00000000: 6ad9 963c 713d 07be bfc2 ed3d 6579 75bd
00000010: 248c 55bd cc3f 7fbd f64a 84bd 8936 403d
00000020: 9377 b53c 214b ff3d 51dc f73b 4b01 18be
00000030: cba4 0c3d 81ee 4b3d 7158 1bbd 4bda 9e3d
00000040: 1a0d 9cbd fa32 5e3d 118c f93d f3ef da3d
00000050: 93f1 6e3c 5c09 3ebd 8d1b ff3d dcc7 7a3d
00000060: 3e02 5bbb 9a0d 6cbd 12bb 71bd 8ffd 52bc
00000070: 7f40 ee3c 00fb 9c3c 1e92 e2bc 2014 b13d
00000080: b0a9 08bc 8e35 bf3d 6b10 643d 6641 dc3d
00000090: a9f8 1c3e 85c7 3dbd e658 923d 6504 10be
000000a0: 5f70 0fbd 64ed 71bd b7fd b03d d1ea b23c
000000b0: 992d 23be 188d 5abd 6a69 3d3d 2fa8 ccbd
000000c0: 2bfc 58bd 7c43 85bd 0adb 913c f228 af3d
000000d0: 45ad c6bd f5da 6b3c 611b 473c 8d22 83bd
000000e0: fc20 8dbd 857e 16be e83e 0fbe bf70 e83d
000000f0: 2be8 f6bd de35 e93d dc04 cb3d ce5b 0e3e
00000100: 9d14 85bd 227c c43d 0118 babd b237 0abe
00000110: b1b9 91bd 3bcb bb3d 45bb 84bd e5b9 1bbe
00000120: 92c1 8cbd a938 f1bc a70b fe3d 0738 de3d
00000130: 6f7c febc 5f48 833c ad1a 07be 7aa3 84bd
00000140: 162d b6bd cce0 88bd 7a75 983d c354 f4bc
00000150: 796d 193c 35e3 c3bd f733 ebbd a0ba a03c
00000160: 3d92 0b3e c166 18bd 1e05 e93c d66d a8bd
00000170: d367 2e3e 22f7 aabd 8bd6 d43d e8e3 a13d
00000180: bef3 c63c 386a 423d 52da 293e 78cd 6cbd
00000190: 64ae a1bd 808c 573d 3419 043e bfb8 09be
000001a0: 9010 e83d 16be 18bd 17dc 09bd 95e3 753d
000001b0: 8443 01be 7978 0fbe b7e6 b5bd 8f0e 913d
000001c0: a1d0 6f3c f0fa b93d bf3c 10be 8b43 083e
000001d0: 4f1f ffbd 3bb5 39bd c6d2 09be ff8a 4f3d
000001e0: d291 9e3d 1403 573d 37ae 3b3c 11ee 52bd
000001f0: f3cc a93d 0992 013e 2058 013e f97c e1bd
00000200: 734d c83d 3e9e 3b3d e851 db3d 87ba e13c
00000210: 794f aebd 58be a7bd fbce 84bc f188 d0bd
00000220: a1db 68bd d74a 123e 7814 09be de8c 853d
00000230: bbfb 113e 5b6d f8bd 0a36 babd f6a9 893d
00000240: de2b 143d d9b1 25bc c654 12be 637e 4fbd
00000250: 1cfe d03d 12bd b3bd 1f4c 213d 6b51 f9ba
00000260: 4bec 0abe dc00 adbd 4368 0c3e 4d6b be3d
00000270: aa87 1abe b7bb debd 2473 1bbe d0d3 bbbd
00000280: 9411 e43c 62d4 8b3d 941e 48bd 98bb 643d
00000290: d545 a73d 6aec 17be 7d9d f03d 85d3 d23c
000002a0: 07ce 64bd 56e4 03be affa debb 6f7f 4d3d
000002b0: bd07 2c3d c16e eb3d b70f 12be 8571 14be
000002c0: 6e81 d0bc 4645 b5bd 23d5 943c 1f3f fc3d
000002d0: 5391 a23d 5f12 c43b 1a8c debd 25b6 743d
000002e0: 29ba 0ebc a7a8 583d c8f8 f53d f001 0b3e
000002f0: f585 d33c 3d58 7a3d a703 773b 9bf5 043e
00000300: 28ad 873d 9d3d b23d 9498 fbbd 0f38 e2bd
00000310: e2e5 abbd 905c 933d 215d f83d 970c 463d
00000320: 6fc7 11be 7ddb 113d b589 a93d 9ecb 213d
00000330: 1d9c c939 4024 09be 0e67 483d 04d2 6d3d
00000340: 9a59 1a3e b4de 8b3c 9f3f 543c 78be e73d
00000350: bc0a 39bd 12db ae3d 6710 bb3d 3dc9 7cbb
00000360: c014 01be 9a7d 693c 766d c63d 2fb4 bfbd
00000370: 2748 f3bc 164e 183e 8568 d9bd 96ce d53d
00000380: 5dfb 04be 241e 023e f24a b5bd d063 87bd
00000390: f5cf b5bd 6333 68bc 6a11 c33d f1fd 033d
000003a0: a3cf b9bc 0272 e83d cbef f73d 22eb 673c
000003b0: 0529 233e d959 053d a98b 2ebd e9fe c2bd
000003c0: bbd5 a23d 9ac8 97bc 8e59 bd3d f7d7 193e
000003d0: 19c0 9cbd 90f8 7abc 906d 93bb 7e56 87bd
000003e0: 3c83 3f3c 7ff9 003d 971c cabc 61c7 a8bd
000003f0: 0c6b dfbb e27e f0bd 7b49 0dbd 7437 b93d

bias f4 [10]
-0.097363256 -0.085140064 -0.01564826 0.06633035 0.0107625555 0.008746955 -0.0645674 -0.10302256
0.008940016 -0.10078291
00000000: 6366 c7bd ea5d aebd c830 80bc 35d8 873d
00000010: 6e55 303c 634f 0f3c ea3b 84bd 7efd d2bd
00000020: 2579 123c 4567 cebd
